results/VB_1/Badminton.onnx (onnx, 299422 bytes, 15 tensors)

discrete_act_size_vector f4 [1, 4]
000000 00 00 40 40 00 00 40 40 00 00 40 40 00 00 00 40
       3.0 3.0 3.0 2.0

network_body.observation_encoder.processors.0.normalizer.running_mean f4 [11]
000000 1b a8 1f 3c a2 68 1b 3d 3b 76 b7 3e 8f ab 47 3e
       0.009744669 0.037941583 0.3583239 0.19499038
000010 f9 b9 0e 41 13 3f b3 3e 9b f0 90 bf 27 f7 96 3e
       8.9204035 0.3500906 -1.1323427 0.29485437
000020 99 49 92 c0 00 00 0c af 00 00 b8 ae
       -4.571484 -1.2732926e-10 -8.367351e-11

network_body._body_endoder.seq_layers.0.weight f4 [256, 11]
000000 85 ff 0c bf 00 e7 75 be c9 46 00 3e 79 1a ea bd
       -0.5507739 -0.24013901 0.12527002 -0.114308305
000010 61 61 19 bd ab dd 97 3b 4e a2 77 3d 04 c9 f3 be
       -0.037446383 0.004634579 0.06045752 -0.476143
000020 c0 84 03 3f 96 f6 a0 3c 10 c3 47 3e e5 8c cd 3d
       0.51374435 0.019648831 0.19508004 0.10036639
000030 d0 06 82 be c9 c8 a3 3e 62 f7 dd bd 24 a6 02 3d
       -0.25395823 0.31989124 -0.108382 0.031896725
000040 08 15 ed be 66 a6 fd be 77 5c 9d be f6 75 99 3d
       -0.46305108 -0.49541014 -0.30734608 0.074932024
000050 d1 a2 ac 3e 60 8b 83 be 45 23 96 3d 6a 29 e9 3c
       0.3371797 -0.25692272 0.07330946 0.02846213
000060 f6 a3 90 3e fb 84 6f be f6 d3 40 be bd 03 13 3e
       0.28250092 -0.23390572 -0.18830857 0.14356895
000070 8b 36 1e 3e 3d 53 2a be 94 ee 11 bf 47 6e db 3e
       0.15450494 -0.16633315 -0.57004666 0.42857572
000080 b4 76 c9 3d da 30 8b be 92 89 75 be 48 71 77 3d
       0.09837094 -0.27185708 -0.2397826 0.060410768
000090 26 62 8a bd a4 00 21 bf 5e 58 a9 3e b3 f2 b9 3e
       -0.067570016 -0.628916 0.3307523 0.36317977
0000a0 1b 2c 88 3e 84 c0 e6 3c 93 f6 21 be 56 18 9f be
       0.2659615 0.02816797 -0.15816717 -0.31073254
0000b0 e1 c5 e2 be 8f 60 e5 be 9a e4 62 3e d7 7c 36 3f
       -0.44291595 -0.4480023 0.22157517 0.7128424
0000c0 fd 6e 98 3e 00 05 88 3e b7 fd e3 be ef 41 b8 3e
       0.29772177 0.26566315 -0.44529507 0.35987803
0000d0 58 3f ec 3d dc c1 60 3d 86 e7 22 3e 53 dd ab be
       0.11535519 0.05487238 0.15908632 -0.33567294
0000e0 9a 6a 85 be 92 02 a2 3d 7a 76 4f 3e 2e d7 bd bd
       -0.26057893 0.079106465 0.20260039 -0.09269558
0000f0 68 05 12 bf e7 04 7a 3e 7a 3b 7b bd b8 16 0d be
       -0.570395 0.24415933 -0.06133602 -0.13778198
000100 a8 bd 7b 3e d9 0d cc bc b3 af 06 3e ed d2 39 3e
       0.24584067 -0.024908947 0.13152961 0.18146868
000110 c4 d0 02 bd 16 22 e3 bd 5d b7 e4 bd 60 f7 16 3f
       -0.031937376 -0.11090486 -0.11167786 0.58971214
000120 f7 06 8e 3d 79 e3 fb 3c 2f 2d 0b 3e b9 6b 07 3f
       0.06934922 0.030748116 0.13591455 0.52898747
000130 e7 29 c3 ba 37 d2 20 be da e6 25 3d 2e 17 3e bd
       -0.0014889807 -0.1570519 0.04050336 -0.046408825
000140 06 ce 07 bf 7a 9d 24 bd 19 a2 21 be 05 ec 0e 3e
       -0.5304874 -0.040189244 -0.15784492 0.13957222
000150 36 0e 4a 3e e9 5f 8d bb dd e3 10 3f 84 80 71 bc
       0.19731984 -0.004314412 0.5659769 -0.014740113
000160 6a 90 82 be 8e ba 9d 3d 6f ae 77 3e 2b a7 2d be
       -0.25500804 0.07701598 0.24187635 -0.16958301
000170 c5 49 10 3e 92 78 f2 3e b2 e7 dc 3d 78 45 03 3e
       0.14090641 0.47357613 0.1078638 0.12819469
000180 7d 3f d1 bd b3 0b 57 be a2 26 94 be e9 7f fd bc
       -0.102171876 -0.21000557 -0.28935724 -0.030944781
000190 dd aa c9 be 26 77 4d 3e e5 3f 2c 3e 1d 17 61 bd
       -0.3938817 0.20064983 0.16821249 -0.054953683
0001a0 48 8e fa 3d 81 dd 0b be 07 1a 2e 3e 28 b1 e2 be
       0.12234169 -0.13658716 0.17002116 -0.44275784
0001b0 07 74 a8 be 57 78 dc 3e 41 7c e1 3c 64 18 ce 3c
       -0.32901022 0.43060562 0.02752507 0.025158115
0001c0 9a 5b 81 3c 86 e1 07 be 54 af 15 3d 00 5d 3d 3e
       0.01579075 -0.13269624 0.03654416 0.18492508
0001d0 ec 51 56 bd 9f 63 82 3e f2 41 04 3e 43 44 c5 bd
       -0.05232422 0.2546663 0.12915781 -0.096321605
0001e0 49 83 e6 be ee a0 ab 3e 3a 53 e4 be 3c fb 69 be
       -0.45022038 0.33521217 -0.44594747 -0.22849745
0001f0 37 86 78 3e ab 0d 40 3e 50 7e 48 be 11 4a 63 be
       0.24269949 0.18755214 -0.19579434 -0.22196223
000200 0a 3c bf 3d 97 5b 8c be 1b c1 89 be 7f 8b f3 3d
       0.093376234 -0.27413628 -0.2690514 0.11891841
000210 41 2d a2 be e3 ae fd 3d 3a 42 94 3d fa 41 30 be
       -0.3167515 0.123868726 0.07239194 -0.17212668
000220 7a e2 c2 bd f4 56 96 be 5c 54 42 3f 9f 15 09 bd
       -0.09515853 -0.29363215 0.7590997 -0.033467885
000230 cf 64 11 3d 84 aa 7c be d7 48 b7 3e f9 b0 ac 3c
       0.03549653 -0.24674422 0.3579776 0.02108048
000240 d1 7a 87 3e 36 b0 80 3d 47 9a 0c 3e eb a7 33 bd
       0.2646089 0.062836096 0.13730727 -0.04386131
000250 d7 c7 96 be ed 2b 82 be cb b7 9a 3e 05 79 9d be
       -0.2944934 -0.25424138 0.30218348 -0.30756393
000260 6c 11 74 bd 9f d9 4c be f5 9f 1f bd 8e 23 25 bf
       -0.059586927 -0.20004891 -0.038970906 -0.6450738
000270 f8 6e 5d be 93 f7 31 bd 52 c5 f2 bd 6c 37 08 bf
       -0.21624362 -0.043448996 -0.11854042 -0.5320957
000280 bf 1f 9c 3d d5 03 04 3d 99 69 19 bf b1 fd 23 be
       0.076232426 0.032230217 -0.59926754 -0.16014744
000290 50 44 e6 bd 1e 1a a5 3d 3d 8b a7 3e 7c cc 05 3f
       -0.11243498 0.08061622 0.32723418 0.52265143
0002a0 b1 01 6a be a9 a2 47 3e 99 4b d1 be 3a f2 1b 3f
       -0.22852208 0.19495644 -0.4087799 0.60916483
0002b0 0f f8 c6 bd 8c 1c 2e 3e 1c 23 22 be a4 6a db be
       -0.09715282 0.17003077 -0.15833706 -0.42854798
0002c0 b4 2b c3 3e 5e 29 58 3e ce 03 13 3d e8 fe 45 3d
       0.3811928 0.2110953 0.0358923 0.0483388
0002d0 bf d7 cb be 2d 04 e6 be ed fb 82 be 48 26 95 3e
       -0.3981304 -0.4492506 -0.2558283 0.2913077
0002e0 a5 31 5f 3e af c7 9d be f0 11 ab 3e 2b 37 13 3e
       0.21796282 -0.3081641 0.33412123 0.14376514
0002f0 1f a2 28 bf b6 1e 11 be 9a 77 7a 3d 38 5c 8e 3d
       -0.6587238 -0.14171872 0.061149217 0.06951183
000300 f1 b0 76 3e ce e4 ec 3e 73 6d ba 3d 39 99 c3 be
       0.24090935 0.46268314 0.09102907 -0.38202837
000310 c8 16 19 3e fb f0 d1 be b1 5c 93 3e b6 f0 a1 3b
       0.14950097 -0.41004166 0.28781655 0.004942025
000320 63 63 ec 3e d0 40 88 be db 64 af 3e f7 26 09 3e
       0.46169576 -0.26611948 0.34256634 0.1339377
000330 be 95 c0 3e 6b 20 95 3e 74 e4 d0 be 3e b9 17 3d
       0.37614244 0.29126295 -0.40799296 0.037041895
000340 8e c6 b3 3e 5f a1 05 bd 79 2c 3c 3e e5 34 b3 3e
       0.35112423 -0.0326246 0.1837634 0.35001293
000350 31 6a 72 bd 5a 20 6f 3d b6 6a 44 3d 38 2c 9e 3e
       -0.059183303 0.058380462 0.04795333 0.3089311
000360 ae 58 8b 3e 11 3e 6f 3e e0 9b 8f bd d8 f8 ae 3d
       0.27216095 0.2336352 -0.07012153 0.08543557
000370 7a 8a 34 bd bf be 4b bf 9e 58 67 3d 5b b4 f1 3d
       -0.044077374 -0.7958793 0.056480996 0.11801978
000380 0c e2 62 be 80 f4 a1 be 54 ca fd bd 5f 25 b0 ba
       -0.22156543 -0.3163185 -0.12392107 -0.0013438872
000390 64 c6 b4 be a4 72 b4 be 86 c0 74 be c8 f5 58 be
       -0.3530761 -0.35243714 -0.23901567 -0.21187508
0003a0 74 5e 9a 3d b8 30 39 3d 4e 10 a2 3e 27 05 e3 3c
       0.07537547 0.045212477 0.31653064 0.027712418
0003b0 90 82 ba be f3 e5 f2 be dc 55 66 3e fe ae 35 3e
       -0.36427736 -0.47441062 0.2249369 0.17742535
0003c0 ce 73 74 be be 8d a6 3d a0 09 0e 3f 4b 96 04 be
       -0.23872301 0.08132504 0.55483437 -0.12947957
0003d0 65 57 3b 3c 6d 00 b9 3c 14 0b e0 be 86 74 aa be
       0.011434411 0.02258321 -0.43758452 -0.33292025
0003e0 35 d9 66 3e 26 c3 94 3d bc 3e f4 be 64 f5 1f 3e
       0.22543795 0.07263784 -0.47704113 0.15620953
0003f0 ca 2f c8 bd 5d 21 7a bd a9 2d 8d 3e cb ac 5d 3e
       -0.0977474 -0.061066974 0.27573898 0.21647947

network_body._body_endoder.seq_layers.0.bias f4 [256]
000000 78 49 91 3b 25 87 1a 3b 1a cc 8d 3b 84 5d 2a bc
       0.004433807 0.0023579088 0.0043273093 -0.010398272
000010 de 92 3f bb d5 b2 b9 3b a5 3a 24 bc 66 1b 82 bb
       -0.0029231827 0.0056670704 -0.010023748 -0.0039705513
000020 22 ca 96 3b 70 12 03 3a b9 a2 0c bb d1 db 54 3b
       0.004601733 0.0005000001 -0.0021459295 0.0032479654
000030 49 b2 85 bb f9 e1 37 3c 53 4d d4 3a df 3b 03 3c
       -0.004080091 0.01122331 0.0016197361 0.00800988
000040 a4 5a 6a 3a 03 b4 f5 3b fe 53 22 3a 94 84 13 bb
       0.0008939898 0.0074982657 0.00061923254 -0.0022509443
000050 59 26 3e 3c 36 70 86 bb fa 02 a1 3b 90 8e 31 3b
       0.0116058225 -0.004102732 0.004913685 0.002709303
000060 88 77 cc b9 13 bf 5d 3c ba 9e c9 3b 3b 53 3d 3b
       -0.0003899897 0.013534325 0.006152955 0.002888872
000070 fa 64 28 3b 9b d7 d1 3a 2e 91 0e 3c 2b 19 90 3a
       0.0025694952 0.001600969 0.008701606 0.0010993829
000080 a6 17 ab bb da 02 14 3c 30 87 47 3b 05 09 07 3c
       -0.005221325 0.009033883 0.0030445568 0.0082418965
000090 8b 5b 02 ba 0f fc 02 3b c5 0c 8f 3a 32 4d 81 38
       -0.00049727474 0.0019986664 0.001091384 6.165578e-05
0000a0 b8 e2 a9 bb 60 91 38 bb 44 09 7e 3b 61 7b a8 3b
       -0.0051844977 -0.0028162822 0.0038762847 0.005141661
0000b0 47 9b 0e bc 9e c0 54 3b ef 92 0b 3c cd a9 05 3c
       -0.008704013 0.0032463442 0.008518918 0.008158159
0000c0 15 20 f4 bb 59 1b e0 3b d7 53 05 bb 41 f3 f0 3b
       -0.0074501135 0.0068391976 -0.0020344162 0.007353217
0000d0 11 29 99 3c b3 4c d1 3b 3c 57 0a 3c a6 ad 0e bc
       0.01869634 0.006387317 0.00844365 -0.008708393
0000e0 6c c7 39 3b 95 0f 75 3b ee 7c 98 3b c6 6e c6 bb
       0.0028347624 0.003739332 0.0046535647 -0.0060556857
0000f0 f6 31 80 3a 52 b8 3f 3c 60 2f e8 3a 1f 74 cf 3b
       0.0009780515 0.01170166 0.0017714314 0.0063309814
000100 a5 23 9f 3a e4 b9 d7 bb ff 66 50 3b 8b d5 12 bb
       0.001214136 -0.006583439 0.0031799672 -0.0022405114
000110 c5 52 aa bb 8c 22 c3 3b 7b 9f e4 3a c2 fa e8 3a
       -0.005197855 0.005955046 0.0017442548 0.0017774927
000120 41 d9 4f 3c 87 40 c6 3a 07 09 a3 3a 5d 5e 86 3b
       0.012686075 0.0015125432 0.0012438603 0.0041006044
000130 c2 97 81 3b 6a c4 8d 39 0c e8 50 3c 18 92 27 3c
       0.0039548585 0.00027039956 0.012750637 0.010227703
000140 10 29 13 3c b0 b7 c5 ba 37 55 e4 bb 95 bb 94 3a
       0.008981958 -0.001508465 -0.006968166 0.0011347408
000150 f6 38 8d 3b f9 57 88 3b 95 bf 1f 3b 90 92 ca bb
       0.004309769 0.004160878 0.0024375666 -0.0061820224
000160 ae ec ce bb 7b e8 fa bb c4 be 16 3c 09 be 00 3c
       -0.0063148355 -0.0076571084 0.0092007555 0.007857808
000170 bf ad 86 3b 3c b6 dd 39 8d 22 9c bb 65 d9 83 b9
       0.0041100676 0.0004228818 -0.004764861 -0.0002514824
000180 a4 0a e7 bb a2 51 5b 39 34 f3 2e 3c 5e eb a6 3b
       -0.007050829 0.00020915878 0.010678101 0.005093976
000190 3c e1 58 3a 3f 6a e0 3b 91 4e 42 bb 6a ac d0 3b
       0.00082733086 0.006848603 -0.002964888 0.0063682096
0001a0 5b 3b 91 bb 47 b1 95 bb ec ee 3f 3c b9 d0 2b 3c
       -0.0044321246 -0.0045682522 0.011714678 0.010486775
0001b0 e0 84 83 3a fc 1b 14 3a ae b7 87 b9 09 de 26 3b
       0.0010034107 0.0005649922 -0.0002588606 0.0025461933
0001c0 4b f2 31 bb c9 37 83 bb 66 74 f5 3b e5 df 84 3b
       -0.0027152475 -0.004004453 0.0074906824 0.0040550106
0001d0 4a 43 21 bc 82 18 ac bb 70 81 1a 3c 45 d3 c2 3b
       -0.009842703 -0.005251945 0.009430274 0.0059455954
0001e0 cb 56 bb 3a ab f1 27 3c 43 cf a8 3b 4c b6 4d 3c
       0.0014292834 0.010250489 0.0051516606 0.01255567
0001f0 e4 73 22 3b 9b 60 8c bb 95 77 01 3c 12 31 45 3c
       0.0024788314 -0.004283977 0.007902046 0.012035625
000200 4a a7 50 3b 43 9b 26 3c 49 16 ea ba f8 cb 00 3c
       0.0031837993 0.010168853 -0.0017859425 0.00786113
000210 39 f8 01 3a 88 a7 1b 3b 5f 50 89 3b 41 5f 24 3b
       0.00049579475 0.002375098 0.004190489 0.002508119
000220 fc 3d 94 bb 23 48 fe ba 03 b2 62 ba 26 30 cf 3b
       -0.0045239907 -0.001940016 -0.00086477416 0.0063228784
000230 0c 52 9c 3b b1 07 d8 b9 7f 05 d8 3b a8 79 94 3b
       0.004770523 -0.0004120446 0.006592452 0.004531104
000240 94 14 2a 3b d5 4d 1b 3c 52 fc f6 3a ca ac 70 3b
       0.0025952207 0.009479006 0.0018843508 0.0036724084
000250 a3 63 c6 bb 64 e4 86 bb dd ee 47 bb 21 75 2c bc
       -0.006054358 -0.0041165818 -0.0030507364 -0.010525973
000260 c3 66 9d ba ac 06 8a bb 29 a7 f1 3b 43 14 8e ba
       -0.0012008775 -0.004212221 0.0073746634 -0.0010839779
000270 23 b1 8f 3b dd 91 15 3c f4 32 40 bb c6 5e b4 3b
       0.00438513 0.009129015 -0.0029327245 0.005504462
000280 32 d7 40 ba 06 ad 8f 3b cf b3 24 ba ee 09 11 bc
       -0.00073562854 0.0043846397 -0.0006282897 -0.008852465
000290 a8 28 e9 ba 50 99 c2 bb 68 ab 9c bb ff 41 9e 3b
       -0.0017788606 -0.0059386864 -0.0047811754 0.0048296447
0002a0 10 d1 bd 3b 75 62 a6 bb ba a5 bb ba b4 b1 09 3b
       0.0057927445 -0.005077655 -0.0014316358 0.002101046
0002b0 06 da 29 3c aa fc 1b bb 6d 93 a8 3b d5 e9 b9 38
       0.010366922 -0.0023801723 0.0051445276 8.865042e-05
0002c0 45 28 97 bb 8f 1d d8 ba 52 0b 9a bb 86 6a 0f 3c
       -0.004612955 -0.0016488301 -0.0047010565 0.0087534245
0002d0 34 8d 4f 3b c4 42 0c 3c 8e 64 9f bb 42 10 f1 3b
       0.0031669857 0.00856084 -0.004864282 0.0073566744
0002e0 d0 fd 61 3a 9a ac c3 3b ac 01 70 3b 59 dc 88 3b
       0.000862089 0.0059715034 0.003662209 0.004176658
0002f0 3d 36 63 3c c3 bc 00 3a f4 59 03 bb b5 d8 f1 3a
       0.013867912 0.000491094 -0.002004263 0.0018451425
000300 7b d2 06 3c 63 a3 1f 3b e1 26 fd 3b 70 c6 e1 3b
       0.008228893 0.002435886 0.007725582 0.0068901107
000310 7c dd a7 3b b5 39 67 3b 2b ea 3b 3c c3 6e e7 3a
       0.0051228385 0.0035282199 0.011469404 0.0017656911
000320 08 98 82 3b 4c 32 83 3a e0 7d 99 bb 35 1b c3 3a
       0.0039854087 0.0010009496 -0.004684195 0.0014885428
000330 15 d1 86 bb d2 a3 7d 39 07 9b 9e 3b ea b8 48 3b
       -0.00411428 0.00024188988 0.004840258 0.0030627795
000340 8f ef 5a 3a 09 b8 99 bb da e2 cd 3b 99 d5 bc 3b
       0.0008351737 -0.004691128 0.0062831463 0.0057627675
000350 22 14 b3 3a e8 2f a0 bb b0 4f d4 bb d0 ed a6 bb
       0.0013662616 -0.0048885234 -0.006479226 -0.0050942674
000360 3d b2 df 3a b0 a7 a6 bb 1e a3 57 3b 37 f4 62 3c
       0.0017066669 -0.005085908 0.0032903622 0.013852171
000370 b9 57 c0 3a e5 2b a1 bb eb 00 13 bb 5f da 03 3a
       0.0014674581 -0.0049185627 -0.0022430967 0.0005029793
000380 7e 3e 08 3c a2 d8 39 3c 18 b7 e2 39 09 5c ba 3b
       0.008315681 0.011343153 0.00043242495 0.005687241
000390 ae 33 34 b9 92 6d 7e 3a 56 ed 88 3b 43 4f 51 3c
       -0.0001718539 0.00097056583 0.0041786833 0.012775245
0003a0 01 1f b4 bb ef 22 ef 3a c7 ae c6 bb e0 95 59 3b
       -0.00549686 0.0018244664 -0.0060633156 0.0033200905
0003b0 40 87 5a 3c e6 17 8d ba 49 5c 2f 3b 32 fc 7f 3a
       0.01333791 -0.0010764569 0.0026757887 0.0009765058
0003c0 72 b9 f3 3b 05 d1 68 3b 58 9e 0f bb fa 96 2c bb
       0.0074378783 0.0035524976 -0.0021914449 -0.0026335106
0003d0 2d de 0a 3c 37 e9 6e bb 33 54 34 3c f9 7a b1 bb
       0.008475822 -0.0036454925 0.011006403 -0.005416271
0003e0 a7 ac 7d 3b d8 a0 49 3c 43 d6 4e bb 06 0f 67 3c
       0.0038707645 0.012306415 -0.0031560815 0.014102703
0003f0 6f 4d 27 bb fc e2 40 bb 79 6e 1f bb b8 29 2d 3c
       -0.0025528332 -0.0029432168 -0.0024327321 0.010569029

network_body._body_endoder.seq_layers.2.weight f4 [256, 256]
000000 e2 f3 a2 bd 45 96 c5 3c 91 dd 36 bd b4 06 a9 bd
       -0.07956673 0.024119506 -0.044644896 -0.08253232
000010 88 c0 e7 bc a7 47 38 3e f2 5e 8f bb 3a 3f f0 bc
       -0.028290048 0.17996083 -0.004375332 -0.029327024
000020 2e 0c 88 3d df 79 10 be 1c d2 89 bd 5f ab ab bd
       0.06642948 -0.1410899 -0.06729528 -0.08382296
000030 af 64 31 3c d8 ab f3 3c 28 b9 9e bd 46 e1 be 3c
       0.0108272275 0.029745027 -0.077501595 0.023300778
000040 89 26 aa bc 66 71 d2 3c 7c 8b 4f bd ef 95 3a 3d
       -0.020770328 0.025688838 -0.050670132 0.045553144
000050 54 c2 2c bd 31 2e 97 3c c3 0f 07 3d b5 ef 0b be
       -0.042177513 0.018454643 0.032974016 -0.1366566
000060 63 fb 6a 3d 15 9e 3a 3d 92 de 5c bc e2 ae 49 3d
       0.057368647 0.045560915 -0.013480799 0.049239047
000070 07 58 b2 3d e4 3a 6b 3d c4 5f 06 be b7 7f a8 3b
       0.08708196 0.05742921 -0.13122469 0.005142178
000080 9e d9 ea bc 95 96 ac 3b 56 39 f2 3d 85 8c ad bd
       -0.028668221 0.005266974 0.11827342 -0.084740676
000090 16 69 bd bc d9 24 34 3d ef 7d 3e 3d b0 34 85 bd
       -0.023121398 0.043980453 0.04650682 -0.0650419
0000a0 77 10 51 3d 42 87 aa 3c be dc a5 bd f9 b3 cd bd
       0.051041093 0.02081645 -0.08098744 -0.10044093
0000b0 95 af 59 bc 57 a3 79 bd 82 21 8f bd b9 35 f0 bb
       -0.013286491 -0.06094679 -0.06988813 -0.007330623
0000c0 ed de cd 39 82 c4 76 3c 5b 74 84 3d a8 69 b0 bc
       0.0003926674 0.0150615 0.064675055 -0.021534756
0000d0 39 4b 37 bc 8e 3a c2 3d 0f fc bd bd 8b ab bf 3c
       -0.011187368 0.09483825 -0.09276592 0.023397228
0000e0 5d 62 85 3d 84 4b a7 bd c7 c4 0d bd 0d f4 31 bc
       0.06512902 -0.081687 -0.03461149 -0.010861409
0000f0 bc e7 43 3d 96 e7 3a bd 41 b1 30 be f4 0b 8d 3d
       0.04782842 -0.045631014 -0.17255117 0.068870455
000100 ad 94 8e 3b 1d 99 8a 3d 8a 23 9b 3c 3c 77 10 bc
       0.0043512196 0.06767485 0.018937845 -0.00881749
000110 b6 2a 42 bd 5d 3b 71 3d f6 f2 9a bb 55 ef 0b bd
       -0.047404014 0.058894504 -0.00472867 -0.03416379
000120 e2 5f 12 bb cf 0d 9f bd 31 47 dc 3b 85 0c 82 3d
       -0.0022334983 -0.07766306 0.006722354 0.06350044
000130 fc 31 17 3d 38 35 80 3c a7 90 07 3e 6e 1f 00 3d
       0.036912903 0.015650377 0.13238774 0.031279974
000140 b6 90 40 bb 91 d5 d9 3d 27 82 d3 bd 1e 66 4d bd
       -0.002938313 0.10636438 -0.10327559 -0.050146215
000150 98 a9 8a bd f9 c5 b4 bc 5b 7c fc bc 93 fc 37 3d
       -0.06770629 -0.022067057 -0.030821016 0.044918608
000160 e3 b0 9a bb 61 49 40 3d b5 ef ed bc 2e dc e8 3d
       -0.0047207936 0.04694498 -0.029044965 0.11370121
000170 ff 06 31 bd ed 8c 79 3c 23 a6 a5 bd 50 f6 20 bb
       -0.043219563 0.015231353 -0.08088329 -0.0024560876
000180 19 63 97 bd d3 4d 61 3d 55 6f 77 bb 09 8b 7b bd
       -0.07391948 0.05500586 -0.0037755568 -0.06141189
000190 dc 6b e6 bb 94 e5 0e bc 69 37 59 bc e7 23 78 bd
       -0.007031901 -0.008721728 -0.01325784 -0.060581114
0001a0 3b e4 b2 3d 3e 7d a8 bc 25 1f ac bc c6 d6 01 3d
       0.08734938 -0.020567533 -0.021010945 0.031698965
0001b0 a8 6b d5 3c 98 bb b8 bd c1 c1 94 3c 40 1c cf 3c
       0.026052311 -0.09020156 0.018158795 0.025282025
0001c0 39 48 d6 bd 17 2e b2 bc 16 eb 84 bc aa 1e b0 bc
       -0.10462994 -0.021750493 -0.016225379 -0.021498997
0001d0 88 7f a1 bb 9d 35 98 3d 8b e5 17 3d f8 52 54 3d
       -0.004928533 0.07432101 0.037084144 0.051836938
0001e0 e2 35 62 bd 64 a2 01 bd bf 4d 55 3d 9a 52 50 bd
       -0.055227168 -0.03164901 0.052076098 -0.050860025
0001f0 15 eb b0 bd 1a 10 dd bd 92 78 94 3c ae ab 0f bd
       -0.08638588 -0.10794087 0.018123899 -0.035075836
000200 65 fe d2 3c db ea 01 3e 1c be e6 bc d7 18 87 bc
       0.02575607 0.12687247 -0.028166823 -0.016491337
000210 f6 a4 8f 3c 1b 9f 30 3d 0a e0 f5 3d f7 3b 2a 3e
       0.017534714 0.043120485 0.12005623 0.16624437
000220 4a 70 86 3c 6a 54 73 3d d2 ba b7 3d 19 59 8e 3c
       0.016410965 0.059406675 0.0897118 0.01737647
000230 13 89 8e bd 93 6b 40 bc 70 58 3b bc f6 98 3c ba
       -0.069597386 -0.011744398 -0.011434659 -0.0007194424
000240 ea ef 3b 3d 0e c7 a5 3c b6 e3 61 bd 5d fd 81 3d
       0.045883097 0.020236518 -0.055148803 0.06347153
000250 81 76 70 bd 73 7b b9 bb 1d f7 10 bd e6 17 96 3c
       -0.058706764 -0.0056604682 -0.035391916 0.018321943
000260 38 dc 8a bd 45 73 84 bc df 31 64 3d 1a 57 75 bc
       -0.06780285 -0.016168246 0.055711623 -0.01497438
000270 32 02 f9 3c 2d dc 8e 3d 5c c6 13 3b e8 45 5e 3d
       0.030396555 0.06975589 0.0022548651 0.054265887
000280 27 e0 fa 3d 36 85 1a bd 34 60 fa 3a ad 6f 53 bd
       0.12249785 -0.037724696 0.0019102157 -0.051620174
000290 4f c8 05 bc 17 7a 85 bc 2e fd 8d bb 33 9f 98 3d
       -0.008165433 -0.016293569 -0.00433316 0.0745224
0002a0 c1 e8 af bd f0 56 36 bd 49 52 35 bc 11 30 81 bc
       -0.08589316 -0.044516504 -0.011066982 -0.01576999
0002b0 71 1f b2 bb 2c d7 8d bd 80 89 4e 3d c7 b3 bc 3c
       -0.005435877 -0.069258064 0.0504241 0.023034943
0002c0 90 0c 99 bd 9b 72 cf 3d d5 84 26 bd fc e6 1f bd
       -0.07473099 0.10129281 -0.040654022 -0.039038643
0002d0 e0 30 f5 bb 5f ce 3a 3d c6 11 ee bd 98 f0 3a 3d
       -0.007482633 0.045606967 -0.11624484 0.045639604
0002e0 d5 df c1 3d d1 51 7b 3d 1c a2 46 bc 41 56 2a 3d
       0.09466521 0.061357323 -0.012123611 0.041586164
0002f0 33 c9 2f 3d dc 66 22 be d5 5d 1b 3d e6 fa 10 be
       0.042916488 -0.1585955 0.037931282 -0.1415821
000300 5e c9 b0 3d fa 1e a8 bd 03 c8 40 bd 61 09 24 3d
       0.08632158 -0.08209033 -0.047065746 0.040048007
000310 8f b4 4a be ce 6d 7e bc 95 02 93 3b 92 33 08 bd
       -0.1979544 -0.015529109 0.004486392 -0.033252306
000320 5c 16 0e 3d bd 2f 39 3c 78 b5 cf 3b c9 9b 42 3d
       0.034689292 0.011302886 0.0063387714 0.04751185
000330 62 42 2f be f9 1d 9d 3c 1b 07 05 3e 11 83 7d bd
       -0.17115167 0.019179331 0.12990992 -0.061892573
000340 a2 4a c1 bd 4a 68 ac 3d a8 5d ba 3d 5f 7a 24 bd
       -0.09438063 0.08418329 0.09099895 -0.040155765
000350 7f 2b c3 bc f9 2d 7a 3d 76 cd 08 bd 54 23 d8 bd
       -0.023824451 0.061079 -0.033399068 -0.10553613
000360 1b 6f aa bd 61 f2 ab bd 06 6e c0 bd 1f e9 bf bc
       -0.08321973 -0.083958395 -0.09395985 -0.02342659
000370 81 26 8a bc c8 18 3a 3c a6 63 1e 3e c5 b5 02 be
       -0.016864063 0.011358447 0.154677 -0.12764652
000380 a2 6f 89 3a 6c 9b d9 bd b0 1c 46 bd a4 77 34 bd
       0.001048554 -0.106253475 -0.048367202 -0.04405941
000390 bc e4 b9 bd 8f 85 9f bd e7 d7 01 3d b4 f3 2f 3d
       -0.09076831 -0.07789146 0.03170004 0.042957023
0003a0 a5 c5 88 3d ec 73 d8 bd f8 54 53 3d b0 19 80 bd
       0.06678323 -0.10568985 0.051594704 -0.062548995
0003b0 e1 8f 0e 3d 04 fb 65 ba bd db 65 bc ba f2 ed 3d
       0.034805182 -0.0008773061 -0.0140294405 0.11618562
0003c0 34 23 06 3c da fa e5 3c bc 4f c5 3c fe 59 b4 bd
       0.008187104 0.028073717 0.024085872 -0.08806227
0003d0 75 af ca 3d 5b 68 dc bc 72 51 54 3c f7 7e 3d bd
       0.09896747 -0.02690523 0.012958871 -0.04626366
0003e0 01 17 29 bd 41 75 1c bd c2 48 48 bd 89 e9 20 bd
       -0.041281704 -0.03819776 -0.048897512 -0.039285216
0003f0 9b 12 0d 3e 9a 22 5e 3d 44 bf 7f bd c5 81 15 bb
       0.13776629 0.054232217 -0.062438264 -0.0022812944

network_body._body_endoder.seq_layers.2.bias f4 [256]
000000 74 f8 13 3b ae 23 8f ba 6a fd 9c 3a 58 a2 b5 3a
       0.002257851 -0.0010920668 0.0011977379 0.0013857586
000010 7a 0d 7e 3b cb 87 27 3c 0e 80 fc bb 78 2a 84 ba
       0.0038765357 0.010225247 -0.007705695 -0.0010083457
000020 34 5b e9 bb 26 f4 2c 3b cb 31 32 3c 55 c1 10 ba
       -0.007121468 0.002639064 0.010876129 -0.0005521973
000030 58 a3 c6 bb e4 0b 32 3c 7d c1 c4 37 18 48 cf 3b
       -0.0060619526 0.010867093 2.345512e-05 0.006325733
000040 0d 3d 28 3c fa 59 74 3b 16 26 99 bb 36 30 14 bb
       0.010268462 0.0037285076 -0.0046737297 -0.0022611744
000050 e1 78 88 ba 5a 8b ff 3b 67 0f a5 3b a1 0b 0a 3c
       -0.0010412001 0.0077985944 0.0050372365 0.008425624
000060 cc e5 d5 bb 1c 3d 3a bb bc 8f a9 3b 7e 08 8d bb
       -0.006527638 -0.0028417772 0.005174605 -0.004303991
000070 7e 6f ab 39 03 fa 05 3b 05 62 34 ba a3 92 8c bb
       0.0003269873 0.0020443208 -0.0006881061 -0.0042899414
000080 58 3e ef 3b 0b 6c 7e b9 8d fc da bb 36 75 5c 39
       0.007301133 -0.00024263577 -0.0066829384 0.000210245
000090 7a 94 93 bb 80 5e 17 3c fb 9d 02 3b 70 77 3d 3c
       -0.004503784 0.009238839 0.001993059 0.011564121
0000a0 2a 4c 2b 3b 44 21 1b 3a e9 05 c6 3b 7f 44 28 3c
       0.0026137927 0.0005917738 0.006043185 0.010270237
0000b0 1e a1 a6 3b 74 6e 51 3c eb 66 27 3c 5e 67 6e 3b
       0.0050851246 0.012782682 0.010217409 0.003637753
0000c0 b2 07 70 ba 77 77 fa 3b 2e dc 24 b9 b2 94 49 3b
       -0.000915642 0.007643636 -0.00015722282 0.0030758795
0000d0 07 32 c5 bb a3 0e 83 3b ae c7 ff 3b d4 68 d1 b8
       -0.0060179266 0.0039995476 0.007805786 -9.9854224e-05
0000e0 8b c9 9d 3b bc bc 28 3c 00 4b 23 3c 34 17 c4 3b
       0.0048152856 0.010298904 0.009966612 0.0059842113
0000f0 60 83 1b 3b 7b 32 cd 3b 9f 38 bd 3b ce dd bb 3a
       0.0023729429 0.0062621213 0.005774572 0.0014333071
000100 18 69 f5 3a c3 95 54 3c 7e bf 35 3a a6 89 b4 3b
       0.0018723337 0.012975159 0.00069331366 0.005509573
000110 52 02 f0 3a 82 0f ef 3a 98 fa 84 bb 8a 99 c4 bb
       0.0018311238 0.0018238875 -0.0040581934 -0.0059997486
000120 0f 65 31 bb e1 a2 c4 3b 0f 36 e8 3a 72 c2 90 3b
       -0.0027068292 0.006000862 0.0017716306 0.004417711
000130 23 dc d9 3b 82 e4 bb ba 4d 16 1f 3c 70 39 a5 3b
       0.006648557 -0.0014335068 0.009709907 0.0050422475
000140 63 08 38 ba 51 88 3c 3c fa e8 c1 3b 9b 44 a6 3b
       -0.00070202927 0.01150711 0.0059176655 0.0050740964
000150 9a 04 c4 3b f5 d5 8b bb d3 5d f5 bb b1 89 ca ba
       0.005981994 -0.004267449 -0.0074879914 -0.0015452412
000160 28 37 15 b9 f9 c6 ea 3b 7a 59 bd bb cd 52 14 3c
       -0.00014230295 0.0071648327 -0.0057784887 0.009052944
000170 82 10 23 bb 5c 84 81 ba 3b bd b8 3b 96 0e 6e 3b
       -0.0024881666 -0.0009881365 0.0056377924 0.0036324612
000180 35 c5 5d bb 79 6f a5 39 ac de 60 ba 2d 44 0a 3c
       -0.0033839468 0.00031554306 -0.00085781026 0.008439106
000190 63 b5 ba 3b 8a 2b 3c bb 6c b2 8e bb 86 8d af 3b
       0.0056978925 -0.0028712475 -0.0043547656 0.005357447
0001a0 64 eb e8 bb 1a 4e a4 3b 31 90 b8 bb a2 8d 1e bb
       -0.007108139 0.0050141932 -0.0056324233 -0.0024193306
0001b0 a1 50 0e bb d1 cd 11 39 3d 1d 02 3c d9 96 72 bb
       -0.002171554 0.0001390495 0.007941541 -0.0037016182
0001c0 68 ce da 39 be e6 b1 3a 9e 86 63 3c 68 e8 b0 3b
       0.00041733985 0.0013572795 0.013887076 0.0053987987
0001d0 97 8c 10 3c 7c c6 12 3c 43 99 b0 3a 50 03 3a 3c
       0.008822582 0.008958455 0.001347341 0.011353329
0001e0 4b d5 00 bc 57 bb 58 ba 8a 62 50 3b 8c 78 f0 3b
       -0.007863353 -0.0008267662 0.0031797015 0.007338589
0001f0 14 07 91 3b 5a 82 57 3c ed 34 33 3b 98 eb 2e bb
       0.0044258926 0.013153637 0.0027344779 -0.0026690718
000200 df 41 d6 3b 97 5e 28 bb d2 94 1f bb 64 db f6 3b
       0.006538614 -0.0025691146 -0.0024350178 0.0075334776
000210 0c d4 9f 3a a0 35 93 3b 6e d4 99 3a 9f 4f e4 3a
       0.0012193932 0.0044924766 0.0011736283 0.0017418748
000220 19 04 ce bb a8 2e b6 3b 76 91 1c 3c af 69 2a 3c
       -0.0062871096 0.005559761 0.009556165 0.0104011735
000230 45 b4 6e bb 66 a5 4c 3b 7c 82 80 bb fa 0a ed bb
       -0.0036423367 0.0031226515 -0.003921805 -0.0072339745
000240 50 ad ba 3b 4d 50 23 3b 85 e3 79 3c a9 35 ad bb
       0.00569693 0.002491969 0.015251999 -0.005285938
000250 e3 b1 21 3c 4f b7 04 3b 80 da 9c 3b 38 65 12 bc
       0.009869072 0.0020250862 0.0047867894 -0.008935265
000260 ff 34 aa bb 77 41 bb bb 6c 16 a1 bb 7f de 13 3b
       -0.005194306 -0.005714591 -0.004916003 0.0022563038
000270 fa 62 ad ba 14 d0 e6 3b 9a 7f ae bb 38 7c 00 3b
       -0.001322835 0.007043848 -0.00532527 0.001960529
000280 7d 11 19 3c ca e7 d9 3b 91 b4 e0 3b d1 1d 81 bb
       0.009342548 0.006649946 0.0068574627 -0.003940322
000290 14 6d 02 bb 62 97 97 3b 45 f1 82 3b e3 25 a0 3a
       -0.0019901441 0.0046262005 0.0039960467 0.0012218322
0002a0 d2 b0 98 3b cf d3 eb bb 64 d4 3e 3a dd b2 ca bb
       0.0046597505 -0.0071968804 0.00072795735 -0.006185873
0002b0 4e 90 14 3b 18 24 db 3b f7 46 b4 bb de 7a 36 3b
       0.002266902 0.0066876523 -0.0055016237 0.002784423
0002c0 96 32 a5 3b b2 16 c2 3b c9 f3 9a 3b 95 1c 1d 3c
       0.0050414307 0.0059231156 0.0047287685 0.009589334
0002d0 d4 f1 92 bb b6 ca 2f bb 2a a4 06 3c 37 85 c7 b8
       -0.0044843946 -0.0026823706 0.008217851 -9.513873e-05
0002e0 0f ef 76 3b ee c7 66 3c 06 68 1d 3a 90 ac 0a 3c
       0.003767911 0.014085753 0.00060045754 0.008463994
0002f0 8f 21 20 3c ed 83 24 3b b7 7f 5e 3a 07 4d 9c 3b
       0.009773626 0.0025103048 0.0008487659 0.0047699246
000300 a1 a5 cd bb d5 20 90 3b ef 8c ac bb d2 39 0d 3a
       -0.006275848 0.004398445 -0.005265824 0.0005387339
000310 09 ad 39 3c 18 47 cf bb c7 a9 aa bb 8c a2 7b 3b
       0.011332759 -0.0063256137 -0.0052082273 0.0038396446
000320 c2 cc 0d bb 26 f2 ee 3b 04 cc e7 3b 80 db 3f 3a
       -0.0021636938 0.00729205 0.007073881 0.000731878
000330 cb 63 35 bb 91 5a 66 bb f8 e5 6c 3a 66 00 e4 3b
       -0.002767789 -0.0035149197 0.00090369536 0.0069580553
000340 78 d8 e8 3a 62 c0 dc 3b 09 29 85 ba 49 98 40 bb
       0.0017764708 0.006736801 -0.0010159324 -0.0029387644
000350 84 54 8e 3b 1d 2a e2 ba a7 24 9f 3a 87 2b 3a 3b
       0.004343571 -0.0017254982 0.001214166 0.0028407292
000360 e9 a0 4b bc fe 58 76 bb 53 72 cb 3a e9 24 ae b9
       -0.012428501 -0.0037589665 0.0015521742 -0.00033215366
000370 8e 4d 9b b9 40 1e 1c 3b 04 7c ba 3b bd 3c 31 3c
       -0.00029621687 0.0023821741 0.0056910533 0.010817704
000380 13 8b 06 bb 85 be 67 3b 08 3c 8d bb 66 60 d5 39
       -0.0020529672 0.0035361361 -0.004310135 0.00040698348
000390 ff 56 8b 3b 06 35 16 3c 0c 6f 14 3b ae 17 ab 3b
       0.004252314 0.009167915 0.0022649197 0.0052213287
0003a0 a1 50 80 3b 6e 8f b1 bb be 43 48 bb 92 c2 9b bb
       0.0039158617 -0.0054187095 -0.0030557956 -0.004753419
0003b0 ac 1f 80 ba b4 38 cb bb 51 29 03 3c e7 87 39 3b
       -0.0009775064 -0.006201828 0.008005456 0.0028309764
0003c0 7e 57 13 3c 0f 3f 4f 39 b7 8d a7 3b 35 e1 34 3b
       0.008993028 0.0001976455 0.0051133293 0.0027600054
0003d0 75 a2 cc 3b 48 f0 9a ba 5a 8a e4 bb 1a 6a 7b 3b
       0.0062449523 -0.0011820877 -0.0069745006 0.0038362802
0003e0 cf f1 e7 ba a6 8f 92 3b 34 0e 77 3b 47 dc 90 3b
       -0.0017695966 0.0044726906 0.0037697675 0.0044207904
0003f0 f3 a8 88 bb 90 38 05 3c 60 f8 58 3c 0e 93 b5 3a
       -0.004170531 0.008131161 0.013242811 0.001385303

action_model._discrete_distribution.branches.0.weight f4 [3, 256]
000000 5f 85 f4 3a ea 47 a2 bb aa 49 33 3b 62 46 8d 3b
       0.001865547 -0.0049524205 0.002735714 0.004311369
000010 14 78 df ba 99 8e 55 ba 65 c8 42 3c d5 71 32 3b
       -0.0017049336 -0.0008146554 0.011888598 0.0027228494
000020 0b 37 b1 3b bb 4e f9 ba 14 65 5d bb a1 07 d2 bb
       0.005408173 -0.0019020656 -0.003378217 -0.006409601
000030 87 b8 c1 3b f1 04 e2 bb 4a 2b 53 3c 9e da a8 3b
       0.00591189 -0.0068975617 0.012888739 0.0051530143
000040 81 8e 0c 3b b5 60 3b bb a6 6f c6 3b 1c c5 9b 3c
       0.0021447244 -0.0028591577 0.00605579 0.019014888
000050 27 f6 b2 bb 77 d5 da bb af 07 ae 39 8f 57 34 bc
       -0.0054614726 -0.006678279 0.0003319359 -0.011007204
000060 15 a9 c8 3b 91 d8 0b bc ff d7 17 bb 6a b0 fe 3a
       0.006123672 -0.00853552 -0.0023169515 0.0019431238
000070 8b 2b 53 3c b7 89 a8 3b 28 ba d3 3a dc 7f 1a ba
       0.012888799 0.00514337 0.0016153501 -0.00058936863
000080 6d 95 db 3a fe 1b 0e 39 5d 03 13 3b be 93 cc 3b
       0.0016752906 0.00013552603 0.0022432425 0.006243198
000090 f9 64 85 3c 77 21 57 bc 42 58 61 ba 01 df 48 bc
       0.0162835 -0.013130537 -0.000859622 -0.0122601995
0000a0 0e 1c f4 ba 75 eb 38 bb 18 25 5c bb 5a 32 09 bc
       -0.0018624084 -0.0028216515 -0.0033591446 -0.008373821
0000b0 40 5f 06 bb 26 00 a6 bc f1 e8 61 3b a0 33 9f 3c
       -0.002050355 -0.020263743 0.003447112 0.019433796
0000c0 1a 1d a3 bb 01 85 b4 bc cc 00 f8 bb d0 3d 3a 3b
       -0.0049778344 -0.022036077 -0.0075684544 0.002841819
0000d0 62 f9 ad 3b 77 54 48 bc 2f af 59 bb db 9c 02 ba
       0.0053092698 -0.012227169 -0.003321599 -0.000498248
0000e0 bc ec 57 bc 62 ea 99 bb d2 f9 b5 bb fc c7 66 3b
       -0.0131790005 -0.00469713 -0.0055534625 0.0035214415
0000f0 80 0f fe bb 0a 07 76 bb 1c 63 71 bb 99 e5 a6 3a
       -0.0077533126 -0.0037540817 -0.0036832755 0.001273322
000100 2a 7f ad 3b 05 eb e7 3b 7e 16 18 3b 7a 9b 21 3b
       0.0052947 0.007077577 0.0023206766 0.0024659322
000110 67 78 10 3c 78 19 41 bc e0 3a c6 3b 5e 89 f5 39
       0.008817769 -0.011785857 0.006049499 0.00046832388
000120 4d f0 1f bc f7 75 0d bc 30 30 3c bb 0e 01 d0 3a
       -0.009761882 -0.008634082 -0.0028715245 0.0015869455
000130 9c ea 42 bc 72 27 c0 3b 58 1e 2d bb c6 c3 8f bc
       -0.011896756 0.0058640772 -0.0026415791 -0.017549407
000140 64 3c 80 bb ab 6a 13 3b de f3 f6 bb 03 03 e4 bb
       -0.003913449 0.0022494 -0.0075363955 -0.006958367
000150 a7 76 0b bb 41 b8 b5 3b 62 d6 98 3b 47 04 88 3b
       -0.002128044 0.0055456464 0.0046642283 0.0041509005
000160 f2 f5 cb ba 63 ef 05 bc 91 e5 8d bb f1 1d 78 ba
       -0.0015560968 -0.00817475 -0.004330345 -0.0009464911
000170 29 ee e0 39 bc ea 76 b9 cd fa fb ba 4b 3c 96 bb
       0.00042902053 -0.00023547834 -0.0019224525 -0.004584824
000180 83 57 de 3a e9 d6 1d 3a 34 4e cb 3b ad cb 43 3b
       0.0016963336 0.0006021099 0.006204391 0.002987604
000190 e8 b8 42 3c e8 2a 5d 3c 15 87 76 bb f1 67 61 bc
       0.011884905 0.013498999 -0.0037617136 -0.013757692
0001a0 99 21 cb ba 16 c1 29 3b 60 3b 9f 3a 73 1d c9 3a
       -0.0015497684 0.0025902442 0.0012148432 0.001534386
0001b0 c3 74 1b 3c 06 b6 e6 3b 34 80 9b bc 1f 66 e4 3b
       0.009488287 0.007040742 -0.01898203 0.0069701816
0001c0 12 cc 3d 3b 8a a3 af bb e0 ac e1 bb 5f 9c b6 ba
       0.0028960747 -0.0053600715 -0.0068870634 -0.00139321
0001d0 a1 37 a6 bb 75 03 da bb 8e 29 01 3b eb 11 1a bc
       -0.0050725495 -0.006653244 0.0019708606 -0.009403686
0001e0 42 cb 2e 3c 9e 8f 2b 3b c4 e5 0f 3a 8d 99 bf 3b
       0.010668578 0.0026178132 0.0005489255 0.005847162
0001f0 da bd 83 bc 8c bc f2 b9 d9 fb 62 3a 9c 9e 28 ba
       -0.01608174 -0.00046298315 0.0008658744 -0.0006432326
000200 74 bd fb 39 c2 f5 1c 3c 82 c2 07 bc 78 11 3b bb
       0.00048015604 0.009580078 -0.00828612 -0.0028544348
000210 42 f6 c1 3b 54 03 24 bb ce 37 24 bc 81 a9 bb ba
       0.005919249 -0.0025026398 -0.0100230705 -0.0014317484
000220 57 e8 b8 3b 1f a5 09 3c f9 ed 26 ba 28 ab 5a 3b
       0.0056429314 0.008401184 -0.0006367858 0.0033366177
000230 c9 17 82 3b 2f 9c a8 3b 6d 7e 63 3a 87 1f 04 3b
       0.0039701206 0.0051455717 0.00086782017 0.0020160393
000240 13 34 5f bc be c7 9e 3b 04 1f 22 bc f8 b0 48 3c
       -0.013623255 0.0048455885 -0.00989509 0.012249224
000250 c4 c8 cb bb 9e 1b c4 3b 98 ea 4e bb 83 e4 30 3b
       -0.0062190015 0.0059847375 -0.0031572934 0.0026991672
000260 5b 12 12 bb f3 39 22 3a 2a 92 00 3b c6 d0 55 b7
       -0.0022288773 0.00061884447 0.001961837 -1.2744398e-05
000270 54 6e a6 3b b5 28 2b bc 6d e1 36 3b 84 24 c5 3b
       0.00507907 -0.010446717 0.002790536 0.006016316
000280 3a 31 79 3b 5d f2 d7 bb 2a ab 3e 3b 42 bd cf 3b
       0.0038023726 -0.0065901713 0.002909372 0.0063397
000290 67 14 45 3b 73 6c 93 3a 49 fb 10 bc d6 62 ce 3b
       0.0030071975 0.001124753 -0.008848974 0.0062984033
0002a0 c3 61 66 bb 45 63 fc bb e6 32 69 3c d3 68 c4 b9
       -0.0035153485 -0.0077022635 0.014233327 -0.00037462133
0002b0 93 45 99 3b d7 f8 90 bb b1 e5 37 bb 11 a2 06 bc
       0.0046774833 -0.0044241953 -0.002806049 -0.008217351
0002c0 7c ae 28 3a b3 75 94 bc 2e be bc bb 61 cf 90 3a
       0.00064346916 -0.01812253 -0.005759976 0.0011048132
0002d0 79 4c e9 3b 35 99 56 bc ce bd 21 ba 66 47 08 3c
       0.007119712 -0.013098051 -0.00061699457 0.008317804
0002e0 d5 2f d4 bb 2f 2d 3d bc 2f 9a 0a 3c 52 f3 83 3b
       -0.0064754286 -0.011546417 0.008459612 0.004026809
0002f0 73 94 fc bb 37 a2 fd 3b 18 a4 46 3c 66 ff 51 bb
       -0.007708126 0.007740285 0.012124084 -0.0032043098
000300 de 82 bc 3c 20 b4 87 3b 60 3e c1 3b 4f 4e 84 bb
       0.023011621 0.0041413456 0.0058973283 -0.0040376554
000310 50 17 01 bc 0f 63 a9 3b 11 55 82 3b 0d 4b f3 bb
       -0.007879093 0.0051692794 0.003977426 -0.0074247182
000320 20 2b 60 36 76 ec 51 3b 0d 3d d0 3b 98 a6 3d 3a
       3.3403703e-06 0.003203181 0.006354934 0.0007234602
000330 ba 40 27 3c d4 5f 17 bc c9 4d e1 bb 70 67 28 bc
       0.010208303 -0.009239156 -0.006875728 -0.010278568
000340 92 75 bf 3b 9d 21 57 ba 91 21 c9 3b 13 3a 18 bc
       0.005842873 -0.0008206608 0.0061380346 -0.00929119
000350 6e a1 36 3b 74 c3 28 3b d8 04 dc bb 3e 5e 82 bb
       0.0027867216 0.0025751265 -0.0067144446 -0.0039785197
000360 be 21 dd 3b b1 97 81 3c 67 53 1b bb 65 da c0 3b
       0.006748407 0.015819402 -0.0023700835 0.0058854097
000370 16 c9 a2 b9 67 25 ca 3b 73 99 b5 bb 0a bf 23 bc
       -0.0003104887 0.0061690095 -0.005541974 -0.009994278
000380 74 65 d7 3b 57 fc 57 bc b2 98 09 3c 6a f6 85 3b
       0.0065733735 -0.013182721 0.008398222 0.0040882127
000390 df bf 9e ba 80 5e ac ba 70 b1 d8 bb d8 1b 3c bb
       -0.0012111625 -0.0013150722 -0.006612949 -0.002870312
0003a0 0c a5 52 bc c8 87 0e 3c 35 62 4a bc 60 51 55 bb
       -0.012856733 0.008699365 -0.012352516 -0.0032549724
0003b0 14 2b 49 3a eb 12 ba 3b aa 23 a8 3b bb 9c 01 3a
       0.00076739606 0.0056785247 0.0051312046 0.0004944314
0003c0 3d 18 9c bb 17 9a a1 ba 95 59 c5 3a 1e 3b 35 bc
       -0.0047636316 -0.0012329248 0.0015056605 -0.011061458
0003d0 9f 3b 3d 3b 1b 98 e4 bb 05 25 ac 3b a1 d7 ea bb
       0.0028874648 -0.00697614 0.0052534365 -0.0071668182
0003e0 42 e2 07 bc 7b a3 45 bb 88 eb 4d 39 38 8d 1b bb
       -0.00829369 -0.0030157256 0.00019638066 -0.0023735296
0003f0 13 5b 0c 3b 1b f1 52 bb 8b 7b 73 bb cd c1 ad bb
       0.002141659 -0.0032187167 -0.0037152495 -0.005302644

action_model._discrete_distribution.branches.0.bias f4 [3]
000000 8b 62 bb bb a8 d4 a2 3b e8 38 70 3a
       -0.0057185343 0.0049691983 0.0009163753

action_model._discrete_distribution.branches.1.weight f4 [3, 256]
000000 4b 2e 67 bc 93 37 b8 3b 7f 95 93 3b 19 2b b1 3c
       -0.014110158 0.0056218593 0.0045039053 0.021626996
000010 e9 8b 04 bc 50 02 72 bc 80 ce 8f 3b 1a fc 42 3c
       -0.008089998 -0.014771059 0.0043886304 0.011900926
000020 92 20 0c bb 28 10 b2 b8 af 9a e7 bc 8e d6 8b 3b
       -0.0021381718 -8.490711e-05 -0.028272001 0.0042675203
000030 8a 8d b7 3a 1d c9 41 bc 56 72 02 bb 5c 65 92 bb
       0.0014003974 -0.011827734 -0.0019904575 -0.0044676494
000040 de 3a 81 bc d2 9f 0a 3c bd e4 a7 3b bf 1b 3e bb
       -0.01577514 0.008460956 0.0051237033 -0.0029008237
000050 08 37 cb 3b 11 31 62 bb 2f 6d 04 bc 33 ed a1 bb
       0.0062016286 -0.003451411 -0.008082672 -0.0049416064
000060 fa d6 05 3a 65 4f 0c bc 60 64 34 bc 28 60 6c 3b
       0.00051055814 -0.008563851 -0.011010259 0.0036068056
000070 96 47 eb 3b 63 e4 df 3b f1 00 b9 3b 60 16 c8 3a
       0.0071801646 0.0068326457 0.005645864 0.0015265457
000080 21 e6 18 bc 52 f7 ba bb 98 aa a7 3a 98 e3 03 3c
       -0.009332211 -0.0057057524 0.001279193 0.008049868
000090 31 fb 08 3c 1e 94 dc bb ea 52 01 bc 41 be 86 38
       0.00836067 -0.006731524 -0.007893303 6.4250555e-05
0000a0 d2 f0 3f 3c ab ab 4e ba 73 f6 5c bc 97 7a ff bb
       0.011715131 -0.0007883857 -0.013486492 -0.0077965963
0000b0 19 46 91 bb e6 87 58 bc 0a 8b 89 ba f0 76 3b bc
       -0.004433405 -0.013215994 -0.0010493707 -0.011441931
0000c0 c1 ca aa 3b 9d 8e 6f bc 10 9f 25 3c 7f 8e 60 bb
       0.0052121584 -0.014621404 0.010108724 -0.0034264622
0000d0 04 46 7b ba 0a 7e 18 bc 46 d5 c1 bb fe a3 0d bc
       -0.0009585323 -0.009307394 -0.0059153168 -0.008645056
0000e0 0f 62 c3 3b f6 d5 36 bb 16 fc 97 bb 7a 7a 3d bb
       0.005962617 -0.0027898527 -0.0046382053 -0.0028912113
0000f0 a2 52 8d bc e3 50 22 bc d1 bd ee bb 6c 52 c1 bb
       -0.017251316 -0.00990698 -0.0072858115 -0.005899718
000100 9c 9f d6 3a f6 c1 02 3b c0 51 f3 ba ce 63 c0 bb
       0.0016374472 0.0019952036 -0.0018563792 -0.0058712726
000110 1b b2 61 bc 5d a9 83 3a 0a d5 e9 3a 20 f6 45 3c
       -0.013775374 0.0010044981 0.001783998 0.012082607
000120 1e 99 20 bb fd cb 10 3c 2a 76 d3 bb 1e d8 34 bb
       -0.0024505327 0.008837697 -0.0064532952 -0.0027594636
000130 58 00 9a bb de e3 19 3c 99 d2 9a bb be 22 ee 3b
       -0.004699748 0.009392707 -0.004724812 0.007267325
000140 a2 47 85 3b 54 e4 34 bc b9 fd ac bb 44 19 0d bb
       0.004067377 -0.011040766 -0.0052792695 -0.0021529952
000150 ba b4 c6 3b ec 37 63 bb 92 04 9d 3b b2 04 e0 bb
       0.0060640248 -0.0034670783 0.0047918046 -0.006836497
000160 56 7e fc 3b f3 39 3f 3c 9b 59 c9 3a 07 80 16 bb
       0.00770549 0.011671531 0.0015361788 -0.0022964494
000170 6c ad a0 39 92 7c 7a 3c ee 4c 0e bc 2d 3e 3e 3c
       0.00030646787 0.015288489 -0.008685334 0.011611504
000180 60 8d 67 b9 92 56 51 3c 04 24 64 3c f5 7f 11 3c
       -0.00022082543 0.012776988 0.013924602 0.008880605
000190 08 7d e6 bb c6 80 80 bb ee c4 fb b9 f9 a4 9a b9
       -0.007033948 -0.003921601 -0.00048021175 -0.00029496083
0001a0 c2 f6 af bb 8f b5 12 bc 17 d7 24 3c c9 27 04 bc
       -0.005369992 -0.00895442 0.010061047 -0.008066126
0001b0 9d ab 39 3c 70 69 64 bc 97 07 e7 bb d8 b2 0e 3c
       0.01133242 -0.013941154 -0.0070504653 0.008709632
0001c0 53 58 2b 3c 50 e7 10 3b 48 04 57 3b 64 95 42 bc
       0.01045807 0.002211053 0.0032808948 -0.011876438
0001d0 37 1a ad b8 d0 37 80 bb 27 9e 08 bc 80 9d 80 bc
       -8.254166e-05 -0.0039129034 -0.008338488 -0.015700102
0001e0 d7 e5 7b 3b 52 3a 43 3b 9f 97 b3 ba 41 b2 b4 ba
       0.0038436556 0.00297894 -0.0013701803 -0.0013786034
0001f0 27 99 11 bb e0 2f 01 bc 91 b1 b3 3b da 06 35 b9
       -0.002221653 -0.007884949 0.005483814 -0.00017264058
000200 df 0a aa 3b 17 07 48 3b 32 16 c3 bb b8 08 8b bc
       0.005189284 0.0030521804 -0.0059535736 -0.01697193
000210 06 86 d6 bb 5d 46 3e bb 2b e9 07 3c 95 ff 05 3c
       -0.0065467386 -0.002903364 0.008295338 0.008178611
000220 f4 81 96 bb 9d ee fc bb 5f b4 27 3b 57 6a 67 bc
       -0.0045931283 -0.0077188746 0.0025589687 -0.0141244745
000230 1e ad bb ba ac 32 1e bc e0 3d 9b 39 eb 01 02 3c
       -0.0014318561 -0.009655636 0.00029610004 0.007935028
000240 fb 52 6f bc 08 a0 25 bc 51 b0 9b bc 4d 09 02 3c
       -0.014607186 -0.010108955 -0.019004973 0.007936788
000250 c5 74 6b 3a 8f bc e7 ba d8 44 00 3b 36 59 19 3c
       0.00089819386 -0.0017680096 0.0019572284 0.009359648
000260 c6 d9 2d 3b aa d3 ed 3b f0 d0 68 3b a5 92 2e bb
       0.0026527508 0.0072578983 0.0035524927 -0.00266377
000270 6f 86 30 3c 98 1e f2 bb b7 b4 15 3b bf d0 40 bb
       0.010774239 -0.007388901 0.002284331 -0.0029421297
000280 bd 77 0d bb 2b d6 5c 3a 7d 3b 7a bc 06 1d cf bb
       -0.0021586262 0.00084242475 -0.015272972 -0.0063205985
000290 dc 1d 33 3c e6 d5 0c bc 83 19 b0 3b 75 e7 6f b9
       0.010932412 -0.008595919 0.005374135 -0.0002287904
0002a0 f9 2d 1f bc f8 51 ec bb 48 e5 0a bc b6 88 85 3c
       -0.009715551 -0.00721192 -0.0084775165 0.01630054
0002b0 00 ed a2 39 1b e9 25 bc e9 1a 3b 3c e1 d3 74 3b
       0.00031075627 -0.010126377 0.01141999 0.0037357735
0002c0 ec b9 66 bc 6c 15 89 bb 93 24 6a ba ea 4b c9 bb
       -0.014082413 -0.004183462 -0.00089318416 -0.006143083
0002d0 0b e9 01 bc 68 89 7c b9 bf f1 dd bb 6d c1 44 bc
       -0.007929097 -0.0002408378 -0.006773203 -0.012009007
0002e0 2a ae a2 bb 65 37 24 3b 2f e2 1c 3b f4 d5 03 3a
       -0.0049646096 0.0025057432 0.0023938527 0.0005029135
0002f0 f9 17 26 bc b2 74 05 bc 30 1a 57 3c 93 18 de bb
       -0.010137551 -0.008145498 0.013128802 -0.006777832
000300 47 a1 b2 3c 9a d1 dd bb 3b 19 0b 3c aa 69 ee ba
       0.021805419 -0.006769371 0.008489902 -0.0018189449
000310 95 46 3e bc 8e 2e 1c 3c e0 16 b8 3b c4 16 b5 bc
       -0.011613508 0.009532584 0.0056179613 -0.022105582
000320 31 21 39 bc 80 7e 5c 3c f3 85 9f bc b8 49 df bb
       -0.011299417 0.013457894 -0.019473052 -0.006814208
000330 91 f1 10 bb 30 58 19 3b 9e 9c ef b8 a3 a2 02 3c
       -0.002211664 0.002339851 -0.0001142558 0.007973346
000340 3d af 1c bc fe b3 3d bc 68 1a ea 3b 28 dd 2e 3c
       -0.009563264 -0.011578558 0.007144261 0.010672845
000350 fc a1 a1 bb 32 19 18 bc cf b0 ff bb 12 2d ec bb
       -0.00493264 -0.009283351 -0.0078030596 -0.0072075212
000360 71 78 77 3c 49 19 cf 3b 91 b6 a9 3b 8c fb e3 3a
       0.015104399 0.006320153 0.0051792343 0.0017393692
000370 ec e1 01 3b 40 24 d5 b9 a2 3c 2e 3b 50 2b 96 bc
       0.0019818498 -0.00040653534 0.0026586433 -0.0183312
000380 70 63 19 3b 24 6b 4c b7 f9 e3 07 3b 97 1c 39 bc
       0.0023405217 -1.2184293e-05 0.0020735248 -0.01129832
000390 5e ab 86 3b d3 53 14 bc 48 d2 e9 39 2c 88 28 bc
       0.004109784 -0.009053188 0.00044597895 -0.010286372
0003a0 a9 b2 5e 3b c3 93 e0 3b 96 fd 14 3b b4 64 21 3c
       0.0033981001 0.006853552 0.0022734157 0.00985067
0003b0 53 de 14 3c a4 1d a0 3b 22 c2 c8 3b a8 f1 49 3c
       0.009086209 0.004886346 0.006126658 0.012325682
0003c0 26 17 9e bb b2 95 42 bb 12 7f c1 bc 58 4d 00 3c
       -0.004824537 -0.0029691276 -0.023620162 0.00783094
0003d0 f1 4f 3b bc 0c 69 b2 3b 37 23 84 bb 15 74 88 3b
       -0.011432634 0.0054446515 -0.0040325182 0.0041642287
0003e0 32 c5 80 3b 5f b2 89 3b fd fe 02 bc a2 d5 bc bb
       0.0039297575 0.0042021717 -0.007995364 -0.0057627717
0003f0 8d 64 1c 3b 0e b2 98 bb ca 37 09 bc 79 7d 34 bb
       0.0023863644 -0.0046598976 -0.008375118 -0.0027540608

action_model._discrete_distribution.branches.1.bias f4 [3]
000000 ef d5 e2 bb 74 74 0f bb a5 e8 13 3c
       -0.0069224755 -0.002188948 0.009027635
