results/VB_1/previousBadminton.onnx (onnx, 299422 bytes, 15 tensors)

discrete_act_size_vector f4 [1, 4]
0	0x40400000	3.0
1	0x40400000	3.0
2	0x40400000	3.0
3	0x40000000	2.0

network_body.observation_encoder.processors.0.normalizer.running_mean f4 [11]
0	0x3ba05f75	0.004894192
1	0x3c7d822c	0.01547293
2	0x3edfdf71	0.4372516
3	0x3edefaad	0.43550625
4	0x40bd80b8	5.9219627
5	0x3b80e0e0	0.003933057
6	0xbf11c518	-0.56941366
7	0x3b9aeb44	0.004727753
8	0xc04adf4b	-3.1698787
9	0xacfc7c0c	-7.1760427e-12
10	0x2b7ffbfa	9.0943887e-13

network_body._body_endoder.seq_layers.0.weight f4 [256, 11]
0	0xbd376b95	-0.044780333
1	0x3d8bfc0c	0.068351835
2	0xbe9c657d	-0.3054618
3	0x3f0605e7	0.52352756
4	0x3e5e731e	0.21723601
5	0x3eca57ad	0.39520016
6	0x3ead8d39	0.33896807
7	0x3e4151e5	0.18878897
8	0x3bde22a5	0.0067790323
9	0x3ef212f8	0.47280097
10	0x3dc17271	0.09445656
11	0xbda0315c	-0.078219146
12	0x3ed67e2a	0.4189313
13	0xbdb5602f	-0.08856236
14	0x3eae44fb	0.34037003
15	0xbe41a6af	-0.18911241
16	0x3eb528ff	0.3538284
17	0x3f185d86	0.59517705
18	0x3e5bdba0	0.21470499
19	0x3f2cbe15	0.6747754
20	0xbe46c99b	-0.19412844
21	0xbce61ebe	-0.02809083
22	0x3de60fee	0.11233507
23	0x3ec5c0de	0.38623708
24	0x3f17fcdf	0.59370226
25	0xbe3bb061	-0.18329002
26	0xbf38e8e6	-0.72230375
27	0x3bc8d788	0.006129209
28	0xbba4c8af	-0.005028806
29	0xbe197312	-0.14985302
30	0xbe8c2a89	-0.27376202
31	0xbeaaa6f1	-0.3333049
32	0x3f0bf373	0.5466835
33	0x3df0c580	0.1175642
34	0x3e3ef2ab	0.18647258
35	0x3e871b76	0.2638814
36	0xbe5f27ab	-0.21792476
37	0xbf4d3846	-0.8016399
38	0xbe88b1be	-0.26698107
39	0x3e8f7ea1	0.28026298
40	0x3e174be9	0.14775051
41	0x3e33442e	0.17506477
42	0x3df2eaeb	0.11861213
43	0xbe306086	-0.17224321
44	0xbedc71a4	-0.4305545
45	0x3e079015	0.13238557
46	0xbeb82048	-0.3596213
47	0x39359389	0.00017316466
48	0xbca1e87a	-0.019764174
49	0x3ecd455f	0.40091988
50	0x3d484e5e	0.04890286
51	0xbdde3f40	-0.10851908
52	0x3e11df66	0.14245376
53	0x3ea54819	0.3228157
54	0xbea07693	-0.31340465
55	0xbe8d63b5	-0.27615133
56	0x3f0992e9	0.5373979
57	0x3ece2212	0.4026037
58	0x3e269d0f	0.1627085
59	0xbe3029a9	-0.17203392
60	0xbde67be6	-0.112541005
61	0x3d6c2de9	0.05766097
62	0xbee8e8c5	-0.4549009
63	0xbec35248	-0.38148713
64	0xbe9082c0	-0.28224754
65	0xbe3d370a	-0.18478027
66	0xbe98705e	-0.2977323
67	0x3e45e200	0.19324493
68	0xbc36014e	-0.0111087095
69	0x3ea62877	0.32452747
70	0xbf0ab9b6	-0.5418962
71	0x3db8ac25	0.09017209
72	0x3d15f690	0.036612093
73	0xbe245e2f	-0.16051553
74	0x3e46bb5f	0.19407414
75	0xbeb3ef1a	-0.35143358
76	0x3d862ce1	0.06551529
77	0xbe54877e	-0.20754811
78	0xbce9188a	-0.028454084
79	0x3db40096	0.08789174
80	0xbea07d4d	-0.31345597
81	0x3e831653	0.2560297
82	0x3e10e8c3	0.14151292
83	0xbe844d35	-0.25840154
84	0xbebfed40	-0.37485695
85	0xbde3629e	-0.11102794
86	0x3f0b0109	0.54298455
87	0xbe087d48	-0.13329041
88	0x3e999297	0.29994652
89	0x3d70a190	0.058747828
90	0xbee1f990	-0.44135714
91	0x3d4e68a9	0.05039278
92	0x3efbef75	0.4920613
93	0x3d45b1cb	0.04826526
94	0x3e1c9038	0.1528939
95	0xbdbe3475	-0.09287349
96	0x3e3642af	0.17798875
97	0xbe247885	-0.160616
98	0xbe4f705a	-0.20257702
99	0x3e918e5f	0.28428933
100	0xbe60ddf1	-0.21959664
101	0xbf10222e	-0.56302154
102	0xbf034247	-0.51273006
103	0xbe3dec9c	-0.1854729
104	0xbe749a58	-0.23887002
105	0x3d64faf0	0.055903375
106	0xbe97f6fe	-0.29680628
107	0xbe5145bb	-0.20436756
108	0xbeefb00d	-0.46814004
109	0x393d3e27	0.00018047598
110	0xbdde43a1	-0.10852743
111	0x3e06e706	0.13174066
112	0xbed27850	-0.41107416
113	0x3e342094	0.17590553
114	0xbaef1717	-0.0018241134
115	0x3eb6ef70	0.3572955
116	0x3d52a314	0.051425055
117	0x3ec9249f	0.39285752
118	0xbdbac0d3	-0.091188096
119	0xbe07dd9c	-0.13268131
120	0x3e0ba007	0.13635264
121	0xbdcaab8b	-0.098960005
122	0xbd07a256	-0.0331138
123	0x3f606b79	0.8766399
124	0x3e2b412a	0.16724077
125	0xbe205a4d	-0.15659447
126	0x3d5b9f3a	0.053618647
127	0x3e2c8289	0.1684667
128	0x39401df6	0.00018321708
129	0xbd8971d5	-0.06711165
130	0xbeecabc4	-0.46224797
131	0xbe82ae4a	-0.25523597
132	0xbf0899cd	-0.5335968
133	0xbebccf4e	-0.3687691
134	0x3e9d1a90	0.30684328
135	0xbe3bfb35	-0.18357547
136	0xbbdac63e	-0.0066764643
137	0xbeda7a11	-0.42671254
138	0xbcae2185	-0.021256218
139	0xbf28ff54	-0.660146
140	0x3ee7a660	0.45244122
141	0x3e8b0f6c	0.27160203
142	0xbf06bf81	-0.5263596
143	0xbb828b9f	-0.0039839293
144	0x3e00a8cd	0.12564392
145	0x3ef2dc1a	0.4743355
146	0xbe51b8f5	-0.20480712
147	0x3f164939	0.5870548
148	0xbc580977	-0.01318585
149	0xbe2c9976	-0.16855416
150	0xbde40a04	-0.11134723
151	0xbe06ad27	-0.1315199
152	0xbd6b5ab5	-0.05745955
153	0xbbe49593	-0.0069758384
154	0x3ea7e535	0.3279206
155	0xbe082b99	-0.13297881
156	0x3e71eba9	0.23625053
157	0xbed75f69	-0.4206498
158	0xbe058149	-0.130376
159	0xbd558e65	-0.05213775
160	0xbde00bcd	-0.10939751
161	0xbc77d6a0	-0.015126854
162	0x3f1dc4e5	0.6162856
163	0x3dfb7f9e	0.122802004
164	0xbf3806c4	-0.71885324
165	0x3b9434e2	0.0045229057
166	0x3da25e9c	0.079282016
167	0x3f2234b1	0.6336165
168	0x3c1cb440	0.009564459
169	0x3d7b59a1	0.061364774
170	0x3e34c1e5	0.1765209
171	0xbe676c01	-0.22599794
172	0xbf18e8a7	-0.5973
173	0xbea7a58b	-0.32743487
174	0xbf02bd5d	-0.51070195
175	0x3e52f419	0.20600928
176	0xbe6dff86	-0.23242006
177	0xbde0531b	-0.10953351
178	0xbe17328b	-0.14765374
179	0xbf12f20d	-0.5740059
180	0x3d9bac05	0.076011695
181	0xbe6e92f7	-0.2329825
182	0x3e624b44	0.22099024
183	0xbc8b317c	-0.01699137
184	0xbe7a1f5f	-0.2442603
185	0x3d91077d	0.070815064
186	0x3eb7e9a2	0.35920435
187	0x3ee395aa	0.44450122
188	0x3e60e8e4	0.2196384
189	0xbec6ed22	-0.38852793
190	0xbc2a3050	-0.010387495
191	0x3e5a845c	0.21339554
192	0xbed19fa9	-0.40942124
193	0x3d8254c4	0.06363824
194	0xbe64849b	-0.2231621
195	0x3eaabbde	0.33346456
196	0xbe325c0c	-0.17417926
197	0xbe8c8206	-0.2744295
198	0x3e9b11b5	0.30286947
199	0x3e74319d	0.23847051
200	0xbf390e3e	-0.72287357
201	0xbd881ecd	-0.066465
202	0xbcaa84f9	-0.02081536
203	0xbd9b4fa7	-0.07583552
204	0xbed0d388	-0.40786386
205	0x3f4036c5	0.7508357
206	0xbcede53c	-0.029039972
207	0x3d9e9072	0.077423945
208	0xbdfbce05	-0.122951545
209	0xbe1adba1	-0.15122844
210	0xbea4d382	-0.32192618
211	0xbe0d888a	-0.13821617
212	0xbe7890f7	-0.2427405
213	0x3e9c827b	0.305683
214	0x3e121415	0.14265473
215	0xbe18d39f	-0.14924477
216	0xbefb1963	-0.49042806
217	0x3e5121d2	0.20423058
218	0x3f01d7af	0.5071973
219	0xbe37d69f	-0.17952965
220	0x3e9c803e	0.3056659
221	0xbed5454e	-0.41654438
222	0xbe31806d	-0.17334147
223	0xbe645b0a	-0.22300354
224	0xbc60819c	-0.013702776
225	0x3d3109c7	0.043222215
226	0x3e477592	0.19478443
227	0x3ada6641	0.0016662554
228	0xbd84876d	-0.06471143
229	0x3e83393c	0.25629604
230	0xbef827aa	-0.4846776
231	0x3e53a679	0.20668973
232	0x3f9276a5	1.1442457
233	0xbddea7bc	-0.108718365
234	0x3bac6a28	0.0052616782
235	0x3f5ed20b	0.8703925
236	0xbf483a7d	-0.78214246
237	0xbea27f7f	-0.31737897
238	0xbd83cfed	-0.06436143
239	0xbebbebb6	-0.3670327
240	0xbe8e7bf7	-0.27828953
241	0xbe44f21a	-0.1923298
242	0xbdf2eb5f	-0.118613
243	0x3c52456b	0.012833933
244	0x3c06aa0e	0.008219255
245	0xbc1821f5	-0.00928544
246	0xbe8a9806	-0.2706911
247	0xbe439801	-0.19100954
248	0x3ec9addb	0.39390454
249	0x3efb04ec	0.49027193
250	0xbe30610d	-0.17224522
251	0x3c0a5e3e	0.008445321
252	0x3f05343e	0.5203284
253	0x3e538404	0.20655829
254	0xbe903d2a	-0.28171664
255	0xbca811e5	-0.020516345

network_body._body_endoder.seq_layers.0.bias f4 [256]
0	0xbc2b872f	-0.010469242
1	0x3bbaa119	0.005695474
2	0x3c212c7e	0.009837268
3	0xbcf0c67d	-0.029391522
4	0xbc951414	-0.01819805
5	0x3ca86c70	0.02055952
6	0x3cda760a	0.026667614
7	0xbce8324d	-0.028344298
8	0x3d615732	0.055014797
9	0x3b85e171	0.0040857126
10	0x3cd07157	0.02544467
11	0xbc7debe0	-0.0154981315
12	0x3c0128cd	0.007883263
13	0x3ccf8bfb	0.025335303
14	0x3c517ce0	0.01278612
15	0x3cc7d226	0.024392199
16	0xbba7818d	-0.005111879
17	0xbc22e7bf	-0.009942948
18	0x3cfa6ea3	0.030570334
19	0x3cdb86e2	0.026797716
20	0x3c83d000	0.016090393
21	0x3d546c4b	0.05186109
22	0xbd6c2ebc	-0.057661757
23	0xbcaef875	-0.021358708
24	0xbc63cf81	-0.013904453
25	0xbcf51559	-0.029917406
26	0xbbed3923	-0.0072394772
27	0x3beeb0f0	0.007284276
28	0xbcacc8da	-0.021091867
29	0x3b0394df	0.0020077748
30	0xbba24771	-0.004952364
31	0xbbfb3f6a	-0.0076674717
32	0x3cc6a79f	0.02424985
33	0xbc90fe11	-0.017699273
34	0x3af08286	0.0018349446
35	0xbc6a23cc	-0.014290761
36	0x3d06e1cf	0.03293019
37	0x3d093264	0.033495322
38	0x3c17ee63	0.009273144
39	0xbd4c97f1	-0.04994959
40	0x3c343ae2	0.011000367
41	0x39fb57b6	0.000479398
42	0xbc1d92a6	-0.009617483
43	0xbc482cfe	-0.012217758
44	0xbcb55889	-0.022136943
45	0x3d52b57e	0.051442616
46	0xbbe480ba	-0.006973353
47	0x3c90b80a	0.017665882
48	0xb90a7053	-0.0001320255
49	0xbc9d79f9	-0.0192232
50	0xbc7ec7c4	-0.0155505575
51	0xbcc174a8	-0.023615196
52	0xbca5920c	-0.020211242
53	0x3d1bb5cb	0.03801517
54	0x3bd9b0f5	0.0066434094
55	0xba763654	-0.0009392251
56	0x3cd45754	0.025920548
57	0x3a6f9fe9	0.0009140955
58	0x3c85744c	0.016290806
59	0xbc277253	-0.010220128
60	0x3c18bade	0.009321896
61	0x3c02ef30	0.007991597
62	0xbbab62d7	-0.0052302885
63	0x3b96fd80	0.0046078563
64	0xbce85462	-0.02836055
65	0x3cedfb05	0.02905036
66	0xbc8bdc0b	-0.017072698
67	0xbbd4d52b	-0.006495138
68	0xbca0671b	-0.019580415
69	0x3816dcac	3.5968304e-05
70	0xbab9066c	-0.0014116294
71	0xbaf352be	-0.0018564088
72	0xbcc63a8e	-0.024197843
73	0xbceae50a	-0.028673667
74	0xbc9e6f36	-0.019340139
75	0x3c5f5635	0.013631393
76	0xbc74beb6	-0.014938047
77	0xbcb6fe9e	-0.022338208
78	0x3bf0164e	0.0073268777
79	0x3b576dfb	0.003287195
80	0x3d866a99	0.06563301
81	0xbcdd8982	-0.027043108
82	0xbc719e78	-0.014747255
83	0x3ccd750f	0.025080232
84	0x3ce390d9	0.02777903
85	0xbb7504c0	-0.0037386864
86	0x3c95f7e6	0.018306684
87	0xbd090fbd	-0.033462275
88	0x3d6581be	0.056031935
89	0x3cb12aed	0.021626914
90	0x3d700168	0.05859509
91	0xbcd84654	-0.026400723
92	0x3b27582d	0.0025534735
93	0xbaaa4103	-0.0012989346
94	0x3ae83a65	0.0017717598
95	0x3da9cdaf	0.08291184
96	0x3b29fcef	0.0025938114
97	0xbc847384	-0.016168363
98	0x39a48249	0.00031377588
99	0xbc9ad42d	-0.018900001
100	0x3c9a4dd6	0.018835943
101	0x3d65baa3	0.056086194
102	0xbbfc7ed1	-0.0077055474
103	0xb95aa26d	-0.00020850608
104	0x3c7b99ad	0.015356463
105	0xbb0a4182	-0.0021096175
106	0xbb0c07b4	-0.0021366896
107	0xbcb5be2a	-0.022185404
108	0xbcd1c179	-0.02560495
109	0x3d4a162b	0.049337547
110	0x3aeaee95	0.0017923886
111	0xbbd8e007	-0.006618503
112	0x3dabf7e7	0.08396893
113	0x3ce1bdc3	0.027556306
114	0xbd11057f	-0.035405632
115	0xbca8d2d9	-0.020608352
116	0x3baeaa13	0.005330333
117	0xbcb6165a	-0.022227455
118	0x3cffbe0b	0.03121855
119	0xbceeeb87	-0.029165043
120	0x3caec598	0.021334454
121	0x3d1e7d4f	0.038693722
122	0xbc6b2a09	-0.014353284
123	0x3c58f9f2	0.013243185
124	0x3ca39e6f	0.019973008
125	0x3bbd697b	0.0057803965
126	0xbcdd1957	-0.026989622
127	0xbcb1180b	-0.02161791
128	0x3ccf2b12	0.025289092
129	0xbc31b0ea	-0.010845402
130	0xbcf98ff7	-0.030464156
131	0xbcb0893d	-0.021549815
132	0xbc8ef702	-0.017451767
133	0x3ce261df	0.02763456
134	0xbceb8ba2	-0.028753106
135	0xbc3001b4	-0.010742594
136	0xbc9a8fcc	-0.018867396
137	0xbc065566	-0.0081990715
138	0x3ae6c1e3	0.001760539
139	0x3c2d44e1	0.010575504
140	0xbcef58f2	-0.029217217
141	0xbb1d2e3f	-0.0023983864
142	0x3b8afdd6	0.0042416854
143	0x3ca9f0b1	0.020744653
144	0x3b3a0416	0.0028383783
145	0xbceb57a8	-0.028728321
146	0xbd6b7879	-0.05748794
147	0x3ce3a382	0.027787928
148	0x3c5e3c80	0.013564229
149	0x3c7faf6b	0.015605788
150	0xbc8dbca9	-0.017301874
151	0xbc2f535f	-0.01070103
152	0x3d2c96ef	0.04213613
153	0xbbb98d8a	-0.0056626247
154	0x3d77dd00	0.060513496
155	0x3d0c254f	0.034215268
156	0xbbe799f2	-0.0070679123
157	0x3b44447f	0.0029948053
158	0xbc8fca96	-0.017552655
159	0xbd007fa9	-0.031371746
160	0xbb711992	-0.0036788923
161	0x3cc4cd10	0.024023563
162	0xbbc2612a	-0.005931993
163	0x3c8794c1	0.016550424
164	0x3da2bf40	0.07946634
165	0x3cabc13d	0.020966167
166	0x3d12de4b	0.035856526
167	0xbd1e47d9	-0.038642738
168	0xbc6e1946	-0.014532393
169	0x3c52d85d	0.012868968
170	0xbb4975cc	-0.0030740378
171	0x3d1fd2c0	0.039019346
172	0xbb9b3992	-0.0047370875
173	0xbccf1988	-0.025280729
174	0xbc94b130	-0.018150896
175	0x3c65651c	0.014001157
176	0xbc5f811b	-0.013641621
177	0xbcbe8961	-0.023258867
178	0x3d80f2fd	0.06296346
179	0x3cb64ac0	0.02225244
180	0xbc851ca9	-0.016249018
181	0x3d1ceda1	0.038312558
182	0xbb172585	-0.0023063135
183	0xbbe23654	-0.006903449
184	0xbbb5b2c0	-0.0055449903
185	0xbbc06889	-0.0058718366
186	0xbd19b41f	-0.037525292
187	0xbcdea53a	-0.027178396
188	0x3c8fc9cb	0.017552277
189	0x388b992f	6.656569e-05
190	0x3b0d1bd5	0.0021531482
191	0x3c952da7	0.018210245
192	0xbd007976	-0.031365834
193	0xbb87f3a0	-0.0041489154
194	0x3a7810fc	0.000946298
195	0x39c501d4	0.0003757613
196	0xbc369c74	-0.0111457
197	0xbb922a2f	-0.004460595
198	0xbd180417	-0.037113275
199	0x3c873976	0.016506892
200	0x3ba657c1	0.005076379
201	0xbd38e368	-0.045138747
202	0x3b16823a	0.0022965805
203	0xbcf886b4	-0.030337669
204	0x3bf79cc3	0.0075565292
205	0xbc32c7f6	-0.010911932
206	0xbc8155f0	-0.015788049
207	0xbb3dffff	-0.0028991697
208	0x3d845b0c	0.06462678
209	0xbd573664	-0.052542105
210	0xbd02a886	-0.031898998
211	0xbc7a5591	-0.01527919
212	0x3c1fe112	0.009758251
213	0x3c908bcf	0.017644791
214	0x3d4bdac5	0.04976918
215	0xbcdfc273	-0.0273144
216	0xbbbdc7de	-0.0057916483
217	0x3c09ad54	0.008403141
218	0xbcc7d0dc	-0.024391584
219	0x3c0f6c13	0.008753794
220	0xbca8d78a	-0.02061059
221	0xbc3cf79b	-0.011533643
222	0x3cab492e	0.020908918
223	0x3c1f3dca	0.0097193215
224	0x3b335172	0.0027361778
225	0xbc88b6cc	-0.016688727
226	0xbc05da3f	-0.00816971
227	0xbcbdc08e	-0.023163106
228	0xbb7f0757	-0.0038914287
229	0xbc099c4f	-0.008399083
230	0x3d849cc9	0.06475217
231	0x3d6910fd	0.056900967
232	0x3caabe3c	0.020842664
233	0xbb9322c2	-0.0044902274
234	0xbc330975	-0.010927548
235	0xbb9ecc03	-0.0048460974
236	0xbae7d8a5	-0.0017688466
237	0xbb4ba0f2	-0.0031071273
238	0xbc604ba2	-0.013689907
239	0xbc4f325f	-0.012646287
240	0xbc132fd3	-0.00898357
241	0xbb8eaae0	-0.004353866
242	0x3ccc6de3	0.024954742
243	0xb85a24c0	-5.2009476e-05
244	0x3b7d02a8	0.003860632
245	0xbbf3269c	-0.007420374
246	0xbc8b0b63	-0.016973203
247	0x3cd58e8c	0.026068948
248	0x3c6918fb	0.014227147
249	0x3bef1001	0.007295609
250	0xbc2e8c8d	-0.010653627
251	0xbc7363ec	-0.014855366
252	0xbbf4bf29	-0.007469077
253	0x3d080cec	0.03321545
254	0xbce9e2ca	-0.028550524
255	0x3c9d670b	0.019214174

network_body._body_endoder.seq_layers.2.weight f4 [256, 256]
0	0xbda38969	-0.07985193
1	0x3d50e965	0.051003832
2	0x3d9cd1c6	0.076571986
3	0x39c9cdb5	0.0003849097
4	0xbdd7728f	-0.10519897
5	0x3d4f898a	0.050668277
6	0xbcc98c5b	-0.02460306
7	0x3dd558e7	0.104173474
8	0xbdaed7ba	-0.0853724
9	0xbe1162b4	-0.14197809
10	0xbd83dab5	-0.064381994
11	0xbc9982d4	-0.018739142
12	0xbd2b5a31	-0.04183406
13	0xbd37cc60	-0.04487264
14	0x3cd1a398	0.025590703
15	0xbcede9ee	-0.02904221
16	0xbd7fa936	-0.06241723
17	0x3c6f6361	0.014611096
18	0xbdadc9f6	-0.084857866
19	0xbd9cdf41	-0.0765977
20	0xbd9b23de	-0.075752005
21	0x3cd839a4	0.026394673
22	0x3db5c592	0.08875574
23	0xbdd1660f	-0.10224544
24	0xbd79ce1e	-0.060987584
25	0x3c7f1165	0.015568112
26	0xbe257b80	-0.16160393
27	0x3d1b336b	0.037890833
28	0x3d7236c5	0.059134264
29	0xbbd2bbf2	-0.0064310962
30	0x3c41524e	0.011799408
31	0x3d334f7f	0.043776985
32	0xbbedebee	-0.007260791
33	0x3d83ecd8	0.06441659
34	0x3dee2039	0.1162724
35	0x3de4c477	0.11170285
36	0xb922f946	-0.00015542386
37	0xbcf86bc7	-0.03032483
38	0x3d9f5865	0.07780532
39	0x3d8a70f2	0.06759824
40	0x3d454ed9	0.048170898
41	0xbdb3afc3	-0.08773758
42	0x3d8d5bba	0.06902261
43	0xbde9fe81	-0.11425496
44	0x3d1e3db3	0.03863306
45	0x3d8f4085	0.06994728
46	0x3c394fee	0.011310561
47	0xbc902af9	-0.017598616
48	0xbd637e00	-0.055540085
49	0xbc4bf0b8	-0.012447529
50	0xbd8a7ca2	-0.06762053
51	0x3dc318ef	0.0952624
52	0xbd3de8d1	-0.04636461
53	0xbd0b4465	-0.034000773
54	0xbcc81f2a	-0.024428923
55	0x3b6cfaf0	0.0036160313
56	0xbc0bfbf2	-0.008543955
57	0x3bba080d	0.0056772293
58	0xbd81ac0e	-0.06331645
59	0x3d34a907	0.04410651
60	0x3b9b37d6	0.004736881
61	0x3d929048	0.07156426
62	0x3d289606	0.0411587
63	0xbcbc1972	-0.022961352
64	0x3ceb9f8d	0.028762603
65	0xbde407d6	-0.11134307
66	0xbdbbaac4	-0.0916343
67	0xbd296f55	-0.04136594
68	0xbd4a5fa7	-0.049407627
69	0xbcc5acff	-0.024130343
70	0x3cb3ce78	0.021949038
71	0xbdb23c9b	-0.08702966
72	0xbcdd8e21	-0.027045311
73	0xbbd4e7bb	-0.006497351
74	0x3cb05b7d	0.021528
75	0x3d7c0138	0.0615246
76	0x3d18a5a1	0.03726733
77	0xbce71aec	-0.02821108
78	0x3e02bc79	0.12767209
79	0x3d050b91	0.032481734
80	0x3c838336	0.016053777
81	0x3cb13d32	0.021635626
82	0xbad3ac88	-0.0016149441
83	0x3d648234	0.055788234
84	0x3d923b6c	0.0714024
85	0xbcf8e050	-0.030380398
86	0x3d4d4ac2	0.050120123
87	0x3dac7c82	0.084221855
88	0x3dab49a3	0.083636545
89	0x3bbf4671	0.0058372547
90	0xbcefe49f	-0.02928382
91	0xb96522c6	-0.00021852096
92	0x3dc2ec6a	0.09517749
93	0xbd8a67c8	-0.06758076
94	0x3c6ab5e9	0.014325597
95	0x3cfea783	0.031085735
96	0xbd1855b9	-0.037191126
97	0x3d896673	0.06708994
98	0xbd15758a	-0.036489047
99	0xbddc6ab7	-0.10762542
100	0xbc9c5905	-0.019085417
101	0xbdf32221	-0.11871744
102	0xbca471d4	-0.020073809
103	0x3d247e93	0.040159773
104	0xbd0a3997	-0.03374633
105	0xbc72acb4	-0.014811683
106	0xbd218d69	-0.0394415
107	0x3de11cbe	0.1099181
108	0xbd01016b	-0.031495493
109	0x3d94566d	0.07243047
110	0xbd01a5d4	-0.031652287
111	0xbccfe8cf	-0.025379566
112	0xbdcdb5e0	-0.100444555
113	0x3da409bd	0.0800967
114	0xbd905d2e	-0.070490226
115	0xbd93789f	-0.07200741
116	0xbb253614	-0.0025209235
117	0x3cec59b3	0.028851366
118	0x3cd1c2be	0.025605556
119	0xbda63608	-0.081157744
120	0x3d27d6e0	0.040976405
121	0xbe23eab4	-0.16007501
122	0xbd7f41c8	-0.062318593
123	0xbd727ea1	-0.059202794
124	0xbd214686	-0.039373897
125	0x3dac70a6	0.084199235
126	0x3c195b6c	0.009360176
127	0xbd40508f	-0.046951827
128	0xbd66abc8	-0.056316167
129	0xbdafc65d	-0.08582757
130	0xbd0cb2cb	-0.034350198
131	0x3c80045e	0.015627082
132	0x3cf6d6c8	0.030131713
133	0x3d792467	0.06082573
134	0xbd4aa48a	-0.049473323
135	0xbd9dbbc2	-0.077018276
136	0xbd120203	-0.03564645
137	0x3d370e7e	0.044691555
138	0xbcd6edb6	-0.026236396
139	0xbd631055	-0.055435497
140	0xbd8bc536	-0.068247244
141	0xbdfb51fd	-0.122714974
142	0x3dae40e7	0.08508473
143	0xbdfbfd1b	-0.123041354
144	0x3d722970	0.05912155
145	0xbda676e0	-0.08128142
146	0xbd06d032	-0.032913394
147	0xbd5d6038	-0.05404684
148	0x3d833601	0.06406785
149	0x3dace81a	0.08442707
150	0xbd318823	-0.04334272
151	0x3d1876be	0.037222616
152	0xbc9fc7ea	-0.019504506
153	0xbd21cb63	-0.039500605
154	0xbc17c025	-0.009262119
155	0xbd8d088a	-0.06886394
156	0x3daad78f	0.08341896
157	0x3d4bb2b4	0.04973097
158	0x3d1be350	0.03805858
159	0x3c74524e	0.014912201
160	0x3bf317aa	0.0074185925
161	0xbe19d76e	-0.15023586
162	0x3d3633dd	0.044483054
163	0x3c85ad92	0.016318116
164	0xbe12fd25	-0.1435438
165	0xbcf85bfd	-0.0303173
166	0x3ceda03a	0.029007066
167	0x3cdfe20b	0.027329465
168	0x3cb4a0b3	0.022049284
169	0xbc8253c8	-0.01590909
170	0xbd8fea74	-0.0702714
171	0xbdbdd082	-0.09268285
172	0x3cbfb0d6	0.023399752
173	0xbcbf4a76	-0.023350935
174	0xbe2d8aea	-0.16947523
175	0x3d67b5e1	0.056569938
176	0xbe109495	-0.1411918
177	0xbd8abf71	-0.06774796
178	0x3cc04a31	0.023472877
179	0xbc8328de	-0.016010698
180	0xbd16a1be	-0.036775343
181	0xbd6920d6	-0.05691608
182	0xbcc95661	-0.024577321
183	0xbdaed16a	-0.08536036
184	0xbd461a05	-0.048364658
185	0xba89aa1a	-0.0010502965
186	0x3d97ae63	0.074063085
187	0xbca713da	-0.020395208
188	0xbcf77c7c	-0.030210726
189	0x3cbfbbb8	0.023404941
190	0x3bb94997	0.0056545245
191	0x3afc5491	0.0019251277
192	0x3d8c389a	0.068467334
193	0x3d8f3d90	0.06994164
194	0xbd48a420	-0.048984647
195	0xbcd42998	-0.02589874
196	0xbd2ad0dc	-0.04170309
197	0xba2d1b85	-0.0006603527
198	0x3e38354f	0.17989086
199	0x3dc5d797	0.09660261
200	0xbdea6386	-0.11444764
201	0xbcb1f2eb	-0.021722278
202	0xbc9e03bd	-0.019288892
203	0xbdcb1ba6	-0.09917383
204	0xbd742f24	-0.05961527
205	0x3e3355e3	0.17513232
206	0x3d15691d	0.036477197
207	0xbd287579	-0.041127656
208	0x3cf0416c	0.02932807
209	0xbd7308b2	-0.059334464
210	0x3d3af587	0.04564431
211	0xbcd1fcba	-0.025633205
212	0x3d1abca6	0.037777565
213	0xbda36ba8	-0.07979518
214	0xbd9c9b86	-0.07646851
215	0x3ded8b36	0.11598818
216	0xbd831a64	-0.06401518
217	0xbdbed1b4	-0.093173414
218	0x3d2245e9	0.039617453
219	0xbe0dfe51	-0.13866545
220	0xbc7b5cfd	-0.015341994
221	0xbd84805b	-0.06469794
222	0x3cd35be2	0.02580065
223	0x3c397bcd	0.01132102
224	0xbd438b2b	-0.047740143
225	0xbd6ad66b	-0.05733339
226	0xbc814425	-0.015779564
227	0x3c5bbf09	0.013412246
228	0x3d293417	0.041309442
229	0xbd6fd643	-0.058553945
230	0xbd245290	-0.0401178
231	0x3d78df59	0.060759876
232	0x3d1844b7	0.037174907
233	0xbc6c8205	-0.014435296
234	0x3d28b058	0.0411838
235	0x3ce7d716	0.028300803
236	0xbdd8e74d	-0.10590992
237	0xbd47d841	-0.04879022
238	0x3aab0356	0.0013047259
239	0xbcd2dc98	-0.025739953
240	0x3e1ec6b1	0.15505482
241	0xbdd57fdb	-0.10424777
242	0x3daee0c6	0.08538966
243	0xbd0d8750	-0.034552872
244	0xbcca425f	-0.024689851
245	0x3d0d56a1	0.034506444
246	0x3d48f426	0.049060963
247	0x3e1ad434	0.15120012
248	0xbc903470	-0.01760313
249	0x3be95270	0.007120423
250	0xbd65cf0f	-0.05610567
251	0x3dc306f3	0.0952281
252	0xbd03ec1e	-0.0322076
253	0x3c405211	0.011738316
254	0x3d691708	0.05690673
255	0x3cf812c7	0.030282391

network_body._body_endoder.seq_layers.2.bias f4 [256]
0	0x3c38e8f0	0.011286005
1	0x3b57f6fd	0.0032953613
2	0xbd082593	-0.03323896
3	0xbbb53364	-0.005529808
4	0xbceac5b1	-0.02865872
5	0xbc116943	-0.008875194
6	0xbce13631	-0.02749166
7	0xbcb2b7ec	-0.021816216
8	0x3ad21ebc	0.0016030888
9	0xbb41270f	-0.0029472744
10	0xbc7f6519	-0.015588068
11	0x3c1e9c74	0.009680856
12	0x3c2fd279	0.010731333
13	0xbccc1f38	-0.02491723
14	0x3c0aa3d9	0.008461916
15	0xbba4d6fb	-0.0050305105
16	0xbce827e8	-0.028339341
17	0x3c33b333	0.010968017
18	0xbb286817	-0.0025696808
19	0xbcd8d13f	-0.026466964
20	0x3b47c5e1	0.0030482935
21	0x3bb31372	0.0054649645
22	0x3cfd1b17	0.030896707
23	0xbcf4aa63	-0.029866403
24	0xbbe188f9	-0.0068827835
25	0xbc70ce4f	-0.014697625
26	0xbd1c76f0	-0.038199365
27	0xbc218b23	-0.009859833
28	0xbbf17ff6	-0.0073699905
29	0xbc89c9b9	-0.016819822
30	0xbc8450cd	-0.01615181
31	0xbc2d5760	-0.010579914
32	0xbcbd27d9	-0.02309029
33	0x3b54344a	0.00323798
34	0x3c92a398	0.017900273
35	0x3b83503b	0.004007367
36	0x3bcbf532	0.006224298
37	0xbcc2c649	-0.02377619
38	0xbd2884b6	-0.041142188
39	0xbcc6a96c	-0.024250709
40	0xbc16448e	-0.009171618
41	0xbcca67c7	-0.024707688
42	0xbb5471bf	-0.003241643
43	0x3c9fbd34	0.019499399
44	0xbd252014	-0.040313795
45	0xbd11ee4f	-0.03562766
46	0xbcffce94	-0.031226434
47	0xbc227b4e	-0.009917093
48	0xbca84ca5	-0.02054436
49	0xbc80694a	-0.015675206
50	0xbc66c445	-0.01408488
51	0xbceb8205	-0.028748522
52	0x3bc767ad	0.006085357
53	0xbd2b4929	-0.041817818
54	0xbd200e6f	-0.039076265
55	0xbcd53d64	-0.02603025
56	0xbbff3d76	-0.007789309
57	0xbc8e3d67	-0.017363263
58	0xbc8d30e6	-0.01723523
59	0xbcfc2583	-0.030779606
60	0x3bafe8ee	0.0053683436
61	0x3b80c297	0.003929447
62	0x3ca0dba4	0.019635983
63	0xbc40daa9	-0.011770883
64	0x3c003ffa	0.007827753
65	0xbc2e3d70	-0.010634765
66	0x3b77a91e	0.003779001
67	0xbc639237	-0.013889841
68	0xbc981afd	-0.018567557
69	0xbc8b09f3	-0.016972518
70	0xbd2080f8	-0.039185494
71	0xbbe00bf8	-0.0068373643
72	0xbc58bcce	-0.013228608
73	0xbb896cb9	-0.004193869
74	0xbb93fc50	-0.004516162
75	0xbc25c160	-0.010116905
76	0xbb8ec407	-0.0043568644
77	0xbc999bcd	-0.01875105
78	0xbcb284da	-0.021791864
79	0xbab2547d	-0.0013605502
80	0xbbf5f740	-0.007506281
81	0xbcc80083	-0.024414307
82	0xbbbab4a9	-0.005697806
83	0xbd0a8ac6	-0.03382375
84	0x3ce02549	0.027361529
85	0xbd285952	-0.041100807
86	0x3b9150f8	0.004434701
87	0xbd55a8fc	-0.05216311
88	0xbcadbad5	-0.021207253
89	0x3b090195	0.0020905484
90	0x3a2e3347	0.0006645214
91	0xbb8d0063	-0.0043030246
92	0xbc0ccecf	-0.008594229
93	0xbc786e3b	-0.015163
94	0x3c50baa7	0.012739814
95	0xbcb4faf6	-0.022092324
96	0xbce051a7	-0.027382685
97	0x3cbcc1c2	0.02304161
98	0x3ca9c132	0.020722006
99	0xbc8747c6	-0.016513716
100	0xbcb22aa2	-0.021748845
101	0x3c97ca60	0.018529117
102	0x3abb0449	0.0014268245
103	0x3b2a8286	0.002601774
104	0xbcbaee67	-0.022818757
105	0x3c2ef4a5	0.010678445
106	0xbc3cedd3	-0.011531311
107	0x3d1cbcc0	0.038265944
108	0x3d1941b1	0.037416164
109	0x3c0308b5	0.007997681
110	0xbcd785eb	-0.026308974
111	0xbc582f0b	-0.01319481
112	0x3c93cc10	0.01804164
113	0xbc577035	-0.013149311
114	0xbbb3f30b	-0.0054916195
115	0x3af86552	0.0018951094
116	0xbc7bf9c0	-0.015379369
117	0xbcc38f42	-0.023872022
118	0xbb5a2659	-0.0033287017
119	0x3a1b763c	0.0005930399
120	0xbc129331	-0.008946226
121	0xbad4e5e6	-0.0016242831
122	0xbd0c3fb7	-0.03424045
123	0xbd47abbe	-0.04874777
124	0xbb346be6	-0.0027530133
125	0x3d2c3d72	0.042050786
126	0x3b2691a3	0.0025416396
127	0xbc89dff3	-0.01683042
128	0xbb90637c	-0.0044063907
129	0xbbff968b	-0.0077999285
130	0xbd0f0dba	-0.0349252
131	0x3b8caae5	0.004292833
132	0xbca21bfb	-0.019788733
133	0xbd1a0a97	-0.037607756
134	0xbd1d9413	-0.038471293
135	0xbcfb3507	-0.030664934
136	0x3cb40be4	0.021978326
137	0x3bfb1a39	0.007663038
138	0xbcb9a4c7	-0.02266158
139	0xbb9d83b2	-0.004806959
140	0xbd01dfe8	-0.031707674
141	0xbc0bd36c	-0.008534294
142	0xb9f4a7a3	-0.00046664206
143	0xbc7b0aa8	-0.015322365
144	0xbcf4b5a7	-0.029871775
145	0x3d1becdb	0.03806768
146	0x3bbe78bc	0.0058127325
147	0x3bad5e62	0.0052907923
148	0x3c3a3952	0.011366205
149	0xbc66531f	-0.014057904
150	0x3c977500	0.018488407
151	0xbb6979a5	-0.0035625484
152	0x3cd11ee3	0.025527423
153	0xbc01c773	-0.007921088
154	0xbcf0a99d	-0.029377753
155	0xbc6623ac	-0.014046591
156	0x3c9f35d0	0.01943484
157	0x3bc1005b	0.005889935
158	0xbcee16da	-0.02906363
159	0xbaa8e5e5	-0.0012885897
160	0xbc8d2ece	-0.017234232
161	0xbc1414e6	-0.009038186
162	0xbb98ad8b	-0.00465936
163	0x3cac17c9	0.021007435
164	0xbd021bbd	-0.031764735
165	0xbc8b222b	-0.016984066
166	0xbcfade55	-0.030623594
167	0x3cce0512	0.025148902
168	0xbc8c0be0	-0.017095506
169	0xbd1195a7	-0.03554311
170	0xbb8b736b	-0.0042557023
171	0x3c5bfb3d	0.013426599
172	0xbbf6470a	-0.0075157927
173	0xbc3f811d	-0.011688498
174	0x3caa5f33	0.020797348
175	0x3c912b2d	0.017720783
176	0xbc7c40e8	-0.015396334
177	0xbcc09621	-0.023509087
178	0x3b95a51c	0.0045668017
179	0xbd123e7c	-0.03570412
180	0xbc9a0b6a	-0.01880427
181	0x3aed0ddc	0.0018085795
182	0xbc89d3fc	-0.016824715
183	0xbcacc634	-0.021090604
184	0x3c6bcd4a	0.014392206
185	0xbc7f0afe	-0.015566586
186	0x3cfd344d	0.030908728
187	0xbc282444	-0.010262553
188	0xbc8b8732	-0.01703224
189	0x3b06dbd4	0.0020577805
190	0x3d06707a	0.03282211
191	0xbcbc1245	-0.02295793
192	0xbc58a595	-0.013223072
193	0x3c2c59dd	0.010519472
194	0x3c234295	0.009964605
195	0xbc9d3a41	-0.019192817
196	0xbc8f9d5c	-0.01753109
197	0xbb546578	-0.0032409113
198	0x3c38cfdd	0.011280027
199	0xbc1be3e6	-0.009514784
200	0x3baab759	0.005209845
201	0x3cf75d11	0.030195745
202	0xbd3d3435	-0.046192367
203	0xbcfa17e0	-0.030528963
204	0x3b1fc79e	0.0024380456
205	0xbc20f043	-0.009822908
206	0xbab9c4d7	-0.0014173043
207	0xbbd491f6	-0.0064871265
208	0xba9cb157	-0.0011954707
209	0xbc800abc	-0.015630119
210	0xbd1a4972	-0.0376677
211	0xbd13e935	-0.036111075
212	0xbd373ae3	-0.044733893
213	0x392cfc21	0.00016497124
214	0xbc8e80cd	-0.017395401
215	0x3bf9fbef	0.00762891
216	0xb7c02e59	-2.2909766e-05
217	0x3b0e93c5	0.0021755558
218	0xbcee156d	-0.029062951
219	0xbd348b9b	-0.04407845
220	0xbd15d8ef	-0.036583837
221	0xbc46faee	-0.012144787
222	0xbbe022b4	-0.0068400744
223	0xbd421fe3	-0.04739369
224	0xbb887ddc	-0.004165394
225	0xb75cf894	-1.31708985e-05
226	0xbc986a8f	-0.018605499
227	0xbcc0b4f9	-0.023523794
228	0xbd07b1d8	-0.03312859
229	0xbc60bb4b	-0.013716529
230	0xbd0511f5	-0.03248783
231	0xbc0a5056	-0.008442005
232	0xbcd7b3ba	-0.026330817
233	0xbc667c3b	-0.014067705
234	0xbca2864e	-0.019839432
235	0xbcb378d3	-0.0219082
236	0xbcb3e273	-0.021958565
237	0x3c026859	0.007959449
238	0xbc35bc51	-0.011092261
239	0xbb838be4	-0.004014479
240	0xbb03f554	-0.002013524
241	0xbb8f789c	-0.0043783914
242	0xbc1fa822	-0.009744676
243	0xbcfdb4c7	-0.03096999
244	0x3cacb647	0.02108301
245	0xbc9767b0	-0.01848206
246	0xbbdf76d4	-0.0068195853
247	0xbd004812	-0.03131873
248	0x3c8b9bf1	0.017042132
249	0x3cbb242e	0.0228444
250	0x3c7d8684	0.015473966
251	0xba0e7a5b	-0.00054351025
252	0x3cd69e62	0.02619857
253	0x3b9e69f4	0.004834408
254	0xbd0de581	-0.0346427
255	0xbaaf1963	-0.0013359006

action_model._discrete_distribution.branches.0.weight f4 [3, 256]
0	0x3cefe360	0.029283226
1	0xbc82b6c8	-0.015956298
2	0x3ca55feb	0.020187339
3	0xbbff830d	-0.007797605
4	0xbd16fcc9	-0.03686217
5	0x39600092	0.00021362517
6	0xbd206c07	-0.039165523
7	0x3c629dcb	0.013831566
8	0xbca6f2c0	-0.020379424
9	0xbcc66bbd	-0.024221295
10	0x3c5f54a0	0.013631016
11	0xb866d71c	-5.503661e-05
12	0x3d6417fc	0.055686936
13	0x3b362e87	0.0027798729
14	0x3c9f962f	0.019480793
15	0x3d3306d4	0.043707684
16	0x3c368c61	0.011141867
17	0xbcb212b8	-0.021737441
18	0xbce0551a	-0.02738433
19	0xbc16e6d4	-0.009210307
20	0xbcb528b4	-0.022114135
21	0xbca10f5e	-0.019660648
22	0xbcc84df7	-0.024451239
23	0xbc94b0cb	-0.018150708
24	0xbcfd5e6c	-0.030928813
25	0x3c91d998	0.017803952
26	0xbb1622da	-0.0022908957
27	0xbb452f47	-0.0030087994
28	0xbc644a81	-0.013933779
29	0x3b94d1f1	0.0045416285
30	0x3c4d3d5a	0.012526834
31	0x3b78a375	0.0037939225
32	0x3c4e1265	0.012577628
33	0xbcd4e198	-0.025986478
34	0xbd39ba61	-0.04534376
35	0xbc698cca	-0.014254758
36	0xbd05bc85	-0.03265049
37	0x3ca50a38	0.020146474
38	0xbc8c2028	-0.017105177
39	0xbc986a61	-0.018605413
40	0xbb480948	-0.003052311
41	0xbb599354	-0.0033199387
42	0xb98d1eb0	-0.0002691648
43	0xbd0b8007	-0.034057643
44	0x3c3c0191	0.011474983
45	0x3c317823	0.0108318655
46	0xbc84c5d0	-0.016207606
47	0x3c381f45	0.011237924
48	0xbcadef6b	-0.021232327
49	0x3cb4c756	0.022067707
50	0xbca3274a	-0.019916195
51	0x3b1bbd24	0.002376386
52	0xbcdbe2a9	-0.026841478
53	0xbbeea3d5	-0.007282714
54	0x3c5864a5	0.013207589
55	0xbcde2b37	-0.027120216
56	0x3942e0db	0.00018585047
57	0xbd7a3807	-0.061088588
58	0xbb9b53da	-0.0047402205
59	0x3b32f0e6	0.0027304231
60	0x3c5d8503	0.013520482
61	0xbca9a164	-0.02070684
62	0x3b54c347	0.0032465027
63	0xbcb961c0	-0.022629619
64	0x3d3c9cd6	0.046048008
65	0x3c3ce88c	0.011530053
66	0x3ce48afe	0.027898308
67	0x3c296cad	0.010340852
68	0xbd13694b	-0.035989087
69	0xbc1230f5	-0.008922805
70	0x3a988644	0.0011636694
71	0xbc9d7d94	-0.01922492
72	0x3cc358dd	0.023846084
73	0xbc7aa5b6	-0.015298298
74	0xbc340078	-0.01098644
75	0xbb309b09	-0.0026947877
76	0xbd08002b	-0.033203285
77	0x3c74088b	0.014894615
78	0xb9a57dd6	-0.00031565008
79	0xbcc4bdb8	-0.024016246
80	0xbbc056a1	-0.005869702
81	0xbb5b98a5	-0.0033507731
82	0x3c910b52	0.017705593
83	0x3c6be035	0.014396717
84	0xbc5f1323	-0.013615402
85	0x3c3c6c5e	0.011500446
86	0xbcc4f38e	-0.024041917
87	0x3bca5579	0.00617474
88	0xbc81181c	-0.015758567
89	0xba1c6c2b	-0.0005967046
90	0xbc7e10a5	-0.015506898
91	0xbcce8c27	-0.025213314
92	0xbc5a7bee	-0.013335211
93	0x3b8c70d2	0.00428591
94	0xbc11c07a	-0.008895988
95	0x3ba545a0	0.0050437003
96	0xbcf03076	-0.029319983
97	0x3c714cc8	0.014727779
98	0xbbd884b9	-0.0066076186
99	0xbb148fb2	-0.0022668657
100	0xbc84f224	-0.016228743
101	0x3c0d1363	0.008610579
102	0x3c40cdf9	0.011767858
103	0xbd157293	-0.03648622
104	0x3bf1f60e	0.0073840683
105	0x3bfb6905	0.0076724314
106	0x3b42bf56	0.0029716096
107	0xbd21c860	-0.039497733
108	0x3b8a3c68	0.004218627
109	0x3d22756a	0.039662756
110	0xbad99b8b	-0.0016602142
111	0x3c63fe00	0.013915539
112	0x3d31cec0	0.043410063
113	0xbb455625	-0.003011116
114	0x3cea8554	0.028628029
115	0xbc97a7fd	-0.01851272
116	0x3ab0f830	0.00135017
117	0x3c975c77	0.018476708
118	0x3b407543	0.0029366768
119	0x3c9cd142	0.01914275
120	0xbd4800f3	-0.04882903
121	0xbb4b33a1	-0.0031006115
122	0x3ca56dee	0.02019402
123	0xbc179269	-0.0092512155
124	0x3ccd4000	0.025054932
125	0x3be7ba02	0.0070717344
126	0xbd7b4908	-0.061348945
127	0x3d1965ec	0.037450716
128	0x3ca21a9d	0.01978808
129	0x3cf732d2	0.0301756
130	0x3cf412f4	0.029794194
131	0x39ad59a2	0.00033063913
132	0x3b4b7e53	0.0031050637
133	0xbc4a05c2	-0.012330474
134	0x3b762882	0.0037560766
135	0xbca346f8	-0.019931301
136	0xbcabff16	-0.020995658
137	0x39f6f4b6	0.000471031
138	0xbc4504d2	-0.012025075
139	0x3c387673	0.011258709
140	0x3b6d2437	0.0036184916
141	0x3c26041a	0.010132814
142	0xbc0a6776	-0.008447519
143	0x3baa461e	0.005196347
144	0xbc191be5	-0.0093450295
145	0x3cd95875	0.026531437
146	0xbc02a7af	-0.007974549
147	0xbd0b13d9	-0.033954475
148	0x3bfbcdfe	0.0076844683
149	0xbb89de9d	-0.004207446
150	0x3d8283c8	0.063727915
151	0xbc5a97ba	-0.0133418385
152	0xbc665717	-0.01405885
153	0x3cb538a0	0.022121727
154	0xbc95c6ba	-0.018283237
155	0xbd0744b3	-0.0330245
156	0x3d6c97fd	0.057762135
157	0x3b17cd12	0.0023163003
158	0x3c93d99c	0.0180481
159	0xbc584e7c	-0.013202306
160	0x3a5cf87f	0.0008429363
161	0x3d8debc0	0.06929731
162	0x3d275525	0.040852685
163	0x3c822577	0.015887005
164	0x3a7e3f1f	0.0009698737
165	0x3cbef4f6	0.023310166
166	0xbc8fbbea	-0.01754566
167	0xbba71e38	-0.005100038
168	0xbcc0cfc4	-0.02353657
169	0xbca0927d	-0.019601101
170	0x3cc8648b	0.024462005
171	0xbcba115c	-0.022713356
172	0xbd076cd2	-0.033062764
173	0xbc6c63d4	-0.014428098
174	0xbbef382d	-0.007300398
175	0xbbda0e37	-0.0066545266
176	0xb97c31c5	-0.00024051133
177	0xbd248370	-0.04016441
178	0x3cce0f6e	0.025153842
179	0xbb862d21	-0.0040947353
180	0xbcffaaa9	-0.031209307
181	0xbb6f1e08	-0.0036486406
182	0x3b42a8a2	0.0029702564
183	0xbc889068	-0.01667042
184	0x3b81a181	0.0039560203
185	0xbc135695	-0.008992811
186	0x3d86185f	0.06547617
187	0xbc9b1237	-0.018929584
188	0x3ce5beba	0.028045047
189	0x3ce59fd6	0.028030317
190	0x3cd8324a	0.026391167
191	0xbd15d294	-0.036577776
192	0xbc8b18ca	-0.016979594
193	0xbd15991b	-0.036522966
194	0x394fffd2	0.00019836359
195	0x3ca3fefa	0.020019043
196	0x3bc3b5db	0.0059726066
197	0x3d640eb5	0.05567809
198	0xbd02900c	-0.031875655
199	0x3ca5edce	0.020254996
200	0x3c4c9083	0.012485626
201	0x3d90982f	0.07060277
202	0xbc9e3224	-0.019311018
203	0xbc03a25c	-0.008034315
204	0xbc921829	-0.017833786
205	0xbc5b6409	-0.013390549
206	0x3b0edb5a	0.0021798224
207	0x3d21f686	0.039541744
208	0x3caf7007	0.021415723
209	0xbb9d1d7c	-0.0047947746
210	0x3b26e871	0.0025468136
211	0x3c98d7df	0.018657623
212	0x3b62a0b2	0.0034580645
213	0xbcaa19c5	-0.020764241
214	0xba98b915	-0.0011651838
215	0x3c66edc5	0.014094775
216	0x3c429404	0.01187611
217	0x3cbda624	0.023150511
218	0x3be64219	0.0070269224
219	0xbd616987	-0.05503228
220	0x3cd200aa	0.025635082
221	0xbb34b567	-0.0027573945
222	0xbc71195e	-0.014715521
223	0xbc579dd7	-0.013160191
224	0xbc9fbc9b	-0.019499114
225	0x3aeba7a7	0.0017979041
226	0x3c9a5134	0.018837549
227	0xbc1179e6	-0.0088791605
228	0x3b92e231	0.0044825305
229	0x3cedc8c5	0.029026398
230	0x3c839172	0.016060565
231	0xba966b6d	-0.0011476107
232	0xba96fb99	-0.0011519074
233	0xbba43f9e	-0.0050124666
234	0xba87307e	-0.0010314134
235	0xbca08367	-0.019593908
236	0x3c520df5	0.01282071
237	0x3cb57830	0.022152036
238	0x3d0655b3	0.032796573
239	0xbc113eb2	-0.008865045
240	0x3b4fb73b	0.0031694907
241	0xbc670054	-0.014099199
242	0xbb6df68e	-0.0036310288
243	0x3b7dcab0	0.0038725547
244	0x3c429e0d	0.011878503
245	0xbc07ac97	-0.008280895
246	0x3d5d63f9	0.05405042
247	0x3c41fbd2	0.011839824
248	0x3d2861a3	0.04110874
249	0xbc920bd4	-0.017827906
250	0x3d150267	0.036379244
251	0xbca451c9	-0.02005853
252	0xbbecd344	-0.0072273333
253	0x3d03cc01	0.032176975
254	0x3c993d10	0.018705875
255	0xbb68bcec	-0.0035512997

action_model._discrete_distribution.branches.0.bias f4 [3]
0	0xbba99d5c	-0.0051762294
1	0x3c20cc10	0.009814277
2	0xbba34912	-0.004983076

action_model._discrete_distribution.branches.1.weight f4 [3, 256]
0	0x3b3bbf52	0.0028647971
1	0x3aa5ae36	0.001264042
2	0xbcd67663	-0.026179498
3	0xbca26788	-0.019824758
4	0xbc85853b	-0.01629888
5	0x39fa966c	0.0004779579
6	0x3bf8410f	0.007576115
7	0x3b963471	0.004583888
8	0x3c8b83d1	0.017030628
9	0xbc22d606	-0.0099387225
10	0xbc73a0ca	-0.014869878
11	0xbc8e99b0	-0.017407268
12	0x3c5329f6	0.012888422
13	0xbcdb65b6	-0.026781898
14	0x3d033e8d	0.032042075
15	0x3c3e90bb	0.011631186
16	0x3c42bfa3	0.01188651
17	0xbc70709c	-0.014675286
18	0xbbdc1700	-0.006716609
19	0xbc175694	-0.00923695
20	0xbc793acb	-0.015211771
21	0x3b976a14	0.0046208
22	0xbc8b0317	-0.016969247
23	0xbc0b8d6b	-0.008517603
24	0xbcb3b1d3	-0.02193538
25	0xbbab56f9	-0.005228874
26	0x3c9aa342	0.018876676
27	0xbd3cc317	-0.04608449
28	0xba1a9d27	-0.00058980513
29	0xbc14925c	-0.009068098
30	0xbbb5e084	-0.005550446
31	0x3cb92593	0.022600925
32	0xbc265ea3	-0.010154399
33	0xbc2685ca	-0.010163734
34	0xbcd6da98	-0.02622728
35	0xbc2b0568	-0.010438301
36	0x3d27a173	0.040925454
37	0xba7dd9dc	-0.00096836477
38	0x3c13a4b6	0.009011438
39	0xbc91249c	-0.017717652
40	0x3bc0f604	0.0058887023
41	0xbcade76b	-0.021228513
42	0x3b4e78ab	0.003150503
43	0xbd47d046	-0.04878261
44	0x39327300	0.00017018244
45	0x3cc951b6	0.024575096
46	0xbc4d962c	-0.012548011
47	0x3b86a5d8	0.0041091256
48	0x3b299063	0.0025873415
49	0x3b79891c	0.0038076108
50	0xbc2a5281	-0.010395647
51	0xbc6dc66d	-0.01451264
52	0xbb078d26	-0.0020683496
53	0xbcb67554	-0.022272743
54	0xbbe17a3c	-0.0068810266
55	0x3bb7e9fd	0.0056126104
56	0xb99e88c7	-0.00030238015
57	0xbc1410b6	-0.009037187
58	0xbd164d17	-0.036694612
59	0xbc2404ac	-0.0100108795
60	0x3cae80ca	0.021301646
61	0x3c15e310	0.009148374
62	0xbc8a6672	-0.016894553
63	0xbbcd96f9	-0.006274101
64	0xbcb1707d	-0.021660084
65	0x3c9b984e	0.018993523
66	0x3c820912	0.015873466
67	0xbd0390fb	-0.032120686
68	0x3c8d75e1	0.017268123
69	0x3cc71156	0.024300259
70	0x39671a84	0.00022039755
71	0xbbaceabc	-0.005277006
72	0x3b862569	0.004093815
73	0x3b3ed5c9	0.0029119125
74	0xbd432f48	-0.047652513
75	0x3c13defa	0.00902533
76	0x3bcaa3d5	0.006184081
77	0x3c2719a9	0.010198989
78	0xbc304f25	-0.010761057
79	0xbcb48b0f	-0.022038965
80	0x3ba689a2	0.005082325
81	0xbd49c406	-0.04925921
82	0x3ce312ea	0.02771898
83	0xbc17ccb1	-0.009265111
84	0x3ca1a393	0.019731319
85	0xbc0cc8ec	-0.008592825
86	0xbbf50c9e	-0.0074783107
87	0xbb4d7e94	-0.0031355964
88	0xbc44082d	-0.01196484
89	0x3b019337	0.0019771585
90	0x3cd2de2a	0.025740702
91	0xbc93a335	-0.01802216
92	0xb8bb890c	-8.942382e-05
93	0xbd54bebc	-0.05193971
94	0x3b0c0674	0.002136615
95	0xbc1c730d	-0.009548915
96	0x3bff879a	0.0077981474
97	0x3d03ee74	0.03220983
98	0xbb116bc5	-0.002218948
99	0xbc942f60	-0.018088996
100	0xbd00012f	-0.03125113
101	0x3cd16696	0.025561612
102	0x3c196838	0.009363227
103	0xbc726773	-0.014795172
104	0x3b89b768	0.004202772
105	0xbcd95aae	-0.026532497
106	0xbbc2cba9	-0.0059446883
107	0x3c883540	0.016626954
108	0xbc9b0ab3	-0.018926
109	0x3c34249f	0.010995059
110	0x3bab41a1	0.0052263294
111	0xbd675fcc	-0.056487843
112	0x3d00ddf1	0.03146166
113	0x3bd9a816	0.006642352
114	0x3ad975ab	0.0016590854
115	0xbcbaac83	-0.022787338
116	0x3c10ed13	0.008845585
117	0x3c3dd0de	0.011585442
118	0xbb824b03	-0.0039762272
119	0xbab53723	-0.0013825636
120	0x3a1dd4d6	0.000602079
121	0xbc444113	-0.0119784055
122	0xbc40f268	-0.011776544
123	0xbadbe8e5	-0.0016777782
124	0x3bdaf48c	0.0066819843
125	0xbba7b419	-0.005117905
126	0xbc0926d5	-0.008371075
127	0xbad6d4c6	-0.0016390316
128	0x3c0ed48d	0.008717668
129	0xbc50a9e4	-0.012735818
130	0xbca54dc7	-0.020178689
131	0xb94f496d	-0.00019768412
132	0xbc1ba583	-0.00949991
133	0xbcbf644c	-0.023363255
134	0xbbf6bd40	-0.0075298846
135	0xbb93b449	-0.0045075756
136	0x3ca66578	0.020312056
137	0x3c57e9ff	0.013178348
138	0xbb7cc437	-0.0038569102
139	0x3a9a5926	0.0011775836
140	0x3a946074	0.0011320249
141	0x3b886a75	0.0041630813
142	0xbc9a5a93	-0.018842017
143	0xbb9b0dbb	-0.0047318614
144	0xb9683ae0	-0.00022147177
145	0x3c3b1ad2	0.011419969
146	0xbc4faa71	-0.012674914
147	0x3c2d4401	0.010575295
148	0xbc8350f4	-0.016029812
149	0x3c4540e8	0.012039401
150	0x3c9555fe	0.01822948
151	0x3bd2207c	0.006412564
152	0x3cd5dc5c	0.026106052
153	0xbcdbba88	-0.026822343
154	0xbc2ed484	-0.010670785
155	0xba370296	-0.00069812813
156	0x3c7a62ed	0.015282375
157	0x3cfbeefc	0.030753605
158	0xbd4f5ec7	-0.050627496
159	0xbc53885f	-0.012910931
160	0xbb113a79	-0.0022160097
161	0x3bb28cc4	0.0054489095
162	0x3bf331a5	0.0074216896
163	0x3c7ccb53	0.015429336
164	0xbbaa7eb4	-0.0052030925
165	0xbcc34c90	-0.023840219
166	0x3bfd2975	0.0077258893
167	0xbcfb8567	-0.03070326
168	0x3b24bcac	0.0025136871
169	0xbc95cf31	-0.018287273
170	0xbb673c85	-0.0035283875
171	0x3cbecb88	0.02329041
172	0x3d0b752f	0.0340473
173	0xbc626703	-0.013818505
174	0x3c0afd61	0.008483262
175	0x3bbabdbb	0.005698887
176	0x3b9b6992	0.0047428096
177	0xbc01bcb7	-0.007918528
178	0x3d6e47fb	0.058174115
179	0xbc59960e	-0.013280405
180	0xbccc0a0d	-0.024907136
181	0x3caf1494	0.021372117
182	0x3c1191b9	0.008884841
183	0xbb3f9d5b	-0.0029238078
184	0x3c0ba156	0.008522352
185	0xbcb3beb3	-0.021941518
186	0x3bfaa0f8	0.0076485835
187	0xbd42cad8	-0.047556728
188	0xba1cfb46	-0.00059883704
189	0x3c61145b	0.013737763
190	0x3c62478b	0.0138110025
191	0xbc6830f9	-0.014171832
192	0xbbf56ffd	-0.0074901567
193	0x3d359a7c	0.04433678
194	0xbb60bf34	-0.0034293653
195	0xbcf03720	-0.02932316
196	0x3ca54eb7	0.020179136
197	0x3bcdcd58	0.0062805824
198	0x3ba0c350	0.0049060956
199	0xbc47bc11	-0.012190835
200	0x3c9eb60e	0.01937392
201	0x3ce16df1	0.027518244
202	0xbd1b6966	-0.037942313
203	0x3cc0cb35	0.023534397
204	0xbc87ff12	-0.01660112
205	0xbba415da	-0.0050074877
206	0x3c990dad	0.018683279
207	0xbd0d0da0	-0.034436822
208	0xbcd18e00	-0.025580406
209	0xbc432c48	-0.011912413
210	0x3c2a0520	0.010377198
211	0x3b84f65d	0.004057689
212	0xbca7b204	-0.020470627
213	0xbcd49627	-0.025950504
214	0xbb45490b	-0.0030103351
215	0x3c158a22	0.009127172
216	0xbc946b8c	-0.018117689
217	0xbc41aa3f	-0.011820375
218	0x3aa5813e	0.0012627018
219	0x3bddfbea	0.0067744153
220	0xbc8621ba	-0.016373504
221	0x3d25dd8f	0.040494498
222	0xbbd5252c	-0.0065046754
223	0xbbbf51b9	-0.0058385995
224	0xbbe97ba1	-0.0071253334
225	0x3c2eecc8	0.01067657
226	0xbc812fbb	-0.01576983
227	0xbcde6e07	-0.027152075
228	0xbcb69964	-0.02228994
229	0xbcaa5a76	-0.020795088
230	0xbd176bd9	-0.036968086
231	0xb9bcf7bf	-0.0003604274
232	0x39bf66a8	0.00036506844
233	0xbd054c20	-0.0325433
234	0xbc9aa0da	-0.018875528
235	0xbc756cf5	-0.014979591
236	0xbc77a06a	-0.015113929
237	0xbbc445ec	-0.0059897806
238	0x3c30dec9	0.010795304
239	0xb8d54a02	-0.000101704165
240	0xbb251874	-0.0025191577
241	0x3addd4bf	0.0016924365
242	0xbc4c6b2e	-0.0124767255
243	0xbcb76c78	-0.02239059
244	0x3c84c767	0.016208364
245	0x3bf75f95	0.007549236
246	0xbbbc6150	-0.0057489052
247	0x3b380c35	0.0028083448
248	0x3d42baf9	0.047541592
249	0x3c908716	0.017642539
250	0x3c080f0b	0.008304368
251	0xbc63ee77	-0.013911835
252	0x3c10a0c6	0.008827394
253	0x3cfba189	0.030716674
254	0x3be0a9d1	0.006856181
255	0xbb08961f	-0.0020841432

action_model._discrete_distribution.branches.1.bias f4 [3]
0	0x3c87e912	0.016590629
1	0x3be770d0	0.007063009
2	0xbcc3304b	-0.023826739

action_model._discrete_distribution.branches.2.weight f4 [3, 256]
0	0x3c62ad42	0.013835253
1	0xbb1d201c	-0.0023975438
2	0xbc5d7ed0	-0.013519004
3	0x3c0765de	0.008264033
4	0x3d229ac3	0.039698374
5	0xbaa68d63	-0.0012706931
6	0xbc86ed7e	-0.016470667
7	0xbc20514e	-0.00978501
8	0xbd00b6d7	-0.03142437
9	0x3d40cd4a	0.04707078
10	0x3d191116	0.03736981
11	0xbcef4862	-0.02920932
12	0x3bf0530c	0.0073341187
13	0x3c365072	0.011127578
14	0x3c27497c	0.010210391
15	0xbbebcb48	-0.007195864
16	0xbc1a352b	-0.00941209
17	0x3ba7c63f	0.0051200683
18	0xbcf40bc1	-0.029790761
19	0xbc31948c	-0.010838639
20	0xbcdd9ae3	-0.027051395
21	0x3bed3061	0.007238433
22	0xbd05da4b	-0.032678884
23	0x3cb7c79f	0.022434054
24	0xbc9e9ee7	-0.01936288
25	0x3d4219aa	0.047387756
26	0x3bdf96e6	0.0068234084
27	0x3c50e7df	0.012750595
28	0x3c709028	0.014682807
29	0xbc5db687	-0.013532287
30	0x3cafebe1	0.02147478
31	0x3c8f21ae	0.017472114
32	0x3c8e69c7	0.017384423
33	0x3c34427f	0.011002182
34	0xbc2266bd	-0.00991219
35	0xbd2ff027	-0.042953636
36	0xbce58bb1	-0.028020712
37	0x3d527226	0.05137839
38	0x3cc9c93f	0.024632094
39	0xbcc1db7a	-0.023664225
40	0x3a7b4a8b	0.0009585998
41	0xbc634621	-0.0138717005
42	0xbcdf22e5	-0.027238319
43	0xba577362	-0.00082187925
44	0x3d2c7980	0.04210806
45	0x3caea359	0.021318125
46	0xbc7000cc	-0.0146486275
47	0x39a99bb7	0.00032350208
48	0x3b5bc518	0.0033534225
49	0x3ce33aa1	0.027737917
50	0xbcc42de4	-0.023947664
51	0x3d1d3bab	0.038386982
52	0xbd8041b7	-0.06262534
53	0x3cc5f96d	0.024166787
54	0x3d03a813	0.03214271
55	0x3b6dc5c9	0.003628122
56	0xbd11d8c0	-0.0356071
57	0x3c52e843	0.012872758
58	0x3cb4f5b9	0.022089826
59	0x3d1e4012	0.03863532
60	0xbb8b0328	-0.0042423196
61	0xbb8f0481	-0.0043645506
62	0x3bf09323	0.007341759
63	0x3cac2a83	0.021016365
64	0xbc026930	-0.007959649
65	0x3c9c4719	0.01907687
66	0x3c1e6cf0	0.009669527
67	0x3c85d956	0.016338985
68	0x3c9c5b1e	0.019086417
69	0x3caab7ae	0.020839538
70	0x3c3fa3d9	0.011696779
71	0x3cfcc240	0.030854344
72	0x3b878cfa	0.0041366788
73	0xbcc607ad	-0.024173582
74	0x3adddf2a	0.001692747
75	0x3d0e61b2	0.03476114
76	0xbc648eaa	-0.013950029
77	0xbaa1c0b8	-0.001234076
78	0x3cb46b47	0.02202381
79	0xbcd393a0	-0.025827229
80	0x3d05952d	0.03261297
81	0xbc07d160	-0.008289665
82	0x3cedda86	0.029034864
83	0x3cc416aa	0.023936588
84	0xbd1e8ecc	-0.0387104
85	0x3bbe714d	0.0058118463
86	0x3c125843	0.008932176
87	0x3ca2978c	0.019847654
88	0x3b281c3c	0.0025651595
89	0x3b932faf	0.0044917683
90	0xbd15ffcc	-0.0366209
91	0x3caa9d1b	0.020826867
92	0xbc9acaaa	-0.018895466
93	0x3b283070	0.0025663637
94	0xbb8d0438	-0.0043034814
95	0x3d64ad10	0.055829108
96	0x3c0a67da	0.008447612
97	0xbc9201b9	-0.017823087
98	0x3beb5d4f	0.007182754
99	0xbd12b2aa	-0.03581492
100	0x3d130ba8	0.03589979
101	0xbc273102	-0.0102045555
102	0xbc227b53	-0.009917098
103	0x3b8c3ecc	0.004279947
104	0x3c540e47	0.012942857
105	0x3ab73597	0.0013977763
106	0x3c621b69	0.01380048
107	0xbd1b35f9	-0.03789327
108	0xbcda2eb7	-0.026633603
109	0x3d9baf46	0.0760179
110	0x3c92ce2b	0.017920574
111	0x3c3de360	0.011589855
112	0x3adc9898	0.0016830144
113	0xbc5f2fd9	-0.013622248
114	0x3bb504ea	0.0055242674
115	0x3cb55e69	0.022139745
116	0x3d2f8b83	0.042857658
117	0x3c9a0ec0	0.018805861
118	0x3d0c0f03	0.034194004
119	0xbc87960a	-0.016551036
120	0xbd45809d	-0.04821836
121	0x3c87e32d	0.016587818
122	0x3cac7fc1	0.021057012
123	0x3d84fbc2	0.064933315
124	0xba9e1028	-0.0012059258
125	0xbcfc7b2b	-0.03082045
126	0xbca818e6	-0.020519685
127	0x3c94cc06	0.018163692
128	0xb97901a4	-0.00023747102
129	0xbc3ae1b8	-0.011406355
130	0x3c8c80f1	0.017151328
131	0xbcb2f502	-0.021845344
132	0x3d60c6fe	0.054877274
133	0x3cd78436	0.02630816
134	0xbc067cae	-0.008208437
135	0x3d0ac45c	0.03387867
136	0xbcdfa1b2	-0.027298782
137	0xbd0821c5	-0.03323533
138	0x3cc07839	0.023494827
139	0xbcaf7ede	-0.0214228
140	0x3ba2170e	0.004946596
141	0xbac8c5b1	-0.0015317706
142	0xbc61a1a8	-0.013771452
143	0x3d0c07f3	0.03418727
144	0x3ccc70e3	0.024956172
145	0xbc18f6cd	-0.009336186
146	0x3be49bbf	0.006976574
147	0x3c0a5015	0.008441945
148	0xbbfe53f5	-0.0077614733
149	0xbcf8ddbf	-0.030379174
150	0xbbc20591	-0.0059210737
151	0x3c9a0012	0.018798862
152	0xbd2496b8	-0.0401828
153	0x3b73b008	0.003718378
154	0xbc3cfe4f	-0.011535241
155	0xba3b7743	-0.0007151255
156	0xbb6ab45d	-0.0035813071
157	0x3d09987d	0.03359269
158	0x3cc2b9c2	0.023770217
159	0xbc866678	-0.016406283
160	0xbbb1feb1	-0.005431973
161	0x3d5259ef	0.0513553
162	0x3c9f9c2d	0.01948365
163	0x3cb24325	0.021760533
164	0x3c18f9b9	0.009336882
165	0x3c403a65	0.011732672
166	0xbc4b40cc	-0.0124055855
167	0x3b1437a2	0.0022616168
168	0xba5ce685	-0.0008426684
169	0x3c2e696e	0.010645254
170	0xbcbcfa7f	-0.023068665
171	0xbcdff8fe	-0.027340408
172	0x3d1733af	0.036914524
173	0xbc82673d	-0.015918368
174	0xbd0735ab	-0.033010166
175	0xbc7aae6c	-0.0153003745
176	0xbb273808	-0.0025515575
177	0xbcfaa361	-0.030595483
178	0x3addacb8	0.0016912436
179	0x3d210ca7	0.039318707
180	0x3c4af9b3	0.0123886345
181	0x3cb2e7ca	0.021839041
182	0x3cf014ce	0.029306795
183	0xbc7b7f38	-0.0153501555
184	0xbce41665	-0.02784271
185	0x3d12198f	0.035668906
186	0xbd0fea6a	-0.035135664
187	0x3c9038d7	0.017605228
188	0xbc73e044	-0.014885012
189	0x3d055134	0.032548144
190	0xbce7724b	-0.028252741
191	0x3c501494	0.012700219
192	0xbb88785f	-0.00416474
193	0x3cbc0c73	0.022955155
194	0x3c8f1d61	0.017470064
195	0xbc866c94	-0.016409196
196	0x3cf9f122	0.030510489
197	0xbc8f1b08	-0.017468944
198	0xbc4a9f38	-0.012367062
199	0x3c8ddd63	0.01731748
200	0x3c10fc72	0.00884925
201	0xbc540757	-0.012941203
202	0x3c273e35	0.010207702
203	0xbac8141e	-0.0015264784
204	0xbd045d7e	-0.032315724
205	0xbc1938f6	-0.009351959
206	0xbd0a92b2	-0.033831306
207	0xbc645e72	-0.013938533
208	0x3c981e4b	0.018569132
209	0x3c285123	0.010273251
210	0x3a503394	0.0007942256
211	0x3c8f1a29	0.017468529
212	0x3d2bfc57	0.041988697
213	0x3bae6c5c	0.005322976
214	0x3bca615f	0.0061761583
215	0x3b2f6db1	0.0026768262
216	0xbc149a11	-0.009069935
217	0xbb747809	-0.0037302992
218	0x3cde911f	0.027168809
219	0x3c31c054	0.010849077
220	0x3cd1f528	0.025629595
221	0xbcefd2f5	-0.029275397
222	0x3cae7cff	0.021299837
223	0x3abaebe8	0.0014260979
224	0x3c3cb734	0.011518288
225	0xbbab7234	-0.00523212
226	0x3d17250f	0.036900576
227	0x3c852048	0.016250744
228	0xbc945a7f	-0.018109558
229	0xbc1f55d5	-0.009725054
230	0x3b3e216e	0.0029011625
231	0xbb50d7d1	-0.0031866918
232	0x3b9b6926	0.0047427593
233	0xbb6a515c	-0.003575406
234	0xbcbbd97c	-0.022930853
235	0xbcacbb81	-0.021085503
236	0x3ce4ebc8	0.02794446
237	0xbcb2fea1	-0.021849932
238	0x3cc90336	0.024537664
239	0xbce21d94	-0.027601995
240	0xbcab0c4c	-0.020879887
241	0x3cf2331d	0.029565388
242	0x3ca4125d	0.020028288
243	0x3cd57e89	0.026061313
244	0xbc00b8e3	-0.00785658
245	0xbc724400	-0.01478672
246	0x3d378900	0.044808388
247	0x3ce152f7	0.027505381
248	0xbaa06144	-0.0012236019
249	0xbcbac15f	-0.022797285
250	0xbd0fd1fb	-0.035112362
251	0xbce526d5	-0.027972618
252	0xbd04055d	-0.032231677
253	0xbbeeec9e	-0.0072913906
254	0x3cfeea85	0.031117687
255	0xbcf4e358	-0.029893562

action_model._discrete_distribution.branches.2.bias f4 [3]
0	0xbcb24360	-0.021760643
1	0x3c93a8ef	0.01802489
2	0x3bcb23d1	0.006199338
