results/VB_1/Badminton/Badminton-108002.onnx (onnx, 298576 bytes, 12 tensors)

discrete_act_size_vector f4 [1, 4]
0	0x40400000	3.0
1	0x40400000	3.0
2	0x40400000	3.0
3	0x40000000	2.0

network_body.observation_encoder.processors.0.normalizer.running_mean f4 [11]
0	0x00000000	0.0
1	0x00000000	0.0
2	0x00000000	0.0
3	0x00000000	0.0
4	0x00000000	0.0
5	0x00000000	0.0
6	0x00000000	0.0
7	0x00000000	0.0
8	0x00000000	0.0
9	0x00000000	0.0
10	0x00000000	0.0

network_body._body_endoder.seq_layers.0.weight f4 [256, 11]
0	0x3e558f0c	0.2085535
1	0xbce536de	-0.027980264
2	0xbe89d166	-0.2691757
3	0xbe132ecb	-0.14373319
4	0xbe39cc80	-0.18144417
5	0xbe612d7d	-0.21990009
6	0x3ed8a155	0.42310587
7	0xbc836960	-0.016041458
8	0x3e5dc66e	0.21657726
9	0xbe3909e9	-0.18070187
10	0x3ede3e18	0.4340675
11	0xbd8eecae	-0.06978737
12	0xbeddf3d0	-0.43350077
13	0x3f03d329	0.5149408
14	0x3ec25c87	0.37961218
15	0xbe614949	-0.22000612
16	0x3d619b28	0.05507961
17	0xbe92ad02	-0.2864762
18	0x3dc79c9b	0.09746667
19	0x3c5d8b46	0.013521975
20	0xbe85d72d	-0.2614073
21	0x3e2855c4	0.16438967
22	0x3db6c9c9	0.08925206
23	0xbf2f9715	-0.6858991
24	0x3c85cb8a	0.016332407
25	0xbe7430c7	-0.23846732
26	0xbf66730a	-0.90019286
27	0xbf10cea2	-0.56565297
28	0xbd89747c	-0.06711671
29	0xbe2946be	-0.16530892
30	0x3ea3f4a8	0.32022595
31	0xbe111904	-0.14169699
32	0x3f03c739	0.51475865
33	0xbf1a9462	-0.60382664
34	0xbe0bf176	-0.13666329
35	0x3ef7eee9	0.4842446
36	0x3f02ced9	0.51096874
37	0xbc52e954	-0.012873013
38	0xbd0e386a	-0.03472177
39	0x3cefa909	0.029255407
40	0xbdbf2849	-0.09333856
41	0x3f2057d2	0.62634003
42	0xbe163a07	-0.14670573
43	0x3e5c906c	0.21539468
44	0x3d9d432b	0.07678827
45	0xbdf74f64	-0.120756894
46	0x3e0635c8	0.13106453
47	0xbe4651d6	-0.19367155
48	0x3d58af8f	0.0529018
49	0x3c022652	0.007943707
50	0xbdc48fe8	-0.095977604
51	0x3f458b7d	0.7716597
52	0xbe86362a	-0.262132
53	0x3d1f5fb7	0.03890964
54	0xbbe6f715	-0.0070484974
55	0x3da5e4a8	0.08100253
56	0xbc1ccf20	-0.009570867
57	0xbf08a0b7	-0.5337023
58	0x3d958e46	0.07302527
59	0x3e4b2438	0.19838035
60	0xbe094e8f	-0.13408874
61	0x3e2b6bf3	0.16740398
62	0x3ebc5202	0.36781317
63	0x3ef99e5f	0.4875364
64	0x3e93455a	0.2876385
65	0xbe0a121f	-0.13483475
66	0x3e5f97d4	0.21835262
67	0x3e5f181c	0.21786541
68	0xbd8c50dc	-0.0685136
69	0x3e0555b5	0.13020976
70	0x3c405402	0.011738779
71	0x3eb9ebb9	0.36312655
72	0xbd81f54f	-0.06345617
73	0xbd457225	-0.04820456
74	0xbe23a8dc	-0.15982383
75	0xbdf960a1	-0.121766336
76	0x3e36172f	0.17782281
77	0x3d95327f	0.07285022
78	0xbda49a3d	-0.08037231
79	0x3e045293	0.12922125
80	0xbcb49b84	-0.022046812
81	0xbc6c1af0	-0.014410719
82	0xbdd515cd	-0.10404549
83	0xbd24efff	-0.04026794
84	0xbe566085	-0.20935257
85	0xbea0daa1	-0.314168
86	0x3e86bca9	0.2631581
87	0x3eda5318	0.4264152
88	0x3e17337c	0.14765733
89	0x3d6bfd3b	0.057614546
90	0xbf12878a	-0.57238066
91	0xbe9a58e8	-0.30145955
92	0xbf0f9e45	-0.56100875
93	0xbe3aa9e6	-0.18228874
94	0x3dce451c	0.10071775
95	0xbe9ba12b	-0.303964
96	0xbe2444c0	-0.16041851
97	0x3e01d7a0	0.1267991
98	0x3d4bfbc1	0.049800638
99	0xbe1187b1	-0.14211918
100	0xbeacb84f	-0.33734366
101	0xbef84b65	-0.4849502
102	0x3ef2f460	0.47452068
103	0x3cd3dd23	0.025862282
104	0xbec9d863	-0.39422902
105	0x3e62b991	0.221411
106	0x3dcfa542	0.10138942
107	0xbe0a9da6	-0.135367
108	0xbe576854	-0.21035892
109	0x3e33a7e4	0.17544514
110	0xbde98cb2	-0.114037886
111	0xbe7a37a5	-0.24435289
112	0x3d288376	0.041140996
113	0xbe5c73f7	-0.21528612
114	0x3e2e9e0f	0.17052482
115	0xbe1d03b5	-0.15333445
116	0x3ebc0723	0.36724195
117	0x3dfe594d	0.124193765
118	0x3cc5368b	0.02407386
119	0xbed0dbd4	-0.40792716
120	0xbe5da5b2	-0.21645239
121	0x3e27a88a	0.16372886
122	0x3c4c53ac	0.012471121
123	0xbeaf0b5b	-0.3418835
124	0x3e74fcd4	0.23924571
125	0xbd997e45	-0.07494787
126	0xbe05e44d	-0.13075371
127	0xbe208940	-0.15677357
128	0xbed80d4e	-0.4219765
129	0xbdafe422	-0.08588435
130	0x3e4acaa5	0.19803865
131	0x3edbf908	0.42963433
132	0x3ed73878	0.4203527
133	0x3c88e89b	0.016712477
134	0xbe8e372d	-0.2777647
135	0x3e118c62	0.14213708
136	0x3ecc6e38	0.3992784
137	0xbf04c8c1	-0.51868826
138	0x3d8716ae	0.06596123
139	0xbe30efcf	-0.1727898
140	0xbd360309	-0.04443649
141	0xbd99fcb8	-0.075189054
142	0x3f05b5cf	0.5223054
143	0xbdce3ca8	-0.10070163
144	0xbf1e381e	-0.6180438
145	0x3e8f9d3f	0.28049657
146	0x3d498bf8	0.04920575
147	0xbee85931	-0.45380548
148	0xbdd3562d	-0.10319171
149	0xbeac8e49	-0.33702305
150	0x3dd69605	0.10477833
151	0x3cd31a19	0.02576928
152	0xbeebae61	-0.46031478
153	0xbee29be2	-0.44259554
154	0x3e55ff00	0.20898056
155	0xbda5a63f	-0.080883496
156	0x3e244881	0.16043283
157	0xbda33edc	-0.07970974
158	0xbe86e253	-0.26344547
159	0x3e61c6cc	0.22048491
160	0xbde0176f	-0.109419696
161	0x3ec93bad	0.39303342
162	0xbcbd1a1b	-0.023083737
163	0xbf0cf839	-0.5506626
164	0xbdc01f2b	-0.09380945
165	0x3e4f9dda	0.2027506
166	0x3e40f983	0.18845181
167	0xbec964cf	-0.39334723
168	0x3e9f6bad	0.31136838
169	0xbedd343f	-0.43203923
170	0x3f197d23	0.5995657
171	0x3dc2fec9	0.09521253
172	0xbec76160	-0.3894148
173	0x3e90e831	0.28302148
174	0xbd77a74a	-0.060462274
175	0xbe0adbd0	-0.13560414
176	0xbe9b2111	-0.30298665
177	0x3e10a477	0.14125238
178	0xbe58de8e	-0.21178648
179	0xbdc86183	-0.09784224
180	0x3e0776d9	0.1322893
181	0x3e4814b6	0.1953915
182	0x3d255493	0.04036386
183	0xbe52569a	-0.20540848
184	0xbe29ad81	-0.16570093
185	0x3dea74ce	0.1144806
186	0x3e2b4ed9	0.16729297
187	0xbc5a17f5	-0.013311376
188	0x3e4792bb	0.19489567
189	0x3ee0f20d	0.4393467
190	0xbc9295f8	-0.017893776
191	0x3d92cbaf	0.07167756
192	0xbed4f6cc	-0.4159454
193	0xbe1d476e	-0.1535928
194	0x3eb0afed	0.3450922
195	0xbe48b0be	-0.19598672
196	0x3f1dd810	0.6165781
197	0x3e5a152e	0.21297142
198	0xbe9a679c	-0.30157173
199	0x3dfa0b87	0.1220923
200	0xbe228e26	-0.15874538
201	0xbd13f590	-0.03612286
202	0x3e39315f	0.1808524
203	0xbc379151	-0.01120408
204	0xbeb81a90	-0.35957766
205	0xbdb6716c	-0.08908352
206	0xbdecc60f	-0.11561214
207	0xbe9e15b8	-0.30875945
208	0xbebb1147	-0.3653662
209	0x3e93e56f	0.2888598
210	0xbe544abc	-0.20731634
211	0xbebb86b3	-0.36626205
212	0x3eef0c14	0.46688902
213	0xbde701d4	-0.112796456
214	0x3c543811	0.01295282
215	0xbbbb36d9	-0.0057133255
216	0xbd4c12c0	-0.04982257
217	0x3e9e17c7	0.30877516
218	0x3ddc31e7	0.107517056
219	0x3eb6e3d0	0.35720682
220	0xbdf997d9	-0.12187166
221	0x3e23f4b5	0.16011317
222	0xbeb01e6d	-0.34398213
223	0x3e02ca5f	0.12772511
224	0xbece6ea6	-0.40318793
225	0xbe22b3d9	-0.15888919
226	0x3e87c798	0.26519465
227	0x3d56adf7	0.052412
228	0x3eeff97e	0.46870035
229	0xbf051dde	-0.519987
230	0x3d25d944	0.040490404
231	0x3dd17e78	0.102292
232	0xbe7debaa	-0.2479693
233	0x3c2f592d	0.0107024135
234	0xbedb658d	-0.42850915
235	0x3d89581b	0.06706258
236	0x3dc8ba76	0.098011896
237	0xbdf898ef	-0.12138545
238	0x3b8a9c11	0.0042300303
239	0x3ef3fc02	0.47653204
240	0x3eacb0d5	0.33728662
241	0xbe11a15c	-0.1422171
242	0xbf03f387	-0.5154347
243	0xbe9fa3de	-0.31179708
244	0x3ef989dd	0.48737994
245	0xbda0ff5c	-0.07861206
246	0xbe083b2c	-0.13303822
247	0xbde98691	-0.1140262
248	0xbd771607	-0.06032374
249	0xbf057f59	-0.5214744
250	0x3c429504	0.011876348
251	0xbd8283cb	-0.06372794
252	0xbecfbfe7	-0.40576097
253	0xbdf2dc4e	-0.11858426
254	0xbdd016b2	-0.10160579
255	0xbe486c88	-0.19572651

network_body._body_endoder.seq_layers.0.bias f4 [256]
0	0x00000000	0.0
1	0x00000000	0.0
2	0x00000000	0.0
3	0x00000000	0.0
4	0x00000000	0.0
5	0x00000000	0.0
6	0x00000000	0.0
7	0x00000000	0.0
8	0x00000000	0.0
9	0x00000000	0.0
10	0x00000000	0.0
11	0x00000000	0.0
12	0x00000000	0.0
13	0x00000000	0.0
14	0x00000000	0.0
15	0x00000000	0.0
16	0x00000000	0.0
17	0x00000000	0.0
18	0x00000000	0.0
19	0x00000000	0.0
20	0x00000000	0.0
21	0x00000000	0.0
22	0x00000000	0.0
23	0x00000000	0.0
24	0x00000000	0.0
25	0x00000000	0.0
26	0x00000000	0.0
27	0x00000000	0.0
28	0x00000000	0.0
29	0x00000000	0.0
30	0x00000000	0.0
31	0x00000000	0.0
32	0x00000000	0.0
33	0x00000000	0.0
34	0x00000000	0.0
35	0x00000000	0.0
36	0x00000000	0.0
37	0x00000000	0.0
38	0x00000000	0.0
39	0x00000000	0.0
40	0x00000000	0.0
41	0x00000000	0.0
42	0x00000000	0.0
43	0x00000000	0.0
44	0x00000000	0.0
45	0x00000000	0.0
46	0x00000000	0.0
47	0x00000000	0.0
48	0x00000000	0.0
49	0x00000000	0.0
50	0x00000000	0.0
51	0x00000000	0.0
52	0x00000000	0.0
53	0x00000000	0.0
54	0x00000000	0.0
55	0x00000000	0.0
56	0x00000000	0.0
57	0x00000000	0.0
58	0x00000000	0.0
59	0x00000000	0.0
60	0x00000000	0.0
61	0x00000000	0.0
62	0x00000000	0.0
63	0x00000000	0.0
64	0x00000000	0.0
65	0x00000000	0.0
66	0x00000000	0.0
67	0x00000000	0.0
68	0x00000000	0.0
69	0x00000000	0.0
70	0x00000000	0.0
71	0x00000000	0.0
72	0x00000000	0.0
73	0x00000000	0.0
74	0x00000000	0.0
75	0x00000000	0.0
76	0x00000000	0.0
77	0x00000000	0.0
78	0x00000000	0.0
79	0x00000000	0.0
80	0x00000000	0.0
81	0x00000000	0.0
82	0x00000000	0.0
83	0x00000000	0.0
84	0x00000000	0.0
85	0x00000000	0.0
86	0x00000000	0.0
87	0x00000000	0.0
88	0x00000000	0.0
89	0x00000000	0.0
90	0x00000000	0.0
91	0x00000000	0.0
92	0x00000000	0.0
93	0x00000000	0.0
94	0x00000000	0.0
95	0x00000000	0.0
96	0x00000000	0.0
97	0x00000000	0.0
98	0x00000000	0.0
99	0x00000000	0.0
100	0x00000000	0.0
101	0x00000000	0.0
102	0x00000000	0.0
103	0x00000000	0.0
104	0x00000000	0.0
105	0x00000000	0.0
106	0x00000000	0.0
107	0x00000000	0.0
108	0x00000000	0.0
109	0x00000000	0.0
110	0x00000000	0.0
111	0x00000000	0.0
112	0x00000000	0.0
113	0x00000000	0.0
114	0x00000000	0.0
115	0x00000000	0.0
116	0x00000000	0.0
117	0x00000000	0.0
118	0x00000000	0.0
119	0x00000000	0.0
120	0x00000000	0.0
121	0x00000000	0.0
122	0x00000000	0.0
123	0x00000000	0.0
124	0x00000000	0.0
125	0x00000000	0.0
126	0x00000000	0.0
127	0x00000000	0.0
128	0x00000000	0.0
129	0x00000000	0.0
130	0x00000000	0.0
131	0x00000000	0.0
132	0x00000000	0.0
133	0x00000000	0.0
134	0x00000000	0.0
135	0x00000000	0.0
136	0x00000000	0.0
137	0x00000000	0.0
138	0x00000000	0.0
139	0x00000000	0.0
140	0x00000000	0.0
141	0x00000000	0.0
142	0x00000000	0.0
143	0x00000000	0.0
144	0x00000000	0.0
145	0x00000000	0.0
146	0x00000000	0.0
147	0x00000000	0.0
148	0x00000000	0.0
149	0x00000000	0.0
150	0x00000000	0.0
151	0x00000000	0.0
152	0x00000000	0.0
153	0x00000000	0.0
154	0x00000000	0.0
155	0x00000000	0.0
156	0x00000000	0.0
157	0x00000000	0.0
158	0x00000000	0.0
159	0x00000000	0.0
160	0x00000000	0.0
161	0x00000000	0.0
162	0x00000000	0.0
163	0x00000000	0.0
164	0x00000000	0.0
165	0x00000000	0.0
166	0x00000000	0.0
167	0x00000000	0.0
168	0x00000000	0.0
169	0x00000000	0.0
170	0x00000000	0.0
171	0x00000000	0.0
172	0x00000000	0.0
173	0x00000000	0.0
174	0x00000000	0.0
175	0x00000000	0.0
176	0x00000000	0.0
177	0x00000000	0.0
178	0x00000000	0.0
179	0x00000000	0.0
180	0x00000000	0.0
181	0x00000000	0.0
182	0x00000000	0.0
183	0x00000000	0.0
184	0x00000000	0.0
185	0x00000000	0.0
186	0x00000000	0.0
187	0x00000000	0.0
188	0x00000000	0.0
189	0x00000000	0.0
190	0x00000000	0.0
191	0x00000000	0.0
192	0x00000000	0.0
193	0x00000000	0.0
194	0x00000000	0.0
195	0x00000000	0.0
196	0x00000000	0.0
197	0x00000000	0.0
198	0x00000000	0.0
199	0x00000000	0.0
200	0x00000000	0.0
201	0x00000000	0.0
202	0x00000000	0.0
203	0x00000000	0.0
204	0x00000000	0.0
205	0x00000000	0.0
206	0x00000000	0.0
207	0x00000000	0.0
208	0x00000000	0.0
209	0x00000000	0.0
210	0x00000000	0.0
211	0x00000000	0.0
212	0x00000000	0.0
213	0x00000000	0.0
214	0x00000000	0.0
215	0x00000000	0.0
216	0x00000000	0.0
217	0x00000000	0.0
218	0x00000000	0.0
219	0x00000000	0.0
220	0x00000000	0.0
221	0x00000000	0.0
222	0x00000000	0.0
223	0x00000000	0.0
224	0x00000000	0.0
225	0x00000000	0.0
226	0x00000000	0.0
227	0x00000000	0.0
228	0x00000000	0.0
229	0x00000000	0.0
230	0x00000000	0.0
231	0x00000000	0.0
232	0x00000000	0.0
233	0x00000000	0.0
234	0x00000000	0.0
235	0x00000000	0.0
236	0x00000000	0.0
237	0x00000000	0.0
238	0x00000000	0.0
239	0x00000000	0.0
240	0x00000000	0.0
241	0x00000000	0.0
242	0x00000000	0.0
243	0x00000000	0.0
244	0x00000000	0.0
245	0x00000000	0.0
246	0x00000000	0.0
247	0x00000000	0.0
248	0x00000000	0.0
249	0x00000000	0.0
250	0x00000000	0.0
251	0x00000000	0.0
252	0x00000000	0.0
253	0x00000000	0.0
254	0x00000000	0.0
255	0x00000000	0.0

network_body._body_endoder.seq_layers.2.weight f4 [256, 256]
0	0xbd54bebe	-0.05193972
1	0xbcc2fcf8	-0.023802266
2	0xbc6ef787	-0.014585382
3	0x3c7179eb	0.01473854
4	0xbda84a52	-0.082173005
5	0x3ba197a3	0.0049314066
6	0x3d209abe	0.039210074
7	0xbe01067e	-0.12600133
8	0x3ce0ee40	0.027457356
9	0xbd17fd5c	-0.037106857
10	0xbdda4c54	-0.1065909
11	0x3de947e0	0.11390662
12	0xbc2724fb	-0.010201688
13	0xbcd8dde2	-0.02647299
14	0xbd5357fa	-0.051597573
15	0x3d24afa6	0.040206574
16	0xbc179918	-0.009252809
17	0xbd061302	-0.03273297
18	0xbcdb959f	-0.026804743
19	0xbbb618be	-0.0055571487
20	0xbcffcb22	-0.031224791
21	0xbd8aa470	-0.06769645
22	0xbdc92093	-0.09820666
23	0xbbe73b9e	-0.0070566675
24	0x3d14cec8	0.036330014
25	0x3ca14c0d	0.019689584
26	0x3d83223a	0.064030126
27	0x3ce48b32	0.027898405
28	0xbcb5d955	-0.022198359
29	0x3c9f79f9	0.01946734
30	0xbd8ab298	-0.06772345
31	0xbdb4d830	-0.08830297
32	0xbd181c25	-0.037136216
33	0x3c8a19e1	0.016858043
34	0x3dc4d699	0.09611244
35	0x3e372fb3	0.1788929
36	0xbd4bb64d	-0.049734402
37	0xbd13a361	-0.036044482
38	0x3d47deec	0.04879658
39	0xbd635086	-0.055496715
40	0xbd3f591a	-0.046715833
41	0x3d5d899c	0.054086313
42	0x3d6cd8db	0.057823997
43	0xbcc99413	-0.02460674
44	0xb8d5eac5	-0.00010200361
45	0x3c5dfea7	0.013549483
46	0xbcb0becd	-0.021575356
47	0x3ce9e093	0.028549468
48	0xbc86d6d6	-0.016459864
49	0x3c868021	0.016418518
50	0xbd78bf9f	-0.06072962
51	0xbc70703a	-0.014675194
52	0xbc787056	-0.015163502
53	0xbc243212	-0.010021703
54	0x3c838df4	0.0160589
55	0x3cfc1c2e	0.030775156
56	0x3d32c716	0.043646894
57	0x3da86b91	0.08223642
58	0x3c00994c	0.007849049
59	0xbca97560	-0.020685852
60	0xbc21482d	-0.009843868
61	0x3d5c3dfd	0.053770054
62	0xbd99c7b3	-0.07508793
63	0xbe28cc29	-0.16484131
64	0xbc68a5db	-0.014199699
65	0xbdcc4d4f	-0.09975683
66	0x3da6956c	0.08133969
67	0x3c8a2747	0.016864432
68	0xbcaf523e	-0.02140152
69	0xbd1372e2	-0.035998233
70	0xbcb7ea3b	-0.022450557
71	0xbd1ba907	-0.038002994
72	0x3defb0a3	0.11703613
73	0xbd53436d	-0.051577974
74	0xbd3d6596	-0.046239458
75	0xbd475b71	-0.04867119
76	0x3d8b70b0	0.06808603
77	0x3db328f6	0.08748047
78	0xbda1c256	-0.07898395
79	0x3d6e5445	0.058185834
80	0xbda36573	-0.07978334
81	0xbd16361c	-0.036672696
82	0xbc92bb72	-0.017911647
83	0xbd136331	-0.03598327
84	0x3dbc0d3b	0.09182211
85	0xbd464c8f	-0.048412856
86	0xbc2cb720	-0.010541707
87	0x3d9a51f9	0.07535166
88	0x3d6cb3d5	0.05778869
89	0x3d4ee876	0.05051466
90	0xbda3ad6e	-0.079920635
91	0xbdd9eb5a	-0.10640593
92	0x3d9e4dbb	0.0772967
93	0xbdb159ed	-0.0865973
94	0x3d6cbad2	0.057795353
95	0xbd1dd51c	-0.038533315
96	0xbd5fbce0	-0.054623485
97	0x3d97b279	0.07407088
98	0xbd4c285d	-0.04984318
99	0x3c0c9828	0.008581199
100	0xbcc2dcda	-0.02378695
101	0xbd9b7b60	-0.07591891
102	0x3db73dde	0.08947347
103	0x3cc51d50	0.024061829
104	0x3d4f7447	0.050648
105	0xbb9b3b0b	-0.004737263
106	0x3d279523	0.040913712
107	0x3d64e7ad	0.055885006
108	0xbd5626ca	-0.052283086
109	0x3cf134f3	0.029444193
110	0xbc6463c3	-0.013939801
111	0x3e014735	0.1262482
112	0x3c79bcf5	0.015242805
113	0x3bd039fd	0.006354569
114	0x3cb28469	0.021791654
115	0xbd8db946	-0.06920104
116	0x3d8c9adf	0.06865477
117	0x3d9dded8	0.0770852
118	0xbd880e1d	-0.06643317
119	0x3d8d66bd	0.069043614
120	0x3db7ff3c	0.08984229
121	0xbd676e1a	-0.056501485
122	0xbc8b6d86	-0.017019998
123	0xbdc92343	-0.09821179
124	0x3de108a6	0.10987978
125	0xbdc19226	-0.09451704
126	0x3c5aa04a	0.01334388
127	0x3d60f9e1	0.054925803
128	0x3cd52dcb	0.026022812
129	0xbd3d9567	-0.04628506
130	0x3d056495	0.032566626
131	0x3d862ae6	0.06551151
132	0xbcbc8680	-0.023013353
133	0x3b17f28a	0.0023185336
134	0xbbeac33b	-0.0071643866
135	0x3d1c6866	0.0381855
136	0x3c5335f2	0.0128912795
137	0xbd641bd2	-0.055690594
138	0x3dba73ca	0.09104116
139	0x3d8dcce1	0.06923843
140	0xbd479b8a	-0.048732318
141	0x3e2a1a65	0.16611631
142	0x3daf6e59	0.08565969
143	0x3ba9c116	0.0051804883
144	0xbdac5bf6	-0.08415978
145	0x3ca120f5	0.019669035
146	0x3cd3c1a2	0.025849167
147	0x3df0254c	0.11725864
148	0x3d5cdcb4	0.053921416
149	0x3bec1f4a	0.0072058784
150	0xbd0e3367	-0.03471699
151	0xbdc0ad5d	-0.094080664
152	0x3dc776bb	0.09739443
153	0xbdab70cc	-0.08371124
154	0xbc69beb4	-0.014266659
155	0x3b94abfe	0.0045371046
156	0x3dc18d60	0.09450793
157	0xbbbd9f6c	-0.005786827
158	0xbd823f9b	-0.06359788
159	0x3b1a0ce5	0.002350622
160	0x3da9939e	0.08280109
161	0xbdbfe195	-0.09369198
162	0xbc9b1bd2	-0.018934164
163	0x3d5b85e5	0.05359449
164	0xbdd4aa95	-0.103840984
165	0xbd4062f2	-0.04696936
166	0x3d4b7046	0.04966762
167	0xbcc187fe	-0.023624416
168	0x3d906204	0.07049945
169	0xbc1f012a	-0.009704867
170	0x3d8c06b1	0.06837214
171	0xbd6b0d54	-0.057385758
172	0x3d863071	0.06552208
173	0x3ddb3c9a	0.10704918
174	0xbdfb385f	-0.12266611
175	0xbb35ded1	-0.0027751217
176	0x3cf41ae5	0.02979798
177	0x3c3f294c	0.011667561
178	0x3d5ad329	0.053424034
179	0xbbc13c9f	-0.005897119
180	0xbb97008d	-0.00460822
181	0x3c002469	0.007821181
182	0x3d221393	0.03956945
183	0xbd023e0e	-0.03179746
184	0xbd8d131a	-0.06888409
185	0xbd8ba692	-0.0681888
186	0x3cdcc127	0.026947571
187	0x3dd83020	0.10556054
188	0x3cc121cd	0.023575688
189	0x3e156e90	0.14592957
190	0x3d5dd769	0.05416051
191	0x3d835798	0.064131916
192	0xbd15cdbc	-0.036573157
193	0x3c064c72	0.008196937
194	0xbda21862	-0.07914807
195	0x3d6c6d62	0.057721503
196	0x3bb635ea	0.0055606263
197	0xbdd9ae2e	-0.10628925
198	0xbdd99366	-0.10623817
199	0x3d12ccd6	0.035839878
200	0xbc333c4b	-0.010939668
201	0xbba1c302	-0.004936577
202	0xbd33670f	-0.043799456
203	0xbd83d63f	-0.064373486
204	0xbc33c8f0	-0.0109732
205	0x3bf19d8c	0.0073735174
206	0x3da4ea59	0.08052511
207	0xbdecbe42	-0.11559726
208	0x3dd7c34c	0.10535297
209	0x3ddd2ebf	0.10799932
210	0xbcdc5e22	-0.026900355
211	0xbd19c504	-0.037541404
212	0xbc2b8b80	-0.010470271
213	0x3d093ff8	0.03350827
214	0x3cdd9745	0.02704967
215	0xbcc8fd87	-0.024534954
216	0x3d08ef63	0.033431422
217	0x3dc8a4c4	0.097970515
218	0xbc155c86	-0.009116298
219	0xbb2ba980	-0.002619356
220	0xbb9ab676	-0.004721458
221	0xbc9f2b5d	-0.019429857
222	0x3d7e3c4b	0.06206922
223	0x3d8510aa	0.06497319
224	0x3cca560e	0.024699237
225	0xbd857375	-0.06516162
226	0x3dc69ee7	0.09698277
227	0xbbc81c95	-0.006106923
228	0x3cb4d32a	0.022073347
229	0x3c17f2c2	0.009274187
230	0x3da5f1fd	0.08102796
231	0x3cd797f4	0.026317574
232	0xbd5b3898	-0.05352077
233	0xbe177189	-0.14789404
234	0x3c8555d8	0.016276285
235	0xbcae1f98	-0.0212553
236	0xbc926e99	-0.017875003
237	0xbc9d2b84	-0.019185789
238	0x3d743ab5	0.0596263
239	0x3d754e9c	0.05988942
240	0xbb9ed24f	-0.004846848
241	0x3c32d301	0.010914565
242	0xbced4cb7	-0.028967245
243	0xbd2737e2	-0.04082478
244	0xbb5b458e	-0.0033458206
245	0xbd8284d9	-0.06372995
246	0x3c80d2d3	0.015725529
247	0xbcdb53da	-0.026773382
248	0x3ad43567	0.0016190232
249	0xbd864ba1	-0.06557394
250	0x3cf65c7b	0.030073395
251	0xbd54caba	-0.051951148
252	0xbd88cc51	-0.06679595
253	0x3b924c4b	0.0044646612
254	0x3c209617	0.009801409
255	0xbcfaf8a9	-0.030636149

action_model._discrete_distribution.branches.0.weight f4 [3, 256]
0	0xba306b0f	-0.000672982
1	0x3b861704	0.004092099
2	0x3aca92a6	0.0015455082
3	0xbb7a6342	-0.0038206135
4	0xbb804949	-0.0039149863
5	0x3b7db03a	0.0038709776
6	0xbaa22dea	-0.0012373303
7	0x3bbda583	0.005787553
8	0xbabb3131	-0.0014281628
9	0xbb017306	-0.0019752397
10	0x3b6998a0	0.003564395
11	0xb8dbc780	-0.000104798935
12	0x3bb4fab8	0.005523052
13	0xbbf31c9b	-0.0074191815
14	0x391c9c37	0.00014935514
15	0xbbff97b7	-0.0078000682
16	0xbbc619a3	-0.0060455366
17	0xba5cbba7	-0.00084202964
18	0xbc34f67a	-0.011045093
19	0xba29f520	-0.0006483365
20	0x3b7199e2	0.0036865403
21	0xbba0f920	-0.0049125105
22	0x3914baea	0.00014184011
23	0xbaaa1ffd	-0.0012979504
24	0x3be55c02	0.0069994936
25	0x3b501ad5	0.0031754274
26	0xbb507690	-0.003180895
27	0x3bae02eb	0.0053104064
28	0xbb187f9a	-0.0023269416
29	0xbc6a09ab	-0.014284532
30	0xbc039bdb	-0.008032764
31	0xbc34134d	-0.01099093
32	0x3b0c1943	0.0021377362
33	0xbb280f9b	-0.0025644067
34	0xbc400af9	-0.011721366
35	0xbba8aa04	-0.0051472206
36	0xb901033b	-0.00012303602
37	0xbbe4fadd	-0.006987913
38	0xbbb0935d	-0.005388661
39	0x3b9124c7	0.004429433
40	0xbba58daf	-0.0050522904
41	0xbbaeec96	-0.005338262
42	0xba3babf3	-0.00071591063
43	0x39908f25	0.0002757247
44	0x3b9553a9	0.004557092
45	0xbb9e7290	-0.0048354343
46	0xbc0de391	-0.008660213
47	0x3bccf8ff	0.0062552686
48	0xbba9b737	-0.0051793116
49	0x3b0654c6	0.0020497306
50	0x39b404ef	0.0003433595
51	0x3b0d38f5	0.0021548842
52	0x3bd4db1d	0.006495847
53	0x3bbc598f	0.005747981
54	0x39086d72	0.00013010742
55	0x3c0282c9	0.007965752
56	0xbc3c629f	-0.0114981225
57	0xbbf7edf8	-0.00756621
58	0x3c1b6c50	0.009486273
59	0x397d10a2	0.00024134156
60	0xbb9ef3d7	-0.0048508453
61	0xbc12dc38	-0.008963637
62	0xb97bca12	-0.00024012502
63	0x3c188e83	0.009311321
64	0x3aab051b	0.0013047786
65	0x3bac2581	0.0052534943
66	0xb8dc0c92	-0.00010492759
67	0x3b61c55b	0.0034449908
68	0xbbd4a073	-0.0064888536
69	0x3b48b357	0.0030624473
70	0x3bbc6fe7	0.0057506445
71	0xbbca2f5b	-0.006170196
72	0x3a131f31	0.0005612253
73	0x3b9b50b4	0.004739845
74	0xbba09c37	-0.0049014348
75	0xbc4425c8	-0.011971898
76	0x3bb49f63	0.0055121644
77	0x3aa381c1	0.0012474583
78	0x3aa55784	0.0012614583
79	0x3a1f2bb4	0.0006071881
80	0x3b825ade	0.0039781174
81	0x3c177432	0.009244012
82	0x3c3f780e	0.011686338
83	0x3bb12b4c	0.0054067727
84	0xbb5c416a	-0.0033608326
85	0x3b84ebf7	0.0040564495
86	0x3a970555	0.0011521975
87	0x3bf3490f	0.0074244807
88	0x3b4262ce	0.0029660943
89	0xbbce9f22	-0.006305591
90	0x3aa8a9ef	0.0012868027
91	0xbc420edd	-0.011844364
92	0xbae49132	-0.0017438291
93	0x3b86de07	0.004115823
94	0x3b56219b	0.003267384
95	0x3b2de7e6	0.0026535927
96	0x3bd799fa	0.0065796347
97	0x3bd3fb98	0.0064692013
98	0xbbf7911f	-0.0075551416
99	0x397c2e98	0.0002404995
100	0xbbe40a4a	-0.0069592344
101	0x39fca0ad	0.00048184898
102	0x3a4816fc	0.00076328195
103	0xbc3d5c6f	-0.011557682
104	0x3c371c36	0.01117616
105	0x3b1ce5bc	0.0023940643
106	0xbc38a38b	-0.01126946
107	0x3a89a09f	0.0010500139
108	0x3bdb7ac0	0.0066979825
109	0xb98752d3	-0.00025810915
110	0x3c03f00a	0.008052835
111	0x3c05ab4b	0.008158515
112	0xbc083353	-0.008313018
113	0xba21997c	-0.00061645336
114	0xbb8809f9	-0.0041515795
115	0xbb782457	-0.0037863457
116	0xbc1d5d6b	-0.009604792
117	0xbc10d787	-0.008840448
118	0xbbb4aa92	-0.0055134976
119	0x3c4bc217	0.012436411
120	0xbb264be3	-0.0025374822
121	0xba262cb7	-0.00063390605
122	0xbb8953ff	-0.0041909213
123	0xbbee6dfd	-0.007276295
124	0xbb21de27	-0.0024699064
125	0x3b1de4f9	0.0024092777
126	0x3b3dd582	0.0028966372
127	0xbbeac042	-0.007164032
128	0x3b20821e	0.0024491618
129	0x3bb3cf25	0.00548734
130	0xbc2c7f67	-0.010528422
131	0x3c3e3667	0.01160965
132	0xb99b5de9	-0.00029633872
133	0x3afec972	0.0019438697
134	0x39ae323c	0.00033225294
135	0xbc1271da	-0.008938277
136	0xbbcd2902	-0.006260992
137	0x3a4b4748	0.0007754457
138	0x3a7d8e60	0.00096723996
139	0x39a70d04	0.0003186242
140	0xbabae336	-0.0014258388
141	0x3a6f476d	0.000912777
142	0xbb3d4532	-0.0028880355
143	0x3ba20807	0.0049448046
144	0x3bd10af5	0.00637948
145	0x3b33a1a5	0.002740958
146	0xbc146857	-0.00905808
147	0x3bc5e4f6	0.006039257
148	0xbba611be	-0.005068033
149	0xba684a9d	-0.0008861216
150	0xbaa01524	-0.0012213332
151	0x3b9dcfec	0.004816046
152	0x39111510	0.00013836124
153	0xbc67d6eb	-0.0141503615
154	0x3b846a48	0.00404099
155	0x3b7f449f	0.0038950813
156	0xbb9d7cd3	-0.00480614
157	0x3bb7276e	0.005589417
158	0xbac986b6	-0.001537523
159	0xbbc156a3	-0.0059002205
160	0xbbf52c8b	-0.0074821166
161	0x3ab67f2b	0.0013923397
162	0x3bbb41f0	0.0057146475
163	0x3b2a37e3	0.0025973252
164	0xbb4e92d3	-0.003152062
165	0x3bf238f8	0.007392045
166	0xbbfb075a	-0.0076607885
167	0xb9597348	-0.00020737678
168	0x3c1cfd5f	0.009581893
169	0x3c399699	0.011327409
170	0xbaf1e3d7	-0.0018454742
171	0xbc13feb9	-0.009032899
172	0x3b48a3b3	0.003061515
173	0x3a2f2fc3	0.0006682837
174	0x3c104e03	0.008807662
175	0xbb73d6fa	-0.0037206993
176	0xbbcde4c3	-0.006283374
177	0xbb76f683	-0.0037683554
178	0xbb451ef1	-0.0030078257
179	0x3c2d9624	0.010594878
180	0xbb5be5b2	-0.0033553657
181	0xbbcedb3a	-0.006312755
182	0x3b74a2bf	0.003732845
183	0x3c195d46	0.009360617
184	0x3c9dd5fd	0.019267077
185	0xbc3d1a37	-0.011541895
186	0xbab12cf4	-0.0013517425
187	0x3bc7b0d5	0.006094078
188	0xbbf45f8b	-0.0074576787
189	0xbb40e201	-0.0029431584
190	0xbbe14883	-0.006875099
191	0x3b7a1c00	0.0038163662
192	0xbba49c9b	-0.0050235516
193	0xbc01bffd	-0.007919309
194	0xba8bc47b	-0.0010663414
195	0x3b9a65bd	0.004711835
196	0xbb590bd5	-0.0033118625
197	0xbb958e2b	-0.004564067
198	0x3c49eec1	0.01232499
199	0x3baa11ee	0.0051901257
200	0x3bf84012	0.007575997
201	0x3bd2bedf	0.006431445
202	0xbbe3e6fb	-0.0069550253
203	0xbb60be88	-0.0034293253
204	0x3b9366c6	0.0044983355
205	0xbc2d272f	-0.010568424
206	0x3bc1423f	0.0058977897
207	0xbafa135d	-0.0019079257
208	0x3ba9b4aa	0.0051790075
209	0xba3cc4b2	-0.0007200941
210	0x3b0bc52c	0.002132724
211	0xbac264a9	-0.0014831024
212	0x3b9256a5	0.0044658952
213	0xbc0c02e5	-0.008545612
214	0x39baac43	0.0003560503
215	0x3b4939bd	0.003070458
216	0x3b6c285a	0.0036034794
217	0xbb7c80d5	-0.0038528938
218	0xbbb6aa48	-0.0055744983
219	0xbc2f38e3	-0.010694715
220	0x3b7338f7	0.003711281
221	0xbb8dc107	-0.004325989
222	0xbb11b80b	-0.0022234942
223	0x3ba1c22a	0.0049364762
224	0xbb9bb910	-0.004752286
225	0x3c3461ab	0.011009614
226	0xba871d0b	-0.0010308338
227	0xba4dc9fa	-0.0007850226
228	0x3b803085	0.003912034
229	0x37f3fcf0	2.908564e-05
230	0xbb6537f7	-0.0034975985
231	0x3b7fae3d	0.0039013766
232	0x3b8b197c	0.0042449813
233	0x3b3d075b	0.0028843496
234	0xbc1683a2	-0.009186657
235	0xbbde3147	-0.0067807767
236	0xbbebc1a8	-0.0071947165
237	0xbc6cfc48	-0.014464445
238	0x3b7b7e40	0.0038374811
239	0xbc384f2e	-0.011249347
240	0xbaddeb15	-0.0016931022
241	0xbb8c5464	-0.004282521
242	0x3badd6c2	0.005305142
243	0xbb733c03	-0.0037114627
244	0x3b9e3f6e	0.0048293388
245	0xbbda9b7d	-0.0066713677
246	0x38fd3b2f	0.00012075004
247	0xbb9c308f	-0.004766531
248	0xbc1cf469	-0.009579756
249	0x3c02806d	0.007965189
250	0x3bd9bccf	0.006644822
251	0xbc2a023b	-0.010376508
252	0x3b8aab33	0.0042318343
253	0x39c2c0af	0.00037146124
254	0xbbc2ff42	-0.0059508393
255	0xbb837c03	-0.004012586

action_model._discrete_distribution.branches.0.bias f4 [3]
0	0x00000000	0.0
1	0x00000000	0.0
2	0x00000000	0.0

action_model._discrete_distribution.branches.1.weight f4 [3, 256]
0	0xbb974167	-0.004615951
1	0xb77d91ea	-1.5113948e-05
2	0x3a7f94c2	0.00097496447
3	0xbbda7e32	-0.0066678757
4	0x3ad61ad3	0.0016334899
5	0xbc3baab3	-0.011454272
6	0x3c5c97c7	0.013463921
7	0x3b2a8763	0.0026020638
8	0xbada0945	-0.0016634843
9	0xb9c51b63	-0.00037595173
10	0xbbe6b755	-0.007040898
11	0xbc5a925f	-0.013340562
12	0xb98edb42	-0.0002724771
13	0xbacf0e65	-0.0015797137
14	0xbc0f350f	-0.0087406775
15	0xbc8048e3	-0.015659755
16	0x3b4acff7	0.003094671
17	0xbbbdd25a	-0.005792898
18	0x3c08eaeb	0.00835679
19	0x3b119a8d	0.0022217364
20	0xbb45d865	-0.0030188796
21	0xbbd188bf	-0.006394475
22	0x3b52e2ed	0.0032178715
23	0x3ba3525e	0.004984184
24	0xbb834aa7	-0.004006702
25	0x3c342b32	0.010996627
26	0xbbb7538f	-0.0055946778
27	0x3bc8ffa7	0.0061339918
28	0xbb5838ca	-0.0032992833
29	0xbc411066	-0.011783695
30	0xbc70275f	-0.014657824
31	0x3c03e267	0.008049584
32	0x3bdeabf5	0.006795401
33	0x3b30d45f	0.0026982052
34	0xbb68ba62	-0.0035511483
35	0xbb8acf7e	-0.004236161
36	0xbb8eeb63	-0.0043615564
37	0xba19761b	-0.0005854086
38	0x3b57ec07	0.003294708
39	0xbc3f7ca8	-0.011687435
40	0x3b191581	0.0023358765
41	0xbc309dfb	-0.010779853
42	0x3ba9195c	0.005160494
43	0x3b9f7813	0.004866609
44	0x3b882f1e	0.0041560074
45	0xbbc9d057	-0.0061588692
46	0x3bfe3ca3	0.0077586933
47	0xbb74be83	-0.0037345
48	0xbc2ad8c8	-0.010427661
49	0x3b56027a	0.0032655285
50	0x3a47963b	0.00076136336
51	0xbbad555b	-0.005289716
52	0xbbbce4cd	-0.00576458
53	0xbbd87c9f	-0.006606653
54	0xbb470c34	-0.0030372264
55	0x3c374fca	0.011188457
56	0xbc0f186a	-0.008733848
57	0x3b238cba	0.0024955706
58	0x3c154fcc	0.009113263
59	0x3b84da4e	0.0040543443
60	0x3b1a48f2	0.0023542014
61	0xbba18872	-0.0049295956
62	0x3b974807	0.0046167406
63	0x3ba5dd24	0.0050617624
64	0xbb95768b	-0.0045612506
65	0xba37d6ea	-0.00070129207
66	0xb87ee5da	-6.0772385e-05
67	0xbbccb5d2	-0.0062472606
68	0x3aeb78c8	0.0017965073
69	0xbaa29fbc	-0.0012407224
70	0x3ac247dd	0.0014822442
71	0xbad1eb53	-0.0016015567
72	0x3c001ac6	0.007818883
73	0x3b8ef5ab	0.004362782
74	0xba3fd26c	-0.0007317427
75	0x3c5e9c72	0.013587104
76	0xbbcdcc67	-0.00628047
77	0xbab47d3a	-0.001377023
78	0x3b83a025	0.0040168935
79	0x3c4a1731	0.012334631
80	0xba086aed	-0.00052039215
81	0xbafa05ed	-0.0019075252
82	0x3c410247	0.011780328
83	0xbc886a41	-0.016652228
84	0x3a78b2e3	0.00094871054
85	0xbb3b9904	-0.002862514
86	0xbb9fa2bc	-0.0048716944
87	0x3c2aaa55	0.010416587
88	0x3a0f23d3	0.00054603553
89	0xbc217f48	-0.009857006
90	0x3b56b67d	0.003276258
91	0xbbb720dc	-0.005588634
92	0x3b02f677	0.001998333
93	0xbc0606af	-0.008180304
94	0x3b517735	0.0031961922
95	0xbaa9e896	-0.0012962993
96	0xbaedd7c0	-0.0018145964
97	0xbb3f9df3	-0.0029238432
98	0x3b3764e6	0.0027983724
99	0xbb4be0a9	-0.003110925
100	0x388094e7	6.131251e-05
101	0xbbef1ab8	-0.0072968863
102	0xb97f7427	-0.00024361965
103	0xbc0c653e	-0.00856906
104	0xbc0e32b2	-0.008679079
105	0x3ab418ac	0.0013740263
106	0x3b0833e3	0.002078288
107	0xbb36fc11	-0.002792124
108	0x3c0955df	0.00838229
109	0xbc3ebb7c	-0.011641379
110	0xbbd15420	-0.0063882023
111	0xbac1b41a	-0.0014778406
112	0x3bac8fc1	0.0052661602
113	0x3b2aeb1e	0.0026080082
114	0x3b55ffc5	0.0032653671
115	0x3bb130f0	0.005407445
116	0x3bbd1e25	0.005771416
117	0x3c0450c2	0.008075895
118	0x3be95f22	0.0071219364
119	0xbaca0519	-0.0015412896
120	0x3bdaa2dd	0.006672247
121	0x3b6f9c52	0.003656168
122	0xbc7d9da7	-0.015479482
123	0x3bb04cd3	0.005380252
124	0xba83c6ff	-0.0010053812
125	0x39d5512b	0.00040687
126	0x3ad6e2ef	0.0016394536
127	0x38d372b0	0.00010082626
128	0xbaf65875	-0.0018794673
129	0x3bdc8a08	0.006730322
130	0xbb3edf13	-0.0029124662
131	0xbc031eff	-0.0080029955
132	0xbb824737	-0.0039757746
133	0x3b61ed65	0.0034473774
134	0x38bee80d	9.103129e-05
135	0x38d66685	0.00010223411
136	0x38078723	3.2312364e-05
137	0xbc2139fc	-0.009840485
138	0xbc01b4cb	-0.00791664
139	0xbb6db78b	-0.003627273
140	0x383c9f0e	4.4970824e-05
141	0x3bfb2630	0.0076644644
142	0xb9f2bf92	-0.00046300568
143	0x3a090a6e	0.00052276894
144	0x3b5707cf	0.003281105
145	0x3b9d22dd	0.004795416
146	0xbaca8d17	-0.0015453425
147	0x3b967443	0.004591496
148	0x3b5b1bfb	0.0033433426
149	0xbbb44521	-0.005501405
150	0xbc270f76	-0.010196557
151	0xbbce906a	-0.0063038366
152	0x3b470271	0.0030366445
153	0xbb66dba3	-0.0035226129
154	0x3bc3f819	0.0059805033
155	0xb9ea76a7	-0.0004472036
156	0xbaea76d8	-0.0017888201
157	0x3c68688f	0.014185085
158	0xbb97c044	-0.004631074
159	0xbb2e8e18	-0.0026634987
160	0xbb9aed88	-0.004728023
161	0xbb03a28e	-0.0020085904
162	0x3c110747	0.008851833
163	0x3c575c10	0.013144508
164	0x3bd2e36f	0.0064358036
165	0xbc1951cb	-0.00935788
166	0x3c06d32e	0.00822906
167	0x3af0dcc8	0.0018376345
168	0xbc408e88	-0.011752732
169	0x3b808386	0.003921929
170	0xbbe4774f	-0.0069722305
171	0x3c0debb3	0.008662152
172	0x3c292fa0	0.010326296
173	0xbc08e78e	-0.008355988
174	0xbc1b1cd2	-0.0094673205
175	0xbbf55e72	-0.0074880654
176	0xbba02956	-0.00488774
177	0x3c41095b	0.011782016
178	0xbbad0213	-0.0052797883
179	0xba48b47d	-0.00076562894
180	0x3bd1d67a	0.0064037414
181	0x3b7455c5	0.0037282568
182	0x3c15e5bc	0.009149011
183	0xbc353695	-0.011060377
184	0x3bc9c48a	0.0061574625
185	0x3a321249	0.0006792886
186	0xbbc96f77	-0.006147321
187	0x3b128d25	0.002236196
188	0xbc1573c3	-0.009121838
189	0xba2dfcf2	-0.0006637118
190	0xbab275d7	-0.0013615441
191	0x3ad5f81f	0.0016324556
192	0x3b5e4e2f	0.0033921113
193	0xb9e3a847	-0.0004342219
194	0xbbc67c43	-0.0060572936
195	0x3b9c4d0f	0.0047699283
196	0xba9dd5d6	-0.0012041877
197	0x3c2b18b4	0.010442901
198	0x3ba6207d	0.005069791
199	0x3bd33a3d	0.0064461515
200	0x3bcbc4e4	0.0062185396
201	0x3b2e9855	0.002664109
202	0x3ba4c9e1	0.0050289487
203	0xbc198464	-0.009369943
204	0x3c1b3adb	0.009474481
205	0x3b502efa	0.0031766281
206	0xbaa3d950	-0.0012500677
207	0x3b9141dc	0.0044329
208	0x3a9cc264	0.0011959788
209	0xbc23cd50	-0.009997681
210	0xbc1985f7	-0.009370319
211	0xbad3234f	-0.0016108545
212	0x3bacaa14	0.0052692983
213	0x3a4dfc3a	0.0007857714
214	0x3b4f74cb	0.0031655307
215	0xbc98f357	-0.018670721
216	0x3c596d53	0.013270694
217	0xbb150de4	-0.0022743875
218	0x3c2782ca	0.010224054
219	0x3b0908b0	0.002090972
220	0x3bb4f1cf	0.00552199
221	0xbc23646f	-0.009972676
222	0x3b1b0a7a	0.0023657368
223	0xb941c10e	-0.00018477833
224	0xbab9b1fb	-0.0014167422
225	0xba3b7aea	-0.00071517995
226	0x3be61728	0.0070218034
227	0x3b881507	0.0041528973
228	0xba97a287	-0.0011568823
229	0x3c15f39f	0.009152322
230	0x3bee2cd0	0.0072685257
231	0x3b0f765f	0.0021890623
232	0xbb13c427	-0.0022547336
233	0xbb75200f	-0.0037403142
234	0x3c45db7b	0.012076254
235	0xbc1180b9	-0.0088807875
236	0x3c274573	0.010209429
237	0xbc538e3a	-0.012912327
238	0x3c4be995	0.012445827
239	0x3ba652dc	0.0050757956
240	0x3b0852f3	0.0020801395
241	0x3b8a411f	0.004219189
242	0x3baac728	0.0052117296
243	0x3b97c80c	0.0046320017
244	0x3b5790f3	0.0032892793
245	0x3aa6826b	0.0012703663
246	0x3b317411	0.0027077238
247	0xba90f20c	-0.0011058464
248	0xbb357714	-0.0027689384
249	0x39ce5b7f	0.00039359552
250	0x3b1cfcac	0.0023954315
251	0x3b839756	0.0040158434
252	0xbc21555f	-0.009847014
253	0xbbeb2d43	-0.0071770265
254	0x3a3cb0c6	0.0007197972
255	0xbaf86deb	-0.0018953657

action_model._discrete_distribution.branches.2.weight f4 [3, 256]
0	0xbb8acd6f	-0.0042359154
1	0xbaec61b8	-0.0018034494
2	0xb9841ed5	-0.00025199974
3	0xbc055159	-0.008137071
4	0xba9f246f	-0.0012141595
5	0x3b7ae20a	0.0038281702
6	0x3ba3fae5	0.005004274
7	0x3a893265	0.0010467289
8	0x3b10c57d	0.0022090368
9	0xbb2fa4f4	-0.00268012
10	0xbb8bb482	-0.0042634616
11	0xbbf20d82	-0.007386864
12	0xbb33196c	-0.0027328385
13	0x3b9f96b2	0.004870259
14	0x3ba7583f	0.0051069553
15	0xbc2a2b5b	-0.010386313
16	0x3b14ef43	0.002272562
17	0x39412823	0.00018420866
18	0x3af14e75	0.0018410223
19	0xba0bf81c	-0.00053394004
20	0x3b107b39	0.0022046103
21	0x3b9e7cb3	0.0048366426
22	0xba4f2823	-0.0007902404
23	0xbbc7586b	-0.0060835383
24	0x3b1186cc	0.002220559
25	0xbc670d7f	-0.014102339
26	0xbb5da6d5	-0.0033821363
27	0x39ccb545	0.00039044968
28	0x3ab983d5	0.0014153669
29	0x3bd1e2e5	0.0064052218
30	0x3acc077d	0.0015566197
31	0x3b72b4f5	0.0037034128
32	0xbb4e4dd7	-0.0031479502
33	0x3b72794b	0.0036998566
34	0xbb1e0b0b	-0.002411547
35	0x3b388b93	0.0028159365
36	0xbbd1f8c8	-0.006407831
37	0x3c16cc8e	0.009204043
38	0xbb7f9c5b	-0.0039003107
39	0xb854410d	-5.0605322e-05
40	0x3c20f95d	0.009825078
41	0xbc2d1423	-0.010563883
42	0xbc0c7aed	-0.00857423
43	0x3b8136d4	0.0039433036
44	0x3c08df1a	0.008353973
45	0xbae9b413	-0.0017830156
46	0x3b1e4b78	0.002415387
47	0x3b727b63	0.0036999814
48	0x3c2a8f5e	0.010410158
49	0xbba0ac61	-0.0049033617
50	0xbb9bc2f9	-0.004753467
51	0xbbb97316	-0.0056594713
52	0x3b0d75b3	0.0021585047
53	0xbbd58fd8	-0.0065173917
54	0x3bee2cdf	0.0072685326
55	0x3a6be2eb	0.0008998352
56	0x3b981c24	0.0046420265
57	0xba121c1a	-0.00055736455
58	0x3bb7b859	0.0056066928
59	0xb9c490b7	-0.00037491854
60	0x38995225	7.310909e-05
61	0x3bc67e15	0.0060575106
62	0x3c1dd3c4	0.009633008
63	0x3b847b90	0.00404305
64	0xbc05659d	-0.008141902
65	0x3b35450b	0.002765956
66	0xba16ed6a	-0.00057574234
67	0xbc5ba865	-0.013406848
68	0x3ac6d665	0.0015170096
69	0xbbc17789	-0.0059041423
70	0xba1d6487	-0.00060040544
71	0x3bc318e0	0.005953893
72	0x3bca0880	0.006165564
73	0x3bc10c27	0.0058913413
74	0x3b433212	0.0029784483
75	0x3be0d005	0.0068607354
76	0x3b5823ca	0.0032980316
77	0xbbc5cde2	-0.006036506
78	0x3b800737	0.00390711
79	0xbaab4ae7	-0.0013068587
80	0xba5a2590	-0.0008321637
81	0xbc05704e	-0.008144451
82	0xbb31a3ae	-0.0027105617
83	0xbc1fbff7	-0.009750358
84	0x3a0da8c4	0.0005403871
85	0xbbe348a0	-0.006936148
86	0xbbcc58c3	-0.006236167
87	0x3bada396	0.005299042
88	0xbc1de9ab	-0.00963823
89	0x3b804583	0.0039145364
90	0x3bf3dea0	0.0074423105
91	0x39cfb158	0.00039614248
92	0x3b3ead7c	0.0029095104
93	0xbbc804ab	-0.006104072
94	0x3bdf40ed	0.0068131597
95	0xbb962ddc	-0.0045831036
96	0xbbb74425	-0.0055928403
97	0xbadde69a	-0.0016929687
98	0x3b4d4d1a	0.0031326474
99	0xbb39243b	-0.0028250355
100	0x3aac7b49	0.00131593
101	0xbb49f01b	-0.003081328
102	0xbbf9cdbb	-0.007623402
103	0x3b72c8ab	0.0037045877
104	0x3c19e679	0.009393328
105	0xbc04d3d4	-0.008107144
106	0x3b96905f	0.004594847
107	0xbc2ff52f	-0.010739609
108	0x3b37924a	0.002801078
109	0xbafbfc5b	-0.0019224988
110	0x3b8e59d5	0.004344205
111	0x3b884ca7	0.0041595283
112	0x3a76a5f8	0.00094088865
113	0xbb5c9f43	-0.0033664263
114	0xbc10c3f3	-0.00883578
115	0xbbbd61c3	-0.0057794764
116	0x3a3de418	0.00072437664
117	0x3c3e80f4	0.0116274245
118	0xbbe70b72	-0.007050925
119	0xbc2ff14d	-0.010738683
120	0x3c0d0b33	0.008608627
121	0x3b58a373	0.0033056408
122	0xbad68ef3	-0.0016369506
123	0x3b9629c3	0.004582615
124	0xbc009da0	-0.007850081
125	0x3a45d671	0.0007546908
126	0xbba5e667	-0.0050628665
127	0x3c87f71b	0.016597321
128	0xbbf6e062	-0.0075340727
129	0xba983246	-0.0011611662
130	0x39fd98b3	0.0004836969
131	0xbc00f0bb	-0.007869895
132	0x3c4f9da7	0.012671865
133	0x3bfc5a72	0.0077012116
134	0x3ba6296e	0.005070857
135	0x3b34a1fd	0.0027562373
136	0x3b9cc0fb	0.0047837473
137	0xb8a38a73	-7.798234e-05
138	0xba5ad065	-0.0008347093
139	0xba4d8fb0	-0.00078415405
140	0x388ca12b	6.70574e-05
141	0x3bd54600	0.006508589
142	0xbb9b8ed0	-0.004747249
143	0x3b63cadb	0.0034758362
144	0xbb95ef7b	-0.0045756674
145	0x3b99ae1b	0.0046899444
146	0x3ba5a4eb	0.00505506
147	0x3ad37450	0.0016132686
148	0x3baaac9d	0.0052085654
149	0x3b959057	0.004564326
150	0x3c4112e2	0.011784287
151	0x3b10ee73	0.0022114783
152	0x3b3b2f09	0.002856197
153	0xbc36bb7f	-0.011153101
154	0xbb54499a	-0.0032392503
155	0xbc23ccf7	-0.009997598
156	0xbb6584e7	-0.0035021843
157	0xbc26510b	-0.010151158
158	0x3c297e3b	0.010345037
159	0x3bac22bf	0.0052531655
160	0xbb9d5b60	-0.0048021525
161	0xbbca0c03	-0.0061659827
162	0x3c76038d	0.015015495
163	0xbc0ec026	-0.008712804
164	0x3961bc4b	0.00021527817
165	0x3b10e0fb	0.0022106755
166	0x3bb779d8	0.0055992417
167	0x3a897883	0.0010488186
168	0x39af9197	0.00033487074
169	0xbc2c5669	-0.010518649
170	0xbad04cad	-0.0015891992
171	0xbba7cd2a	-0.005120893
172	0xbc3d6639	-0.011560016
173	0xbaafc577	-0.001341029
174	0xbb7b0be3	-0.0038306646
175	0x3b7e09e2	0.0038763215
176	0xbc12c453	-0.00895794
177	0x3c772357	0.015084109
178	0x3c67a8e3	0.014139387
179	0x3b8a0192	0.004211613
180	0x3bba7a6a	0.0056908624
181	0xbbca15bb	-0.0061671413
182	0x3b8d299a	0.004307938
183	0x3b5f4c32	0.0034072516
184	0x3a1c35b1	0.00059589284
185	0xbbbd2bfc	-0.0057730656
186	0x3bb9a5f2	0.005665534
187	0xbc32da29	-0.010916271
188	0xbc1a490f	-0.009416833
189	0x3b3f6743	0.0029205836
190	0x3b516bd8	0.003195515
191	0x3a81a43b	0.0009890863
192	0xbaeb1090	-0.0017934013
193	0xbbf7f8d5	-0.007567505
194	0x3ab95d20	0.0014142133
195	0x3c2bdd35	0.010489752
196	0x3ab11925	0.0013511522
197	0x3b03a2bb	0.0020086009
198	0x3c117a15	0.008879204
199	0xbb9d89e2	-0.0048076967
200	0x3c045740	0.008077443
201	0x3b9b5d57	0.0047413516
202	0xba2fe412	-0.00067097053
203	0xbb0af15f	-0.0021200997
204	0x3c2e98b3	0.0106565235
205	0x3c1b2972	0.009470331
206	0xbc19c763	-0.009385916
207	0xbc8140ef	-0.015778033
208	0xbc3435d5	-0.010999163
209	0xbc19e206	-0.009392267
210	0x3bab2f80	0.0052241683
211	0x3a08daa7	0.000522057
212	0x3b61044f	0.0034334844
213	0x3b909c27	0.004413146
214	0xba8e8598	-0.0010873554
215	0x3bfc9bf3	0.0077090203
216	0xba5f2a0d	-0.0008513041
217	0xbb84f930	-0.004058026
218	0xbb862700	-0.0040940046
219	0xbadf51dd	-0.0017037947
220	0xba2c2c62	-0.0006567893
221	0x3bc4bcab	0.0060039363
222	0x3c4f33da	0.01264664
223	0x3bceb3d8	0.00630806
224	0xbaef8bb7	-0.0018275891
225	0x3bd84782	0.0066003213
226	0x3c01874b	0.0079057915
227	0xbc201b10	-0.009772077
228	0xbb412caf	-0.0029476096
229	0x3b8689bb	0.004105774
230	0xbad0ba85	-0.0015924728
231	0xb9961691	-0.00028627043
232	0x3c48f2b1	0.012264893
233	0xbc2bad35	-0.0104783075
234	0xbc03a766	-0.008035516
235	0x3b3212cb	0.0027171846
236	0xbc0c2b85	-0.008555298
237	0x3bfecbb7	0.0077757495
238	0x3c359ebb	0.011085208
239	0x3a9b8b31	0.0011867044
240	0x3c2c3b27	0.01051215
241	0xbb1ba505	-0.0023749482
242	0x3c07f07b	0.008297081
243	0xbbc4738b	-0.005995219
244	0x3ab3695b	0.0013688015
245	0x3bfec685	0.00777513
246	0x3ad5a27f	0.0016299038
247	0xbb34176b	-0.0027479779
248	0xbb1e4e92	-0.0024155718
249	0xbc2e21db	-0.010628189
250	0x3b5c6c52	0.00336339
251	0xbbe4e120	-0.006984845
252	0xbc042944	-0.008066479
253	0xbb5e94ab	-0.0033963125
254	0x3baa964f	0.0052059065
255	0xbc342f67	-0.01099763

action_model._discrete_distribution.branches.3.weight f4 [2, 256]
0	0x3c275cce	0.010214997
1	0xbabac857	-0.001425038
2	0xb7cc9c78	-2.4391557e-05
3	0xbb71d72a	-0.003690193
4	0xbb8e0745	-0.0043343627
5	0x39fec07b	0.00048590064
6	0x3baba754	0.005238453
7	0xb9abf507	-0.0003279822
8	0x3bc151c4	0.00589964
9	0xbc199ec5	-0.0093762325
10	0xbb88c04e	-0.004173315
11	0x3a1ef230	0.00060633104
12	0xbb00f347	-0.0019676255
13	0xba4a5f5c	-0.0007719898
14	0xbbea8e95	-0.0071581104
15	0x39f9f560	0.000476758
16	0x3ab053e5	0.0013452737
17	0x3bf9d747	0.00762454
18	0xbc262a3b	-0.0101419045
19	0xbbfb428f	-0.0076678465
20	0xbaf285f2	-0.0018503054
21	0xbbe60caf	-0.007020555
22	0x3a9b2090	0.0011835266
23	0x3b8bcd0f	0.0042663882
24	0xbc27890d	-0.010225547
25	0x3ab0fa3f	0.0013502314
26	0xbbff8f77	-0.0077990848
27	0x3b76cc07	0.003765823
28	0xb97b9b3d	-0.00023995056
29	0x3b80adfc	0.0039269906
30	0x3c3b4d93	0.011432069
31	0x3b143564	0.002261483
32	0xbac7d823	-0.0015246909
33	0xbbda51b0	-0.00666257
34	0xbbc90884	-0.0061350483
35	0x3ad43902	0.0016191306
36	0x3ba15c31	0.00492432
37	0x3a5238cb	0.0008019327
38	0xbc237823	-0.009977373
39	0x39930b85	0.00028046608
40	0xbb2dfdc0	-0.0026548952
41	0xbb881062	-0.0041523436
42	0x39b25744	0.00034015824
43	0xbbe069e8	-0.0068485625
44	0x3b89bdae	0.00420352
45	0x3ba6c2e3	0.0050891503
46	0x3b700d88	0.003662916
47	0xbb3d163b	-0.0028852362
48	0x3abced45	0.0014413974
49	0x3bb519ed	0.0055267722
50	0xbb65d3e2	-0.003506892
51	0xbba17877	-0.0049276906
52	0xba9c477e	-0.0011923162
53	0x3b1ff881	0.0024409594
54	0xbc569263	-0.013096425
55	0x3b8fa07e	0.004383146
56	0x3aa04ea8	0.0012230473
57	0xbc4325d2	-0.0119108725
58	0xbc0de565	-0.008660649
59	0xbb7d8653	-0.00386848
60	0xba2dad2f	-0.00066252326
61	0x3b8c5d17	0.004283558
62	0xbc5c4690	-0.013444558
63	0x3c14a460	0.009072393
64	0xbb3cb37d	-0.0028793507
65	0xbc88d40f	-0.01670268
66	0x39dcaf98	0.00042092497
67	0x3c2e446f	0.010636433
68	0x3b5a4022	0.0033302386
69	0xbc0b3a5c	-0.008497801
70	0xbb277a30	-0.0025555007
71	0x3be113f0	0.006868832
72	0xbb31be74	-0.0027121576
73	0x3a3f89df	0.0007306616
74	0x3c07a69e	0.008279471
75	0x3be6a19b	0.007038308
76	0x3b43ceaf	0.0029877832
77	0x39ff28b2	0.0004866771
78	0xbba1ac95	-0.0049339035
79	0x3b5b96c0	0.0033506602
80	0x3b82361b	0.003973735
81	0x3b821a7b	0.003970442
82	0xbc1d7bb7	-0.009612015
83	0x3b140315	0.0022584845
84	0xbc020370	-0.00793539
85	0x3a734c1d	0.0009281056
86	0xbbd92863	-0.006627129
87	0x3bea002d	0.0071411342
88	0x3c5dfb25	0.013548647
89	0x37c9c955	2.405482e-05
90	0x3af1fc5a	0.0018462047
91	0x3ab990b7	0.0014157508
92	0xbbdb077a	-0.006684241
93	0x3bec8677	0.007218178
94	0xbc0dfacf	-0.008665754
95	0xbb63bd7d	-0.0034750395
96	0x3bfb568b	0.007670229
97	0x3b9316ab	0.004488786
98	0x39dce3c0	0.00042131357
99	0x3b856858	0.0040712766
100	0xbb571d58	-0.0032823887
101	0xbc26f607	-0.010190493
102	0xbb16d327	-0.002301404
103	0xbc4b13ab	-0.012394826
104	0x3bd19fa2	0.0063972035
105	0xbb34ea06	-0.002760531
106	0x3c236c6c	0.00997458
107	0x3bf20ce3	0.00738679
108	0x3bb16aec	0.0054143574
109	0xbb8f82b8	-0.0043795966
110	0xbb9e7b3f	-0.0048364694
111	0x3b46334d	0.003024298
112	0xb941f272	-0.00018496232
113	0x3b78aaba	0.0037943558
114	0xbb8cc5dc	-0.0042960476
115	0xbbca01ef	-0.0061647813
116	0xbc3ebc8c	-0.011641633
117	0xbb3947f9	-0.0028271659
118	0xbb4918a6	-0.0030684858
119	0x3b8870a4	0.0041638184
120	0xbc4206b3	-0.0118424175
121	0xbbafc7fa	-0.0053644152
122	0x3b7a5b35	0.0038201336
123	0x3bc4a334	0.0060009006
124	0xbbfe49e3	-0.007760273
125	0xbc170339	-0.009217077
126	0xbbdd2312	-0.0067485655
127	0x384dc7d2	4.9061906e-05
128	0xb9e58c0f	-0.00043782635
129	0xb69d19e6	-4.6819796e-06
130	0xbbfc79af	-0.0077049355
131	0xbc3d037d	-0.011536476
132	0xbbe1144a	-0.0068688737
133	0x3b65c445	0.0035059613
134	0x3ab1e6b9	0.0013572789
135	0xbb6a2b0b	-0.0035731222
136	0xbaa7acbf	-0.0012792571
137	0xbc902818	-0.017597243
138	0xba8c954b	-0.0010725645
139	0xb9915c57	-0.00027725354
140	0xbbadccb6	-0.0053039445
141	0x3b911ebf	0.004428714
142	0x3b8991e3	0.0041982993
143	0x3bf45efa	0.007457611
144	0xbbcb01b3	-0.006195271
145	0x3b3552fa	0.0027667866
146	0xbb2b42fe	-0.002613246
147	0xbae1842b	-0.0017205527
148	0xbb744900	-0.0037274957
149	0x3bb3b775	0.0054845163
150	0xbba2b577	-0.00496548
151	0x3b479f95	0.0030460109
152	0xbb93dbfe	-0.004512309
153	0xbb1b1c7f	-0.0023668108
154	0x3a8aa7cd	0.0010578573
155	0xbc0e5209	-0.008686551
156	0xbbbddbc8	-0.005794022
157	0xbb96c748	-0.004601393
158	0xbac42d23	-0.0014967065
159	0x3bdf12ea	0.0068076747
160	0x3b9ca3b2	0.004780256
161	0xb9a85637	-0.00032107692
162	0x3b95aea7	0.0045679393
163	0x3ac9a6dd	0.0015384812
164	0x39227c85	0.00015495911
165	0xbb56ed08	-0.003279509
166	0xbb6740aa	-0.0035286346
167	0xbbf8035b	-0.0075687594
168	0xbb88fdd8	-0.004180651
169	0xbb73c3e5	-0.003719562
170	0x3b323247	0.0027190612
171	0x3bf2a32f	0.007404707
172	0xbbc03001	-0.0058650975
173	0xbb207802	-0.0024485593
174	0x3aca254b	0.0015422491
175	0xbc0824c9	-0.0083095515
176	0x3b6663c0	0.003515467
177	0xba15bc75	-0.0005711981
178	0xbb637dcd	-0.0034712434
179	0xbc2c17c4	-0.010503713
180	0xbb0fe2f4	-0.0021955343
181	0xbb2716c7	-0.0025495754
182	0x3bb82404	0.005619528
183	0x3c3fa7a3	0.011697683
184	0xbc116f12	-0.008876579
185	0x3b844e77	0.004037674
186	0xbc11ab9d	-0.008891013
187	0xba6a82bf	-0.0008945874
188	0x3a39609f	0.00070715876
189	0xba0a632b	-0.00052790594
190	0x3b4a245f	0.0030844433
191	0x3b143b10	0.0022618212
192	0xba9581df	-0.0011406502
193	0x3c016bf7	0.007899276
194	0xb8e59b42	-0.0001094849
195	0xba8621ab	-0.0010233423
196	0xbb25ce8d	-0.0025300116
197	0xbb533462	-0.0032227268
198	0xbb34cb38	-0.0027586948
199	0xbbccb6a3	-0.006247358
200	0x3c47bdbb	0.012191231
201	0x3c1633f8	0.009167664
202	0xba2caa0e	-0.00065866194
203	0xbbaf5042	-0.0053501436
204	0x3b2c2f7b	0.0026273418
205	0xba879a55	-0.0010345677
206	0xba97b09a	-0.0011573017
207	0xbbb28ea5	-0.0054491335
208	0x3ab18ddf	0.0013546309
209	0x3a4e0ce5	0.0007860198
210	0x3bce702b	0.0062999926
211	0x3bd7031a	0.006561649
212	0x3a0e7589	0.0005434384
213	0xbbdc8fd3	-0.0067310124
214	0x38da8563	0.00010419895
215	0x3b1ebe1d	0.0024222203
216	0x3c2b585e	0.01045808
217	0xbb67edca	-0.0035389536
218	0xba5abf33	-0.0008344531
219	0x3a778b38	0.00094430475
220	0xbc7bd393	-0.015370267
221	0x3bd4aba5	0.006490188
222	0xbc520abb	-0.012819941
223	0x3c2a0312	0.010376709
224	0x3b1cb7a7	0.0023913176
225	0x3b675f63	0.0035304658
226	0xbbb4bc89	-0.005515639
227	0x3c41b3e1	0.011822672
228	0x3bbf0a88	0.005830113
229	0xbba51db6	-0.005038942
230	0xbb1aa929	-0.0023599362
231	0xbc1dad42	-0.009623827
232	0x3aa10610	0.0012285132
233	0xbc251e76	-0.010078063
234	0xbac83e8b	-0.0015277428
235	0x3b8fe9b7	0.0043918747
236	0xbbdc15c8	-0.0067164637
237	0x3b9267b5	0.0044679292
238	0x3ba1feb3	0.0049436926
239	0xbbdba922	-0.006703512
240	0x3b1f6bf6	0.0024325824
241	0x3bb381cb	0.005478119
242	0xbb781828	-0.0037856195
243	0xbc515fb2	-0.012779163
244	0x3b8f4ed8	0.0043734126
245	0x3981f7aa	0.00024789321
246	0xbb4b1de4	-0.0030993158
247	0x3b5afb33	0.0033413887
248	0xbb366bfc	-0.002783536
249	0x3bc0bb12	0.0058816755
250	0xba080f8d	-0.00051903055
251	0x395869e2	0.0002063881
252	0x378654dd	1.6013562e-05
253	0x3c070c9d	0.008242753
254	0x3c17b7d7	0.009260139
255	0xba5325cd	-0.0008054644

action_model._discrete_distribution.branches.3.bias f4 [2]
0	0x00000000	0.0
1	0x00000000	0.0

onnx::Div_100 f4 [11]
0	0x3f800000	1.0
1	0x3f800000	1.0
2	0x3f800000	1.0
3	0x3f800000	1.0
4	0x3f800000	1.0
5	0x3f800000	1.0
6	0x3f800000	1.0
7	0x3f800000	1.0
8	0x3f800000	1.0
9	0x3f800000	1.0
10	0x3f800000	1.0
