results/VB_1/Badminton/Badminton-711506.onnx (onnx, 298576 bytes, 12 tensors)

discrete_act_size_vector f4 [1, 4]
000000 00 00 40 40 00 00 40 40 00 00 40 40 00 00 00 40
       3.0 3.0 3.0 2.0

network_body.observation_encoder.processors.0.normalizer.running_mean f4 [11]
000000 00 00 00 00 00 00 00 00 00 00 00 00 00 00 00 00
       0.0 0.0 0.0 0.0
000010 00 00 00 00 00 00 00 00 00 00 00 00 00 00 00 00
       0.0 0.0 0.0 0.0
000020 00 00 00 00 00 00 00 00 00 00 00 00
       0.0 0.0 0.0

network_body._body_endoder.seq_layers.0.weight f4 [256, 11]
000000 e4 75 28 bd 90 3f b8 bd 34 6b 5a be 06 86 81 3e
       -0.041128054 -0.089964986 -0.21329957 0.25297564
000010 f0 56 92 3b 5a 2b 04 be 93 ea 04 3d 7c 0b 54 3d
       0.00446593 -0.12907162 0.03245027 0.051768765
000020 df 28 d0 be 6b d0 76 be c7 87 68 39 43 df 8d 3e
       -0.40656182 -0.24102943 0.00022175825 0.27709398
000030 7e 73 2c bf fc 7a ba bd 90 a0 ac be 20 93 a5 3d
       -0.6736373 -0.09105489 -0.3371625 0.080847025
000040 c6 45 09 3b 0c 72 c3 3d 98 ab ed 3d 09 7b f8 3c
       0.002094613 0.09543237 0.116049945 0.030332105
000050 ad 84 a9 be 6f c4 93 3c a9 e6 a7 3e 65 6b b7 bc
       -0.33109036 0.018038003 0.32793167 -0.022390077
000060 0c b7 ce bd 53 c1 a9 3e c6 62 c1 3e 41 ff d4 3e
       -0.10093507 0.33155307 0.3777067 0.41600993
000070 66 98 81 be fb cf 7b be af 19 90 3e 82 29 79 bd
       -0.25311583 -0.24591057 0.28144595 -0.0608306
000080 f0 44 34 3f 94 0a 47 be b3 35 c1 3e fa 87 26 be
       0.7041769 -0.19437629 0.37736282 -0.16262808
000090 f9 36 19 bd 06 0b 53 3e 5f 3a c3 be e6 1b a3 bd
       -0.03740594 0.20609674 -0.3813047 -0.079643056
0000a0 b3 c0 42 be 42 b1 70 3e af ba bf bd 46 34 37 3e
       -0.19018821 0.23505118 -0.09361779 0.17891034
0000b0 ad 70 25 bf 05 45 e3 be cf 1f 5a be 09 a7 28 3e
       -0.64625055 -0.44388595 -0.21301197 0.16469969
0000c0 cc cb 58 3e 89 b3 bf be 16 82 11 bf 6c c2 7c be
       0.21171492 -0.37441662 -0.5683912 -0.24683541
0000d0 26 6d 3b bd 6a 4c 5f bd f1 35 de 3e 73 d6 46 be
       -0.04575839 -0.054516234 0.4340053 -0.19417743
0000e0 19 f8 1d bd af 6c 7b 3e 9b 47 9c 3d 8c 3b 6f 3d
       -0.038566682 0.24553178 0.07630845 0.058406398
0000f0 da 85 9a 3e d2 6e 22 bd 05 b6 33 be 2c 89 fd be
       0.30180246 -0.039656468 -0.17549904 -0.49518716
000100 c7 47 08 3e 0d db b0 be 4b b7 1f bd 76 4b 04 3f
       0.13308631 -0.34542122 -0.03899316 0.51677644
000110 1a 9d ca 3d 74 0a 1d bd 7f d2 3a be 9c 7b b3 3e
       0.09893246 -0.038340047 -0.1824436 0.35055244
000120 ba 46 36 bd 1b c5 7f 3e 0b f2 a7 bc 72 58 3a 3d
       -0.044501044 0.24977534 -0.020501157 0.045494504
000130 93 3a 0d 3d 8c da 9a bd fe 05 88 3e 1a bf 27 be
       0.03447969 -0.07561216 0.26567072 -0.16381493
000140 92 ee b5 3e 55 a1 27 3f ec f3 33 bf fb 4b 69 be
       0.35533577 0.6548055 -0.7029407 -0.2278289
000150 fe 25 2f bd a9 40 f7 3d 05 24 af 3e f8 9a 65 be
       -0.04276084 0.1207288 0.34207168 -0.22422397
000160 89 28 9b 3d 6b 36 3f bf a4 9d 11 bd 03 77 77 be
       0.07576091 -0.7469241 -0.03555073 -0.24166493
000170 57 04 52 3e 82 a1 f6 3e c3 98 f3 3e fa ca 19 3e
       0.20509468 0.48170096 0.47577485 0.15018836
000180 ed 4d 02 3e 37 71 01 be 03 a0 ab be d9 2d 35 3d
       0.12725039 -0.12640844 -0.33520517 0.044233177
000190 8c 50 18 3d 33 99 07 bf 34 3b 88 bd 1a d6 fe 3d
       0.03718619 -0.5296814 -0.06651917 0.124431804
0001a0 5a 67 21 be 0a 81 2d 3e 34 4e 92 bd 93 09 9b be
       -0.15762082 0.16943756 -0.07143822 -0.30280742
0001b0 9b 9c 88 3e d6 5e 68 be a3 44 00 3e fe 6d a5 3e
       0.2668198 -0.22692427 0.12526183 0.3231048
0001c0 89 ce 2e 3f 92 6b b4 be 4d 7b 6f be 96 b2 08 bd
       0.682839 -0.3523832 -0.2338688 -0.033373438
0001d0 c0 14 93 3e ca 67 dc 3e 97 c7 f9 bd 3a 7a 15 be
       0.28726768 0.43047935 -0.12196272 -0.14597407
0001e0 a3 74 8f 3e c5 0c ad 3d 03 70 5d 3e c8 f0 8d be
       0.28018674 0.08449701 0.2162476 -0.27722764
0001f0 78 c3 99 bc e5 fe 86 be 43 df 85 3d 05 67 12 bf
       -0.018769965 -0.26366344 0.065367244 -0.57188445
000200 d5 82 82 3e 5b f3 c0 bd 18 b6 a4 be e3 81 79 3d
       0.25490442 -0.09421416 -0.32170177 0.060914885
000210 91 a4 30 3f 91 b6 1b 3e d1 e3 33 3e 92 99 15 3e
       0.6900111 0.15206362 0.17567374 0.14609364
000220 ce e9 44 be ab 09 23 be 26 1e ad 3d 55 60 03 3f
       -0.19229814 -0.15921657 0.08453016 0.51318866
000230 d2 06 03 bf 81 c2 15 3d 72 bf 15 be 59 5d 19 3e
       -0.5118228 0.036562447 -0.14623812 0.14977016
000240 e0 30 77 3e a7 15 dc be 86 b8 06 3e 1a a4 73 bf
       0.24139738 -0.4298527 0.13156328 -0.95172274
000250 c6 9d da be 47 79 1b be 6a fe 09 be 81 8a cd be
       -0.42698497 -0.15182982 -0.13475958 -0.40144733
000260 d8 86 9e be c6 c2 fd bc 57 f3 cb be 78 b6 56 3d
       -0.30962253 -0.030976664 -0.3983409 0.05242011
000270 dd d7 a4 3e 1a a8 9a 3e bf 72 14 3e d6 2b 4d 3e
       0.3219594 0.30206376 0.14496897 0.20036253
000280 2b 3d ca 3a 19 a8 0c bf 53 4f a6 3e 1d 68 c9 3a
       0.0015429606 -0.54943997 0.32482395 0.0015366111
000290 75 f4 0c bf 87 a7 31 3d e1 28 9d be 71 f1 2a be
       -0.5506051 0.043372657 -0.3069525 -0.16693665
0002a0 f2 1d d5 3d 2a 93 cc bd 55 e8 19 3e 72 bd 88 bd
       0.10406102 -0.09989007 0.15030034 -0.06676759
0002b0 50 07 b1 be 60 4e 9d be 3a 75 88 be 2f 12 c3 bd
       -0.34575891 -0.30723858 -0.26651937 -0.095249526
0002c0 83 34 e6 3e 97 a2 96 3c 2d 92 89 bd df 88 73 3e
       0.44961938 0.018388076 -0.06717334 0.23782681
0002d0 f5 f7 c0 3e 73 d2 a2 3e 4a 6e 66 be d9 4b 4d be
       0.37689176 0.31801185 -0.2250301 -0.20048465
0002e0 10 c9 c1 3e 54 2f 6c 3d e4 a7 1d bf ad 8f ca bd
       0.3784871 0.057662323 -0.61584306 -0.09890685
0002f0 c1 15 df 3d 45 9e 72 bd a8 b5 29 bf 61 e3 57 be
       0.10892821 -0.05923297 -0.6629281 -0.21082832
000300 87 26 d8 be 58 52 bf 3d 29 8c 05 bf 8f 40 e9 be
       -0.42216894 0.09341878 -0.5216699 -0.45557067
000310 f1 ea b7 bd 8e a7 db bd b0 da 05 be 65 9d ab bc
       -0.089803584 -0.10725318 -0.13071704 -0.020949075
000320 06 6a e0 bd c4 c9 3e bf 00 21 28 be 64 76 3c 3e
       -0.10957722 -0.7452662 -0.16418839 0.18404537
000330 5c c4 a7 3e 1b 7d ae 3e 12 f9 06 be 4b 82 2f bf
       0.32766998 0.34079823 -0.1318095 -0.68558186
000340 99 50 31 3e da 0c ec 3e d9 3b 01 3c 9d 14 4a be
       0.17315902 0.46103555 0.007887804 -0.19734426
000350 82 1a 9c 3e 9b 90 2c 3d 0e 00 71 be a3 b9 e6 3e
       0.30488974 0.042130094 -0.23535177 0.45063505
000360 7e 25 09 bd 5e 44 c1 be 43 a8 5e 3e 6c 51 24 be
       -0.03348302 -0.37747473 0.21743874 -0.16046685
000370 74 6e e6 be df 0e 6f be 78 ac c7 3b ca 6a 63 3d
       -0.45006144 -0.23345517 0.006093558 0.055521764
000380 8e 55 05 3d 3e a2 fd be bc fa 1d be f9 ad 69 be
       0.032552294 -0.49537843 -0.15427679 -0.22820272
000390 bc a1 7f 3d 77 1d 9a 3c 6b 02 f9 3d 8b 8f be bd
       0.0624101 0.018812878 0.12158664 -0.093047224
0003a0 c2 68 06 be 24 30 00 3e 86 07 27 3f 2c 99 52 3e
       -0.131259 0.12518364 0.65245855 0.20566243
0003b0 b9 89 66 3e ad c3 fd bd 40 15 c3 be c1 92 97 3d
       0.22513475 -0.12390838 -0.3810215 0.07401038
0003c0 75 1c 9c 3e ff 4d a3 bd ae bc 1b 3f 7e 53 22 39
       0.3049046 -0.07973861 0.6083478 0.00015480627
0003d0 0d 61 15 bf 3e 19 07 bf ff 66 54 3e 3e 17 bb 3d
       -0.5835121 -0.5277289 0.20742415 0.091352925
0003e0 51 a9 2a 3d 8c d2 a7 3b 5f 21 69 3e 9d c8 54 3d
       0.04166538 0.0051215347 0.22766636 0.051949132
0003f0 99 23 2c 3e b6 26 d7 be ac 4a 43 3d 83 d2 45 be
       0.16810454 -0.42021722 0.047678635 -0.19318585

network_body._body_endoder.seq_layers.0.bias f4 [256]
000000 00 00 00 00 00 00 00 00 00 00 00 00 00 00 00 00
       0.0 0.0 0.0 0.0
000010 00 00 00 00 00 00 00 00 00 00 00 00 00 00 00 00
       0.0 0.0 0.0 0.0
000020 00 00 00 00 00 00 00 00 00 00 00 00 00 00 00 00
       0.0 0.0 0.0 0.0
000030 00 00 00 00 00 00 00 00 00 00 00 00 00 00 00 00
       0.0 0.0 0.0 0.0
000040 00 00 00 00 00 00 00 00 00 00 00 00 00 00 00 00
       0.0 0.0 0.0 0.0
000050 00 00 00 00 00 00 00 00 00 00 00 00 00 00 00 00
       0.0 0.0 0.0 0.0
000060 00 00 00 00 00 00 00 00 00 00 00 00 00 00 00 00
       0.0 0.0 0.0 0.0
000070 00 00 00 00 00 00 00 00 00 00 00 00 00 00 00 00
       0.0 0.0 0.0 0.0
000080 00 00 00 00 00 00 00 00 00 00 00 00 00 00 00 00
       0.0 0.0 0.0 0.0
000090 00 00 00 00 00 00 00 00 00 00 00 00 00 00 00 00
       0.0 0.0 0.0 0.0
0000a0 00 00 00 00 00 00 00 00 00 00 00 00 00 00 00 00
       0.0 0.0 0.0 0.0
0000b0 00 00 00 00 00 00 00 00 00 00 00 00 00 00 00 00
       0.0 0.0 0.0 0.0
0000c0 00 00 00 00 00 00 00 00 00 00 00 00 00 00 00 00
       0.0 0.0 0.0 0.0
0000d0 00 00 00 00 00 00 00 00 00 00 00 00 00 00 00 00
       0.0 0.0 0.0 0.0
0000e0 00 00 00 00 00 00 00 00 00 00 00 00 00 00 00 00
       0.0 0.0 0.0 0.0
0000f0 00 00 00 00 00 00 00 00 00 00 00 00 00 00 00 00
       0.0 0.0 0.0 0.0
000100 00 00 00 00 00 00 00 00 00 00 00 00 00 00 00 00
       0.0 0.0 0.0 0.0
000110 00 00 00 00 00 00 00 00 00 00 00 00 00 00 00 00
       0.0 0.0 0.0 0.0
000120 00 00 00 00 00 00 00 00 00 00 00 00 00 00 00 00
       0.0 0.0 0.0 0.0
000130 00 00 00 00 00 00 00 00 00 00 00 00 00 00 00 00
       0.0 0.0 0.0 0.0
000140 00 00 00 00 00 00 00 00 00 00 00 00 00 00 00 00
       0.0 0.0 0.0 0.0
000150 00 00 00 00 00 00 00 00 00 00 00 00 00 00 00 00
       0.0 0.0 0.0 0.0
000160 00 00 00 00 00 00 00 00 00 00 00 00 00 00 00 00
       0.0 0.0 0.0 0.0
000170 00 00 00 00 00 00 00 00 00 00 00 00 00 00 00 00
       0.0 0.0 0.0 0.0
000180 00 00 00 00 00 00 00 00 00 00 00 00 00 00 00 00
       0.0 0.0 0.0 0.0
000190 00 00 00 00 00 00 00 00 00 00 00 00 00 00 00 00
       0.0 0.0 0.0 0.0
0001a0 00 00 00 00 00 00 00 00 00 00 00 00 00 00 00 00
       0.0 0.0 0.0 0.0
0001b0 00 00 00 00 00 00 00 00 00 00 00 00 00 00 00 00
       0.0 0.0 0.0 0.0
0001c0 00 00 00 00 00 00 00 00 00 00 00 00 00 00 00 00
       0.0 0.0 0.0 0.0
0001d0 00 00 00 00 00 00 00 00 00 00 00 00 00 00 00 00
       0.0 0.0 0.0 0.0
0001e0 00 00 00 00 00 00 00 00 00 00 00 00 00 00 00 00
       0.0 0.0 0.0 0.0
0001f0 00 00 00 00 00 00 00 00 00 00 00 00 00 00 00 00
       0.0 0.0 0.0 0.0
000200 00 00 00 00 00 00 00 00 00 00 00 00 00 00 00 00
       0.0 0.0 0.0 0.0
000210 00 00 00 00 00 00 00 00 00 00 00 00 00 00 00 00
       0.0 0.0 0.0 0.0
000220 00 00 00 00 00 00 00 00 00 00 00 00 00 00 00 00
       0.0 0.0 0.0 0.0
000230 00 00 00 00 00 00 00 00 00 00 00 00 00 00 00 00
       0.0 0.0 0.0 0.0
000240 00 00 00 00 00 00 00 00 00 00 00 00 00 00 00 00
       0.0 0.0 0.0 0.0
000250 00 00 00 00 00 00 00 00 00 00 00 00 00 00 00 00
       0.0 0.0 0.0 0.0
000260 00 00 00 00 00 00 00 00 00 00 00 00 00 00 00 00
       0.0 0.0 0.0 0.0
000270 00 00 00 00 00 00 00 00 00 00 00 00 00 00 00 00
       0.0 0.0 0.0 0.0
000280 00 00 00 00 00 00 00 00 00 00 00 00 00 00 00 00
       0.0 0.0 0.0 0.0
000290 00 00 00 00 00 00 00 00 00 00 00 00 00 00 00 00
       0.0 0.0 0.0 0.0
0002a0 00 00 00 00 00 00 00 00 00 00 00 00 00 00 00 00
       0.0 0.0 0.0 0.0
0002b0 00 00 00 00 00 00 00 00 00 00 00 00 00 00 00 00
       0.0 0.0 0.0 0.0
0002c0 00 00 00 00 00 00 00 00 00 00 00 00 00 00 00 00
       0.0 0.0 0.0 0.0
0002d0 00 00 00 00 00 00 00 00 00 00 00 00 00 00 00 00
       0.0 0.0 0.0 0.0
0002e0 00 00 00 00 00 00 00 00 00 00 00 00 00 00 00 00
       0.0 0.0 0.0 0.0
0002f0 00 00 00 00 00 00 00 00 00 00 00 00 00 00 00 00
       0.0 0.0 0.0 0.0
000300 00 00 00 00 00 00 00 00 00 00 00 00 00 00 00 00
       0.0 0.0 0.0 0.0
000310 00 00 00 00 00 00 00 00 00 00 00 00 00 00 00 00
       0.0 0.0 0.0 0.0
000320 00 00 00 00 00 00 00 00 00 00 00 00 00 00 00 00
       0.0 0.0 0.0 0.0
000330 00 00 00 00 00 00 00 00 00 00 00 00 00 00 00 00
       0.0 0.0 0.0 0.0
000340 00 00 00 00 00 00 00 00 00 00 00 00 00 00 00 00
       0.0 0.0 0.0 0.0
000350 00 00 00 00 00 00 00 00 00 00 00 00 00 00 00 00
       0.0 0.0 0.0 0.0
000360 00 00 00 00 00 00 00 00 00 00 00 00 00 00 00 00
       0.0 0.0 0.0 0.0
000370 00 00 00 00 00 00 00 00 00 00 00 00 00 00 00 00
       0.0 0.0 0.0 0.0
000380 00 00 00 00 00 00 00 00 00 00 00 00 00 00 00 00
       0.0 0.0 0.0 0.0
000390 00 00 00 00 00 00 00 00 00 00 00 00 00 00 00 00
       0.0 0.0 0.0 0.0
0003a0 00 00 00 00 00 00 00 00 00 00 00 00 00 00 00 00
       0.0 0.0 0.0 0.0
0003b0 00 00 00 00 00 00 00 00 00 00 00 00 00 00 00 00
       0.0 0.0 0.0 0.0
0003c0 00 00 00 00 00 00 00 00 00 00 00 00 00 00 00 00
       0.0 0.0 0.0 0.0
0003d0 00 00 00 00 00 00 00 00 00 00 00 00 00 00 00 00
       0.0 0.0 0.0 0.0
0003e0 00 00 00 00 00 00 00 00 00 00 00 00 00 00 00 00
       0.0 0.0 0.0 0.0
0003f0 00 00 00 00 00 00 00 00 00 00 00 00 00 00 00 00
       0.0 0.0 0.0 0.0

network_body._body_endoder.seq_layers.2.weight f4 [256, 256]
000000 96 fa fd 3c 83 41 04 3d 0d 05 13 3d c5 0f 73 3d
       0.031003278 0.03228904 0.03589349 0.05934121
000010 cb fb 52 3d ce 13 8b 3c c5 28 e6 bc f4 6d 16 bd
       0.05150966 0.016977217 -0.028095612 -0.036725953
000020 bd af 63 3c ea f5 9a bb a5 d6 21 bd 0d 71 82 bd
       0.01389688 -0.0047290223 -0.03951134 -0.06369219
000030 0c 94 95 bd fa 45 27 3d a0 a8 01 3d 7f ca a3 3c
       -0.07303628 0.04083822 0.031654954 0.019994019
000040 92 3e 6f 3d 8a 40 1f 3d 3f 27 d9 3c a8 40 a0 bc
       0.05840928 0.03887991 0.026507972 -0.01956208
000050 2c 47 e5 3c 20 e6 70 bd 71 8f 9a bd b0 01 21 bd
       0.027988039 -0.058813214 -0.075468905 -0.03930825
000060 08 3c e5 3b 96 c1 c0 bc 4c 8c 1d bd 9d cb 6e bd
       0.0069956817 -0.023529809 -0.038463876 -0.05829965
000070 4d ed 8a bd f1 ee de 3c 10 fc 20 bd 85 be b3 bc
       -0.06783543 0.027213546 -0.039302886 -0.021941433
000080 ad 3f 25 3d 47 77 b5 3d 8b d4 f4 3d 44 e0 41 bc
       0.04034393 0.08860641 0.11954602 -0.011833254
000090 81 c4 3c bd be eb 61 3d 85 ab be 3d 74 ac 09 bd
       -0.04608584 0.055156462 0.093100585 -0.03361173
0000a0 56 be 4e 3d df 65 e0 bc f8 ab 35 bd 31 75 22 bd
       0.050474487 -0.027392326 -0.044353455 -0.039662544
0000b0 76 30 1f bd 22 69 42 bd 76 96 04 bd f2 d0 f5 3d
       -0.038864575 -0.047463544 -0.032370053 0.12002744
0000c0 ec 17 ab 3d 85 de 4d bc a3 ce 93 3b 85 96 8d bd
       0.08354172 -0.01256526 0.004510717 -0.06913475
0000d0 49 98 cb bc 1a 5a ac bd 7c 06 94 bd c2 9c b8 3d
       -0.024852889 -0.08415623 -0.07227799 0.09014274
0000e0 80 64 45 bd 5f 52 b7 bc 66 3b 59 39 ff a1 94 3a
       -0.048191547 -0.022378145 0.0002071686 0.0011339783
0000f0 2d 36 49 3d 2f 5c 84 3d 37 44 0a 3d e9 67 82 3d
       0.04912393 0.06462895 0.03375646 0.063674755
000100 fb c0 e2 3d f8 9e 87 bc 08 c3 f2 3c 35 7f 27 3d
       0.11071964 -0.016555294 0.029634014 0.0408928
000110 a6 4a 8a 3d 12 27 10 3d d8 15 3a 3d cd 0f 80 3d
       0.06752519 0.03519351 0.045430988 0.06253014
000120 4f 8e 8f bd 26 0f c0 bd 5d 6d f9 3c 36 21 e2 bc
       -0.07009565 -0.09377889 0.030447656 -0.027603727
000130 03 86 14 bd c2 90 e5 bd c9 8a 14 3e 9c dc 02 bd
       -0.036260616 -0.11209251 0.14506067 -0.03194867
000140 c6 86 f7 bc c0 f6 56 3c 76 5b 37 3d fe 90 10 3d
       -0.030215632 0.013120353 0.04476496 0.035294525
000150 79 ce 80 bd e2 c4 9f 3c 8b 76 bc 3d 4c 9b 59 bd
       -0.062893815 0.01950306 0.09202298 -0.05312662
000160 37 8c 51 bd 92 60 25 bd f9 d1 34 3c 76 e3 ce bd
       -0.05115911 -0.0403753 0.0110363895 -0.101019785
000170 2b 21 8e 3d d4 c2 a7 bd e6 3e ce bd b7 9e 85 bd
       0.0693992 -0.081914574 -0.10070591 -0.06524413
000180 40 bd b7 3d 1e 46 64 bd e3 2f bd 3c 30 00 bf 3c
       0.089716434 -0.05573093 0.023094123 0.02331552
000190 53 37 d7 3c 19 f9 cc bc b5 3f 97 3d e6 08 b9 bb
       0.026271498 -0.025021123 0.07385198 -0.0056468127
0001a0 0f cb ba bd 5c 28 98 ba eb c9 e0 3c 9b 73 8a 3d
       -0.091207616 -0.0011608708 0.027440032 0.06760331
0001b0 10 34 aa bc f2 30 9a 3d a7 87 72 3d 04 dd 86 3b
       -0.020776778 0.07528867 0.0592114 0.0041157026
0001c0 e1 5a 0a 3d e1 75 73 bc 96 0d a7 bd a5 8b 62 bd
       0.033778075 -0.0148596475 -0.08156888 -0.055308957
0001d0 6e 56 65 bd 48 01 ec ba 94 ae 98 bd 52 ea 9a bc
       -0.05599063 -0.0018005753 -0.07455173 -0.01891056
0001e0 1d 76 48 3d fb b2 ec bb 5d 28 24 3d 0b de 6c 3d
       0.048940767 -0.0072234846 0.040077556 0.057828944
0001f0 31 be ae bc 03 3f e9 bc a9 77 c8 3d 5b d9 b2 3d
       -0.021330925 -0.02847243 0.09788448 0.087328635
000200 8b ae 26 bd 71 22 17 3d b2 7d be 3d 07 b8 6e 3d
       -0.0406938 0.03689808 0.09301318 0.05828097
000210 8a 7f b0 3c 88 56 0d 3d c0 1f c1 bd 3c 9d 35 bd
       0.02154519 0.03450635 -0.09429884 -0.044339404
000220 91 4c 0c bc 89 dc 54 bd f0 e8 79 b9 1a 97 71 b8
       -0.008563177 -0.05196813 -0.00023833266 -5.7599602e-05
000230 e4 85 ca ba 49 43 6a 3d fb a0 53 bd be bb bb bd
       -0.001545128 0.057193074 -0.051667195 -0.09166668
000240 c8 52 92 3b 7f f4 86 bc 37 ce 3a bc 7d 78 7e bc
       0.0044654347 -0.016474007 -0.0114017045 -0.015531656
000250 ec 7a c6 bd df 0b 60 3d 4f 76 3d bd 76 a4 9b bb
       -0.09691414 0.05469882 -0.046255406 -0.00474983
000260 33 5b 7c 3b 77 ad eb bc 21 93 26 3d 1f 15 bd 3c
       0.0038506507 -0.028769238 0.040667657 0.02308136
000270 93 6b 11 3d 32 d3 9a bc 38 9b ce bd 08 61 a9 3c
       0.03550298 -0.018899534 -0.100881994 0.02067615
000280 0c b7 9c bd d9 6b 03 be de 0b e2 bd 90 e8 c2 3d
       -0.07652101 -0.1283411 -0.1103742 0.09517014
000290 3f 48 aa 3d c2 24 35 bc 58 6e b9 bd db 09 8d 3d
       0.08314561 -0.011056127 -0.090542495 0.068866454
0002a0 27 14 9e bd 28 b6 b1 3c 33 73 34 3d 49 a3 05 3c
       -0.077186875 0.021693304 0.044055175 0.008156606
0002b0 33 d6 78 3d 39 03 56 3d 75 7a cc bd 53 44 5e 3d
       0.06075115 0.052249167 -0.09984294 0.054264378
0002c0 4c 4d 30 3d 49 16 d1 3d 25 55 17 bd bf ec 39 3c
       0.043042466 0.10209329 -0.036946435 0.011347949
0002d0 6f f4 9a 3c 52 78 ed bd 82 43 05 bd 8b 13 a6 bc
       0.018915383 -0.11595215 -0.032535084 -0.02027299
0002e0 99 08 82 bd b0 0e 78 bd 14 fc cb bd d9 35 90 3d
       -0.06349296 -0.060560882 -0.099601895 0.070415206
0002f0 18 42 08 be aa 90 b9 bb 85 f5 fa 3c 3e 1e 82 bd
       -0.13306463 -0.0056629973 0.030634651 -0.063534245
000300 fd 59 89 3c d6 fb 18 3d 29 bb 3f bd 84 f9 65 3d
       0.016766543 0.037349544 -0.04680935 0.05614616
000310 1c ca 62 3d 21 dd 51 bd e4 40 ca 3b cd c3 8a bd
       0.055368528 -0.051236276 0.0061722863 -0.06775627
000320 e4 60 70 bd e4 28 1c 3d 58 b7 89 bb 30 7a d7 3c
       -0.058686152 0.038124934 -0.0042027645 0.02630338
000330 e3 93 10 bd bc 87 54 3d 77 1b 48 3d b5 6d 11 be
       -0.035297286 0.05188726 0.048854318 -0.14202006
000340 15 7d d1 3c e9 6f 58 3d 48 7a 87 3d fa 78 88 bc
       0.02557234 0.0528411 0.0661512 -0.016659249
000350 49 bb 77 3d e3 e9 f6 bd f2 66 1e 3e 01 89 a0 bc
       0.060481343 -0.12056329 0.15468958 -0.019596579
000360 76 90 16 bd 49 5b 4c bd ff 8e de 3b b6 37 2f 3d
       -0.036758862 -0.049891744 0.006791949 0.04277774
000370 ae 0c 6b 3d ee a7 77 3c 30 64 5b 3d 2a de db 3c
       0.05738514 0.015115721 0.053562343 0.026839335
000380 dd 91 87 3d e3 de 9d bd 7c 11 34 3d 43 5e 83 3c
       0.06619618 -0.07708528 0.043961987 0.016036158
000390 c5 33 2f bd d8 7f 8f bc 9e 3f 2c 3d 50 17 b4 bd
       -0.04277398 -0.017517015 0.042052858 -0.08793509
0003a0 4e 55 ad bd 10 d4 74 bd e8 f5 38 bd d5 13 f4 bc
       -0.08463536 -0.05977255 -0.04515639 -0.029794613
0003b0 42 12 ae 3d 23 76 90 bd ce b9 aa bd 52 07 d2 bd
       0.08499576 -0.07053783 -0.08336221 -0.102553025
0003c0 c0 ea 18 bd 38 1d 14 3c 09 90 80 3b 54 9f 0c bd
       -0.03733325 0.009040169 0.0039234203 -0.034331635
0003d0 43 9e 18 3d ce 8e 84 bc 23 ef 05 3e 31 98 b0 3c
       0.037260305 -0.016181376 0.13079505 0.021556946
0003e0 c7 c9 85 3c de 30 80 bd 8f 94 0e 3d 69 27 9f bd
       0.016331566 -0.06259321 0.034809645 -0.07771189
0003f0 ff ff 93 3c 48 5e 00 bb ae e0 b2 3d a9 45 cb 3c
       0.018066404 -0.0019587446 0.087342605 0.02481349

action_model._discrete_distribution.branches.0.weight f4 [3, 256]
000000 3f 99 60 3c 0e de 04 3c 82 f0 81 3b 26 5b a7 bb
       0.013708412 0.008109583 0.0039654383 -0.0051073013
000010 93 04 8e 3b cc 81 3d bc 23 d6 d2 3a b0 02 6f 3b
       0.0043340414 -0.0115665905 0.0016085546 0.0036470108
000020 f3 e1 63 39 57 86 66 3b e2 ef e1 bb d8 a1 11 bc
       0.0002173258 0.0035175288 -0.0068950513 -0.008888684
000030 13 8f e3 ba be 44 9a 3b 4b 82 d0 bb db 0b a4 bb
       -0.0017361365 0.0047079017 -0.0063631884 -0.005006296
000040 00 03 0e bc 96 88 25 3c 39 3f 4c 3b 97 71 0c bb
       -0.008667707 0.010103365 0.0031165613 -0.002143001
000050 e3 86 e3 ba ab 76 c9 3b 80 d2 5c ba 01 b0 9d bb
       -0.0017358925 0.0061481795 -0.0008423701 -0.004812241
000060 a0 80 c1 b9 1b 3d 94 bb 59 57 c9 bb e3 17 90 3a
       -0.00036907662 -0.004523886 -0.006144446 0.0010993447
000070 8f 3d 45 3b ab 9d fa 3b bf 35 98 3b 35 31 78 bb
       0.0030096506 0.00764819 0.004645079 -0.0037871127
000080 1f 58 1a 3c 2b 7d cc 3a 51 50 42 3b e7 30 20 b9
       0.009420424 0.0015601268 0.0029649923 -0.00015277007
000090 17 b1 d7 3a be b2 1a bc 68 f2 78 b9 8d e1 a7 3b
       0.0016455975 -0.0094420295 -0.00023741426 0.0051233233
0000a0 87 ff 9e 3b 52 11 81 bb e4 33 3b 3c 55 d0 d3 b9
       0.0048522386 -0.0039388323 0.011425946 -0.00040400276
0000b0 3a 3b d6 ba 90 1c 83 3b 45 f9 4a bc f8 0b 78 3c
       -0.0016344555 0.0040012076 -0.012388532 0.015139572
0000c0 ac 80 22 bc b5 76 03 ba d2 90 d7 3b 48 6a 93 bb
       -0.009918373 -0.0005014942 0.006578543 -0.0044987537
0000d0 68 71 57 bc d3 27 5b bb 01 78 af bb 5b 1c cb bb
       -0.013149597 -0.0033440485 -0.0053548818 -0.0061984486
0000e0 c6 ba 04 bc e5 49 2e ba cc dc b4 ba f5 dd b8 b8
       -0.008101171 -0.00066485844 -0.0013798713 -8.8151464e-05
0000f0 fd 53 a5 3b 2b b1 02 3c 61 f7 a1 bb b3 88 bc bb
       0.0050454126 0.00797681 -0.00494282 -0.0057536005
000100 95 49 b1 bb 60 d8 d9 ba 92 be 19 3c a2 a6 81 3b
       -0.005410383 -0.0016620271 0.009383814 0.0039566318
000110 27 21 55 3b 70 ba 6d bb 4f 90 cf 3b a2 ff 81 bc
       0.003252098 -0.0036274455 0.0063343416 -0.015868966
000120 db 76 22 3b 96 6f 3f 3a ff db a4 b9 b8 f9 dc bb
       0.0024790082 0.00073026994 -0.00031444427 -0.006743636
000130 ac 3d 2e bc 54 e2 3b 3c c0 d4 db bb 65 2e e2 b9
       -0.010634821 0.011467535 -0.0067087114 -0.00043140646
000140 97 07 21 bb 78 eb f2 3b 2b e0 95 3b 18 f1 17 3c
       -0.0024571174 0.007413324 0.004573842 0.00927379
000150 ab 59 8e 3b b8 78 e0 b9 7c 78 b3 3b 9b ae 0d bb
       0.0043441853 -0.00042814552 0.0054770093 -0.0021618966
000160 97 2d 52 3c 17 1f 91 3a 1c f6 21 3b f2 e3 69 bb
       0.012828252 0.0011071888 0.0024713343 -0.0035688845
000170 ce 24 af 3b 47 be a5 bb 86 fd ac bb 13 5b 47 bc
       0.0053449636 -0.005058083 -0.005279246 -0.01216771
000180 b8 61 ce 3b ff 9a 94 3b 5f 5e 9a bb 3f 98 1e bc
       0.00629827 0.0045350785 -0.004710957 -0.009679853
000190 54 fc 03 bb f3 bc 0e ba ce aa 42 bc 5b 9d 41 bb
       -0.0020139413 -0.0005445026 -0.011881543 -0.0029543254
0001a0 55 03 11 ba 62 82 cb bb 9d 36 ec 3a cb fe 08 bc
       -0.00055318075 -0.006210611 0.0018021647 -0.008361529
0001b0 8c 76 b7 3b 6e ea 8f bb 1f ba 20 3b 27 c2 fa bb
       0.0055988487 -0.00439196 0.0024525 -0.0076525393
0001c0 4a fc 57 3b 61 63 8b 3b 5c 61 c4 3b 9b 59 01 3a
       0.0032956772 0.0042537902 0.0059930515 0.0004934312
0001d0 55 cd d6 ba 66 3a a0 3b 23 f8 93 3b 2e 3b bf 3b
       -0.0016388098 0.004889774 0.004515664 0.005835912
0001e0 86 45 a9 bb ef 40 a8 3b 77 c0 08 bc a0 d5 16 bc
       -0.0051657585 0.005134694 -0.008346668 -0.009206206
0001f0 b8 f1 e0 bb db 73 7d 3a 51 d6 31 3c bd 5e 05 ba
       -0.0068647526 0.0009668448 0.01085432 -0.00050876645
000200 9a 6f ac bb ab f5 e4 3a df 4f da 3a e3 a7 7e 3b
       -0.0052623274 0.0017468234 0.0016655884 0.0038857393
000210 cd 3c 50 ba e5 b0 5c 3b ff 58 42 bc 37 ba e6 ba
       -0.00079436303 0.0033674773 -0.011862039 -0.0017603104
000220 74 31 13 bb 42 c7 6f bb 67 f4 91 3b a7 4a e6 bb
       -0.0022459896 -0.0036587273 0.004454184 -0.007027942
000230 72 6b 95 bb 42 9f db ba 40 9d 2e b8 57 34 fc bb
       -0.0045599276 -0.0016755837 -4.1631283e-05 -0.007696669
000240 16 82 46 bb 89 8f b6 3a 05 b3 58 3b 87 e2 33 3b
       -0.003028994 0.0013928275 0.0033065688 0.0027448253
000250 9a 14 81 3c 1e d0 33 3c ee 11 93 bb 97 a0 3a bc
       0.015756894 0.010974912 -0.0044882214 -0.011390827
000260 99 4b b4 bb 32 ae 77 ba 0c a8 93 3b 4a 93 40 bc
       -0.005502176 -0.00094482594 0.0045061167 -0.011753866
000270 8b 67 a5 bb 26 43 c3 3b ff 64 80 ba c3 db 35 bb
       -0.0050477437 0.0059589325 -0.0009795724 -0.0027749396
000280 6f 65 e2 3b 6f ad d1 3b b0 48 a3 b9 73 8f c4 ba
       0.0069090645 0.0063988487 -0.0003114394 -0.0014996364
000290 89 47 a3 3a f7 5d 24 bc 9f 50 85 bb 5b 04 9e bb
       0.0012457232 -0.010032169 -0.0040684487 -0.0048222966
0002a0 85 77 79 3b 12 ef d2 bb fa 3b f6 3a 9b 1a 82 3b
       0.0038065624 -0.006437191 0.0018786185 0.003970457
0002b0 3c 72 33 bb 5d a1 3a 3b 1b c4 35 bc 92 c6 c0 3b
       -0.0027381321 0.0028477528 -0.0110941185 0.0058830464
0002c0 d7 94 04 bc 9b 86 c7 bb ca 14 76 3a 6e e7 92 39
       -0.008092127 -0.0060890443 0.0009387253 0.0002801972
0002d0 58 4e 81 3b 72 f8 64 bb 82 3c 51 3b ed df 30 38
       0.003946107 -0.0034938124 0.0031926935 4.2170217e-05
0002e0 a3 46 98 ba 71 bd 24 3c a5 56 4f 3c 07 5c 68 3a
       -0.0011617731 0.010054932 0.012654935 0.0008863811
0002f0 5a f9 62 bb fd 0b 8c 3b 9a 1d f7 3b d2 c9 ac ba
       -0.0034633488 0.00427389 0.0075413706 -0.0013182706
000300 a5 67 14 bb ea 0f 44 bc a9 cb 81 ba bf bb d9 bb
       -0.0022644785 -0.011966685 -0.0009902614 -0.0066446955
000310 bc 24 a3 3b 7e 22 91 bb ac 5f 0c bb ec 37 37 3c
       0.0049787443 -0.0044291606 -0.002141933 0.011182766
000320 53 ab 48 bb f0 4b 4f bb 14 55 27 bc 6b a7 f0 3b
       -0.0030619695 -0.0031630956 -0.010213155 0.0073441765
000330 40 32 54 3b 59 2b 84 3b 5e 1d 14 bc 65 99 70 3b
       0.0032378584 0.0040334878 -0.009040205 0.0036712524
000340 38 f8 f7 bb 13 90 c8 ba 4b 55 79 bb 74 08 38 bb
       -0.007567432 -0.0015301727 -0.0038045223 -0.002808121
000350 05 bf ab bb ea c8 51 3c 15 eb 6c bb e5 bc 8a bb
       -0.005241277 0.012804249 -0.0036150862 -0.0042339438
000360 1b 2e f5 3a 68 ab a2 bb eb 03 c7 3b 0a 48 69 bc
       0.0018705757 -0.004964281 0.006073465 -0.014238367
000370 6c 88 96 ba 2b 8a 2b 3c 7a 98 5e 3b 32 67 ce 3b
       -0.0011484749 0.0104699535 0.0033965395 0.006298923
000380 53 d4 06 3c dc b5 03 bc a6 a5 42 3a 73 00 55 bc
       0.008229333 -0.008038964 0.0007425196 -0.013000595
000390 77 53 11 3b 0a bd 85 bb 57 88 fa ba 8b ea d6 3b
       0.0022174993 -0.004081373 -0.0019114119 0.0065587214
0003a0 8a bf 28 bb 72 f3 d5 b9 3a bb e8 bb df ae 11 3c
       -0.0025748932 -0.00040807907 -0.0071023973 0.00889179
0003b0 d7 78 9e 3b ee a1 39 3b a6 7f 1d bc 5d cb 66 bb
       0.0048361826 0.0028325277 -0.009612953 -0.0035216429
0003c0 c7 c3 a6 3b 83 ca 96 3b 29 ad 99 bb be 12 8e 3b
       0.0050892564 0.004601778 -0.0046898318 0.0043357303
0003d0 b7 80 95 bb 3b b9 4c bb 33 a6 e9 bb 93 05 0d 38
       -0.004562463 -0.0031238336 -0.007130408 3.362221e-05
0003e0 f5 37 e0 bb b5 05 0d bc 95 89 83 bb fa db 75 bb
       -0.006842608 -0.008607318 -0.004014204 -0.003751515
0003f0 15 9a 7a 3b d3 db 9c ba d3 71 3d bb ed 50 15 3c
       0.0038238813 -0.0011967368 -0.0028906956 0.0091135325

action_model._discrete_distribution.branches.0.bias f4 [3]
000000 00 00 00 00 00 00 00 00 00 00 00 00
       0.0 0.0 0.0

action_model._discrete_distribution.branches.1.weight f4 [3, 256]
000000 15 b2 09 bc e7 20 e0 bb 22 7c 0d 39 58 a5 7f 3b
       -0.0084042745 -0.0068398598 0.00013493051 0.0039008465
000010 99 be 93 ba 4a 58 fe 3a 74 6c 9e 3b f4 8c 22 3c
       -0.0011272012 0.0019404974 0.004834706 0.009921301
000020 47 ad 93 3b 22 7f b2 b8 cf f1 f1 bb 17 23 b3 bb
       0.0045067403 -8.511382e-05 -0.007383562 -0.0054668295
000030 ea be f6 3b 35 11 3e bb a7 ce 28 3c 32 cd b5 b9
       0.007530083 -0.0029001955 0.010303176 -0.00034675893
000040 db 37 03 3c 4b d6 d4 3b 1e 78 4a 3c f3 1b 34 bc
       0.008008922 0.0064952723 0.01235774 -0.010992992
000050 1a 68 b9 3b 75 d9 fc 39 b3 85 43 3b 27 19 c3 3a
       0.005658162 0.00048227204 0.002983433 0.0014884815
000060 d7 1f 03 3c 05 40 fa 3b 33 3c bf 3a 59 07 a5 3b
       0.008003197 0.0076370263 0.0014590084 0.0050362763
000070 a7 40 8a 3b b7 61 13 3c d8 97 69 ba 0d 5c de 3b
       0.004219133 0.008995465 -0.0008910871 0.0067858757
000080 25 4e b9 bb 6f 47 ec bb 92 ce d6 3a c3 e5 85 38
       -0.0056550675 -0.007210664 0.0016388467 6.384731e-05
000090 24 ea 30 3b 11 79 81 3c 18 03 e8 3b df 13 d6 3b
       0.0026995027 0.0158048 0.007080447 0.0065331305
0000a0 a3 ef 52 3c 1f 1c f6 bb 20 ef ff 3b 29 5d 14 3b
       0.012874517 -0.0075106765 0.0078104883 0.0022638536
0000b0 17 d7 87 3b 4f f4 9b bb 38 ff 4a bb 6a 20 2c bb
       0.0041455138 -0.0047593485 -0.0030974876 -0.0026264437
0000c0 43 6c 9e bb b2 a5 f9 b9 95 34 ad 3a 82 91 4d bc
       -0.004834683 -0.00047616434 0.0013214523 -0.012546899
0000d0 0a bb 68 bb 92 2c 4d bb 7f de cc b7 7d 5a 5a 3b
       -0.0035511875 -0.0031307084 -2.4422303e-05 0.0033318095
0000e0 58 61 ab bb 93 b7 c1 3b 9a f8 fe ba 1d 67 68 3b
       -0.00523011 0.0059117763 -0.0019452751 0.003546185
0000f0 37 c1 99 3b 7a 07 fc bb bf 26 dd 3a 9e d1 80 bb
       0.0046922225 -0.007691321 0.0016872509 -0.0039312383
000100 ff 06 83 bc 69 2d 06 bc 19 4f 8c 3b 68 0f 4d bb
       -0.015994547 -0.008189538 0.00428189 -0.00312897
000110 9a 63 0e 3c 9b fd 0e bc 3b 1c 5e 39 68 02 c2 3b
       0.008690739 -0.008727456 0.00021182086 0.005920697
000120 10 d9 90 bb 17 3d 3a bb 0f d3 6b ba 63 5c 53 bb
       -0.004420407 -0.002841776 -0.0008995989 -0.0032251112
000130 22 42 78 ba 0f 03 af 3b 9b 4a 4a ba c5 66 d1 ba
       -0.0009470304 0.005340941 -0.00077168056 -0.0015976062
000140 f3 86 76 3c 05 29 de 3a 17 a2 e3 b9 6a 39 31 3a
       0.015046823 0.0016949481 -0.0004341758 0.00067605695
000150 eb 37 6a bb d3 9c 2f bb b3 45 37 bb 47 20 08 bc
       -0.0035738896 -0.0026796355 -0.0027965128 -0.008308477
000160 45 ce 23 bb b3 1c 6b 3c b7 d0 48 bb ff ee 16 3c
       -0.0024994772 0.014350104 -0.0030641982 0.009212255
000170 5b b0 07 bc 94 8f 01 bc 5b 08 fc 3b 95 e4 e6 bb
       -0.0082817925 -0.007907767 0.0076914257 -0.007046292
000180 95 f2 28 bb db 70 53 ba f3 98 e3 bb 5d 71 10 bb
       -0.0025779356 -0.0008065828 -0.006945723 -0.0022040226
000190 c5 dd 8e bb 1a 30 61 b9 b4 30 96 ba 83 d4 ea bb
       -0.004359933 -0.00021475591 -0.0011458606 -0.0071664467
0001a0 67 6e 5c bb 34 f7 82 bb c1 a3 03 3b 30 5c c8 3b
       -0.003363514 -0.003996754 0.0020086619 0.006114505
0001b0 3a 19 47 bc e6 87 9a 39 4b 29 16 3c 56 a2 99 bb
       -0.012152011 0.0002947442 0.009165118 -0.0046885414
0001c0 33 51 2a bb 0d 89 67 bb 2b 35 51 3b 57 3d b3 bb
       -0.002598834 -0.0035329491 0.003192256 -0.0054699588
0001d0 52 d2 51 ba 0b 78 70 3c 2b fd bc 3a 38 fb 6c 3b
       -0.00080040575 0.014677058 0.0014418712 0.003616048
0001e0 59 6a 0c bb 71 a8 10 3c 66 de 09 3c 10 d9 5a 39
       -0.0021425693 0.008829222 0.00841484 0.00020870962
0001f0 e1 65 a3 3b af 09 d9 ba e2 d8 cf bb 3f 14 27 3c
       0.00498651 -0.0016558672 -0.006342993 0.010197698
000200 e7 b5 08 ba e2 8c 98 3b d7 b6 ec bb d8 8e 1a 38
       -0.0005215094 0.0046554664 -0.0072239446 3.6849495e-05
000210 30 71 91 bb 43 1b c6 bb a1 fd 96 3b e9 05 38 39
       -0.004438542 -0.0060457303 0.0046078716 0.00017549809
000220 68 ea 1c bc c7 d2 69 bb 87 ec 0a ba cf eb ae ba
       -0.009577371 -0.0035678612 -0.00052995275 -0.0013345423
000230 98 db d7 ba fc eb 93 bb 7f 38 c7 bb dd 68 d1 3b
       -0.0016468642 -0.0045142155 -0.006079733 0.0063906745
000240 93 aa 1c 3a 7f 80 b4 ba 83 a2 a8 3b bc 62 b2 3a
       0.0005976345 -0.0013771205 0.005146326 0.0013609747
000250 2f c4 20 bc 0d f6 5b bb 9b 20 15 3c ed d6 8c bc
       -0.009812399 -0.0033563406 0.009102012 -0.017192328
000260 2d ed dd ba b8 51 ed 3a 88 14 e6 bb 62 ae dd 3b
       -0.0016931646 0.0018106019 -0.0070214905 0.006765173
000270 b1 e0 00 bb 42 dd 0b 3c 63 8f 6d bb b6 e1 b2 b7
       -0.0019665177 0.008536639 -0.0036248795 -2.1324358e-05
000280 9a a1 fd bb fd ec b3 3b 88 46 9e 3b 34 17 80 bb
       -0.0077402117 0.0054908977 0.0048301853 -0.003909016
000290 25 48 5c bb fa e2 71 3b 1d 47 f0 3b bd 6b c4 3a
       -0.0033612337 0.003690897 0.007332696 0.0014985722
0002a0 22 83 ef 3a ff 4b 3b 3c d0 e4 3a bc 9c b3 8e 3c
       0.0018273334 0.011431693 -0.011407092 0.017419629
0002b0 60 34 4d 3a 6b fe 2c 3a 7b 96 55 3b 3a 33 62 bc
       0.0007827934 0.00065991905 0.0032590914 -0.013806159
0002c0 d0 dc a0 3b 0f 5a 00 3c 4f fd 4f bb 22 03 09 3b
       0.0049091354 0.007833972 -0.0031736677 0.0020906408
0002d0 33 75 52 3b b7 59 5a bc e7 53 46 bc 37 5f e2 bb
       0.0032113313 -0.013327054 -0.012104965 -0.006908323
0002e0 93 1c 0a 3b c7 85 47 bb 4a a2 4e bb 27 7f cc 3b
       0.002107416 -0.0030444728 -0.0031529837 0.0062407437
0002f0 77 4c 2d 3c d3 6c 28 3b 19 0a 30 bc c7 9d ab bb
       0.010577313 0.002569963 -0.010744595 -0.0052373144
000300 2f 21 e5 3a 48 40 c1 bb f3 fe 6c bb 22 43 5d 3c
       0.0017481203 -0.0058975555 -0.0036162704 0.013504775
000310 35 31 1b ba 80 66 ac 3b 13 a2 98 bb 97 77 88 ba
       -0.0005920113 0.0052612424 -0.0046579926 -0.0010411617
000320 3a 0f 7b 3b 02 5d 2a ba 57 e8 35 3c b2 d6 f5 bb
       0.0038308636 -0.00064988446 0.011102757 -0.0075024003
000330 28 f3 d7 3b 2b 2f 21 bb 63 b1 f3 3b e0 a5 2e 3b
       0.006590266 -0.0024594765 0.0074369176 0.0026649162
000340 ef ea 19 3a 0f aa a8 b9 1b cb 39 3c 03 ea 30 38
       0.00058714946 -0.0003217016 0.011339928 4.217961e-05
000350 83 29 3a bc c2 ee 5f 3b 88 a7 c0 3a 48 9f fd 3b
       -0.011362436 0.003416941 0.0014698366 0.007739935
000360 65 42 f3 bb b6 3d 26 3b 3f 46 be bb 4f 63 fe 39
       -0.0074236863 0.0025366372 -0.005806714 0.00048520646
000370 f7 4f 29 bb 6f 3c 1e bb 23 0e 23 3c 97 95 01 3c
       -0.0025835016 -0.0024144908 0.009952101 0.0079092
000380 25 73 6b bc 24 4a 85 3b e7 d5 16 3c fa b9 f5 3b
       -0.014370714 0.004067676 0.009206272 0.007498977
000390 73 87 bf bb 8c cc 99 39 05 42 df bb 7a 6a 50 3b
       -0.005845004 0.00029334833 -0.00681329 0.0031801746
0003a0 a3 5d 34 bc 35 25 ea bb eb 34 97 3b 0f 7d 34 3b
       -0.011008653 -0.0071455487 0.0046144626 0.002754036
0003b0 68 5d 5a bc f3 5d b5 bb 9a c4 59 bb 9f 0c 50 bc
       -0.013327934 -0.0055348813 -0.0033228756 -0.012698322
0003c0 1c 2d c5 3b b9 6e 0f bc 4e 4e 1b bc b3 d8 88 3b
       0.0060173403 -0.008754426 -0.0094791185 0.004176223
0003d0 93 37 e2 3b 77 7f 06 3c ba 16 61 b8 7d 02 1d bb
       0.0069035976 0.008209101 -5.3665346e-05 -0.0023957782
0003e0 84 f3 9f 3b 7d 66 a2 b9 4b 2b 0d 3c fb 34 e6 3a
       0.0048813242 -0.00030975408 0.008616279 0.0017563397
0003f0 25 e9 4f ba 1a d9 5d bb 51 22 c7 bb 48 29 54 39
       -0.00079311646 -0.0033851326 -0.006077089 0.00020233274

action_model._discrete_distribution.branches.2.weight f4 [3, 256]
000000 a0 0e 8f b9 0c 81 92 bb cd 9d 2d bc bb f9 cc 3a
       -0.00027285982 -0.00447095 -0.010596705 0.001563839
000010 6b 5a 1e 3b 74 a7 36 bb b3 4d 06 3b d6 7b 2b ba
       0.002416278 -0.0027870806 0.002049309 -0.00065415853
000020 4f 5a 1d bc a1 31 08 3c 3f b1 13 3c 5f 3a 32 3c
       -0.009604051 0.008312614 0.009014427 0.010878175
000030 a2 27 cf bb fb 99 b6 3b d9 a7 1d 3c bf f6 f1 bb
       -0.0063218633 0.005572555 0.0096225375 -0.0073841508
000040 53 09 93 bb ea 16 25 3b 79 25 2d 3a 49 3c c0 3b
       -0.0044871955 0.002519066 0.000660501 0.0058665616
000050 53 86 86 ba 29 50 13 ba 98 33 cd ba ef 71 f2 3a
       -0.001026342 -0.000561955 -0.0015655635 0.001849709
000060 ff 81 21 3c 00 5a ee bb de be cc bb d5 82 c3 3a
       0.009857654 -0.0072739124 -0.006248339 0.001491631
000070 66 4c 02 3b 0f 7f b1 bb f2 ed d4 b9 14 2d b8 ba
       0.0019881963 -0.005416758 -0.00040613074 -0.001405152
000080 87 5c a4 3a 9a 5e b7 3b 90 3d 8e 3b 38 7b fb bb
       0.0012539782 0.005595994 0.004340835 -0.007674601
000090 62 4d 03 bc 33 ab 2f bb de a4 bf ba e5 5e 93 ba
       -0.008014055 -0.0026804924 -0.0014621278 -0.0011243491
0000a0 e2 50 e4 bb 57 ec 82 bb cb 5f 8d 3b db 7a f4 bb
       -0.00696765 -0.003995459 0.004314398 -0.0074609346
0000b0 ec a8 aa 3a 76 64 c8 bb af d9 95 b9 20 d2 0e bc
       0.0013020313 -0.0061154915 -0.00028581682 -0.00871709
0000c0 1f 1e f0 3b 82 a2 86 3b 5a cb 75 bc ea 61 60 3c
       0.0073278095 0.004108728 -0.015002096 0.0136952195
0000d0 f6 a7 a8 bb 08 ab a5 ba c2 56 48 bc 43 70 cd bb
       -0.0051469756 -0.0012639472 -0.012227716 -0.006269486
0000e0 72 1e cb 3b 39 1b 40 bb a2 a2 20 3b 10 a4 97 bb
       0.0061986977 -0.00293131 0.0024511 -0.004627712
0000f0 ef ec ea 3b ac 8d 35 ba c5 d9 a7 3a 33 27 55 bb
       0.007169358 -0.0006925713 0.0012805989 -0.0032524585
000100 eb 45 d0 3b 1d 2b 6d bb a0 75 0c 3c 08 72 48 bb
       0.006355991 -0.0036189028 0.008572966 -0.0030585546
000110 13 40 3f ba 0b 5e 34 bc 73 01 17 bc 5b 51 33 bb
       -0.00072956196 -0.01100875 -0.009216654 -0.0027361724
000120 5e e2 c0 3b 37 d6 73 3c a1 00 21 3c 70 d3 a0 3b
       0.00588636 0.014882616 0.00982681 0.004908018
000130 47 b3 48 3a 3f eb 20 3c 73 32 f6 3a 1f 2e 65 3b
       0.0007656109 0.009821712 0.0018783346 0.0034970117
000140 0b 22 cc bb 97 2e 93 bb 0e b8 0d 3a 2d e1 60 bb
       -0.006229644 -0.004491638 0.00054061494 -0.0034313903
000150 2d e7 e7 bb f8 49 33 bc 65 5a d2 bb 4f 74 99 bb
       -0.007077119 -0.0109429285 -0.0064194673 -0.0046830545
000160 b7 21 52 3b df ed 05 3c 96 5a 85 3c ee e7 33 bc
       0.0032063553 0.008174389 0.016278546 -0.010980589
000170 21 b3 c2 3b 63 55 1a bb fb c7 ef 3a 53 ef b5 3b
       0.005941764 -0.002354943 0.0018293852 0.0055522113
000180 40 47 0d 3b 6c d6 a4 3a 6d 14 da bb 60 0f 23 3c
       0.002155736 0.001257611 -0.006655267 0.009952396
000190 93 c6 b9 3b 17 0c e5 3b b5 d1 f8 3b f0 e2 42 b9
       0.005669424 0.0069899666 0.0075933584 -0.00018585823
0001a0 17 1a 62 3c 49 11 2a 3c 25 3e 03 bb 2e 95 a9 3b
       0.013800166 0.010380098 -0.0020026055 0.0051752543
0001b0 87 04 c5 b9 45 51 69 3a a4 9f 09 bc 50 27 17 bc
       -0.0003757814 0.0008900355 -0.008399878 -0.009225681
0001c0 d1 af 2f 3b 2d 44 90 ba 15 db 35 3c 0c 41 40 3a
       0.0026807676 -0.0011006646 0.0110995965 0.00073339115
0001d0 d5 13 3b ba 15 62 33 3b df 7a d7 3b ba 1c 9f 3b
       -0.0007136439 0.0027371694 0.0065759267 0.0048557194
0001e0 73 57 04 3c c5 65 a3 bb 37 74 2b bb e5 0d 7f 3a
       0.00807749 -0.004986497 -0.0026161799 0.00097295485
0001f0 48 34 20 3c d1 09 a3 3b ea 8b 5a bb 39 5c 98 3b
       0.00977809 0.0049755354 -0.0033347555 0.0046496657
000200 57 9a 73 3c 8f 00 29 bc b7 c7 6b bb cc 07 c5 bb
       0.01486834 -0.010315075 -0.0035977194 -0.0060128924
000210 ad 80 0e 3b b9 48 ba bb 43 39 81 ba ac 3d 36 3b
       0.0021744177 -0.0056849387 -0.0009858984 0.0027807755
000220 5f 81 31 bb 0f 2b b7 bb af d0 a7 bb 25 c1 d8 3b
       -0.0027085168 -0.00558985 -0.0051213126 0.0066148215
000230 c8 cb 84 3a 9a db e4 3b a0 9a 49 bb eb 38 be 39
       0.0010131532 0.0069841864 -0.003076233 0.0003628203
000240 c3 66 af bb a8 7f e6 3b 07 3d 90 3b c2 99 48 bc
       -0.0053528263 0.007034261 0.0044018063 -0.01224369
000250 e2 02 22 3c 53 2f 5c ba 3d 94 79 3b 39 4c b7 bb
       0.009888383 -0.0008399386 0.0038082742 -0.0055938032
000260 33 76 bd 39 6f d2 10 3a db ec 17 3c 12 1f 74 bb
       0.00036136954 0.0005524521 0.009272779 -0.0037249965
000270 6e 1f 0c 3c cf 6f 92 3b b8 09 85 3c c5 28 47 bb
       0.008552415 0.004468895 0.016239986 -0.003038929
000280 fd 17 67 bb 0b fb e2 3b a3 2e 40 bc f3 52 12 bb
       -0.00352621 0.0069268993 -0.011729869 -0.0022327274
000290 b9 b3 20 bc 89 28 10 bc 80 9e e2 bb 85 a4 ec 3b
       -0.009808474 -0.008798727 -0.0069158673 0.0072217607
0002a0 a7 d2 b2 3b fa ed ff 39 a5 85 36 bb b8 a8 ab 3a
       0.0054572406 0.00048814696 -0.0027850654 0.0013096547
0002b0 bd 4c d5 bb e7 2b cc 3b 0b 59 fd 3b 77 46 b6 bb
       -0.006509392 0.0062308195 0.007731562 -0.0055625993
0002c0 1f f7 3c bc b5 95 e8 bb 6b 0f a0 3b 7b 65 8b ba
       -0.011533528 -0.0070979246 0.0048846505 -0.0010635102
0002d0 30 a9 9b 3b 78 15 75 ba 31 b1 84 3b af 22 b6 bb
       0.0047503933 -0.00093492074 0.004049443 -0.005558334
0002e0 2b f8 97 bb 80 f6 c3 3b 49 b2 9f 3b 10 63 14 bb
       -0.004637738 0.005980313 0.004873548 -0.0022642054
0002f0 60 63 09 3b e8 91 e3 3b 13 79 a3 3a 32 f8 a7 3b
       0.0020963773 0.0069448836 0.0012471996 0.0051260227
000300 bb 77 93 3c 22 05 1f 3c 5b 60 43 bc b9 3b 06 bb
       0.018001428 0.009705814 -0.011924828 -0.0020482375
000310 45 a2 ee 3b ac 1a 1a 3b ba a0 7b bb cb 81 1b 3c
       0.0072825276 0.0023514433 -0.003839536 0.009491394
000320 ab 5e 50 bb 5f bc 3b bb 11 48 48 3c 6e 44 37 bb
       -0.0031794708 -0.0028646213 0.012224213 -0.0027964371
000330 57 d2 96 bb 98 1e b8 b9 79 b9 0b bc 02 75 4b bb
       -0.004602711 -0.0003511801 -0.008528107 -0.0031045084
000340 b0 9a 15 bb 0f c2 bb 39 46 53 0e bc 3f 96 32 bb
       -0.0022827797 0.00035812004 -0.008686846 -0.0027250198
000350 77 95 17 ba d7 90 97 bb c6 54 37 bb 22 43 aa bb
       -0.0005782465 -0.0046254206 -0.0027974113 -0.005195991
000360 f3 ef 97 bb cb c0 7f bc 6f 8b a6 3a ea b3 64 bb
       -0.0046367585 -0.01560993 0.0012706349 -0.0034897276
000370 2b c7 89 3b ac 6a 00 bc e5 80 61 3c f3 3e a6 3b
       0.004204651 -0.007837933 0.013763641 0.005073422
000380 d5 7c 8f 38 62 a0 e7 3b cb dc 44 bc f0 1c ab 3b
       6.842023e-05 0.0070686797 -0.012015532 0.0052219555
000390 25 e2 76 3b df 83 0e bb ae a1 44 bb e0 69 26 3c
       0.0037671414 -0.0021746082 -0.0030003595 0.0101570785
0003a0 bb 60 93 ba 01 a0 06 bb dc 6d 89 bb 90 e1 34 3c
       -0.0011244038 -0.0020542147 -0.0041940045 0.011040106
0003b0 c3 d1 b9 3b b7 c6 c8 3a 42 54 80 3b ad 78 71 bc
       0.0056707575 0.0015318011 0.0039162943 -0.014738244
0003c0 ff f9 01 3c 9f 15 b0 bb bf 04 11 bc a1 10 08 bb
       0.007933139 -0.005373671 -0.008851229 -0.0020761865
0003d0 df a6 ec bb 04 6f b0 b9 bb 66 99 3b 2d 7e 68 3b
       -0.007222041 -0.0003365205 0.004681436 0.0035475597
0003e0 07 48 ce 3b d0 10 e8 bb 09 a6 95 bb 98 52 bf 3b
       0.0062952074 -0.0070820823 -0.004566912 0.0058387034
0003f0 b4 38 a1 3b d3 ea 3b 3b b2 c7 2f 3c 8b ca 12 bc
       0.0049200896 0.0028673902 0.010728763 -0.008959423

action_model._discrete_distribution.branches.3.weight f4 [2, 256]
000000 12 ab e0 3b 8e ee c5 ba 90 f1 1a ba b6 16 07 3c
       0.0068563307 -0.0015101002 -0.00059106294 0.008245161
000010 01 7b 35 3b 65 71 01 bb c7 08 64 3a b8 02 32 3a
       0.0027691724 -0.0019751426 0.00086988177 0.0006790566
000020 60 32 c3 bb a0 2e 21 bc b3 32 58 3b cf 29 3f 3c
       -0.005956933 -0.009837776 0.0032989203 0.011667683
000030 ff a0 8c 3b 3c bc 1b bb ec 12 01 bc 8f c8 13 3a
       0.004291653 -0.002376332 -0.0078780465 0.00056374905
000040 a5 d5 ed ba 5b 4a 09 3c b9 99 24 3c bb 36 3f bb
       -0.0018145336 0.008379544 0.010046416 -0.002917691
000050 ef e1 39 ba 90 09 d0 ba ff dd 11 3c a7 06 ff 39
       -0.00070908567 -0.001587199 0.008903026 0.00048642347
000060 a3 a8 16 bb 93 8d 5e 3b 5f 60 cd b9 0f 4e 98 3b
       -0.00229887 0.0033958897 -0.0003917245 0.004647977
000070 80 8c df 3b 2b 54 c8 3b 71 71 3c b9 cf 76 72 bb
       0.006822169 0.006113549 -0.00017971337 -0.0036997085
000080 f3 60 7a 3b 22 8e 46 ba 53 7b b8 ba fa 66 02 bb
       0.003820476 -0.000757428 -0.001407484 -0.0019897805
000090 d9 e0 82 bb e1 ec 2c 3c ad f2 1f bb ef 12 8c 3a
       -0.003994089 0.010554523 -0.002440612 0.0010686795
0000a0 9a d1 13 3c eb f4 94 3b d3 eb 01 bc cf 4b 96 bb
       0.009022141 0.004545798 -0.00792976 -0.004586674
0000b0 42 0e b0 ba 37 72 6a 3b a8 ca 18 b9 d2 fe ce 3b
       -0.0013431984 0.0035773644 -0.00014571345 0.006316998
0000c0 70 b0 c9 3b 63 ee d7 3b 61 c8 c5 3b b5 30 65 3c
       0.006155066 0.006589697 0.00603585 0.013988663
0000d0 a7 81 6e bb 3d bb 44 ba a7 45 68 bb 93 44 0b ba
       -0.0036393197 -0.00075047073 -0.0035441907 -0.00053126476
0000e0 ab 04 05 bc c7 76 11 bb f2 90 ae 3a e0 c2 f6 bb
       -0.008118789 -0.002219604 0.0013318344 -0.007530555
0000f0 14 bb ae 3b 2f d7 75 ba 1d ee 5d 3b c5 32 0b bc
       0.00533236 -0.0009378073 0.003386385 -0.008495991
000100 29 bb 01 3c eb 27 b7 3a 03 f7 63 3b 63 a1 da 3b
       0.007918158 0.0013973688 0.0034784682 0.006672071
000110 df 12 43 3b f3 be 80 3b 0d 9f 4e 3c 85 2d 3b 3b
       0.0029765887 0.003929013 0.012611163 0.0028561067
000120 5e 25 ac 3b a1 3c 31 bb 85 e3 e7 3a 49 e7 c7 ba
       0.005253478 -0.0027044194 0.0017691707 -0.0015251423
000130 53 fc 16 bc 82 e0 73 3c c1 42 b9 3a 18 6c e8 3b
       -0.009215432 0.01488507 0.0014134274 0.007092964
000140 c0 d7 cd 3a 65 13 7f 3b 60 fd ea 3a c2 cb 52 ba
       0.0015704557 0.0038921472 0.0017928295 -0.00080412265
000150 b6 5f cb 3a f4 cc 2c 3c 9b d6 b6 bb af 47 4b ba
       0.0015516195 0.0105469115 -0.005579782 -0.0007754517
000160 8e dc 0d 3c b3 4e b5 3a 98 ef 36 bb 9d 00 39 3b
       0.008658541 0.0013832658 -0.0027913805 0.0028229125
000170 c7 3f 8e bb ef 89 ad 3b 7a be 46 3c 01 f7 23 3b
       -0.004341099 0.005295984 0.012130374 0.0025019052
000180 d6 62 20 bc 3a ea 9a bb d7 79 e9 b9 26 b9 3f 3b
       -0.009789189 -0.004727629 -0.00044532 0.0029254644
000190 4e b6 18 bc db c2 80 ba 37 07 5c 3a 97 0e 99 3b
       -0.009320809 -0.0009823696 0.0008393409 0.0046709287
0001a0 4a de 5b 3a fb 3d f4 ba ff 0a 22 3b 89 d0 3f 3b
       0.00083873107 -0.0018634194 0.0024725792 0.0029268584
0001b0 eb 4a a4 3b fd 0d ad bb 28 f3 36 3c 9e c5 93 bb
       0.0050138137 -0.0052812085 0.011166371 -0.004509642
0001c0 34 d5 30 bb 78 6a 0d bc 33 b1 62 3a b5 be 70 3b
       -0.0026982548 -0.008631341 0.00086476206 0.0036734764
0001d0 30 b5 6a bb f3 0e 18 bc 9d 6d 03 bc 9a 7d d3 3b
       -0.0035813563 -0.009280908 -0.008021739 0.006454182
0001e0 b7 01 32 bb e1 6c 25 3b 6c 4f 86 b8 74 35 34 3c
       -0.0027161667 0.00252419 -6.4044114e-05 0.010999072
0001f0 43 b1 94 ba 64 45 c5 ba 1f 4e 99 b8 87 cf d8 ba
       -0.0011344332 -0.0015050587 -7.31016e-05 -0.001654134
000200 80 55 aa bb 32 85 b0 3a 6e 4d c3 3b 7d c3 e8 ba
       -0.0051981807 0.001346743 0.005960158 -0.0017758455
000210 1b 61 cf bb 79 b1 23 bc ba 9c fc 3b 2f e7 a3 39
       -0.0063287145 -0.009991043 0.007709113 0.00031262028
000220 b0 03 db bb cb d3 ad 3a 20 0b a8 ba d7 cc 89 3a
       -0.006683789 0.0013261972 -0.0012820698 0.0010513318
000230 4c b9 12 3a a2 68 0b bb a9 a5 3b 3b d0 ad b4 3b
       0.00055970694 -0.0021272083 0.0028632677 0.005513884
000240 06 ae 14 bc c2 ac ce 39 3f 1e 4c bc 35 a8 57 bb
       -0.009074694 0.00039420096 -0.012458383 -0.0032906656
000250 55 a0 45 3b 1a 95 dd bb c5 3f 90 bb bb 5a 86 bc
       0.003015538 -0.006762159 -0.004402133 -0.016400686
000260 8f 23 af ba cd aa 52 ba 77 c5 99 3b 1b 2f 30 3c
       -0.0013362038 -0.00080363156 0.004692729 0.010753418
000270 c7 a4 00 bb 47 aa f1 b9 6a 0e fd ba 56 5c c8 3b
       -0.0019629465 -0.0004609397 -0.0019306664 0.006114523
000280 ec 1d 24 3c 39 32 20 bb 3f 54 57 bb c8 68 38 bc
       0.0100169 -0.0024443998 -0.003285661 -0.011255451
000290 d3 bb a8 bb 68 41 04 bc 9a 86 4a 3b 1b 72 3a 3c
       -0.0051493435 -0.008072235 0.0030902983 0.011379744
0002a0 0a 0a db 3b 7b d5 81 bc 56 3e 93 bb 85 00 6c bc
       0.0066845464 -0.015848866 -0.004493515 -0.014404421
0002b0 1b 5f bf 3b 77 a6 96 bb fd db f0 3b e5 57 4d 3c
       0.005840195 -0.004597481 0.0073504434 0.012533163
0002c0 93 13 af 3b 1f 63 3e bc 79 74 1b 3c 5a fb c6 3b
       0.0053429096 -0.011620312 0.009488218 0.006072444
0002d0 fa 9e de 3b 60 b8 f5 3b 9f 92 02 bc 55 c6 ed 3b
       0.006793854 0.007498786 -0.0079695275 0.007256309
0002e0 42 ff d5 bb fe 1f ba 3b fd 7f f0 bb 9d e1 dd 3b
       -0.0065306732 0.0056800833 -0.007339476 0.00677128
0002f0 5f fa c8 3b 37 c8 ee ba 77 e3 04 ba 23 0b 55 bb
       0.006133362 -0.0018217628 -0.00050692953 -0.0032507859
000300 b7 c5 db 39 90 ec 0d 3b 7b 9c cd 3b 68 1f f2 ba
       0.00041918244 0.0021655895 0.0062747574 -0.0018472495
000310 50 d9 51 3a db f6 02 3b ae 2b 8d bb a4 30 84 3c
       0.00080050994 0.0019983563 -0.0043081855 0.016136475
000320 90 2b 41 ba 8b f4 48 3c 9a 1b c8 3b db 57 bf 3b
       -0.0007368857 0.012265335 0.006106806 0.0058393306
000330 cf ae 2f bb f3 80 b2 3a c4 e6 26 ba 03 cc 8e ba
       -0.0026807075 0.0013618752 -0.0006366784 -0.001089454
000340 c7 61 57 3a 2c d5 c6 bb e3 2b a2 3b d7 1b a4 3b
       0.0008216169 -0.0060678925 0.0049490794 0.0050082016
000350 e2 89 7d 3b c3 d0 86 3c 70 3e 02 3c 64 95 8e bb
       0.003868692 0.016456967 0.007949457 -0.004351305
000360 27 c0 74 bc e7 dd d3 ba 7b b9 46 bc 4b e7 01 bc
       -0.014938391 -0.0016164155 -0.012129183 -0.00792868
000370 6a 65 63 ba 2a 41 f4 bb cf 18 35 3c 23 00 a5 bb
       -0.00086744747 -0.007454057 0.011053278 -0.0050354167
000380 af 29 d1 3b e3 69 28 3b 9b f2 66 bb b6 8a 90 ba
       0.006383143 0.002569788 -0.003523982 -0.0011027667
000390 1b 6f be bb b7 c3 26 ba af b7 cb ba aa 85 e5 3b
       -0.0058115846 -0.0006361561 -0.0015542413 0.0070044594
0003a0 54 9f 3c 3c bd 68 e0 3b 08 1e 6c bc 7b af a8 bb
       0.011512596 0.0068484233 -0.014411457 -0.005147872
0003b0 c3 e3 15 3c 37 e9 ac ba 48 0a ab bb cc 7e 44 3b
       0.009148541 -0.0013192062 -0.0052197315 0.0029982803
0003c0 0a 1d bd 3a b8 41 22 bb 46 ec 07 bb bf 28 27 3c
       0.001442821 -0.002475841 -0.0020740195 0.010202586
0003d0 aa 7e 72 3b ea ab ce bb a7 d5 a1 bb 75 2d 67 3b
       0.0037001767 -0.006307115 -0.0049387994 0.0035274897
0003e0 c2 c1 42 3b a6 33 1e bb ae 86 c2 bb ff 55 97 3b
       0.002971754 -0.0024139672 -0.005936465 0.004618406
0003f0 8f c8 6c 3b 17 37 a9 ba e6 5f 99 b9 b4 b8 3e bb
       0.0036130284 -0.0012910095 -0.00029253884 -0.002910179

action_model._discrete_distribution.branches.3.bias f4 [2]
000000 00 00 00 00 00 00 00 00
       0.0 0.0

onnx::Div_100 f4 [11]
000000 00 00 80 3f 00 00 80 3f 00 00 80 3f 00 00 80 3f
       1.0 1.0 1.0 1.0
000010 00 00 80 3f 00 00 80 3f 00 00 80 3f 00 00 80 3f
       1.0 1.0 1.0 1.0
000020 00 00 80 3f 00 00 80 3f 00 00 80 3f
       1.0 1.0 1.0
