results/VB_1/Badminton/Badminton-1999994.onnx (onnx, 299422 bytes, 15 tensors)

discrete_act_size_vector f4 [1, 4]
3.0 3.0 3.0 2.0
00000000: 0000 4040 0000 4040 0000 4040 0000 0040

network_body.observation_encoder.processors.0.normalizer.running_mean f4 [11]
0.009273538 0.011247554 0.42720586 0.42968622 5.870023 0.006541993 -0.5517142 0.004981949
-3.0705056 5.4567314e-12 7.73037e-12
00000000: 0af0 173c a947 383c baba da3e d5ff db3e
00000010: 3ad7 bb40 375e d63b 243d 0dbf 9e3f a33b
00000020: 2a83 44c0 defd bf2c 7efe 072d

network_body._body_endoder.seq_layers.0.weight f4 [256, 11]
-0.046963822 0.08479488 -0.3318265 0.5384682 0.22388798 0.4025442 0.38036218 0.21854998
0.0064381748 0.4716592 0.09833935 -0.07662526 0.41456762 -0.09323613 0.33922303 -0.180838
0.36165524 0.58283085 0.18770874 0.6520295 -0.19240125 -0.03157522 0.10622422 0.3525667
0.5677004 -0.18205576 -0.69061106 -0.016996954 -0.025494337 -0.16165282 -0.27906966 -0.3342092
0.55590856 0.12570098 0.17774203 0.2487299 -0.21559104 -0.78768843 -0.28948656 0.28807878
0.15267949 0.18203434 0.12195727 -0.1558865 -0.43077415 0.13283262 -0.37827414 0.004891173
-0.04038444 0.397596 0.053287156 -0.107089475 0.1374021 0.3290052 -0.32523012 -0.30885205
0.5138274 0.3791041 0.16653675 -0.14317924 -0.10990694 0.05061125 -0.45873132 -0.38314414
-0.2956928 -0.16486388 -0.30035147 0.2071879 -0.033326205 0.32096776 -0.5199446 0.082054436
0.051831048 -0.1595948 0.1923971 -0.3356569 0.074525565 -0.20113431 -0.023928594 0.06039109
-0.2907501 0.2672817 0.15255296 -0.21968211 -0.39127067 -0.11079759 0.5262369 -0.13224491
0.3022517 0.06632233 -0.44770125 0.038877074 0.5202456 0.051500037 0.116656706 -0.101419516
0.18425386 -0.16018976 -0.1847552 0.27168497 -0.18807624 -0.5724901 -0.4845243 -0.19787538
-0.2452418 0.085789904 -0.27156433 -0.20681384 -0.45835412 0.020482607 -0.10378383 0.12815271
-0.37398744 0.1905872 -0.0056075635 0.33889568 0.027156182 0.39780924 -0.08455299 -0.12493752
0.13664082 -0.1069385 -0.07428194 0.8653138 0.16934657 -0.11209007 0.045239262 0.17567348
-0.012893462 -0.04804704 -0.44930062 -0.24848165 -0.531291 -0.40724593 0.2936479 -0.18214718
-0.01510117 -0.41553473 -0.005847883 -0.6590027 0.45357916 0.2683888 -0.53756577 -0.013621519
0.13673155 0.45627955 -0.18477383 0.5914527 0.017342316 -0.1877567 -0.100966744 -0.14123699
-0.049918495 0.0075357426 0.32245198 -0.122324415 0.2297376 -0.4148331 -0.11915886 -0.041417196
-0.12562229 -0.03329568 0.6275904 0.12305761 -0.7178518 -0.019363178 0.049642686 0.61243844
0.011943893 0.08275536 0.2174299 -0.19423191 -0.5840399 -0.34324908 -0.52480924 0.18254454
-0.22738743 -0.08016155 -0.113563925 -0.5685963 0.062649235 -0.22456373 0.22048216 -0.00987161
-0.237136 0.06035024 0.37578183 0.44954288 0.2425695 -0.41796938 0.005823647 0.23420095
-0.41565576 0.023771448 -0.23039578 0.32815576 -0.16659252 -0.23678215 0.30834946 0.2273945
-0.72521126 -0.078866184 0.005857851 -0.082692936 -0.4010503 0.73469806 -0.022440637 0.07772733
-0.1104836 -0.13446297 -0.3141956 -0.1516239 -0.21767122 0.30789977 0.12979561 -0.1459053
-0.49214348 0.20236485 0.50766426 -0.18183602 0.2828369 -0.39183816 -0.17728257 -0.21878698
0.008717874 0.06749443 0.17094298 -0.023585126 -0.046026886 0.25737035 -0.4914806 0.2032033
1.1229719 -0.098995164 -0.030573636 0.83385545 -0.79357797 -0.32149372 -0.06268429 -0.3548408
-0.26824594 -0.23612255 -0.10237579 0.006252223 0.023304122 -0.04827363 -0.2992689 -0.1752517
0.39073536 0.51026535 -0.15793343 0.0067621237 0.53429157 0.22617562 -0.2736033 -0.059700385
00000000: 235d 40bd f0a8 ad3d 2ae5 a9be 0dd9 093f
00000010: e442 653e 461a ce3e d5be c23e 91cb 5f3e
00000020: 53f7 d23b 517d f13e 2466 c93d b4ed 9cbd
00000030: 3542 d43e 96f2 bebd a4ae ad3e 992d 39be
00000040: e02a b93e 6734 153f b836 403e 68eb 263f
00000050: d504 45be 0555 01bd 158c d93d 9f83 b43e
00000060: d054 113f d36c 3abe e3cb 30bf 323d 8bbc
00000070: 80d9 d0bc 5188 25be 38e2 8ebe 781d abbe
00000080: 0650 0e3f c2b7 003e 0202 363e 0db3 7e3e
00000090: e6c3 5cbe f3a5 49bf 9537 94be 107f 933e
000000a0: 0358 1c3e 3667 3a3e bcc4 f93d b6a0 1fbe
000000b0: 6e8e dcbe 4605 083e 26ad c1be 2246 a03b
000000c0: 286a 25bd b491 cb3e a243 5a3d ba51 dbbd
000000d0: 23b3 0c3e 5f73 a83e 9084 a6be db21 9ebe
000000e0: 318a 033f ef19 c23e 9c88 2a3e 949d 12be
000000f0: e416 e1bd be4d 4f3d d5de eabe 782b c4be
00000100: 0c65 97be 14d2 28be abc7 99be 1129 543e
00000110: 0f81 08bd e355 a43e 171b 05bf 280c a83d
00000120: cb4c 543d d26c 23be bf03 453e 39db abbe
00000130: dca0 983d 27f6 4dbe e605 c4bc a65c 773d
00000140: 32dd 94be 26d9 883e d836 1c3e 59f4 60be
00000150: a154 c8be d9e9 e2bd 76b7 063f 366b 07be
00000160: bcc0 9a3e 00d4 873d 1939 e5be 913d 1f3d
00000170: d12e 053f b4f1 523d b6e9 ee3d 09b5 cfbd
00000180: 0bad 3c3e c908 24be 7830 3dbe 4b1a 8b3e
00000190: 0f97 40be b68e 12bf 9213 f8be d89f 4abe
000001a0: ab20 7bbe 9eb2 af3d 7b0a 8bbe 02c7 53be
000001b0: 64ad eabe 24cb a73c 9e8c d4bd 773a 033e
000001c0: 487b bfbe 4a29 433e a7bf b7bb bc83 ad3e
000001d0: a476 de3c a7ad cb3e 1e2a adbd 3edf ffbd
000001e0: 92eb 0b3e 9302 dbbd 2121 98bd 3585 5d3f
000001f0: 3069 2d3e 7b8f e5bd ce4c 393d c0e3 333e
00000200: 193f 53bc f9cc 44bd bb0a e6be f971 7ebe
00000210: b002 08bf 8a82 d0be 0459 963e ca84 3abe
00000220: e66a 77bc f8c0 d4be 999f bfbb 67b4 28bf
00000230: 873b e83e 426a 893e e99d 09bf cb2c 5fbc
00000240: 5b03 0c3e 799d e93e 5a35 3dbe 7269 173f
00000250: 7911 8e3c 4b43 40be a7c7 cebd 6ea0 10be
00000260: 5677 4cbd 64ee f63b 6d18 a53e 3985 fabd
00000270: 5540 6b3e 0165 d4be 8f09 f4bd 14a5 29bd
00000280: 21a3 00be 0d61 08bd c4a9 203f a105 fc3d
00000290: 23c5 37bf 879f 9ebc 2156 4b3d c4c8 1c3f
000002a0: 51b0 433c a47b a93d f2a5 5e3e bbe4 46be
000002b0: a483 15bf 58be afbe e659 06bf f5ec 3a3e
000002c0: 40d8 68be bd2b a4bd 3494 e8bd 878f 11bf
000002d0: 3e4e 803d 09f4 65be 13c6 613e 89bc 21bc
000002e0: c8d3 72be d031 773d 7a66 c03e 7c2a e63e
000002f0: 2464 783e 1500 d6be 4bd4 be3b 60d2 6f3e
00000300: d5d0 d4be 57bc c23c dfec 6bbe 0804 a83e
00000310: 3b97 2abe 0577 72be fbdf 9d3e 1bda 683e
00000320: 72a7 39bf 9884 a1bd 37f3 bf3b ea5a a9bd
00000330: 7756 cdbe 2c15 3c3f 6dd5 b7bc 822f 9f3d
00000340: 3a45 e2bd a9b0 09be 3fde a0be 4c43 1bbe
00000350: 34e5 5ebe 0aa5 9d3e 24e9 043e 3368 15be
00000360: 3bfa fbbe bb38 4f3e 49f6 013f 3933 3abe
00000370: 00d0 903e 039f c8be 9089 35be b209 60be
00000380: 6ad5 0e3c 853a 8a3d ad0b 2f3e 9835 c1bc
00000390: b086 3cbd 0cc6 833e 58a3 fbbe 8714 503e
000003a0: 8bbd 8f3f fabd cabd 9075 fabc 8d77 553f
000003b0: ed27 4bbf d39a a4be 9f60 80bd b1ad b5be
000003c0: 8857 89be 1cca 71be 66aa d1bd 73df cc3b
000003d0: 49e8 be3c 92ba 45bd c639 99be 2f75 33be
000003e0: 770e c83e c0a0 023f 4db9 21be ce94 dd3b
000003f0: 55c7 083f 959a 673e bb15 8cbe 6488 74bd

network_body._body_endoder.seq_layers.0.bias f4 [256]
-0.01979119 0.00029779624 0.0067762854 -0.017883634 -0.0136890365 0.026074938 0.034281254 -0.019332178
0.0136285 0.006134815 0.01870827 -0.006501759 -0.0039246525 0.0157611 -0.008723455 0.0212476
-0.007726221 -0.005775241 0.019215278 0.0077908193 -0.016123543 0.029411169 -0.0152613595 -0.004679703
0.0020495625 -0.016902784 -0.0056448528 0.002375529 1.9688012e-05 -0.0032387704 -0.00941687 -0.019164886
0.0048828847 -0.0064272135 0.013210944 -0.016342338 0.029972935 0.00043941542 0.009326736 -0.028115097
0.022104966 -0.011469561 -0.0037943148 -0.02394328 -0.0063814046 0.038407236 -0.0056564664 0.022676103
0.0084464885 -0.015486691 0.0011349699 -0.021915382 -0.020128023 0.0020792573 0.012643881 0.0061917463
0.0029062063 -0.00406371 0.021520486 -0.00088258635 0.009964558 0.00012453622 -0.008236227 -0.0041242656
-0.013177831 0.010992248 -0.012487953 -0.02041544 -0.00481821 -0.0065003303 0.0014025222 -0.014425524
-0.006480151 -0.014883985 -0.003819498 0.010527212 -0.0080674635 -0.026692407 -0.013614533 0.002165833
0.029867677 -0.0083840545 0.0035648255 0.014350687 -0.008681008 -0.013090496 0.023511898 -0.01733395
0.05230343 0.011688967 0.03893564 -0.024377543 0.007972024 0.011681808 0.021871766 0.045465227
0.0019390765 0.0030009167 -0.006624596 0.0014545167 0.008893999 0.009357856 0.0070357868 0.008715283
0.011816841 0.0037633665 -0.007351305 -0.014529318 -0.0068340646 0.017393876 0.016231537 -0.019733062
0.015241279 0.01186789 -0.009662127 -0.010322578 -0.004424036 -0.015734747 0.009471498 -0.017853325
0.021206345 0.0111679 -0.00056744565 0.007829114 0.0071540806 -0.0036355408 -0.022560848 -0.0036742305
-0.0036616027 0.0038082758 -0.0021157938 -0.022240072 -0.00076504156 0.009888687 -0.009503902 0.005986709
-0.0073678405 0.0069959285 0.017232649 0.021248732 -0.024969978 -0.0026057367 -0.012372401 0.008782347
-0.0029353134 -0.012935978 -0.045727212 0.02968881 0.00333883 0.004027263 -0.0013361134 0.0042429753
0.0055126715 0.0044079064 0.0011574064 0.023157649 0.0007522299 -0.0026004072 0.0011933035 -0.016840981
-0.014720552 -0.0015733301 0.008356232 0.009165814 0.026457079 0.018576864 0.014759598 -0.017828457
-0.008982018 0.017755346 -0.0017707659 0.006816743 0.016174192 -0.004955948 -0.01354631 0.017364897
-0.020917866 -0.003779208 0.0232642 0.016099706 0.0036063872 0.021351429 0.0071722493 -0.006147449
0.014870242 -0.008800184 -0.013010462 -0.010350299 0.008944377 0.01334868 -0.012093149 -0.0033730064
-0.01768772 0.0028136892 0.006694129 0.0074653365 -0.020389348 0.0055056848 -0.015763178 0.012192788
0.011030612 -0.029539285 -0.0054326085 -0.0059446343 -0.0001893499 -0.006711614 0.0012882019 0.0031472966
0.02982155 -0.023075752 -0.021058986 0.0043128612 0.007537927 3.9565957e-06 0.019782038 0.00015823588
0.0044103023 0.002186131 -0.016963705 -0.004351537 -0.009638405 -0.008341708 -0.010675384 0.009911146
-0.0012057247 0.0015849004 -0.008605245 -0.022552304 0.003952436 0.0076257363 0.020672556 0.01985055
0.016546557 0.012228858 0.0011048741 -0.00034455856 -0.0077591175 -0.012216112 -0.002249274 -0.02501048
-0.0023424625 -0.0106006125 0.0033325523 -0.012679283 0.0039678467 -0.011962059 -0.0082230745 0.03805035
0.009006922 0.00211775 -0.0010918736 0.0018954109 -0.0052572466 0.0012388972 -0.011212943 0.017905936
00000000: 2221 a2bc 8921 9c39 9a0b de3b b380 92bc
00000010: fb47 60bc 1c9b d53c 806a 0c3d 845e 9ebc
00000020: 124a 5f3c 8f06 c93b 1642 993c b50c d5bb
00000030: 5f9a 80bb 6c1d 813c d2ec 0ebc 720f ae3c
00000040: 3d2c fdbb 3c3e bdbb 5c69 9d3c 214a ff3b
00000050: 8515 84bc b1ef f03c c80a 7abc 3258 99bb
00000060: f451 063b b577 8abc 75f8 b8bb c3ae 1b3b
00000070: af27 a537 8d41 54bb 3749 1abc aeff 9cbc
00000080: 9b00 a03b 609b d2bb b772 583c 5ee0 85bc
00000090: cd89 f53c 5761 e639 2bcf 183c a251 e6bc
000000a0: 7915 b53c d3ea 3bbc 0aaa 78bb b324 c4bc
000000b0: 1a1b d1bb e850 1d3d e159 b9bb 3cc3 b93c
000000c0: 2463 0a3c e4bb 7dbc 45c3 943a e387 b3bc
000000d0: 86e3 a4bc 2644 083b 4828 4f3c 22e4 ca3b
000000e0: 0d76 3e3b df28 85bb bb4b b03c 5e5d 67ba
000000f0: 6342 233c f095 0239 3df1 06bc d924 87bb
00000100: d4e7 57bc d418 343c 459a 4cbc 483e a7bc
00000110: 13e2 9dbb b900 d5bb d6d4 b73a 0859 6cbc
00000120: 7257 d4bb f5db 73bc 8b50 7abb 547a 2c3c
00000130: 652d 04bc 09aa dabc 7d0f 5fbc a6f0 0d3b
00000140: 0fad f43c 465d 09bc d99f 693b 251f 6b3c
00000150: c93a 0ebc 8579 56bc 069c c03c eeff 8dbc
00000160: 1f3c 563d 1583 3f3c fa7a 1f3d 6ab3 c7bc
00000170: 189d 023c 0e65 3f3c 6b2c b33c bf39 3a3d
00000180: 9c28 fe3a 07ab 443b 2413 d9bb 7ba5 be3a
00000190: 23b8 113c b151 193c 758c e63b 8cca 0e3c
000001a0: 6c9b 413c d0a2 763b 37e3 f0bb 600c 6ebc
000001b0: 4af0 dfbb 9a7d 8e3c 00f8 843c 3ba7 a1bc
000001c0: 8fb6 793c 8a71 423c e64d 1ebc 0820 29bc
000001d0: 81f7 90bb 28e6 80bc 582e 1b3c 2341 92bc
000001e0: eeb8 ad3c 91f9 363c a2c0 14ba af45 003c
000001f0: c76c ea3b 4142 6ebb 87d1 b8bc 5ccb 70bb
00000200: 80f7 6fbb 4494 793b 21a9 0abb d030 b6bc
00000210: 128d 48ba 2904 223c 41b6 1bbc 282c c43b
00000220: ed6d f1bb 1a3e e53b 7c2b 8d3c d211 ae3c
00000230: d78d ccbc 02c5 2abb 9cb5 4abc d5e3 0f3c
00000240: 635e 40bb 6df1 53bc 754c 3bbd f335 f33c
00000250: 46d0 5a3b 21f7 833b 8720 afba a808 8b3b
00000260: a4a3 b43b 3370 903b 1db4 973a 1cb5 bd3c
00000270: 4b31 453a 986b 2abb 9f68 9c3a 19f6 89bc
00000280: 782e 71bc 3338 ceba 94e8 083c 362c 163c
00000290: 84bc d83c 822e 983c 3ed2 713c fc0c 92bc
000002a0: 5029 13bc a973 913c 0b19 e8ba fc5e df3b
000002b0: bd7f 843c 8165 a2bb 58f1 5dbc d440 8e3c
000002c0: f25b abbc 97ac 77bb 9094 be3c 88e3 833c
000002d0: 2359 6c3b 31e9 ae3c 3005 eb3b 8a70 c9bb
000002e0: 51a2 733c a62e 10bc d529 55bc 4d94 29bc
000002f0: 708b 123c 6cb4 5a3c 5822 46bc a80d 5dbb
00000300: d6e5 90bc df65 383b 6d5a db3b c89f f43b
00000310: 9007 a7bc 0869 b43b c821 81bc 42c4 473c
00000320: bdb9 343c 5ffc f1bc 0604 b2bb 35cb c2bb
00000330: 3a8c 46b9 19ed dbbb e2d8 a83a e042 4e3b
00000340: 534c f43c 5c09 bdbc e583 acbc e752 8d3b
00000350: b700 f73b e6c2 8436 f10d a23c 1fec 2539
00000360: 4c84 903b 3145 0f3b 78f7 8abc 5797 8ebb
00000370: 67ea 1dbc a9ab 08bc cee7 2ebc 5c62 223c
00000380: 6809 9eba 6fbc cf3a 03fd 0cbc 9cbf b8bc
00000390: 7083 813b 50e1 f93b 7e59 a93c 9f9d a23c
000003a0: a58c 873c 8c5b 483c 6cd1 903a dea5 b4b9
000003b0: 3240 febb 1626 48bc 8e68 13bb c7e2 ccbc
000003c0: 0084 19bb 31ae 2dbc f366 5a3b c4bc 4fbc
000003d0: b604 823b 83fc 43bc 13ba 06bc afda 1b3d
000003e0: c591 133c f3c9 0a3b 331d 8fba 706f f83a
000003f0: fb44 acbb 7e62 a23a 7eb6 37bc 78af 923c

network_body._body_endoder.seq_layers.2.weight f4 [256, 256]
-0.06525267 0.043766335 0.07094179 -0.0055902614 -0.08218119 0.034370933 -0.049610525 0.121193774
-0.09289386 -0.13566929 -0.056879118 -0.0327749 -0.046969023 -0.049726985 0.021372193 -0.03955157
-0.054854985 0.008650082 -0.05342595 -0.06449492 -0.054204516 0.052957118 0.09036336 -0.10217368
-0.03516447 0.017910676 -0.1435351 0.03184012 0.043146033 -0.018092608 0.011858515 0.04306112
-0.014454937 0.06498514 0.10290543 0.10921954 -0.013743882 -0.044275004 0.05687322 0.063584805
0.04622959 -0.09581491 0.07571409 -0.11101628 0.054938506 0.06970115 0.020818887 0.001404903
-0.04401092 -0.015777647 -0.05916353 0.09800028 -0.042579032 -0.038314506 -0.003539119 0.015460453
0.020841727 0.010535598 -0.0373211 0.05169258 0.015957054 0.07194992 0.049522642 -0.018049398
0.027900124 -0.10603753 -0.08835313 -0.036957324 -0.032730345 -0.019194279 0.017967775 -0.069982395
-0.0036495703 0.0022262433 0.025649996 0.057501856 0.051768806 -0.020855261 0.12807016 0.028229054
0.017573902 0.0180986 0.01855775 0.05581456 0.07620805 -0.02721504 0.039511144 0.09202676
0.084472135 0.021416403 -0.025587935 -0.006871343 0.089449525 -0.058709346 0.01161084 0.035429306
-0.026408989 0.062176183 -0.026322233 -0.10851188 -0.0063860426 -0.1320426 -0.020368962 0.039159436
-0.03426842 -0.009793568 -0.04323668 0.119786024 -0.028488839 0.07180288 -0.03259365 0.0040805037
-0.09587653 0.07658496 -0.06054513 -0.06647514 0.0047478206 0.048982568 0.04622783 -0.073831156
0.025741108 -0.17155884 -0.06936483 -0.03582622 -0.036016077 0.07673632 0.009578834 -0.027226683
-0.026948486 -0.06193979 -0.032222003 0.020303247 0.03729167 0.05527775 -0.048311353 -0.07702346
-0.037532456 0.04013124 -0.019771747 -0.041386265 -0.07400684 -0.12226497 0.10849736 -0.083560474
0.0698422 -0.073223464 -0.03678704 -0.03140302 0.090641916 0.09274256 -0.041338824 0.033818237
-0.015741525 -0.03469613 -0.0032487733 -0.05134336 0.07998546 0.07322984 0.05208359 0.024363648
-0.0057467124 -0.12526704 0.0666953 0.029806213 -0.11851971 -0.06018773 0.034743845 0.030806035
0.03424514 -0.0049152165 -0.064253055 -0.069809996 0.02131136 -0.00024170484 -0.14615451 0.04938122
-0.11151912 -0.0591092 0.012798772 -0.0046339906 -0.016968168 -0.05134363 -0.009895789 -0.0760636
-0.053991806 0.01583575 0.08324678 -0.018004822 -0.0068566357 0.035758633 0.016930966 0.020425497
0.08639495 0.07627353 -0.036988888 -0.023504915 -0.025260327 0.0056323367 0.1756324 0.10601415
-0.1003066 -0.0074232565 -0.01956636 -0.106180765 -0.043411627 0.1755208 0.040585868 -0.025084807
0.033194583 -0.058763087 0.056051333 -0.01757256 0.02843014 -0.07938451 -0.05612177 0.122734755
-0.04870548 -0.0778287 0.040019736 -0.10865117 -0.0031750102 -0.052596487 -0.0019646026 0.02598633
-0.044392705 -0.0460946 -0.024548816 0.008644818 0.054163996 -0.036651455 -0.020639626 0.067495495
0.03596772 -0.02137991 0.043633193 0.03427913 -0.097968094 -0.04362826 0.00915091 -0.026436742
0.15871379 -0.089713804 0.098220095 -0.03419754 -0.008358538 0.04765111 0.0542225 0.15869108
-0.0052399426 0.014928416 -0.05002603 0.09713298 -0.05190394 0.026724884 0.04481588 0.02657821
00000000: 31a3 85bd 5444 333d ee49 913d 832e b7bb
00000010: 9d4e a8bd 89c8 0c3d 6834 4bbd 7134 f83d
00000020: 233f bebd e4ec 0abe 14fa 68bd f93e 06bd
00000030: 9762 40bd 86ae 4bbd bd14 af3c d400 22bd
00000040: 9faf 60bd 13b9 0d3c 2bd5 5abd ea15 84bd
00000050: 8e05 5ebd 90e9 583d 6d10 b93d 6f40 d1bd
00000060: 9f08 10bd 69b9 923c defa 12be c96a 023d
00000070: e5b9 303d f336 94bc 384a 423c db60 303d
00000080: 66d4 6cbc ee16 853d 15c0 d23d 7fae df3d
00000090: 052e 61bc b559 35bd e5f3 683d c038 823d
000000a0: 3d5b 3d3d 9c3a c4bd fd0f 9b3d 815c e3bd
000000b0: 3307 613d 7abf 8e3d 5f8c aa3c b924 b83a
000000c0: cb44 34bd 2040 81bc 7555 72bd 5fb4 c83d
000000d0: 5a67 2ebd acef 1cbd 90f0 67bb d74d 7d3c
000000e0: 45bc aa3c 809d 2c3c 02de 18bd 99bb 533d
000000f0: 5eb8 823c 7b5a 933d 41d8 4a3d 55dc 93bc
00000100: cd8e e43c 342a d9bd 7cf2 b4bd 9060 17bd
00000110: 4110 06bd 523d 9dbc 2831 933c ee52 8fbd
00000120: a12d 6fbb 2ae6 113b f11f d23c 1187 6b3d
00000130: 870b 543d a7d8 aabc d324 033e 9e40 e73c
00000140: 25f7 8f3c 8443 943c 6c06 983c cf9d 643d
00000150: f712 9c3d 13f2 debc 70d6 213d 8778 bc3d
00000160: baff ac3d 7471 af3c ca9d d1bc 0129 e1bb
00000170: 5031 b73d 3679 70bd 653b 3e3c 521e 113d
00000180: aa57 d8bc 74ac 7e3d b9a1 d7bc 7a3b debd
00000190: 0242 d1bb 2d36 07be cfdc a6bc a565 203d
000001a0: 0b5d 0cbd 3475 20bc f218 31bd 6052 f53d
000001b0: 6d61 e9bc 630d 933d eb80 05bd bfb5 853b
000001c0: ea5a c4bd 93d8 9c3d 2cfe 77bd 1e24 88bd
000001d0: 9b93 9b3b f2a1 483d 6559 3d3d ca34 97bd
000001e0: 04df d23c 1fad 2fbe 260f 8ebd 84be 12bd
000001f0: 9885 13bd ef27 9d3d 8bf0 1c3c 7e0a dfbc
00000200: 12c3 dcbc 94b4 7dbd 38fb 03bd ff52 a63c
00000210: 26bf 183d ec6a 623d 20e2 45bd 7abe 9dbd
00000220: a2bb 19bd a860 243d 5cf8 a1bc a584 29bd
00000230: e690 97bd 0e66 fabd dd33 de3d c121 abbd
00000240: 6d09 8f3d 2ff6 95bd 02ae 16bd 74a0 00bd
00000250: 78a2 b93d d0ef bd3d e652 29bd fe84 0a3d
00000260: 5ff4 80bc 871d 0ebd 5fe9 54bb 6a4d 52bd
00000270: 6bcf a33d 87f9 953d 9a55 553d 4696 c73c
00000280: eb4e bcbb 0146 00be 8c97 883d 292c f43c
00000290: 76ba f2bd 6987 76bd 904f 0e3d f05c fc3c
000002a0: a244 0c3d d30f a1bb 1b97 83bd 8bf8 8ebd
000002b0: 2995 ae3c 2672 7db9 87a9 15be f643 4a3d
000002c0: 2364 e4bd 7d1c 72bd f1b1 513c bbd8 97bb
000002d0: d400 8bbc b34d 52bd f321 22bc 3cc7 9bbd
000002e0: 8326 5dbd fab9 813c 4a7d aa3d d97e 93bc
000002f0: a1ad e0bb a577 123d cfb2 8a3c 5f53 a73c
00000300: d6ef b03d 4c35 9c3d a981 17bd 618d c0bc
00000310: bfee cebc 778f b83b fbd8 333e f21d d93d
00000320: 8c6d cdbd ca3e f3bb a249 a0bc 4d75 d9bd
00000330: 64d0 31bd b9bb 333e 5e3d 263d a77e cdbc
00000340: 0bf7 073d 90b1 70bd 1596 653d 54f4 8fbc
00000350: 53e6 e83c 5994 a2bd f1df 65bd 5c5c fb3d
00000360: 667f 47bd a764 9fbd bceb 233d 8184 debd
00000370: d513 50bb 6a6f 57bd 90c0 00bb 49e1 d43c
00000380: 20d5 35bd b1cd 3cbd 991a c9bc ffa2 0d3c
00000390: 11db 5d3d d61f 16bd 6f14 a9bc 143b 8a3d
000003a0: e352 133d ec24 afbc b8b8 323d 4668 0c3d
000003b0: 7fa3 c8bd 8cb3 32bd b3ed 153c de91 d8bc
000003c0: de85 223e dfbb b7bd 9e27 c93d b812 0cbd
000003d0: 40f2 08bc cf2d 433d 6a18 5e3d ea7f 223e
000003e0: d3b3 abbb 5196 743c 18e8 4cbd a8ed c63d
000003f0: 3a99 54bd 25ee da3c db90 373d 8cba d93c

network_body._body_endoder.seq_layers.2.bias f4 [256]
0.020172017 0.015338216 -0.027194776 0.005480099 -0.009557536 -0.005716527 -0.006342286 -0.010858538
0.0057209665 0.004659556 -0.005714292 0.015094259 0.010109668 -0.005307747 0.0012844771 -0.015833365
-0.019097 0.012489902 -0.002118116 -0.010113054 -0.005913549 0.010276221 0.02071232 -0.008610288
-0.004021839 -0.00016316133 -0.022771413 -0.0007410557 -0.0116272615 0.0017135565 0.013049082 -0.018789962
-0.002054258 -0.00053177 0.0144240875 0.0054894704 0.0023322825 -0.0066008624 -0.03249024 -0.014693914
-0.01213274 -0.008747927 -0.00470766 0.016160343 -0.012142793 -0.026240103 -0.022150366 -0.0022561871
-0.018890865 -0.0069249286 -0.0045659104 -0.010955277 0.01066165 -0.003940382 -0.020580422 -0.009662487
-0.012476586 0.005689678 -0.00076558744 -0.009153455 0.00069371075 -0.004394212 0.017283926 0.0024628693
0.009330631 -0.008393112 0.0051155733 -0.0072224503 0.010497738 -0.019720413 -0.013630582 0.0036786494
-0.0197787 0.0011722649 -0.006359929 -0.0056735827 7.925245e-05 -0.01025891 0.007838164 -0.0033663826
0.008155636 -0.0041072685 -0.013098655 -0.00878201 0.014632326 -0.01960643 0.0054846294 -0.026411582
-0.012515364 -0.0058856104 0.0010102328 -0.0018348355 -0.014335675 -0.009173334 0.0007171381 -0.0015085259
0.0027727732 0.006280788 0.0027295458 -0.0119674755 -0.023731748 0.007466253 -0.0038058178 0.0046047666
-0.01855469 0.011342232 -0.0060114833 0.023769917 -0.0022713556 0.009106699 -0.0040415805 0.002506486
0.01818476 -0.0070008305 0.0033635104 -0.0017204351 -0.004624503 -0.0060617253 0.0075313714 0.004743462
-0.0010180561 0.004305024 -0.014105597 -0.028968034 -0.0035591973 0.02806459 0.0056351027 -0.010767415
-0.008897712 -0.0037288198 -0.02491646 -0.0014672483 0.01272626 -0.0123441415 -0.031133207 -0.00074196525
0.024806911 0.0011439282 -0.00619969 -0.006020502 -0.011671393 0.0021678724 0.006923043 0.009389382
-0.0027159555 0.031584866 0.020598603 0.012496232 0.010678578 -0.0064354036 0.016498202 0.0031593663
0.02025532 0.007560309 -0.014183726 -0.010701067 0.01155994 0.004249901 -0.006809503 0.005807178
-0.006197301 -0.004730755 -0.0081928 0.014499805 -0.0033952687 -0.0071356334 -0.014815948 0.01469094
-0.009262576 -0.011110406 -0.010208228 0.007063593 -0.0064620995 -0.013797935 0.010169177 0.013247796
-0.004529086 -0.017184801 -0.009393705 -0.0056086145 0.00024565996 0.005739419 0.0016967709 -0.013789736
0.012469477 0.01424802 0.025719052 -0.003538293 -0.014772646 0.0005423832 0.009064722 -0.0020317535
-0.0050882637 -0.00068869966 0.010443178 -0.018758684 -0.011750964 -0.012606224 -0.00018256801 -0.0058888374
-0.001318688 0.023838123 -0.027065188 -0.021065747 0.0076682274 -0.0006516901 -0.008923204 -0.0010260307
0.010863044 -0.0054405397 -0.01602066 -0.023551252 -0.0023980066 0.006257493 -0.007172404 -0.00013411658
-0.0004977366 -0.0033682003 -0.0077422922 -0.023358662 -0.013365718 -0.008748726 -0.006500779 -0.022051191
0.00510603 -0.016092941 -0.0019110785 -6.763686e-05 -0.015870767 -0.009625732 -0.022566542 -0.0011588399
-0.013631907 0.011611373 -0.01474206 -0.011549899 -0.0016962371 0.002108924 -0.012818756 -0.013330353
0.0075630266 0.008678837 0.00034864875 -0.0019728197 0.0022412296 -0.015499265 -0.0048246 -0.0038555376
-0.0062815584 0.010070943 0.006168294 0.004526917 0.022110976 -0.0037637127 -0.007258878 -0.019929469
00000000: c93f a53c 244d 7b3c 94c7 debc 6792 b33b
00000010: 3697 1cbc b451 bbbb f3d2 cfbb 02e8 31bc
00000020: f276 bb3b 30af 983b f53e bbbb e94d 773c
00000030: 05a3 253c 9cec adbb e65b a83a f9b4 81bc
00000040: 5071 9cbc 72a2 4c3c 17d0 0abb 39b1 25bc
00000050: 72c6 c1bb 985d 283c e2ac a93c 2a12 0dbc
00000060: a1c9 83bb 4916 2bb9 1d8b babc 6843 42ba
00000070: 4580 3ebc 6a99 e03a d1cb 553c 68ed 99bc
00000080: bba0 06bb 7b66 0bba 0253 6c3c 04e1 b33b
00000090: 35d9 183b 0c4c d8bb 7c14 05bd bebe 70bc
000000a0: 66c8 46bc 7753 0fbc b742 9abb b262 843c
000000b0: 91f2 46bc 7cf5 d6bc af74 b5bc 8adc 13bb
000000c0: 04c1 9abc 83ea e2bb a29d 95bb c37d 33bc
000000d0: 34ae 2e3c 521e 81bb 4698 a8bc 684f 1ebc
000000e0: 986a 4cbc 7a70 ba3b b4b1 48ba 5ff8 15bc
000000f0: 24da 353a 52fd 8fbb 0597 8d3c 1768 213b
00000100: 81df 183c 4383 09bc 8aa0 a73b 4eaa ecbb
00000110: b4fe 2b3c b48c a1bc ce52 5fbc 7f15 713b
00000120: f106 a2bc afa6 993a f466 d0bb 76e9 b9bb
00000130: 5634 a638 fd14 28bc a56b 003c 879e 5cbb
00000140: 379f 053c 4496 86bb be9b 56bc 6be2 0fbc
00000150: 6cbc 6f3c aa9d a0bc 68b8 b33b 1a5d d8bc
00000160: 3e0d 4dbc 14dc c0bb ca69 843a dd7e f0ba
00000170: 2ee0 6abc c04b 16bc 53fe 3b3a bbb9 c5ba
00000180: 6ab7 353b 12cf cd3b 2ee2 323b 3b13 44bc
00000190: 1569 c2bc 78a7 f43b 076b 79bb 95e3 963b
000001a0: 0100 98bc c5d4 393c fafb c4bb 21b9 c23c
000001b0: 06db 14bb 4434 153c 3c6f 84bb db43 243b
000001c0: 35f8 943c 3967 e5bb 576e 5c3b 3980 e1ba
000001d0: 2589 97bb 70a1 c6bb b9c9 f63b 0b6f 9b3b
000001e0: 4b70 85ba 2911 8d3b 291b 67bc 5f4e edbc
000001f0: 6c41 69bb b6e7 e53c aba6 b83b d069 30bc
00000200: b6c7 11bc 375f 74bb 9b1d ccbc af50 c0ba
00000210: ce81 503c 153f 4abc 110b ffbc 7280 42ba
00000220: dd37 cb3c dcef 953a c526 cbbb a247 c5bb
00000230: 5f39 3fbc dd12 0e3b b2da e23b ecd5 193c
00000240: 2cfe 31bb 225f 013d 67be a83c ffbc 4c3c
00000250: 34f5 2e3c 14e0 d2bb 3d27 873c 5f0d 4f3b
00000260: 7cee a53c 78bc f73b dc62 68bc 8753 2fbc
00000270: e765 3d3c c142 8b3b 4022 dfbb 244a be3b
00000280: bb12 cbbb 7304 9bbb 183b 06bc 9790 6d3c
00000290: 2883 5ebb 08d2 e9bb 97be 72bc 45b2 703c
000002a0: 0fc2 17bc 6c08 36bc 6940 27bc b675 e73b
000002b0: 05c0 d3bb bc10 62bc 9f9c 263c 490d 593c
000002c0: ba68 94bb 24c7 8cbc 0ee8 19bc 78c8 b7bb
000002d0: eccb 8039 bc11 bc3b 2f66 de3a 58ee 61bc
000002e0: c74c 4c3c 8770 693c c3b0 d23c b5e2 67bb
000002f0: f808 72bc b82e 0e3a 3384 143c 2b27 05bb
00000300: 73bb a6bb da89 34ba dd19 2b3c d0ab 99bc
00000310: 1e87 40bc 568a 4ebc ba6f 3fb9 26f7 c0bb
00000320: d4d7 acba 2b48 c33c d0b7 ddbc 1392 acbc
00000330: c145 fb3b 2fd6 2aba a132 12bc e17b 86ba
00000340: e9fa 313c 8e46 b2bb c23d 83bc 8eee c0bc
00000350: e027 1dbb a80b cd3b 7c06 ebbb a5a1 0cb9
00000360: 8a7a 02ba 06bd 5cbb 0eb3 fdbb aa5a bfbc
00000370: e2fb 5abc d156 0fbc 7d04 d5bb b3a4 b4bc
00000380: 7c50 a73b 58d5 83bc 277d faba 43d8 8db8
00000390: 6903 82bc 3fb5 1dbc 78dd b8bc 37e4 97ba
000003a0: 5d58 5fbc a13d 3e3c ae88 71bc ca3b 3dbc
000003b0: 4654 deba e035 0a3b c205 52bc 8e67 5abc
000003c0: 44d3 f73b ae31 0e3c d8ca b639 6c4a 01bb
000003d0: 98e1 123b a1f0 7dbc ae17 9ebb 30ad 7cbb
000003e0: 88d5 cdbb 9900 253c 671f ca3b 8856 943b
000003f0: 1422 b53c 9fa8 76bb e2db edbb 2043 a3bc

action_model._discrete_distribution.branches.0.weight f4 [3, 256]
-0.0037595353 -0.024139639 0.0008321439 -0.019075198 -0.022835668 0.001638913 -0.0350534 0.015569749
-0.012345585 0.00848738 -0.007468992 0.0147256935 0.03666381 0.0049529723 0.018082403 0.035015773
-0.0034049232 0.0014981237 -0.007778625 -0.008054964 -0.0025018598 -0.017904624 -0.025888247 -0.023920162
-0.01775059 0.012902253 -0.003977468 0.014337023 0.0036052358 0.004204183 -0.011269068 0.00088277797
0.0008471441 -0.008111527 -0.04282791 -0.006512452 -0.014764076 0.022568407 -0.002551003 -0.014414683
-0.0057650204 -0.004056787 -0.002107483 -0.004049878 -0.010376247 0.01853469 -0.010795638 0.02432626
-0.0034406874 0.00708021 -0.013052323 -0.00076360063 -0.032272562 0.0010605135 0.0016937542 -0.02517653
-0.0015750779 -0.041334514 -0.012971919 -0.0010268608 0.026024625 -0.020300288 0.0015114144 -0.0266219
0.027285248 0.00563609 0.021160878 0.008788768 -0.053482763 0.014132992 -0.009951355 -0.017571295
0.008235911 0.0045130546 -0.0035843973 0.015195535 -0.02107152 0.02886831 0.0045539564 -0.016377639
-0.00551891 -0.020217687 0.0066616987 0.0034583586 0.0010932405 0.006595485 -0.025646962 -0.0073420187
-0.009872209 0.0062141577 -0.013050566 -0.011023163 -0.009830581 -0.0061774743 0.010264753 -0.0124727525
-0.049581304 0.023764353 0.0017841038 -0.008416436 0.003043749 0.006487814 0.017017622 -0.026986467
0.009031305 -0.011420576 0.0033762923 -0.027757846 -0.010001725 0.0028362297 -0.018490527 0.01090047
0.020864258 0.004027693 0.019518366 0.0032683345 0.0009373397 -0.0056327935 0.012693412 0.0018551128
-0.04670731 0.006826084 0.011492272 -0.0011034055 0.0028481297 0.0191575 -0.048993826 0.012927639
0.024038756 -0.0023456381 0.016102334 0.0025799465 -0.014986727 -0.007876267 -0.004032451 -0.03127967
-0.013101171 -0.009397125 -0.016859867 0.023319392 -0.007669138 -0.006132106 -0.00495131 -0.0022514763
-0.010631632 -0.0056920936 -0.0074464614 -0.015011946 0.015121469 0.0059427423 0.025214097 0.00059139554
-0.0075964816 0.031825047 -0.012528638 -0.01895736 0.031583242 -0.019355627 0.012995853 0.01037083
0.008507761 0.043636274 0.016072767 -0.0016801003 0.0034522682 0.010631751 -0.02110157 -0.0024038278
-0.018088955 -0.011009152 0.028606612 -0.022360392 -0.002465681 -0.003661889 -0.020290576 -0.0064298552
-0.020544529 -0.008543037 0.032890327 -0.002924927 -0.03303281 -0.0147939045 0.002634374 -0.0104889255
0.013870493 -0.009011655 0.057696544 -0.006725191 -0.007007208 0.022706592 0.004248309 -0.027560353
-0.0068601533 -0.030857706 -0.00096063426 0.0074897246 -0.009533013 0.02648418 0.008192476 -0.0028980765
0.01468292 0.051829938 -0.017146492 -0.004253899 -0.019061994 -0.00787068 -0.0011509665 0.02773591
0.00025988498 -0.0022119253 -0.010180469 0.015023919 0.0049236887 -0.0056566685 0.015327489 0.022097673
0.014328751 -0.00031286772 -0.012816893 -0.03834631 0.021336675 -0.0045563215 -0.0034777639 -0.017654583
-0.012945766 0.011522995 0.006455512 -0.015203629 -0.0059652934 0.0285437 0.021140603 0.017941702
9.4768715e-05 -0.00429803 0.009331114 -0.026863886 0.005292651 0.012964226 0.01585868 0.018098244
0.018876117 -0.0053180447 -0.006418985 -0.00066475786 0.006435508 -8.505587e-05 0.02017721 0.026967542
0.017169219 -0.005040894 0.014518656 -0.013569115 -0.0010670613 0.015346329 -0.0046208794 0.015785106
00000000: 8962 76bb 7ec0 c5bc 3b24 5a3a 9743 9cbc
00000010: de11 bbbc cbd0 d63a 2794 0fbd 4318 7f3c
00000020: 2345 4abc a70e 0b3c 72be f4bb 0944 713c
00000030: cb2c 163d 8b4c a23b 8c21 943c b36c 0f3d
00000040: 2225 5fbb b15c c43a d6e3 febb f8f8 03bc
00000050: 3ef6 23bb b8ac 92bc 9713 d4bc 37f4 c3bc
00000060: af69 91bc f963 533c 6b55 82bb d5e5 6a3c
00000070: d245 6c3b 3ec3 893b e6a1 38bc 3a6a 673a
00000080: e112 5e3a 36e6 04bc 526c 2fbd 6866 d5bb
00000090: 06e5 71bc 61e1 b83c ba2e 27bb 902b 6cbc
000000a0: 7fe8 bcbb ccee 84bb b31d 0abb d7b4 84bb
000000b0: 2201 2abc 10d6 973c 30e0 30bc dd47 c73c
000000c0: 287d 61bb 1b01 e83b 69d9 55bc 5f2c 48ba
000000d0: 3c30 04bd ee00 8b3a f600 de3a 033f cebc
000000e0: d872 ceba 614e 29bd 2c88 54bc bb97 86ba
000000f0: 9831 d53c ca4c a6bc a71a c63a 2c16 dabc
00000100: 5085 df3c f3ae b83b 9459 ad3c c4fe 0f3c
00000110: be10 5bbd 118e 673c 020b 23bc adf1 8fbc
00000120: eaef 063c 3fe2 933b 35e8 6abb b1f6 783c
00000130: 2e9e acbc 3c7d ec3c 5b39 953b 662a 86bc
00000140: f9d7 b4bb 909f a5bc 614a da3b a1a5 623b
00000150: 104b 8f3a f01e d83b 9419 d2bc 5195 f0bb
00000160: 0cbf 21bc 22a0 cb3b 0bd2 55bc 7f9a 34bc
00000170: 7210 21bc 696c cabb 7f2d 283c 845a 4cbc
00000180: c415 4bbd 76ad c23c 97d8 e93a 17e5 09bc
00000190: a279 473b ba97 d43b 8a68 8b3c b912 ddbc
000001a0: 0af8 133c 5e1d 3bbc c944 5d3b 6c64 e3bc
000001b0: 46de 23bc 0ae0 393b 7279 97bc e397 323c
000001c0: 85eb aa3c bdfa 833b fbe4 9f3c 8e31 563b
000001d0: cdb7 753a 4c93 b8bb 07f8 4f3c 4227 f33a
000001e0: 2a50 3fbd 58ad df3b 154a 3c3c 25a0 90ba
000001f0: b0a7 3a3b 30f0 9c3c c0ad 48bd 73ce 533c
00000200: edec c43c 47b9 19bb 0be9 833c 5214 293b
00000210: e48a 75bc 750b 01bc a722 84bb 1c1f 00bd
00000220: 4ba6 56bc 66f6 19bc b41d 8abc 4f08 bf3c
00000230: 644d fbbb d5ef c8bb 993e a2bb 818d 13bb
00000240: 4c30 2ebc be84 babb 7201 f4bb aaf4 75bc
00000250: 0ac0 773c 56bb c23b cb8d ce3c e207 1b3a
00000260: e8eb f8bb fb5a 023d eb44 4dbc 774c 9bbc
00000270: 6e5d 013d b18f 9ebc 8fec 543c 6aea 293c
00000280: 2364 0b3c f3bb 323d 09ab 833c d036 dcba
00000290: 733f 623b cc30 2e3c 33dd acbc 8a89 1dbb
000002a0: 4a2f 94bc bb5f 34bc 6a58 ea3c 242d b7bc
000002b0: 4397 21bb 4dfc 6fbb 6c38 a6bc 89b1 d2bb
000002c0: 004d a8bc 18f8 0bbc 02b8 063d 22b0 3fbb
000002d0: 694d 07bd 2262 72bc 76a5 2c3b bed9 2bbc
000002e0: 1041 633c 9fa5 13bc 3653 6c3d fe5e dcbb
000002f0: b99c e5bb 2d03 ba3c 6635 8b3b 40c6 e1bc
00000300: 23cb e0bb 4dc9 fcbc 13d3 7bba 5d6c f53b
00000310: 5b30 1cbc 5af5 d83c bc39 063c a8ed 3dbb
00000320: a190 703c a14b 543d cd76 8cbc 4b64 8bbb
00000330: e627 9cbc 06f4 00bc 07dc 96ba 6b36 e33c
00000340: 2c41 8839 f3f5 10bb fbcb 26bc e226 763c
00000350: e556 a13b 935b b9bb 2620 7b3c 2e06 b53c
00000360: 23c3 6a3c 6508 a4b9 f2fd 51bc 0511 1dbd
00000370: 40ca ae3c 324d 95bb 32eb 63bb 58a0 90bc
00000380: 7a1a 54bc f2ca 3c3c c288 d33b a418 79bc
00000390: 8278 c3bb 7ad4 e93c 0f2f ad3c 7afa 923c
000003a0: 91be c638 7dd6 8cbb 87e1 183c a711 dcbc
000003b0: f96d ad3b e867 543c 10ea 813c c542 943c
000003c0: 16a2 9a3c fe42 aebb 5956 d2bb 2543 2eba
000003d0: f4e0 d23b 0660 b2b8 ad4a a53c 09eb dc3c
000003e0: 76a6 8c3c 152e a5bb a8df 6d3c fe50 5ebc
000003f0: a3dc 8bba 2b6f 7b3c bf6a 97bb c44f 813c

action_model._discrete_distribution.branches.0.bias f4 [3]
-0.01216695 0.012640048 -0.0007495844
00000000: e357 47bc 3418 4f3c c27f 44ba

action_model._discrete_distribution.branches.1.weight f4 [3, 256]
0.00036058438 -0.0126131 0.0018981221 -0.008393321 -0.018482208 -0.011009842 -0.011296221 -0.010512018
0.021108361 -0.014945191 -0.00011467827 -0.018374605 0.008803147 -0.021976963 0.014740084 -0.01001723
-0.0034231357 -0.006341977 0.004969809 -0.011853858 -0.017212708 0.0033750816 -0.011964948 -0.00035798232
-0.008108832 -0.0029205647 0.0126932375 -0.021151101 0.004258216 -0.010497409 -0.010391746 0.012943623
-0.01642804 0.0017226497 -0.0041840314 0.0026759089 0.026504986 -0.0004888411 0.0066743717 -0.008088612
0.013093403 -0.0070470874 0.002464142 -0.040582016 0.00047733137 0.015975382 -0.0061923214 -0.010343558
0.009395579 0.0026939146 -0.017932381 -0.0033547648 -0.01710523 -0.02542681 -0.007708586 0.0056696646
-0.00812155 -0.026917962 -0.023605986 -0.003601507 0.010676042 0.028042281 -0.017286388 0.003264819
-0.009819415 0.018969538 0.0091798995 -0.013409766 0.019907577 0.004752768 0.005931088 -0.009355165
0.0081995465 0.011924543 -0.019207127 -0.0066082575 0.0010958018 -0.0072498145 -0.021396065 -0.00773489
0.005611612 -0.02676008 0.018268842 -0.013849698 0.029646492 -0.014244 0.0019647253 -0.01184105
-0.012101718 0.008553194 0.014941191 -0.009375686 0.006417407 -0.025492638 0.0131334895 -0.006498056
0.009769426 0.0003319111 0.006453938 -0.019040516 0.0018184219 0.007579924 0.008688626 -0.008071092
0.008903246 -0.017988529 -0.01094705 0.011910143 -0.0005499113 0.0028070288 -0.0006656967 -0.045231987
0.030640747 0.00012159168 -0.01295178 -0.015642967 0.015195617 0.0017399262 -0.007937859 -0.013426671
-0.022999613 -0.005883071 -0.01847993 3.9141367e-05 0.0058966065 0.0008586588 -0.020393154 0.001411806
0.0042702025 -0.020111898 -0.012683145 0.0020663282 -0.020765023 -0.024368199 -0.0009187807 -0.0056989253
0.018380364 0.011452759 -0.006892367 0.007380272 -0.0020801262 0.003392793 -0.014351956 -0.009525692
0.010717198 0.000801677 -0.02185937 0.009538308 -0.008172851 0.0070842314 0.008791248 -0.00091303175
0.023442307 -0.024829434 -0.0012776613 0.0030948285 0.0029527629 0.01954251 -0.030847998 -0.037595283
-0.0008568303 -0.0060861637 -0.0014247168 0.026029428 0.00460291 -0.014508631 -0.007650058 -0.012737905
-0.0005545314 -0.017755575 -0.0053165443 0.019333607 0.019344073 -0.010398169 -0.010047659 0.0049791974
-0.000926498 0.00186414 0.033131517 -0.021561198 -0.011265414 0.009797045 0.0024395946 0.008888223
0.014031542 -0.019993607 -0.007870552 -0.019109275 0.005968289 0.002882265 0.014302021 -0.0013010844
-0.006850966 0.03617697 -0.0061692754 -0.016570017 0.011695062 0.0023771909 -0.00024253897 -0.018342558
-0.002735817 0.0108445855 5.080265e-05 0.0056578633 -0.015576389 -0.0072933054 0.008291673 -0.013452413
-0.025966415 0.0010960025 -0.0051599573 -0.008496892 -0.03518744 -0.008207173 -0.006884596 0.014806504
-0.0036573042 0.003409047 -0.00420497 0.015879972 -0.010101335 0.023670187 0.0069325874 -0.0070717344
-0.0052906787 0.0046591326 -0.018991211 -0.029903319 -0.007678758 -0.015345372 -0.019246269 -0.0025425935
0.004217459 -0.030104099 -0.013329606 -0.0060843276 -0.019518567 0.0068339305 0.0056359773 0.00025840246
0.0072889547 0.014991975 -0.010147043 -0.032847054 0.010014212 0.003486101 -0.020239642 -0.00914333
0.03231413 0.025691869 0.028247133 -0.0063478956 0.020883204 0.030984454 -0.0073244153 0.012597656
00000000: d10c bd39 2da7 4ebc 69ca f83a 2484 09bc
00000010: 0068 97bc a062 34bc c913 39bc 993a 2cbc
00000020: 71eb ac3c addc 74bc 6d7f f0b8 5786 96bc
00000030: 133b 103c 0809 b4bc 6580 713c 4f1f 24bc
00000040: b056 60bb 5cd0 cfbb c8d9 a23b af36 42bc
00000050: aa01 8dbc 7930 5d3b a108 44bc 93af bbb9
00000060: e8da 04bc f266 3fbb 4cf7 4f3c 1345 adbc
00000070: 8188 8b3b 53fd 2bbc 2442 2abc 7d11 543c
00000080: 1994 86bc 88ca e13a 331a 89bb 4d5e 2f3b
00000090: fc20 d93c 9225 00ba b0b4 da3b 1986 04bc
000000a0: b685 563c 41eb e6bb 717d 213b 5439 26bd
000000b0: 5542 fa39 cede 823c f5e8 cabb 0778 29bc
000000c0: eaef 193c 638c 303b eee6 92bc 9ddb 5bbb
000000d0: 4420 8cbc e34b d0bc 4e98 fcbb 98c8 b93b
000000e0: 4010 05bc 0f83 dcbc 5761 c1bc 4307 6cbb
000000f0: 91ea 2e3c edb8 e53c 2f9c 8dbc 93f6 553b
00000100: 9de1 20bc 0166 9b3c 4a67 163c a3b4 5bbc
00000110: 3715 a33c 1cbd 9b3b 9259 c23b 6846 19bc
00000120: 6457 063c 295f 433c 4458 9dbc 158a d8bb
00000130: 02a1 8f3a da8f edbb cd46 afbc f674 fdbb
00000140: 9de1 b73b f537 dbbc 8aa8 953c d8e9 62bc
00000150: 33dd f23c ab5f 69bc 9fc2 003b f700 42bc
00000160: 4946 46bc b222 0c3c e6cb 743c 7a9c 19bc
00000170: 1d49 d23b f0d5 d0bc d92d 573c a5ed d4bb
00000180: f10f 203c 5b04 ae39 8e7b d33b dbfa 9bbc
00000190: 1d58 ee3a 0361 f83b bd5a 0e3c 9d3c 04bc
000001a0: ecde 113c ae5c 93bc 415b 33bc c322 433c
000001b0: ec27 10ba 21f6 373b 2682 2eba 2d45 39bd
000001c0: 4e02 fb3c 09ff fe38 b433 54bc ae25 80bc
000001d0: 0af7 783c 3c0e e43a cb0d 02bc 8afb 5bbc
000001e0: af69 bcbc c7c6 c0bb 3963 97bc b92b 2438
000001f0: 5238 c13b 9e17 613a 8b0f a7bc 590c b93a
00000200: 0eed 8b3b b5c1 a4bc f7cc 4fbc 3c6b 073b
00000210: 691b aabc d19f c7bc 54da 70ba 0dbe babb
00000220: 6b92 963c 5aa4 3b3c 5dd9 e1bb 35d6 f13b
00000230: ba52 08bb 9f59 5e3b 7724 6bbc a611 1cbc
00000240: 3097 2f3c a227 523a 6c12 b3bc 9046 1c3c
00000250: 6ce7 05bc d722 e83b 2b09 103c 8658 6fba
00000260: 150a c03c 1967 cbbc 3377 a7ba 9bd2 4a3b
00000270: 2483 413b 9d17 a03c f1b4 fcbc 83fd 19bd
00000280: e89c 60ba 716e c7bb 90bd baba ab3b d53c
00000290: 02d4 963b 9cb5 6dbc 56ad fabb a5b2 50bc
000002a0: f95d 11ba 2474 91bc 6836 aebb 8361 9e3c
000002b0: 7677 9e3c 155d 2abc f09e 24bc 8928 a33b
000002c0: 3ae0 72ba 2956 f43a eab4 073d 1ca1 b0bc
000002d0: 9292 38bc c983 203c 9be1 1f3b e99f 113c
000002e0: 8ee4 653c a2c9 a3bc 7df3 00bc 0e8b 9cbc
000002f0: a391 c33b 62e4 3c3b 0653 6a3c 2689 aaba
00000300: 117e e0bb 4d2e 143d a227 cabb d8bd 87bc
00000310: a59c 3f3c a5ca 1b3b 0f52 7eb9 2243 96bc
00000320: 654b 33bb 7dad 313c ee14 5538 9965 b93b
00000330: 1c34 7fbc aefc eebb ccd9 073c 8267 5cbc
00000340: 85b7 d4bc bea7 8f3a dc14 a9bb 8c36 0bbc
00000350: b520 10bd 6177 06bc 2d98 e1bb fb96 723c
00000360: 62af 6fbb 516a 5f3b d8c9 89bb b716 823c
00000370: 1280 25bc fbe7 c13c c22a e33b 02ba e7bb
00000380: 6e5d adbb a3ab 983b 7593 9bbc cef7 f4bc
00000390: 179e fbbb 286b 7bbc 5aaa 9dbc a4a1 26bb
000003a0: 9c32 8a3b df9c f6bc 6b64 5abc 0a5f c7bb
000003b0: 67e5 9fbc 2aef df3b 01ae b83b 317a 8739
000003c0: 2fd8 ee3b e7a0 753c c83f 26bc a28a 06bd
000003d0: a612 243c 1277 643b 9bcd a5bc e8cd 15bc
000003e0: d25b 043d c177 d23c 8866 e73c 0202 d0bb
000003f0: 4113 ab3c 1cd3 fd3c a601 f0bb 6666 4e3c

action_model._discrete_distribution.branches.1.bias f4 [3]
-0.0050740903 0.008255827 -0.0029597543
00000000: 8e44 a6bb 7343 073c 70f8 41bb

action_model._discrete_distribution.branches.2.weight f4 [3, 256]
0.020857096 -0.0014713325 -0.0008296101 -0.012127823 0.016498521 -0.0008839827 -0.006273648 -0.011432093
-0.026201438 0.0056632017 0.014354094 -0.007814851 -0.0063980906 0.00413637 0.006323454 -0.0037755873
0.0010577246 -0.0010886939 -0.017883144 -0.010946578 -0.006099144 0.018585157 -0.021472963 0.006354771
-0.016286062 0.02013319 0.0123780165 0.010397746 0.0050437627 -0.004176518 0.01654666 0.028121104
0.01882723 0.009686622 -0.001478693 -0.035804443 -0.03371355 0.034761444 0.0028965266 -0.017415848
-0.007107714 -0.003812172 -0.010876722 -0.01391362 0.029746681 0.024445487 -0.006287484 0.0005301211
-0.008875342 0.021949176 -0.012744386 0.016737029 -0.03030049 0.004822057 0.031869285 0.0070836176
-0.015148827 0.0050021308 0.018378537 0.014029314 -0.0110460445 -0.00925924 -0.003767045 0.008506353
0.0062593995 0.015165584 0.006124784 0.015547456 0.017286675 0.008603707 0.0073586237 -0.0047969236
0.009626629 -0.02832301 -0.0067487517 0.019579392 -0.009314578 -0.0015588708 0.02220204 -0.00207096
0.022906238 0.00040432852 0.011477704 0.020364875 -0.030235114 0.0071581667 0.0010004587 0.0225055
0.0010454821 0.0018336253 -0.024964724 0.01191501 -0.0051961984 -0.006955628 -0.0069608474 0.035101544
0.018027773 -0.0060284534 0.0030447845 -0.010161612 0.010054173 -0.009043227 -0.0060110404 0.002731838
0.005391565 0.0030360876 0.010865972 -0.030046375 -0.0029949525 0.05305616 0.009307872 0.009884181
0.007227116 -0.01353668 0.007184608 0.015120964 0.032009188 0.017420698 0.01068458 -0.00722969
-0.026189357 0.0028913957 0.018834021 0.023620298 -0.009228756 -0.030571712 -0.008673697 0.0067289313
-0.009756062 -0.007556828 -0.0010220759 -0.013217331 0.045062184 0.012768176 -0.0037858486 0.01939147
-0.02274622 -0.017562352 0.020277767 -0.014325928 -0.00179667 -0.007990544 -0.008691343 0.026536524
0.022975815 0.0025296942 0.003998514 -0.006952695 -0.0008022931 -0.023330435 -0.016138367 0.013967658
-0.031995084 -0.004840182 -0.007909775 0.00024074264 -0.0062553086 0.016331052 0.018742647 -0.015162481
-0.007796084 0.014151336 0.021140523 -0.0031567696 0.011868859 -0.009389111 -0.0005919591 -0.008610115
0.0044237613 0.0034859148 -0.018025907 -0.03108514 0.016707506 -0.014938564 -0.01231218 -0.013971402
-0.0001638522 -0.027741715 0.0017925513 0.028153738 0.011651978 0.018665273 0.022193424 -0.008934002
-0.029800165 0.010920961 -0.03573469 0.006540061 -0.0012561261 0.014849376 -0.020030964 0.016074536
-0.015088657 0.008438269 -0.009232581 -0.012883 0.005175286 -0.008238917 -0.0060093603 0.015450609
0.0027018462 -0.025389986 0.009994806 0.007619271 -0.024536164 -0.004563156 -0.004606534 -0.0032222702
-0.002223128 -0.009411306 0.010276587 0.006428897 0.023809629 0.0041274084 -0.0061594234 0.0032051986
-0.011237266 -0.009240268 0.020868236 0.008009459 0.02318917 -0.014148771 -0.00028040525 0.0013582015
0.006905335 -0.008601318 0.0134103345 0.013797306 -0.006788142 -0.009201808 -0.007819911 -0.007296442
0.0040939185 -0.004551743 -0.016874082 -0.0024238913 0.035002917 -0.006621946 0.012022616 -0.0072978586
-0.02024797 0.017178781 0.021539494 0.018603008 -0.001697081 -0.008831117 0.031206714 0.014976161
-0.00544885 -0.030061057 -0.021145314 -0.013512139 -0.022753121 0.003166706 0.014300702 -0.009898179
00000000: 80dc aa3c bad9 c0ba 317a 59ba c7b3 46bc
00000010: e827 873c 13bb 67ba 2c93 cdbb ac4d 3bbc
00000020: 66a4 d6bc 6192 b93b 6f2d 6b3c dc09 00bc
00000030: 13a7 d1bb 638a 873b fa34 cf3b d86f 77bb
00000040: 59a3 8a3a 81b2 8eba ac7f 92bc 4759 33bc
00000050: 54db c7bb e63f 983c 11e8 afbc af3b d03b
00000060: 596a 85bc 5cee a43c 2acd 4a3c 4f5b 2a3c
00000070: 2646 a53b 2cdb 88bb dc8c 873c 3b5e e63c
00000080: 903b 9a3c a3b4 1e3c b4d0 c1ba aea7 12bd
00000090: 3817 0abd 0462 0e3d a7d3 3d3b aeab 8ebc
000000a0: d4e7 e8bb a2d5 79bb 4734 32bc f4f5 63bc
000000b0: 50af f33c e741 c83c 3d07 cebb d3f7 0a3a
000000c0: e269 11bc c2ce b33c d4cd 50bc 181c 893c
000000d0: bc38 f8bc 5902 9e3b 5e89 023d b11d e83b
000000e0: c932 78bc eae8 a33b 968e 963c 35db 653c
000000f0: 78fa 34bc 11b4 17bc 87e0 76bb 3b5e 0b3c
00000100: a61b cd3b 1279 783c 69b2 c83b c2ba 7e3c
00000110: c99c 8d3c 90f6 0c3c 9c20 f13b 832f 9dbb
00000120: 02b9 1d3c a805 e8bc a224 ddbb f664 a03c
00000130: 2c9c 18bc 0653 ccba 0de1 b53c f1b8 07bb
00000140: dda5 bb3c 0efc d339 fb0c 3c3c 3dd4 a63c
00000150: a1af f7bc 0e8f ea3b d321 833a 745d b83c
00000160: 8f08 893a 4156 f03a d282 ccbc 2d37 433c
00000170: df44 aabb 09ec e3bb d217 e4bb a3c6 0f3d
00000180: fbae 933c 558a c5bb 028b 473b e47c 26bc
00000190: 42ba 243c 0b2a 14bc 43f8 c4bb a308 333b
000001a0: baab b03b 19f9 463b 3107 323c d123 f6bc
000001b0: f746 44bb 6b51 593d 0b80 183c 43f1 213c
000001c0: 71d1 ec3b f3c8 5dbc dc6c eb3b ebbd 773c
000001d0: 111c 033d dab5 8e3c 600e 2f3c 09e7 ecbb
000001e0: 108b d6bc 927d 3d3b ce49 9a3c 5b7f c13c
000001f0: 3534 17bc 8771 fabc 1f1c 0ebc 5e7e dc3b
00000200: e4d7 1fbc 459f f7bb 2df7 85ba 818d 58bc
00000210: 2093 383d 9d31 513c 001c 78bb dcda 9e3c
00000220: 4856 babc ecde 8fbc 8f1d a63c 4cb7 6abc
00000230: 3e7e ebba c5ea 02bc 2266 0ebc 2063 d93c
00000240: c737 bc3c 3ac9 253b f705 833b 6fd3 e3bb
00000250: fb50 52ba 781f bfbc 9c34 84bc 9bd8 643c
00000260: 470d 03bd 649a 9ebb 0098 01bc dc6f 7c39
00000270: 55f9 ccbb b3c8 853c 2e8a 993c 0e6c 78bc
00000280: 4b76 ffbb 01db 673c e42e ad3c cee1 4ebb
00000290: 9a75 423c c9d4 19bc b42d 1bba 7111 0dbc
000002a0: 33f5 903b f273 643b 11ab 93bc 43a6 febc
000002b0: 2ede 883c e1c0 74bc 07b9 49bc 4fe8 64bc
000002c0: bdcf 2bb9 9842 e3bc 0af4 ea3a aba2 e63c
000002d0: f0e7 3e3c eae7 983c fcce b53c ec5f 12bc
000002e0: 7a1f f4bc d5ed 323c 8a5e 12bd 024e d63b
000002f0: 99a4 a4ba cc4a 733c fa17 a4bc bfae 833c
00000300: 6a36 77bc aa40 0a3c 4044 17bc 3813 53bc
00000310: 7295 a93b 86fc 06bc 2bea c4bb 8d24 7d3c
00000320: 7511 313b a9fe cfbc 41c1 233c 14ab f93b
00000330: 1100 c9bc 8786 95bb 68f2 96bb b92c 53bb
00000340: e6b1 11bb e131 1abc 215f 283c 7fa9 d23b
00000350: 690c c33c 363f 873b fdd4 c9bb 4f0e 523b
00000360: 821c 38bc 7e64 17bc ddf3 aa3c 1b3a 033c
00000370: 37f7 bd3c 3fd0 67bc 5b03 93b9 ae05 b23a
00000380: 2646 e23b 8bec 0cbc 05b7 5b3c 190e 623c
00000390: 106f debb 2ec3 16bc 161f 00bc fe16 efbb
000003a0: 4726 863b ca26 95bb 843b 8abc 26da 1ebb
000003b0: 385f 0f3d e9fc d8bb 82fa 443c e022 efbb
000003c0: 12df a5bc 84ba 8c3c 9873 b03c 5665 983c
000003d0: 9770 deba 64b0 10bc 39a5 ff3c 925e 753c
000003e0: 448c b2bb 9b42 f6bc f038 adbc 0562 5dbc
000003f0: c164 babc 8388 4f3b 7e4d 6a3c f92b 22bc

action_model._discrete_distribution.branches.2.bias f4 [3]
0.0014266694 0.0058209472 -0.0063906847
00000000: 15ff ba3a a5bd be3b f368 d1bb
