results/VB_1/Badminton/Badminton-140990.onnx (onnx, 298576 bytes, 12 tensors)

discrete_act_size_vector f4 [1, 4]
00000000: 0000 4040 0000 4040 0000 4040 0000 0040
3.0 3.0 3.0 2.0

network_body.observation_encoder.processors.0.normalizer.running_mean f4 [11]
00000000: 0000 0000 0000 0000 0000 0000 0000 0000
00000010: 0000 0000 0000 0000 0000 0000 0000 0000
00000020: 0000 0000 0000 0000 0000 0000
0.0 0.0 0.0 0.0 0.0 0.0 0.0 0.0
0.0 0.0 0.0

network_body._body_endoder.seq_layers.0.weight f4 [256, 11]
00000000: 81de 8c3e bc60 7d3e 29d3 3cbe 9b60 063f
00000010: 2ac7 8dbe 7296 debe bb8c 433e 8695 1a3e
00000020: 33ca f53e a762 bbbd af7c 3f3e 892f a0bc
00000030: 5755 643d ef13 f53c d946 363c 12a7 f13d
00000040: 90dd 05bf f245 6cbe 294c 8cbd f5c7 323e
00000050: 3613 1abf 1f11 73be a772 80bd 5140 9f3c
00000060: 6dfb b13d 0ab8 a13e 7247 89be 83f5 68bd
00000070: a33f 35be 9a70 35be 3675 2dbe 9ab8 88bd
00000080: d35c 19be fdba f8bd 1e8d 1ebf 2004 74be
00000090: b062 3bbe 497b 58be 0ae3 c43e d327 5a3e
000000a0: e906 18be e85a dd3d 3a73 2bbe e9ca 79bc
000000b0: 22d3 ec3d cc24 c23d 8325 bb3e a862 b6be
000000c0: 3807 9a3d f324 a7be cae2 783e 2b3d c63d
000000d0: d050 1ebe cc9e 80be 33da fe3e 3fd5 c73e
000000e0: a955 febe 84cc 83be 6281 fe3e 9711 74be
000000f0: a81d 24be 41a3 3c3e b305 373b a02b a2bd
00000100: c511 6cbe 0a0a 5abe 64c7 aebe 6e30 ca3e
00000110: 3afe 4ebe 8d66 263e ba0d 4abe 84bd 04be
00000120: 76fb 203f 1f2a 2a3f 6156 523e b429 b93d
00000130: 1c06 64be 09cb 813d 0003 a13e e822 52be
00000140: f806 13bd ee72 cc3e 97c1 633f cc76 023e
00000150: c07b c23d b220 99be 9e68 bdbe 8332 093e
00000160: 78b9 223e 7045 aa3d 48f7 a5bd 0d13 bc3e
00000170: c340 c73e 2647 163e 5509 663d 0315 623e
00000180: d193 553e ba7e f03e 8de6 43be 1a3c 3d3f
00000190: 3e6b bdbe 2719 fd3d c70c 5b3e 1785 cdbe
000001a0: cdf5 053f 2f5c 29be e3b5 c6bd 1f1d 88bd
000001b0: a190 81bd 1baa 84bf 2ff7 5cbd 312a 3a3f
000001c0: bda7 e83d 5fa6 233e cae6 bdbe c865 0dbf
000001d0: 62af 2c3e b9c3 a43e 23eb 813d 8850 0ebc
000001e0: 48a5 083f 6d23 48bc 5b4d e23d e82a 81be
000001f0: 5109 ccbc b3b9 fbbe ed12 483e 0301 2e3e
00000200: 9598 b4be 755f 063f e584 a23e 3151 72b8
00000210: bb79 653e 1e42 423e a048 9abe aca4 b8bd
00000220: 9db1 ca3a 34d2 083e 293c ad3e f0e6 aabe
00000230: 7840 c7bd 97c3 30be cbec e7bd d28c 18bc
00000240: 229c b23e cbd2 83bd fb1a 5e3d 0de7 1cbe
00000250: eae6 3a3e 4222 7c3e 8347 5bbe 856b 9e3e
00000260: 7dfe d73d 43e4 09bf a49a 7a3e 087e 5abe
00000270: 30d5 3cbe bce3 b6be 7673 4dbc 05dc 12bf
00000280: e008 08bd 5bc5 053f c028 bebe 1c79 dbbc
00000290: 19f2 e9be 26e3 6d3e fa6c c3be 08e0 6c3e
000002a0: 721f 0b3e c202 36be 5b3f cfbb d301 a83e
000002b0: 541c 9abe e698 8d3e 5edf 94be 393b c73e
000002c0: c924 d43d 0498 c13e eb83 57be 62cc 813d
000002d0: c2c1 1dbe 124d b4be 2945 ddbd ac6c 90be
000002e0: 59e6 243d 9ca0 b43d abc0 adbe 2dbe 0ebf
000002f0: b20a d93e e318 1cbe 1be0 88be 4e16 8dbe
00000300: 1c89 d3bd d3d5 a03e 60e2 d6be ccde e63e
00000310: 3d1a a53e e849 983e 23d3 a3bb 6f46 57be
00000320: ead4 3cbe 2e25 7abe 688c 4d3e 66e1 12bd
00000330: dbac dfbd 3546 80be 0ccc 82bd 6bdd 01be
00000340: 39d7 44bf 600a aabe c4d1 99be bd23 a93d
00000350: 6506 e7bd c108 6c3e 32bb f9bd 8924 eebe
00000360: 5d33 103f 3c99 7cbc e6a6 013e 8460 bcbe
00000370: afc8 8fbd a627 15bf a63d 953d 68f4 0e3e
00000380: 307d 953d e131 a7be 5540 f03e d3ed 9c3e
00000390: 4ec6 c13e b90a 043e fb02 2bbf 470c 973d
000003a0: eb1a 3bbe a7bf a0bc a7af e93e 2551 0d3d
000003b0: bd42 35be 6fae e6bd 9fae a9be f9a0 7e3e
000003c0: 1765 e63e 3128 183f 19ae 03be a9e7 863e
000003d0: 80c4 74be e7de bebe becd 0b3e ffae 153f
000003e0: 0b3a 0cbd 2232 8cbe 7fcf 443f fe1a 8b3e
000003f0: 1d19 e6be 1792 e1be 2997 b33d 8379 d2bd
0.27513507 0.24743932 -0.18439926 0.5249116 -0.27691013 -0.43474156 0.19096653 0.15096101
0.48005828 -0.09149676 0.18699907 -0.019553917 0.05574545 0.029916732 0.01112529 0.11799444
-0.522912 -0.23073557 -0.06850464 0.1745909 -0.60185564 -0.23737 -0.06271868 0.019439848
0.08690534 0.31585723 -0.2681232 -0.056874763 -0.17700057 -0.17718735 -0.16939244 -0.06675835
-0.14976816 -0.1214504 -0.6193408 -0.23829699 -0.18299365 -0.2114078 0.38454467 0.21304254
-0.14846386 0.108083546 -0.16743174 -0.015246131 0.11563708 0.09479675 0.36552057 -0.35622144
0.07520908 -0.32645378 0.24305263 0.096796356 -0.15460515 -0.25121152 0.49775848 0.3902988
-0.4967473 -0.2574197 0.49708086 -0.23834835 -0.16026938 0.18421651 0.002792698 -0.07918477
-0.23053654 -0.21292892 -0.34136498 0.39490074 -0.20214167 0.16250058 -0.19731799 -0.1296292
0.628837 0.6647052 0.20540763 0.09041157 -0.22267956 0.06337554 0.314476 -0.20521128
-0.035895318 0.39931434 0.8896727 0.1274063 0.0949626 -0.29907757 -0.3699388 0.13398175
0.15891063 0.083140254 -0.08103806 0.36733285 0.38916597 0.14675578 0.056161243 0.22078328
0.20857169 0.46971685 -0.19130917 0.7391983 -0.36995882 0.12358313 0.21391593 -0.40140602
0.5232819 -0.16539072 -0.09702661 -0.066461794 -0.06326414 -1.0364412 -0.05394667 0.7272063
0.113601185 0.15981434 -0.3709014 -0.5523343 0.16863778 0.32180575 0.06343677 -0.008686192
0.533772 -0.012215477 0.11049911 -0.25228047 -0.024906786 -0.49165115 0.1953847 0.16992573
-0.3527266 0.52489406 0.31742015 -5.777291e-05 0.22409718 0.18970534 -0.30133533 -0.09015784
0.001546431 0.13361436 0.3383496 -0.33379316 -0.09729093 -0.17262112 -0.113244615 -0.009310918
0.34884745 -0.0643669 0.05422495 -0.15322514 0.18252149 0.24622443 -0.21413998 0.30941406
0.10546587 -0.53863925 0.24473053 -0.2133714 -0.184407 -0.35720623 -0.012539735 -0.57366973
-0.03321159 0.52254266 -0.37140465 -0.026791148 -0.45692518 0.23231182 -0.3816908 0.23132336
0.13586214 -0.1777449 -0.006324691 0.32813892 -0.30099738 0.27655715 -0.29076666 0.3891237
0.10358579 0.3781129 -0.21046416 0.06337811 -0.15405944 -0.3521505 -0.10804207 -0.2820791
0.04025874 0.08819696 -0.33936056 -0.55758935 0.42390972 -0.15243869 -0.2673348 -0.2755608
-0.10328886 0.31413135 -0.41969585 0.45091856 0.3224658 0.29743886 -0.0049995347 -0.21022962
-0.18440595 -0.24428245 0.20073092 -0.035859488 -0.109216414 -0.25053564 -0.06386575 -0.1268212
-0.76890904 -0.3321104 -0.3004285 0.0825877 -0.112805165 0.23050214 -0.12193908 -0.4651225
0.56328374 -0.015417393 0.12661323 -0.36792386 -0.07020699 -0.58263624 0.07287149 0.13960421
0.07299268 -0.32655242 0.4692408 0.30650195 0.37846607 0.12894715 -0.6680142 0.073753886
-0.18271987 -0.019622637 0.45641825 0.034501214 -0.1770124 -0.11263739 -0.33141038 0.24866094
0.44999 0.5943633 -0.12859382 0.26348618 -0.23903084 -0.37279436 0.13652703 0.5847015
-0.03423504 -0.27381998 0.76879114 0.2716903 -0.44941035 -0.4405677 0.08769066 -0.10277083

network_body._body_endoder.seq_layers.0.bias f4 [256]
00000000: 0000 0000 0000 0000 0000 0000 0000 0000
00000010: 0000 0000 0000 0000 0000 0000 0000 0000
00000020: 0000 0000 0000 0000 0000 0000 0000 0000
00000030: 0000 0000 0000 0000 0000 0000 0000 0000
00000040: 0000 0000 0000 0000 0000 0000 0000 0000
00000050: 0000 0000 0000 0000 0000 0000 0000 0000
00000060: 0000 0000 0000 0000 0000 0000 0000 0000
00000070: 0000 0000 0000 0000 0000 0000 0000 0000
00000080: 0000 0000 0000 0000 0000 0000 0000 0000
00000090: 0000 0000 0000 0000 0000 0000 0000 0000
000000a0: 0000 0000 0000 0000 0000 0000 0000 0000
000000b0: 0000 0000 0000 0000 0000 0000 0000 0000
000000c0: 0000 0000 0000 0000 0000 0000 0000 0000
000000d0: 0000 0000 0000 0000 0000 0000 0000 0000
000000e0: 0000 0000 0000 0000 0000 0000 0000 0000
000000f0: 0000 0000 0000 0000 0000 0000 0000 0000
00000100: 0000 0000 0000 0000 0000 0000 0000 0000
00000110: 0000 0000 0000 0000 0000 0000 0000 0000
00000120: 0000 0000 0000 0000 0000 0000 0000 0000
00000130: 0000 0000 0000 0000 0000 0000 0000 0000
00000140: 0000 0000 0000 0000 0000 0000 0000 0000
00000150: 0000 0000 0000 0000 0000 0000 0000 0000
00000160: 0000 0000 0000 0000 0000 0000 0000 0000
00000170: 0000 0000 0000 0000 0000 0000 0000 0000
00000180: 0000 0000 0000 0000 0000 0000 0000 0000
00000190: 0000 0000 0000 0000 0000 0000 0000 0000
000001a0: 0000 0000 0000 0000 0000 0000 0000 0000
000001b0: 0000 0000 0000 0000 0000 0000 0000 0000
000001c0: 0000 0000 0000 0000 0000 0000 0000 0000
000001d0: 0000 0000 0000 0000 0000 0000 0000 0000
000001e0: 0000 0000 0000 0000 0000 0000 0000 0000
000001f0: 0000 0000 0000 0000 0000 0000 0000 0000
00000200: 0000 0000 0000 0000 0000 0000 0000 0000
00000210: 0000 0000 0000 0000 0000 0000 0000 0000
00000220: 0000 0000 0000 0000 0000 0000 0000 0000
00000230: 0000 0000 0000 0000 0000 0000 0000 0000
00000240: 0000 0000 0000 0000 0000 0000 0000 0000
00000250: 0000 0000 0000 0000 0000 0000 0000 0000
00000260: 0000 0000 0000 0000 0000 0000 0000 0000
00000270: 0000 0000 0000 0000 0000 0000 0000 0000
00000280: 0000 0000 0000 0000 0000 0000 0000 0000
00000290: 0000 0000 0000 0000 0000 0000 0000 0000
000002a0: 0000 0000 0000 0000 0000 0000 0000 0000
000002b0: 0000 0000 0000 0000 0000 0000 0000 0000
000002c0: 0000 0000 0000 0000 0000 0000 0000 0000
000002d0: 0000 0000 0000 0000 0000 0000 0000 0000
000002e0: 0000 0000 0000 0000 0000 0000 0000 0000
000002f0: 0000 0000 0000 0000 0000 0000 0000 0000
00000300: 0000 0000 0000 0000 0000 0000 0000 0000
00000310: 0000 0000 0000 0000 0000 0000 0000 0000
00000320: 0000 0000 0000 0000 0000 0000 0000 0000
00000330: 0000 0000 0000 0000 0000 0000 0000 0000
00000340: 0000 0000 0000 0000 0000 0000 0000 0000
00000350: 0000 0000 0000 0000 0000 0000 0000 0000
00000360: 0000 0000 0000 0000 0000 0000 0000 0000
00000370: 0000 0000 0000 0000 0000 0000 0000 0000
00000380: 0000 0000 0000 0000 0000 0000 0000 0000
00000390: 0000 0000 0000 0000 0000 0000 0000 0000
000003a0: 0000 0000 0000 0000 0000 0000 0000 0000
000003b0: 0000 0000 0000 0000 0000 0000 0000 0000
000003c0: 0000 0000 0000 0000 0000 0000 0000 0000
000003d0: 0000 0000 0000 0000 0000 0000 0000 0000
000003e0: 0000 0000 0000 0000 0000 0000 0000 0000
000003f0: 0000 0000 0000 0000 0000 0000 0000 0000
0.0 0.0 0.0 0.0 0.0 0.0 0.0 0.0
0.0 0.0 0.0 0.0 0.0 0.0 0.0 0.0
0.0 0.0 0.0 0.0 0.0 0.0 0.0 0.0
0.0 0.0 0.0 0.0 0.0 0.0 0.0 0.0
0.0 0.0 0.0 0.0 0.0 0.0 0.0 0.0
0.0 0.0 0.0 0.0 0.0 0.0 0.0 0.0
0.0 0.0 0.0 0.0 0.0 0.0 0.0 0.0
0.0 0.0 0.0 0.0 0.0 0.0 0.0 0.0
0.0 0.0 0.0 0.0 0.0 0.0 0.0 0.0
0.0 0.0 0.0 0.0 0.0 0.0 0.0 0.0
0.0 0.0 0.0 0.0 0.0 0.0 0.0 0.0
0.0 0.0 0.0 0.0 0.0 0.0 0.0 0.0
0.0 0.0 0.0 0.0 0.0 0.0 0.0 0.0
0.0 0.0 0.0 0.0 0.0 0.0 0.0 0.0
0.0 0.0 0.0 0.0 0.0 0.0 0.0 0.0
0.0 0.0 0.0 0.0 0.0 0.0 0.0 0.0
0.0 0.0 0.0 0.0 0.0 0.0 0.0 0.0
0.0 0.0 0.0 0.0 0.0 0.0 0.0 0.0
0.0 0.0 0.0 0.0 0.0 0.0 0.0 0.0
0.0 0.0 0.0 0.0 0.0 0.0 0.0 0.0
0.0 0.0 0.0 0.0 0.0 0.0 0.0 0.0
0.0 0.0 0.0 0.0 0.0 0.0 0.0 0.0
0.0 0.0 0.0 0.0 0.0 0.0 0.0 0.0
0.0 0.0 0.0 0.0 0.0 0.0 0.0 0.0
0.0 0.0 0.0 0.0 0.0 0.0 0.0 0.0
0.0 0.0 0.0 0.0 0.0 0.0 0.0 0.0
0.0 0.0 0.0 0.0 0.0 0.0 0.0 0.0
0.0 0.0 0.0 0.0 0.0 0.0 0.0 0.0
0.0 0.0 0.0 0.0 0.0 0.0 0.0 0.0
0.0 0.0 0.0 0.0 0.0 0.0 0.0 0.0
0.0 0.0 0.0 0.0 0.0 0.0 0.0 0.0
0.0 0.0 0.0 0.0 0.0 0.0 0.0 0.0

network_body._body_endoder.seq_layers.2.weight f4 [256, 256]
00000000: 4534 f43c 43e2 b53d c0e7 a2bd e05d 7ebd
00000010: acc3 a0bc 2045 c73d 9e0c d5b9 3064 1dbc
00000020: eb57 1e3d 26c1 d1bb 74a3 19bd 6fcb 8bba
00000030: 008e c73c a3d8 fbbc fdab aabd d2a3 fbba
00000040: dcb3 753b 293c a23d 3dbc fa3c 47dd e53d
00000050: ade5 d33d cbad 8bbd 8e69 e33c 6c28 873c
00000060: 9ca4 5bbc 352b 1abd 7c5b b83d 4d13 cbbc
00000070: 7c98 c23d 6738 9dbd fde3 fcbb d737 fc3c
00000080: 2bfc 3b3a 660e 843d b7a3 a6bd 2b62 e0bd
00000090: 572b f9bc bc20 083c b57d fc3c 71d3 1ebd
000000a0: 9f85 4d3d a6ff 4dbd 4fec 043d 4396 babc
000000b0: 0141 e73d 4cbc 24bd b1cd debb 82e7 eebd
000000c0: ec95 f63d 0a63 c63b fbde f2bc 2eec abbc
000000d0: 7c58 303d fbf3 b5bd 1fc0 353b a4d6 603d
000000e0: 6bd7 babc 0672 143e 572e e3bd d873 273e
000000f0: 1925 263d bf90 c43d eec5 a0ba 3a63 ba3d
00000100: f8c7 1abd 4f86 cd3d 2f13 b9bd f89f 87bd
00000110: 9fca 4f3d b750 8f3c c94b c83b 00ae f0bc
00000120: bfca 633d 54b3 063e 747e f43c e394 063e
00000130: bb67 d0bc 757b 12bd f82b 9f3a e094 613d
00000140: 1fe0 183d 6abb d33a 1961 423c 4531 243d
00000150: 2ba6 923c 2a83 4f3d 381b 3b3d c947 e33d
00000160: a5ba 9fbd ddb8 c2bd 10cc 673b bc48 823d
00000170: cb11 883c 0ad9 2a3d d567 43bd 747c 7dba
00000180: abad dd3d 6404 2f3d 33aa 38bd 2280 a43d
00000190: 5411 283d 73ce 11bd fbf2 6f3b c0a6 bbbd
000001a0: afcc 98bd bcf5 563d 7383 ff3c 098b e73c
000001b0: 7b8c ffbb 5cc4 a23d 8b4f 3dbd 73dd 653d
000001c0: 9035 46bd 3482 2abc 20db 9dbd 3024 3fbc
000001d0: 3ffb e53d 3446 973d 7f02 29bd 22e6 973b
000001e0: 7bd6 91bd 21b2 943d 49b3 fcbc e508 013d
000001f0: db53 9e3c 1a62 4dbd 0eb4 98bd 1a44 89bd
00000200: 0e4a f9bd 397f aa3c b30a 28bd 66d7 bcbc
00000210: 14ff 2abd 162c 8d3d a381 443d 79cf 84bd
00000220: da43 a8bd 83d9 083d 2ad0 32bd 93af c53b
00000230: 3d80 ac3c f4db 833b 7373 44bd b9ec 323d
00000240: 0ba5 0dbd 3f77 04be febb 63bd e082 31bc
00000250: 7510 173d 475d 9f3d 4b05 6cbd 2c16 993d
00000260: 982e cdbb 3a27 34bc 936e 2e3b 318a 383d
00000270: d090 1b3e 2d4f 22bc 9015 0bbd cde9 b93c
00000280: bade 583b ba39 463d 4447 90bb 4686 babd
00000290: c68c d6bc 9fdc 58bd 8787 03bc d98a aa3d
000002a0: fc7b b43c b9b8 463d 4337 ce3c 8aaa 44bd
000002b0: 24a8 46bd d28a 153d 77cc 3bbd 8eff 33bb
000002c0: d724 22bc 2e84 6f3a 5004 f63c 032b 8abd
000002d0: 236e 023d 7c5a 06be 6822 683d 5e8f 7bbc
000002e0: 98e8 33bc 2505 e6bd b0da c93c bc55 2e3d
000002f0: f406 e8bb be3c b8bd a02c 463e 401e 503c
00000300: 1700 3b3d c628 e2bb 1e7c 81bc bb4a 1ebd
00000310: c99d 8e3c 8327 84bd 0ce9 44bc 20e6 3d3d
00000320: 5ece 643e bd5a 123d f005 cabd ad81 fc3c
00000330: 0715 b63c 242c 71bc c24b 0fbd 2dc7 303d
00000340: eaee 7e3d fb00 683b d5b9 13bd a8ab 44bd
00000350: 0fa4 153d 3fb6 613b 8069 8ebd cd08 36be
00000360: cfd6 2f3d f674 1e3d 8143 d7bc e8e6 563d
00000370: 3679 c63d 8336 c3bd 91ff 6cbc 956d 1a3c
00000380: 3d19 02bc d207 043d e2b7 bcbb 7c53 32bd
00000390: 71bf b3bd b042 96bc d7a2 2c3d 3808 13ba
000003a0: 36cc 1bbd 099f 253d 9d08 703d 50d7 88bc
000003b0: aacf 96bc a46d 1abd 9c09 283d c0a8 383c
000003c0: d799 28bd 9196 e8bb 610e d63d f84c 503d
000003d0: 91dd 5cbc 6248 1ebe 0b37 d03c 1c9d 7cbd
000003e0: 895f 393d 48dc 7eba af08 8ebd e19e 963d
000003f0: e7a8 07bd 7791 873d 893c 153c 03fc e33c
0.02981008 0.088810466 -0.07954359 -0.062101245 -0.019624554 0.097299814 -0.00040635926 -0.009606406
0.038658064 -0.006401199 -0.037509397 -0.0010665486 0.024359703 -0.030742949 -0.083335854 -0.0019198603
0.0037491238 0.07921631 0.030607337 0.11223846 0.103465416 -0.06820258 0.027760293 0.016498767
-0.013405945 -0.03763886 0.09001824 -0.024789477 0.0950174 -0.076767735 -0.007717608 0.030788345
0.000717106 0.06448059 -0.08136695 -0.10956224 -0.030416174 0.008308586 0.03082166 -0.038775865
0.05017626 -0.050292633 0.032451924 -0.022776728 0.112916954 -0.040218636 -0.0067994227 -0.1166525
0.12040314 0.006054287 -0.029647341 -0.020986643 0.043053135 -0.08884426 0.0027732921 0.054892197
-0.022807797 0.14496621 -0.11092823 0.16352785 0.040562723 0.095979206 -0.0012266019 0.09100957
-0.03778836 0.10035383 -0.09036862 -0.066223085 0.050730344 0.017494543 0.00611255 -0.029379845
0.055613276 0.13154346 0.029845454 0.13142733 -0.025440088 -0.03576227 0.0012143841 0.05507362
0.037323114 0.0016153876 0.01186397 0.04008605 0.0179015 0.050662197 0.045680255 0.11097676
-0.077992715 -0.09507916 0.0035369433 0.06361529 0.016610047 0.04171089 -0.047706444 -0.0009669729
0.1082414 0.042728797 -0.04508419 0.08032252 0.04103215 -0.035597276 0.0036613334 -0.091626644
-0.07460915 0.052480444 0.03119061 0.02826454 -0.007798729 0.07947609 -0.046218436 0.056119394
-0.048390925 -0.010407019 -0.077078104 -0.011666343 0.11229562 0.07386437 -0.041262146 0.0046355883
-0.07120987 0.07260538 -0.030847209 0.031502623 0.019327095 -0.050142385 -0.07456218 -0.067024425
-0.12172328 0.020812618 -0.04102583 -0.023051929 -0.041747168 0.06893174 0.047975194 -0.06484885
-0.08216067 0.03341056 -0.043655552 0.006032893 0.021057243 0.004024023 -0.047961663 0.043682788
-0.034581225 -0.12936114 -0.055599205 -0.010834426 0.03688093 0.07781463 -0.057622235 0.07474932
-0.006261658 -0.0109956805 0.00266162 0.045053665 0.1519196 -0.009906572 -0.03395611 0.022694493
0.003309174 0.048394896 -0.004403027 -0.09107642 -0.026190173 -0.052944776 -0.008027918 0.08327264
0.022031777 0.04851601 0.025172835 -0.0480142 -0.048500195 0.036509342 -0.04584929 -0.0027465555
-0.009896479 0.0009136823 0.030031353 -0.06746485 0.031843316 -0.13120455 0.056673437 -0.015354006
-0.010980748 -0.1123145 0.024640411 0.04256223 -0.007080907 -0.08995961 0.1935296 0.012702525
0.045654383 -0.006901833 -0.015806254 -0.038645487 0.017409222 -0.06452849 -0.012018453 0.046362042
0.22344348 0.035731066 -0.09864414 0.030823553 0.022226823 -0.014719997 -0.034984358 0.0431587
0.062239565 0.0035400975 -0.036065895 -0.048015267 0.03653341 0.0034440903 -0.06953716 -0.17776795
0.042929467 0.03868576 -0.026277306 0.052466303 0.09691088 -0.09531882 -0.014465229 0.00942554
-0.007940588 0.03223402 -0.005759225 -0.04353665 -0.08776749 -0.018342346 0.042147484 -0.00056088297
-0.038036548 0.04043487 0.058601964 -0.016704232 -0.018409569 -0.037702218 0.04102479 0.011270702
-0.041162338 -0.007098027 0.10451961 0.050854653 -0.01348056 -0.154573 0.025416872 -0.06167327
0.045257125 -0.00097221555 -0.0693525 0.073545225 -0.033120062 0.06619542 0.009108671 0.02783013

action_model._discrete_distribution.branches.0.weight f4 [3, 256]
00000000: d077 a9ba e793 b4bc 386a fc3b bf17 49bb
00000010: 23eb aabb 2303 3ebc bb73 4dbb 074b ee3b
00000020: da4b fbbb afa3 67bb efd8 ce3b 87c5 d0bb
00000030: c761 b8ba 671f f0ba cbf2 0b39 f3f1 23bb
00000040: 8ecf 9f3b fbe2 823b 5d83 88ba 103d 0abc
00000050: df2d fa3b ec62 913a 2154 11bc f909 a23a
00000060: 2d8a 9f3b 257f 06bc 6576 513c 0856 c2ba
00000070: 5569 f73b fcba a83b 59ae 973b fd4a babb
00000080: b77e 013c 4832 ac3a a260 d9bb d319 1fbb
00000090: 2316 cb3a 9dc2 cfbb 82e7 05bc 0a7e 64bc
000000a0: 5d49 ffba 2f5e 02bc 1412 2abc 9dde 8c3a
000000b0: 1390 77bc 9d83 f9bb ca8e de3b bab9 14bc
000000c0: ed31 59ba 17c8 233b ee93 003c 3203 b1bb
000000d0: c4ad 823c 6bd0 85bb 139a 93b9 42f4 e2ba
000000e0: 3fe3 483b afbb 60b9 3843 823b df97 7fbb
000000f0: 9304 af3b ef4d 063b 1d61 77b9 72db 013c
00000100: cbcd ccb8 a319 2d3b 840e 38bb 5f3f 7e3b
00000110: 9b7b b03b 478a 1dbb 58b2 2c3c 2d58 303b
00000120: 9e82 c2b8 453a 44bb e2f1 e1bb 06ed a33b
00000130: 6e0a 3c3c d1a3 94bb 1def d03b 03ed 01ba
00000140: 6a7e cebb 3a3c 4abc 471c 07bb 76ef 2cbc
00000150: 5450 94bb 5f24 1fbc fec6 9f3b ccd2 0abc
00000160: fb05 f53a 3223 3dbc 9709 86bb 541f c73a
00000170: b4c1 a6bb 47b0 d6bb 490b 4cbb 26b4 393a
00000180: c3a6 f03b fd18 503b 106e 063b af84 08bc
00000190: f3be 85bb 488c b3ba b73f 65bb f7d4 873b
000001a0: 6d20 c73a fcc6 c1bb cd68 5dbb 9a35 9ebb
000001b0: 3961 1ebb 1b7a c5b9 0bb2 c1ba b86f ef3b
000001c0: 3dca 46bb d0c1 443b c0f4 d13a b6d8 adba
000001d0: 7b04 033c c08f 60bc 5749 d2bb 0dc2 dabb
000001e0: 4cd9 11bb b848 bb3b d2b0 b4b4 db47 0dbb
000001f0: a3f3 d8bb 3db7 a0bb c07a 8d3a b93e 1fb7
00000200: e57e 9a3b da93 f83b e64f 35bb a326 073c
00000210: 9bbc 94ba 937e d63a 98cb 0e3b 0878 51bc
00000220: 3ae1 4d3b 0388 18bb c609 c63b 7ba2 ddbb
00000230: 0e6f 3c3b 51af 273b d1d7 b3bb cb4f 963b
00000240: d3aa 90ba 8a57 9b3b 069d 833a f801 1cba
00000250: cb6b 023c b283 573c 7aa0 dabb 4acf afbb
00000260: 1dcc 2e3c 5613 12bb aba9 373b dccd ad3b
00000270: 9215 4a3a bba7 4aba 2370 a8bb 1850 73bc
00000280: 06b8 b2bb 2f7f c2bb d863 17bc f377 f83b
00000290: 603d 0fba 4219 a8ba 2a47 2dbc 9b02 373c
000002a0: 4fe8 f53a 914c 8f3c 843d 3639 786a 52bb
000002b0: 1048 ec3b c248 c5bb 0353 b0b9 d3e2 893b
000002c0: 875d 723b 08e5 d43b 815c 4cbb 2088 74bb
000002d0: 33b5 c33a 73f0 56bb f02e 06bb f358 0fbc
000002e0: d3e6 e63a 2db3 323c 201a babb 4810 01bb
000002f0: f313 293c c035 4cbb 2642 a93b 8d61 9c3b
00000300: f76b d13b aee3 02bc e929 ad3c 0d53 d5bb
00000310: 0bb1 bf3b 3314 e3bb aa73 9ebb 7f86 14bb
00000320: a018 6a3c 2817 633c 1834 563b 10b8 c9bb
00000330: 17c4 8c3b 981c 1ebb 2214 003c 9053 fb3b
00000340: b091 d4bb 9307 a8bb fb7e 5cbc d5fd 53bc
00000350: ef04 8c3a fb40 52ba edd9 5cbb 7ac2 443c
00000360: 7856 f83b e3b2 65bb ddc1 1b3c 0dd6 8c3b
00000370: 1fed 753b 347c 823c 0c7e abbb b764 09bb
00000380: 0b6e 103c 2d0e 953b bbd8 7cb9 185f 603b
00000390: 829a a1bc 6ae4 a73b 8ed7 abb8 ea08 5fb8
000003a0: 323d e2ba 6f9d b33b 0650 a9ba 900f d73b
000003b0: 0f65 093c 6e2a 3cbb 41c5 943a 103e 603c
000003c0: ad44 cf3b 173a 8fbb 3fdb 22bb 80b0 a63b
000003d0: 810f 083c 2a5b 213c c6c0 8b3b 78b1 6bbc
000003e0: d28a 25bb 5e49 b6bb f0ea 68bb 0c98 a43b
000003f0: 58fa 393b 9df0 7a3b dba9 8d3b 7419 a23b
-0.0012929384 -0.022043182 0.007703092 -0.003068432 -0.0052160188 -0.011597428 -0.0031349498 0.0072721276
-0.0076689543 -0.0035345366 0.0063124816 -0.0063712033 -0.0014067226 -0.0018319906 0.0001334652 -0.002501604
0.0048770374 0.0039943433 -0.0010415126 -0.00843741 0.007634863 0.0011092103 -0.008870156 0.0012362591
0.0048687668 -0.008209025 0.012784575 -0.0014826665 0.0075503984 0.0051492434 0.004628938 -0.005685209
0.007903746 0.0013137544 -0.006633834 -0.0024276867 0.0015494268 -0.0063403384 -0.008172872 -0.013946066
-0.001947682 -0.007957025 -0.010380287 0.0010747496 -0.015110034 -0.0076145665 0.006791924 -0.009077484
-0.00082853326 0.002499109 0.007847769 -0.0054019922 0.015951999 -0.0040836832 -0.0002815282 -0.0017315226
0.0030653027 -0.00021432222 0.0039752983 -0.0039000434 0.0053411215 0.002049323 -0.00023591933 0.007925855
-9.76581e-05 0.0026412986 -0.0028084824 0.0038795096 0.0053858287 -0.0024038719 0.010540567 0.0026908026
-9.27497e-05 -0.0029941958 -0.0068952898 0.0050026206 0.011477096 -0.00453613 0.006376161 -0.0004956277
-0.006301691 -0.012343461 -0.002061622 -0.010555139 -0.0045261774 -0.009713261 0.0048760166 -0.008473109
0.0018693799 -0.011544036 -0.0040904987 0.0015191832 -0.005089009 -0.0065517756 -0.0031134656 0.0007084034
0.0073440983 0.0031753175 0.002051238 -0.0083324155 -0.004081601 -0.0013698423 -0.0034980604 0.0041452604
0.0015192159 -0.0059136134 -0.003378439 -0.004828167 -0.0024166836 -0.00037665744 -0.0014777792 0.007307019
-0.0030332946 0.0030022748 0.0016018376 -0.0013263437 0.007996674 -0.013706148 -0.006417434 -0.0066759647
-0.0022254763 0.005715456 -3.3656266e-07 -0.0021557722 -0.0066208406 -0.004904656 0.0010794029 -9.491742e-06
0.004714834 0.0075859847 -0.0027666031 0.008248958 -0.0011347713 0.0016364626 0.0021788832 -0.012784965
0.0031414763 -0.0023274429 0.0060436456 -0.006763754 0.0028752717 0.0025586674 -0.005488374 0.004587149
-0.0011037238 0.00474066 0.0010041303 -0.0005951221 0.00796027 0.013153957 -0.0066719623 -0.005365287
0.010668782 -0.0022289357 0.0028024714 0.0053040814 0.00077089027 -0.0007730682 -0.005140321 -0.014850639
-0.005454066 -0.0059355716 -0.009240113 0.0075826584 -0.00054641627 -0.001282491 -0.010576049 0.011170055
0.001876125 0.017492564 0.00017379789 -0.0032106917 0.007210739 -0.0060206363 -0.00033631184 0.0042079478
0.0036982016 0.006497029 -0.0031183066 -0.0037312582 0.0014931321 -0.0032797127 -0.0020474754 -0.0087492345
0.0017616398 0.010906977 -0.005679384 -0.0019693542 0.010319698 -0.0031159967 0.005165356 0.004772371
0.0063910442 -0.007988853 0.021138148 -0.0065101446 0.0058499626 -0.006929898 -0.0048355656 -0.0022663174
0.014288098 0.013860501 0.003268486 -0.006155975 0.0042958367 -0.002412593 0.0078173 0.0076698735
-0.006487094 -0.005127856 -0.013458009 -0.012938936 0.0010682623 -0.0008020547 -0.003369923 0.012009257
0.0075786673 -0.0035049252 0.00950667 0.004297978 0.0037525368 0.015928365 -0.005233532 -0.0020964572
0.008815299 0.004548809 -0.00024113331 0.0034236368 -0.019726995 0.0051236646 -8.1940656e-05 -5.3175645e-05
-0.0017260669 0.005481414 -0.0012917526 0.0065631345 0.008385911 -0.0028711814 0.001135029 0.013686672
0.0063253255 -0.0043709385 -0.002484992 0.0050869584 0.008304478 0.009848395 0.0042649237 -0.014385574
-0.0025259745 -0.0055629453 -0.0035540424 0.005023008 0.0028377976 0.003829039 0.004323227 0.004946882

action_model._discrete_distribution.branches.0.bias f4 [3]
00000000: 0000 0000 0000 0000 0000 0000
0.0 0.0 0.0

action_model._discrete_distribution.branches.1.weight f4 [3, 256]
00000000: 20fc 83ba 22f6 363b e76e 5a3b 90f5 5ebc
00000010: d500 333c d3ef 443b 6349 31ba 202d d23b
00000020: 10a8 623b 2313 cdba 4396 113b 8967 33bc
00000030: 1ff8 33bc af82 393a 88c5 5bbb 9be4 ecbb
00000040: d232 8cbb 1779 f03b 5320 fb3b 9824 2a3c
00000050: 67de 503b 90ea 823b 5279 183c 7759 05bc
00000060: 6f8b 0e3c 22e3 a839 3bc2 433c a86d 46bb
00000070: 9549 b13b 038d bc3b 6a33 0fbb dbed 8a3b
00000080: 76f5 40bb 0665 a43b befe 16bb 9357 2a3c
00000090: 9b58 beba e794 32bc 3fef fdb9 d537 303a
000000a0: eb01 a53a d0f2 213c 0e31 0f3c 6535 00bb
000000b0: c284 7a3a 5599 f3bb c269 1ebb 88f1 17bb
000000c0: 97f4 33bc 9a25 11bc 80eb e5bb abc6 86ba
000000d0: 4c9d beba a37b e6bb 373c 18bc 0639 113c
000000e0: 038b 69bc fb06 01bc 927a ec39 2055 58ba
000000f0: b009 533b 387d e23a d3c7 6e3a 0624 1f3b
00000100: 0f31 d4ba 2950 05bb 8410 abbb b7c4 bc3b
00000110: 9d9e eebb 6fd0 4d3b 6da2 8d3a 3393 e73b
00000120: 6743 89b8 42c4 a7bb 4a22 b3bb 6f34 433b
00000130: 63d8 013b 9603 81bc 7046 c1bb 2f68 8e3a
00000140: 27ed e0ba 4b0e 05bc 8f56 dabb 2caa 25bc
00000150: b1a0 9d3a 6886 1abc 9127 9ab9 6aeb 1f3c
00000160: 3009 5cbb e11f 09ba cb64 29bb 68e1 b83b
00000170: 104e 963a 6d70 203c cb4a 2aba 70b6 33bb
00000180: 9d29 d0ba 40bb e2b8 7f6f 753b f42b 413c
00000190: be5d 9a3a 6f78 c33b dc39 12bb f798 153c
000001a0: 43e4 2a3b 77ea a6bb 3d1b 873c 283f a33b
000001b0: c581 cebb 2e6d 153b f0bb ffba 6226 3ebb
000001c0: 577f 79bc aff1 07bc 3bff 0cb9 8087 05bb
000001d0: 8725 b73a 6110 c83a 70c8 8a3b fa77 dd3b
000001e0: ea1e ef3b 2509 993b 1879 62bc faea ae3b
000001f0: 2047 05bb 8b52 faba 8e1d b23b cb90 063c
00000200: bb70 ddba dd1d 343c 910a a73b 2cc0 05bb
00000210: b71b 133b 61da bfbb 9273 d33b 7d3c f2bb
00000220: d7c8 263b 3206 ef3b 5063 e03b 5c1f 2e3a
00000230: c226 f8bb 670e f8bb 0e3a 113a f069 8b3a
00000240: 1ee6 8fbb 8b9c 233b 5aa4 e53a f8aa 8dbc
00000250: 02df 80bb 3969 01bc e01f 1f3b 98b6 253c
00000260: 90bb 4ebc c345 bbbb 9a81 193b 4f5a a9ba
00000270: dfa4 953a cb1b d23b d0e3 f43b 48d5 69bb
00000280: 6334 2fbb e6c8 9e3a c0af adbb 8f81 9dbb
00000290: 7bfa b138 7d3c acb8 f3c6 9cbb d3ef a2bb
000002a0: 6d08 543c cf2e e93b ff50 47b8 e3be cf3b
000002b0: f825 55bb 75ee 4c3b 630f 57bb ffb2 a53b
000002c0: 05d3 68bb b320 c13a 7703 8abb ebb0 043a
000002d0: 3f39 1b3c 854a 1abb 431b c3bb b3cc 563c
000002e0: d942 bd3b a53b 0fbc 972d c33b b5d4 2739
000002f0: 77f4 80bb 3f32 003c bbcc ad3b c519 dbb9
00000300: 2fcb 323a 3b23 b5bb c9b4 a1ba 8f4a 963b
00000310: 0ac0 193b 7b89 243c c387 a1bb 4339 62bb
00000320: 1f1f 16bb c3af b8b8 36ff a9bb f037 69bc
00000330: b8c4 82ba b0c8 103c 7b78 683b 78aa f53b
00000340: 1fbb aabb ee94 3437 2d00 d03a b1a2 8abb
00000350: cc3a 9d3a 2e15 39bb d29f 7b3b 304b 0f3c
00000360: 0a7a cebb aabf 503c e20f 283b 1716 353c
00000370: eb2e 10bc 1c1b 8739 3717 0f3c c74e 593b
00000380: c9a8 baba 4de8 90bb c95f b7bb 9ae8 7dbb
00000390: 6f45 763b 878b d73b ccaf a43a 227e 953b
000003a0: d503 76ba 1768 803c 6218 f2ba 2be2 73bb
000003b0: 16b1 3bbc 55b8 a53a 966c a53b 0e7d 223b
000003c0: f51c 80ba 44ab a6bb 52d6 19b9 d302 ca3a
000003d0: 1fad c0bb 9554 58bc 21ce 843b 2c2d 223c
000003e0: 43c0 4a3c 72e3 eebb 2679 aa3b 0b2c b7bb
000003f0: d12d ad3b 7a69 98bb c1d6 af3b 4351 60bb
-0.0010069646 0.0027917703 0.0033330263 -0.013608351 0.010925491 0.0030050173 -0.00067629496 0.0064140707
0.0034585036 -0.0015645962 0.0022214807 -0.010949978 -0.01098445 0.00070766633 -0.0033534486 -0.0072294003
-0.004278519 0.007338654 0.0076637655 0.010384701 0.0031870843 0.003995247 0.009306269 -0.008139006
0.008700236 0.00032212684 0.011948164 -0.0030277763 0.005410383 0.0057541146 -0.0021850714 0.0042397804
-0.002944318 0.0050169257 -0.0023040022 0.010396856 -0.0014522256 -0.010899759 -0.00048434173 0.0006722187
0.0012589073 0.009884551 0.008739723 -0.0019563076 0.00095565256 -0.00743405 -0.0024171923 -0.0023184735
-0.010983608 -0.008859063 -0.007016599 -0.0010282596 -0.0014542728 -0.0070337816 -0.0092917 0.008863693
-0.014254334 -0.007875199 0.0004510475 -0.00082524307 0.003220182 0.001727975 0.00091087556 0.0024282946
-0.0016188937 -0.0020341969 -0.0052204747 0.005760755 -0.007282092 0.0031404754 0.0010805853 0.007067108
-6.545224e-05 -0.0051198313 -0.005466734 0.0029785892 0.0019812814 -0.01574878 -0.0058982894 0.0010864789
-0.0017160521 -0.0081210835 -0.0066631506 -0.010111373 0.0012026039 -0.009431459 -0.00029402648 0.009760717
-0.0033574812 -0.00052308856 -0.002584743 0.005642105 0.0011467356 0.009792429 -0.00064961304 -0.0027421974
-0.0015881542 -0.00010811398 0.003745049 0.011790264 0.0011777205 0.0059652845 -0.002231232 0.009130708
0.0026075996 -0.0050938684 0.01649248 0.004981894 -0.006302091 0.0022800672 -0.0019510966 -0.0029014577
-0.015228114 -0.008297368 -0.00013446521 -0.0020374954 0.0013972976 0.001526367 0.00423532 0.006758687
0.0072973864 0.0046702796 -0.013822816 0.00533807 -0.0020336583 -0.0019098086 0.005435652 0.008213232
-0.0016894558 0.010993448 0.005097695 -0.0020408733 0.002244694 -0.00585489 0.006452986 -0.0073924647
0.00254493 0.0072944397 0.0068477765 0.0006642246 -0.0075729797 -0.0075700763 0.0005539962 0.001063643
-0.004391446 0.0024965133 0.0017520294 -0.017293438 -0.0039328346 -0.007898622 0.0024280474 0.0101143345
-0.012617961 -0.0057151034 0.0023423196 -0.0012920591 0.0011416933 0.0064120046 0.0074734464 -0.0035680104
-0.0026734106 0.0012114316 -0.005300492 -0.0048067044 8.486673e-05 -8.212866e-05 -0.004784459 -0.004972437
0.012941462 0.0071161757 -4.752073e-05 0.006339894 -0.0032523852 0.003127006 -0.0032815568 0.0050567384
-0.0035526168 0.0014734477 -0.004211839 0.0005061763 0.009474098 -0.0023542952 -0.0059541776 0.013110328
0.005775791 -0.008742248 0.0059563625 0.000160056 -0.0039353925 0.00782448 0.005303947 -0.00041790135
0.0006820438 -0.0055278814 -0.0012337203 0.004586525 0.0023460411 0.0100425435 -0.004929514 -0.0034518994
-0.0022906733 -8.806542e-05 -0.005187894 -0.014234528 -0.000997684 0.00883691 0.0035472203 0.007497128
-0.005210295 1.0763511e-05 0.0015869193 -0.00423082 0.0011995672 -0.0028241384 0.003839482 0.008745953
-0.0063011693 0.012741009 0.0025644233 0.01105263 -0.008800249 0.00025769405 0.008733562 0.0033158527
-0.0014240976 -0.0044222237 -0.0055961353 -0.0038743378 0.0037578007 0.0065779123 0.0012564599 0.0045621553
-0.0009384726 0.015674634 -0.0018470401 -0.0037213664 -0.011455795 0.0012643436 0.005048345 0.0024793777
-0.0009774255 -0.0050863344 -0.00014671058 0.0015412219 -0.0058800126 -0.01320376 0.004052893 0.009898465
0.01237494 -0.007290297 0.0052024303 -0.005589967 0.0052850028 -0.0046512457 0.005366177 -0.0034228123

action_model._discrete_distribution.branches.2.weight f4 [3, 256]
00000000: e1ef 423b 2f86 babb 556b 4b3b 7d7b 50ba
00000010: 0737 08bb 5f33 1f3c d2c3 ccba c8dd 743b
00000020: db43 e1ba 338e 36ba 30cd 5c3b 5590 ae3b
00000030: d67c 983b b2a5 d038 424a e03b c756 423b
00000040: cdfa 643b 1be0 fa3b a6b0 21bb 52fe c4ba
00000050: af53 2dbb 6b1f 233a bdc2 c3bb 1767 0fbc
00000060: 4f03 45ba ae6c beba aac0 05bc dd04 63bc
00000070: 982a 52bb 4356 f23b 5576 ae3a 07c0 9bbb
00000080: 7430 1e3b 3a74 8f3b 1f55 02bc da60 e33b
00000090: d09e d63b dd84 75bb d8ac 59bb 8331 043c
000000a0: bb6b 083b 1331 ba3b 4270 4e3b d3ce 22bb
000000b0: 7131 1abb 0f08 a43b fe69 98bb 2a6d 673a
000000c0: 8b1f bd3b c748 cabb ef0b 2a3b 4891 0a3a
000000d0: 8494 c7b9 e866 f339 5bb0 18bb 3a67 c5bb
000000e0: 2667 4b3a 5fb1 c0bb 1b5f 1cbc 1779 5d3b
000000f0: 79a1 9d3b 3faa 383b 8542 63bb 6f8d 5a3c
00000100: b653 b8ba d6e5 923b 56f0 1cba 250d 8f3b
00000110: 4a56 173c 3fc7 4139 b783 f8bb 0dd9 3abc
00000120: 5f0a b23b c7a5 953a 0572 cfbb a32f 38bc
00000130: 954e 78bb 33f0 0ebb 4ba2 793c 990b 0bbc
00000140: 590f 41bb f7bf 183c 43ab bd3b 9795 153b
00000150: d701 0f3c c8ef 62bb 2ba2 a7ba 9abf 3f3c
00000160: 38a4 68bc 6fdb 873a 3d36 e63b ad83 803b
00000170: 7d9f f23b 3370 d4bb 1a55 e4ba 47d4 a83b
00000180: 7ee0 813a 749e b5bb 2aa1 edba ab40 1c3c
00000190: 730c 72bb ec4f 15bb a296 afba 7802 d4bb
000001a0: 08fe f1bb ed02 5b3c fcd3 a5bb 5f82 1dbc
000001b0: 043b 1dbc 95ea 1dba 4f28 223c e87d 78ba
000001c0: 477c 32bc 72ac eebb ffb7 ba3b 19f0 19bc
000001d0: 2cc4 3b3b f7bf 353b c838 603a 916d 843b
000001e0: cdc0 91ba a588 213c 0a46 37b9 91f1 2d3b
000001f0: b85c b5bb e036 20bb 9f29 97bb 0208 10bc
00000200: 3ad5 8ebb b359 4f3b 3efb 10bc c560 1e3b
00000210: b0b6 41bc b304 963b 4d5a 103c cf88 c83b
00000220: d9e1 99ba a97f 9ebb 67ad 953a b609 013b
00000230: c323 583b e98e c13b 4b81 04bb 0d0e 183c
00000240: 43e0 173b b77b 83ba 931a 003c 33e9 a23b
00000250: 3525 f2bb 0335 0bb7 8722 01bc 5117 4a3c
00000260: 27dc 343c ea6d 48bb b907 993c 3904 14bb
00000270: bad3 053c 9fae 893c ee3d b83b eb45 07bc
00000280: c0cd 29bb 2b1e 6839 27c8 0aba a33d 0dbc
00000290: b325 c9ba d686 cb3a 0a5a 0fbc 633b 2cbb
000002a0: 1fef 8bbb e0be 5cbc 1af3 0c3a d256 47bc
000002b0: 24ad af3b 43a4 f33b 9d90 5f3b 3872 5b3b
000002c0: 139f de3b 087b 8639 56c5 13ba 3ab0 00bb
000002d0: 328a 423c 0d7e cd3a bd78 993a 4450 943a
000002e0: bd6e 6eba 1509 4bbb 0b77 99bb 37db 11ba
000002f0: f411 4a3b 7f63 8a3b 8db7 8ebb ab18 94bb
00000300: 54c5 9f3b f55a ab3b ffbf a23b ab48 4e3c
00000310: 7ff8 253c 5054 f1bb 3263 7bbb c2f2 c43b
00000320: 4c1d 343a e3c5 a83b 83d1 b53b c5bd 71bb
00000330: 0381 fb3a 661c a238 6864 08bb b80e 2d3a
00000340: a292 003b 670a 71bc d28a 013a 28a5 183c
00000350: 0f89 fa3b 6114 b1b9 3b51 05bb 0274 243c
00000360: 24f9 0fbb 673b 84bb 16df a13b d5ef 203c
00000370: ac7b 8139 5f16 c33b 62da a83b 6098 7ebb
00000380: 1758 a33b fb13 2839 8752 e93b eb95 abba
00000390: 3701 283c 00c3 57bb 7550 e73a f018 e3bb
000003a0: 3bcb 633a 9a9a efbb 8f7a 6b3b 074d bcbc
000003b0: 7059 57bb 18c6 d339 1fad df3b 6d56 58bc
000003c0: 08c8 503c fdf6 4f3b fb96 073c ebcd 363b
000003d0: 4785 a73b 2af5 30bc 8d49 943a ad6e 51bb
000003e0: 3095 58ba e39c 1bbc ddd3 23bb 045f 423b
000003f0: 6211 45bc 8e75 1e3b 563d a8b9 6fa6 9b3b
0.002974503 -0.0056922655 0.0031039317 -0.00079529715 -0.0020784752 0.009716838 -0.0015622324 0.0037363637
-0.001718636 -0.00069639384 0.0033691637 0.0053272643 0.0046535535 9.949076e-05 0.0068447897 0.0029653774
0.0034939528 0.00765611 -0.002467194 -0.0015029407 -0.0026447584 0.0006222638 -0.0059741423 -0.008752606
-0.00075154466 -0.0014528239 -0.0081636105 -0.01385614 -0.0032068845 0.007395537 0.0013310412 -0.004753116
0.0024137767 0.004377869 -0.007954865 0.006939036 0.0065496936 -0.0037463226 -0.0033214595 0.008068445
0.0020816165 0.0056821196 0.0031500016 -0.0024842515 -0.0023528005 0.0050058435 -0.004651307 0.00088282174
0.0057715825 -0.0061732265 0.0025947054 0.0005285931 -0.0003806689 0.00046425243 -0.0023298475 -0.0060242685
0.0007759206 -0.0058805193 -0.009544159 0.00337941 0.004810509 0.0028177646 -0.00346771 0.013339384
-0.0014063034 0.004482965 -0.00059867406 0.0043655806 0.0092368815 0.00018480139 -0.007584061 -0.011404288
0.0054333652 0.0011417203 -0.006330731 -0.011241826 -0.0037888635 -0.002181065 0.015236448 -0.008486652
-0.002945861 0.009323112 0.0057882383 0.0022824758 0.008728466 -0.0034627784 -0.0012789419 0.011703396
-0.014199309 0.0010365079 0.0070255087 0.003921947 0.0074042664 -0.0064831018 -0.0017420382 0.0051522586
0.0009908823 -0.0055425707 -0.0018129696 0.009536902 -0.003693369 -0.0022783233 -0.0013396333 -0.006470021
-0.007385019 0.013367397 -0.005060671 -0.009613602 -0.00959659 -0.000602403 0.009897306 -0.0009479211
-0.010893888 -0.0072837407 0.0056982036 -0.009395623 0.0028650863 0.0027732828 0.0008553383 0.0040413816
-0.0011120081 0.009859239 -0.00017478332 0.002654169 -0.0055347346 -0.002444677 -0.004613116 -0.008790972
-0.0043589147 0.0031639158 -0.008848963 0.0024166566 -0.011823341 0.004578197 0.008810592 0.0061198245
-0.0011740281 -0.0048369956 0.0011419476 0.0019689626 0.00329803 0.005906929 -0.0020218666 0.009280694
0.0023174442 -0.0010031377 0.007818836 0.004971647 -0.0073896893 -8.297388e-06 -0.007881767 0.012334661
0.0110388165 -0.0030583092 0.01868044 -0.0022585525 0.008168155 0.016806899 0.005622617 -0.008256416
-0.002590999 0.00022136483 -0.0005294107 -0.008620652 -0.0015346318 0.0015527855 -0.008749494 -0.0026280514
-0.004270449 -0.0134732425 0.0005376801 -0.012166696 0.005361216 0.007435353 0.0034113296 0.0033484828
0.0067938655 0.00025650137 -0.00056370103 -0.001963629 0.011873769 0.0015677825 0.0011708956 0.0011315425
-0.0009095481 -0.0030980755 -0.0046833805 -0.00055639766 0.0030833455 0.0042232866 -0.004355377 -0.004519542
0.0048758183 0.005229349 0.0049667354 0.012590568 0.010130047 -0.007364787 -0.0038358686 0.0060103843
0.00068708207 0.005150543 0.0055486574 -0.0036886793 0.0019188229 7.7300516e-05 -0.00208118 0.00066016195
0.001961865 -0.014711953 0.00049416453 0.00931672 0.007645733 -0.00033775254 -0.0020342607 0.010037424
-0.0021968568 -0.0040354016 0.004939924 0.009822805 0.0002469694 0.0059535946 0.0051529864 -0.0038848147
0.0049848664 0.00016029172 0.0071204337 -0.0013090944 0.010254196 -0.0032922626 0.001764788 -0.006930463
0.00086896465 -0.007312131 0.0035931205 -0.022985948 -0.0032859705 0.00040392647 0.0068260576 -0.013204199
0.012743004 0.003173291 0.008275743 0.0027893733 0.0051123234 -0.010800639 0.0011313424 -0.0031956837
-0.0008261977 -0.009497854 -0.0024998107 0.0029658685 -0.01202807 0.0024178955 -0.00032089156 0.004750065

action_model._discrete_distribution.branches.3.weight f4 [2, 256]
00000000: 266f 003c bb62 443b a354 7dbb 507c f5bb
00000010: ab75 55bb 3633 3ebb 0286 daba dae4 ebbb
00000020: 576f ef39 9bdc 8a3a 7f7e e43b 9800 073c
00000030: eba6 083c ead3 393b 98b3 423a 1055 8e3b
00000040: 31e4 26bb f023 e23b d342 87bc 17b1 063b
00000050: da8f 133b 4d9c c53a 074c ae3b 9a27 cebb
00000060: 3070 d33a 9222 0f3b e4b2 22bc d22d 083a
00000070: 8a77 c1ba 85c5 063b 13e8 efbb dfd3 8a3a
00000080: cb83 0ebb 2ec9 a23b f45f b5bb 1fcb ae3b
00000090: d989 223c cc27 0f3c ad15 923b 4f17 ef3a
000000a0: c7fe 213b a820 133c c72b c038 3a45 dc3a
000000b0: 4125 95bb 16e7 243b 5cc7 233c bb48 fa3a
000000c0: 406f f43b 4777 38bb 3473 04bb eb28 33b9
000000d0: bdcd 233b 77b7 953b 9a1d ba3b 7f35 02bb
000000e0: 0737 6e3b 480e 543c e7f3 4bbb 2784 1abc
000000f0: 1f2e e83a 0964 073c 4a58 9ebb c957 363c
00000100: 126c 73bb 6826 3cbc 8858 b43a 8f54 a0bb
00000110: 1013 9cba 734f dc3b 0265 5cbb 8814 653b
00000120: 133b ff3a 681d f63b 44da a13b d22b d03b
00000130: d03a 0b3c 7fe4 45bb 4f3d ca3b ff6b 52bb
00000140: 4ef3 423b c0bc 7cbb f97a 1ebc 6fbd 5539
00000150: 155a 2dbb f364 6d3b 25ef 16bb 58aa 713a
00000160: cef5 923b 9fd8 22b8 12fc 68bb 1ba4 8c3b
00000170: 6aed 7bbb 172a 7cbb 60a2 ff3b e586 8b3b
00000180: 77db 5bba 97b4 11bc d497 8f3b 2318 b6b9
00000190: d0dc 203b 8b0a 0fbb 0a9b e63a 5ff2 b53b
000001a0: 8832 ffb8 d825 f33b 086d 1f3b f00d e13a
000001b0: f724 233a 80c7 80b8 32f5 ef3a 33f8 553a
000001c0: 74c5 06bc 94a7 213c 28cb 11bb 6794 3739
000001d0: 3754 1cbb 9c60 86bb 4751 723c f5d4 44bb
000001e0: d7bd a8bb 8775 91ba f77e f3b8 95c9 523c
000001f0: e3c9 46bc 7798 6b3b 05ea 973b 93ca f53b
00000200: edfc 66bb 5b15 f6bb a9c9 b93b d709 c3bb
00000210: 4d1f cbbb f968 233a 3270 09bc 598f 9c3a
00000220: 88db d13a 9148 c13b 2070 043c 01bf 073b
00000230: ebc8 41bc 7f32 5cbb 948a 4bbc a444 96bb
00000240: 2a7a f73b c54f 9dbb 7fcb 08bb 27e4 19bc
00000250: 5f40 203b b36b 403b 7138 c23b 456a 50bb
00000260: 38d2 d43a 9a58 eabb f71b 2c3b 6a67 fd39
00000270: 80a7 b6ba 0737 6abc 179f 07bc 801c 743b
00000280: e4ea 80bb 2f82 06bc 7a65 c1bb 5268 a93b
00000290: bfe5 2fbb 6f8d b338 d6e9 2fbc 8e41 8e3b
000002a0: 0d11 51bb 9f6f 08bc f5c3 003b 006f 4f3c
000002b0: 231f 82bb c14a c2bb 8765 06bc 32ec deb9
000002c0: 82db e53b 72f6 763b e7c8 89bb 24bd 323b
000002d0: d58d 54bb 5d4f 913a a1d7 1abb cb40 c3bb
000002e0: 39d0 91ba c23c 403c d3de 7bb9 dd92 543a
000002f0: eb2c c6bb 3f07 473c c55d d7bb 0f52 de3b
00000300: 31d3 81ba 27ab 59bb a42f a3bb f0e8 e6b9
00000310: 3fae 853b dfd7 3e3b 37b8 a03b dbac a23b
00000320: 5c80 1c3c 7963 08bb 0e36 223c 889a 083c
00000330: 18ae 7e3b c79b 82bb 69a3 103a 9397 423b
00000340: 152b 113a d654 15bb 7876 1bbb 82b2 b33b
00000350: bf20 753b 7336 27bc b29f 293c a79e 263b
00000360: 0210 adbb 8fec 29bb e77e 2b3a 4543 5cbb
00000370: 7c66 8bbb 53c9 df3b 5387 6939 43c6 ad3b
00000380: f34f d1ba a9dc 2c3b c4f9 bcba d301 ff3b
00000390: ab77 01bc e3e2 31bc 3743 a3bb c4c8 053b
000003a0: ab6c 463c 31de 3c3b c2f1 ba3a 6258 553b
000003b0: 8b16 0bbc f2e8 a3bb 05da 603b 26f4 93bb
000003c0: 679c 37bb 43de 8cbb 36a7 c2bb 4324 8fbb
000003d0: 4255 753c bc34 9c3b 7eab 883b 85c5 543c
000003e0: 45b4 d73b 7a27 9cbb 279e be39 1a2c cdbb
000003f0: a813 743a fb41 d63b 82b4 dbbb 6403 80bb
0.007839 0.0029966075 -0.0038655184 -0.007491626 -0.0032571356 -0.0029022223 -0.0016672018 -0.007198912
0.00045668587 0.001059431 0.0069730873 0.008239888 0.008340578 0.002835507 0.0007427274 0.0043436363
-0.0025465603 0.0069012567 -0.016511356 0.002055233 0.0022516162 0.0015076488 0.0053191218 -0.006291342
0.0016131457 0.0021840674 -0.009930346 0.0005194816 -0.0014760357 0.0020564508 -0.0073213666 0.0010591707
-0.0021746035 0.00496783 -0.00553512 0.0053342725 0.009920561 0.008737516 0.0044581504 0.00182412
0.002471851 0.008979954 9.1634276e-05 0.0016805299 -0.00455156 0.0025162152 0.009996261 0.0019095162
0.007459551 -0.0028147267 -0.0020210268 -0.00017086013 0.0024994456 0.00456899 0.0056797983 -0.0019868312
0.0036348717 0.012942858 -0.003112072 -0.009430922 0.001771394 0.008263596 -0.004832302 0.011129328
-0.0037143272 -0.011483766 0.0013759295 -0.0048928927 -0.0011907537 0.0067233383 -0.0033629541 0.0034954865
0.0019472562 0.0075108297 0.0049393494 0.00635288 0.008497909 -0.0030196009 0.0061718593 -0.0032107828
0.0029747072 -0.0038564652 -0.009672874 0.00020383832 -0.0026451398 0.00362235 -0.0023030725 0.00092188036
0.0044848686 -3.8825554e-05 -0.0035550636 0.004292024 -0.003844107 -0.0038477236 0.007801339 0.004258024
-0.000838689 -0.008893154 0.004382113 -0.00034731728 0.0024545677 -0.0021826352 0.0017593813 0.0055525745
-0.0001216876 0.007420283 0.0024326462 0.0017170291 0.0006223465 -6.1406754e-05 0.0018307327 0.000816229
-0.008225787 0.009866614 -0.0022246335 0.00017507524 -0.0023853907 -0.004100872 0.014789886 -0.003003416
-0.005149584 -0.0011097648 -0.00011610792 0.012865444 -0.0121330945 0.003594903 0.0046360516 0.0075009554
-0.003524597 -0.00750987 0.0056697917 -0.0059521007 -0.0061987997 0.00062335987 -0.008388566 0.0011944576
0.001601086 0.005898543 0.008083373 0.0020713212 -0.011827688 -0.0033599434 -0.012423176 -0.0045858193
0.007552405 -0.004800769 -0.0020873246 -0.009392775 0.002445243 0.0029361069 0.0059271385 -0.0031801623
0.0016236966 -0.0071516754 0.0026261786 0.0004833297 -0.0013935417 -0.014295346 -0.008277676 0.0037248433
-0.003934251 -0.008209749 -0.0059019895 0.0051699067 -0.002683982 8.561729e-05 -0.010736903 0.004341311
-0.0031901032 -0.008327394 0.001964805 0.012660742 -0.003970997 -0.0059293215 -0.008202917 -0.0004251912
0.0070146928 0.0037683514 -0.0042048576 0.002727338 -0.0032433171 0.0011086274 -0.002362706 -0.0059586517
-0.0011124677 0.011733236 -0.00024020234 0.00081090425 -0.006047835 0.012147724 -0.0065724575 0.0067846845
-0.0009904859 -0.0033213587 -0.0049800444 -0.0004404257 0.0040796096 0.0029120368 0.0049047726 0.0049644536
0.009552088 -0.0020811243 0.009900583 0.008337624 0.0038861092 -0.0039858553 0.0005517514 0.0029692396
0.0005537731 -0.0022786162 -0.0023721736 0.0054839263 0.0037403551 -0.010205853 0.010353016 0.0025424154
-0.0052814493 -0.0025928353 0.0006542042 -0.0033609432 -0.0042541604 0.0068294196 0.00022271024 0.0053031757
-0.0015969261 0.002637664 -0.0014417698 0.0077822 -0.007902066 -0.010857317 -0.004982378 0.0020413855
0.012110869 0.002881896 0.0014262723 0.00325539 -0.008489261 -0.0050021345 0.0034309637 -0.0045151887
-0.0028016807 -0.0042989566 -0.0059403433 -0.0043683364 0.01497394 0.0047670286 0.004170834 0.012986545
0.006582769 -0.004765448 0.00036357457 -0.006261361 0.00093107903 0.006538627 -0.006704868 -0.003906654

action_model._discrete_distribution.branches.3.bias f4 [2]
00000000: 0000 0000 0000 0000
0.0 0.0

onnx::Div_100 f4 [11]
00000000: 0000 803f 0000 803f 0000 803f 0000 803f
00000010: 0000 803f 0000 803f 0000 803f 0000 803f
00000020: 0000 803f 0000 803f 0000 803f
1.0 1.0 1.0 1.0 1.0 1.0 1.0 1.0
1.0 1.0 1.0
