results/VB_1/Badminton/Badminton-1499992.onnx (onnx, 299422 bytes, 15 tensors)

discrete_act_size_vector f4 [1, 4]
00000000: 0000 4040 0000 4040 0000 4040 0000 0040
3.0 3.0 3.0 2.0

network_body.observation_encoder.processors.0.normalizer.running_mean f4 [11]
00000000: da61 4c3c 1783 9a3a 7897 d23e 4927 d73e
00000010: 9be7 b740 3870 d73b 476e 02bf d6be 3fbb
00000020: 33da 38c0 d0f3 df2d 8af5 bfab
0.0124745015 0.0011788335 0.41131186 0.4202216 5.747022 0.006574657 -0.5094952 -0.0029258034
-2.8883178 2.546044e-11 -1.3639517e-12

network_body._body_endoder.seq_layers.0.weight f4 [256, 11]
00000000: b759 37bd fffe bb3d ef28 a6be 762c 0d3f
00000010: 9237 643e 8be5 c73e cbb4 c93e c21b 6a3e
00000020: ca17 1c3c a632 ee3e d881 d03d 5454 a9bd
00000030: bb95 dc3e 515f 92bd b649 a33e 474e 5cbe
00000040: e3f6 b53e e68d 123f 4169 613e d573 283f
00000050: 0668 30be 7d5b 2cbd 7d06 e93d 829d b13e
00000060: 5355 143f 0923 50be f0bb 2ebf 33eb 49bc
00000070: f30e bcbc 2dce 2fbe 69d7 90be ed2a aebe
00000080: 20c8 0a3f b553 033e 5465 333e 14e7 813e
00000090: d7de 6dbe 3441 45bf 1eb4 91be a704 8c3e
000000a0: 287c 123e e2ea 4f3e 26c9 ed3d bdd7 2bbe
000000b0: c982 dabe 4520 113e 519c b9be 765b 543a
000000c0: 5721 55bd 7a84 c73e b87c 583d a675 eebd
000000d0: 5b8b 093e 3cba ad3e 2d6c a9be 67d1 a7be
000000e0: 8c0e 043f 9233 c13e 4d4e 203e 7edc 0cbe
000000f0: ff4b 07be 877b 9e3d 00db ebbe 740b babe
00000100: 0d54 9cbe a216 2cbe c6e4 9bbe 03cc 5d3e
00000110: ea80 12bd 7e62 9c3e 842b febe 3969 d33d
00000120: 5a4c 433d 3e4d 25be 0f5d 3a3e 3a4a b2be
00000130: 2ef9 383d f0e4 56be 0417 38bc 6e9f 823d
00000140: da86 95be 05bb 8b3e 7e11 133e 85dd 74be
00000150: 69d4 cebe 85f6 ddbd cb8f 073f 42dc 0abe
00000160: 555a 9f3e fd4a 813d 33cd dcbe 16cd 243d
00000170: d25a 023f 4a14 653d 3bcf ed3d 34ac c4bd
00000180: 0dd6 443e 149c 1fbe 3ff0 45be 18fc 8a3e
00000190: e8e5 59be 6b32 0fbf 5428 ffbe 4ac0 47be
000001a0: d10e 75be d973 b23d aaa9 8cbe a018 60be
000001b0: c85b e6be 0fee dd3c 8e31 bdbd 5160 033e
000001c0: d70a c8be 994a 3b3e 9ceb e2bb e7b3 ad3e
000001d0: ff2a f43c dc4d be3e b95c a4bd e130 09be
000001e0: 7d5c 023e 8068 fabd e562 7bbd 6354 633f
000001f0: 718d 153e d675 f4bd 0e57 333d d53b 313e
00000200: e5a9 e53b e43a 45bd 4a97 e2be d5ff 7fbe
00000210: c610 08bf ded4 cdbe b2ca 993e da84 2fbe
00000220: 36cb 20bd a48c ddbe 8eb8 24bc efa3 27bf
00000230: 4399 e13e c804 8d3e 3d4c 0bbf d3f2 a1bc
00000240: 6333 f53d 75db e63e 829b 42be 920d 133f
00000250: e783 363c 96e6 37be e70d b1bd 8b29 fcbd
00000260: 5851 7fbd 9b24 81bb 02f5 9e3e f84d 04be
00000270: 90b4 653e 84fd d2be 7893 0fbe 0cba 1cbd
00000280: fd76 0ebe fdc0 37bc ac94 1f3f 0b7a 063e
00000290: ec1c 37bf 2019 fbbc 962f 413c 5dd3 1d3f
000002a0: 01a9 eabb f413 8d3d ae50 5f3e 1f9b 36be
000002b0: c052 12bf 1d3c adbe 8ec7 0bbf d409 2e3e
000002c0: b077 51be 46e4 aabd fa78 fcbd 59e1 17bf
000002d0: 9a21 923d c6b6 6dbe fc9e 4c3e 3e33 1cbc
000002e0: 287a 6bbe 2385 653d 6b8a bf3e 1fe9 e63e
000002f0: 5c2a 7e3e 65ae d4be e81a feb9 6308 7d3e
00000300: b44a d5be cada dd3c 9e07 61be 0aa2 a93e
00000310: bdce 2dbe 8efb 72be b94a 9d3e c09a 5e3e
00000320: 6201 3fbf b4f8 40bd da65 e23c 1f6f c9bd
00000330: f21a c2be 1ba7 383f 234a 76bc 92c3 ac3d
00000340: e65d d5bd 9d5b 01be 0147 a1be 1022 10be
00000350: 41cf 4bbe 5443 9d3e 5299 033e d791 1dbe
00000360: ce17 fdbe 2f1b 573e e1fd 023f dd2e 34be
00000370: b182 923e e5a6 c9be f1ac 29be bf2d 4abe
00000380: 2076 3d3c 6e5a 763d fa95 373e f5a9 50bc
00000390: 87c7 32bd 4036 813e 8932 febe 9466 4c3e
000003a0: 78ab 8e3f f69a d3bd 16dc 14bd f904 4d3f
000003b0: df1e 4cbf cc60 a6be be82 69bd 0052 babe
000003c0: 47a0 8bbe 2f72 75be a871 a8bd 7c27 efba
000003d0: 3f9f bd3c 88f2 57bd 9400 85be 5b2c 2cbe
000003e0: 1f50 ba3e 8aed 013f 321b 37be 061c 6abc
000003f0: f3c0 053f baea 643e 66a6 88be ef53 96bd
-0.044763293 0.09179496 -0.32453105 0.55145967 0.22286823 0.39042315 0.39395747 0.22862151
0.009527156 0.46523017 0.10181016 -0.082680374 0.43082985 -0.071470864 0.31892174 -0.21514235
0.35539922 0.5724777 0.22012807 0.65801746 -0.17227182 -0.042079438 0.11378191 0.3469048
0.57942694 -0.20325865 -0.6825552 -0.012324142 -0.022956347 -0.17168494 -0.28289345 -0.34017125
0.54211617 0.128249 0.17519122 0.2537161 -0.23229538 -0.7705262 -0.2845773 0.273473
0.14305174 0.20304444 0.11610632 -0.16781516 -0.42677906 0.14172466 -0.36252072 0.0008100787
-0.05203375 0.3896826 0.052853316 -0.116435334 0.13432066 0.33931148 -0.33090344 -0.3277695
0.51584697 0.37734658 0.1565487 -0.13755986 -0.13212584 0.07738405 -0.4606552 -0.36336863
-0.30532876 -0.16805509 -0.30447978 0.21659856 -0.035767473 0.30543894 -0.49642575 0.10322804
0.047680236 -0.16142747 0.18199562 -0.34822255 0.04515951 -0.2098577 -0.011235956 0.06378065
-0.29204446 0.27291122 0.14362141 -0.23912628 -0.4039643 -0.108380355 0.52953786 -0.13560584
0.31123605 0.06313131 -0.43125305 0.040234648 0.5091983 0.055927552 0.11611792 -0.09603158
0.19222279 -0.15586883 -0.19329928 0.27145457 -0.21279109 -0.55936307 -0.49835455 -0.19506946
-0.23931433 0.087135024 -0.27473193 -0.21884394 -0.449919 0.027091054 -0.092379674 0.1282971
-0.3907077 0.18290175 -0.0069250595 0.33926317 0.029805658 0.37168777 -0.08025498 -0.13397552
0.12730594 -0.12226963 -0.06137361 0.8880064 0.14604737 -0.11936538 0.043784194 0.1730798
0.0070087784 -0.048151866 -0.4425605 -0.24999936 -0.53150594 -0.40201467 0.30037457 -0.17140523
-0.039256297 -0.43271363 -0.010053767 -0.6548452 0.44062242 0.2754271 -0.54413205 -0.019769108
0.11972692 0.45089307 -0.19004634 0.5744258 0.011139846 -0.17959055 -0.0864523 -0.12312611
-0.062333435 -0.0039411313 0.310463 -0.12920368 0.2243216 -0.41209042 -0.14021099 -0.038263366
-0.13912578 -0.011215446 0.6233623 0.13132493 -0.71528506 -0.030651629 0.0117911305 0.6165064
-0.00716126 0.068885714 0.2180812 -0.17832612 -0.57157516 -0.33834925 -0.5460137 0.16995937
-0.20455813 -0.08344321 -0.12327762 -0.5932823 0.07135315 -0.23214254 0.19982523 -0.009533701
-0.22995818 0.056035172 0.37410292 0.45099732 0.24820846 -0.41539302 -0.00048466702 0.2471023
-0.41658556 0.027081866 -0.21975562 0.33131438 -0.16973396 -0.23728773 0.3072107 0.2173872
-0.74611485 -0.04711218 0.027636457 -0.09835648 -0.37911183 0.7212998 -0.015032324 0.084357396
-0.104183 -0.12632604 -0.31499484 -0.14075494 -0.1990328 0.3071543 0.12851456 -0.15387665
-0.49432224 0.21006463 0.5116864 -0.17596002 0.28615335 -0.39385143 -0.16569878 -0.19744013
0.011563808 0.060144834 0.17928305 -0.012735833 -0.043647315 0.25236702 -0.4964793 0.19961005
1.1146078 -0.10332291 -0.036342703 0.8008571 -0.79734606 -0.32495725 -0.05700945 -0.36390686
-0.2727072 -0.23969339 -0.08224803 -0.001824602 0.023147224 -0.05272153 -0.25977004 -0.16813795
0.36389253 0.5075308 -0.17881468 -0.014288908 0.5224754 0.22355166 -0.26689452 -0.07340228

network_body._body_endoder.seq_layers.0.bias f4 [256]
00000000: 7e7a 94bc 0f86 873c 599e 853c c88c a1ba
00000010: 4dbe 4abb 0098 0e3d 7d74 f03c c71d 2ebc
00000020: eafa 5a3b 8688 973c 5a58 a53c 4ad6 603c
00000030: b84e 7c3b e364 033c 67ea 3bbc c2b0 d83c
00000040: d35f 5cbb 550e 7f3b 4759 2939 0a74 093b
00000050: 5975 d7bc 7781 803c 1c95 2dbc e4b0 66bc
00000060: eeb6 aa3b 1443 6abc 1737 ebbb 68ed 8cbb
00000070: 34a4 a33b d5b2 ea3a 520f 013b 0d27 55bc
00000080: a151 93bb e341 21ba 2d87 0d3c 746a a6bb
00000090: d0c0 0a3d c3cc e2ba c849 8d3c 1d4c 8abc
000000a0: b1e6 103d 7abb 8c3b 0641 103c 6b1d a6bc
000000b0: b64c 7c3b 05da f83c 1e41 01bc e04c 803c
000000c0: 01f8 533c 103a 88bc 0a74 793b 0710 90bc
000000d0: 349f 25bc ba90 243b c187 143c ca08 593c
000000e0: 3034 0ab8 39dc 15bc 23d8 a03c b5e7 b73a
000000f0: c3dd 983c 86d9 b03b 44b7 bdbb 94d5 a7bb
00000100: 0e6e 13bb e4ea f83b be20 1abc 5f4c 67bc
00000110: 8863 02bc 8afb 77bc f8da 753a 9ed5 bb3a
00000120: 20da a7ba 2652 47bc 7362 703b de30 4d3c
00000130: 5746 e2bb 08de 2ebc 6de4 88bb 8481 5f3c
00000140: 2118 263c ef32 373c 3139 253b 221b 16bb
00000150: 40e2 4cbb fd2c 8dbb a8c9 953c 8191 30bc
00000160: 6657 443d db61 a5ba f816 963c 64b8 cbbb
00000170: b01a 463b 89c3 7e3c 5e33 4e3c 92a4 db3c
00000180: 3df2 babb cdf4 193c da07 f73a 88d7 063c
00000190: 3fef 6e3b 573b 65bb 78f8 503c 9662 8e3c
000001a0: 596e 343c 95fe 1d3c 8927 8f3b b2d1 8cbc
000001b0: e8d0 16b9 fabc 553c a82f c73b 1ad8 cbbc
000001c0: 7b6a 1138 3da6 bd3c 57a8 d4bb 860b 3b3b
000001d0: 0960 19bc a55b ddbc 460c 24bb 073d 70bc
000001e0: 6d61 673c 7f3d d0bb 0900 8a3b 8583 c4bb
000001f0: 61fd 483c 3a54 16bc 0fc1 5dbc 0c5c 41bb
00000200: 2fee 4abb d13f 8c3b 2caa de39 0ace b1bc
00000210: a59b f9ba 79e3 1f3b e422 183c 82ce 073c
00000220: fd16 26bc 6633 cc3c af88 a63c 878a d33c
00000230: 5a94 b1bb 3a5a 6c3b b2a5 a7bc 1151 d7bb
00000240: 78be d8bc 47f7 66bc 00cf 04bd 0729 973c
00000250: 2343 c93c 989d d0bb 2c9a 233c e939 0a3c
00000260: d162 cfbb 6460 cb3c 6cbd b1bb 323d ae3c
00000270: 10e3 993b eed0 00bb 578f 533c 5c34 7dbc
00000280: 17b4 e5bb 00e2 04bc 312e 213c 76ed 133c
00000290: c547 863c 90db 353c ce09 2d3c 21f0 57bc
000002a0: c195 c2ba 1df3 613c 3998 43bb 4da1 cbb9
000002b0: a03c e43c eb69 9fbb f8ce 23bb 051d a43b
000002c0: c8e0 01bd f29e 5a3c e56c a53b 265a 2c3c
000002d0: df09 443b 8887 043c 84e9 c53b 5866 f6bb
000002e0: 9913 913c 4230 46bc 71f9 bd3a f3b4 1339
000002f0: ed16 543c 6bdc 343c 6791 ba3a 4dc0 10bc
00000300: 7ac5 1c3b e76d 433c 0bb2 f23b 671a 273c
00000310: cbca cfbc 4be8 44bb 1708 5dbc f9a8 2c3c
00000320: 9eef ee3b 0744 a6bc b31c a4bb 29ba 983b
00000330: c742 663b 1706 04bb 0171 19bc 3a40 a4bb
00000340: 5ce9 923c 0421 1bbc fc7d 19bc e755 133b
00000350: ecc0 253c 6544 cabb ea8e ff3b a761 29bb
00000360: 0338 793b e2b2 f23b 2b8c 5dbc d95f e0bb
00000370: 8f1e fe3b c180 4bbc 6952 9dbb 1d1d 5d3c
00000380: 687d f5bb cea8 823c 1808 e6b9 4706 6fbc
00000390: 610b 2d3c e58f c2bb 4ccf 123c 13e1 b53c
000003a0: d421 b63c 9056 6b3c 4ea8 683b f8c2 be3b
000003b0: 6daa 20bc 1381 19bb b991 a0bb d2aa adbb
000003c0: ecab 273c 391f 07bc 8b13 883b 054f 44bc
000003d0: cdd4 2bbb 132e 04bc 6932 943b 31ef e23c
000003e0: 388b 143c 14f6 f93a 647d 843c 8a8b 9f3b
000003f0: 8119 e43b bcf8 39bc 11b2 673c 93e4 a63b
-0.018124815 0.016543416 0.016310858 -0.0012325281 -0.0030936182 0.034812927 0.029352421 -0.010627217
0.0033413717 0.018497717 0.02018373 0.0137229655 0.0038499068 0.008019659 -0.01146946 0.026451472
-0.0033626452 0.0038918455 0.00016150354 0.0020973706 -0.026301073 0.015686734 -0.0105946325 -0.01408026
0.005209795 -0.014298219 -0.007178198 -0.004300762 0.00499394 0.0017906079 0.001969297 -0.013009799
-0.004495815 -0.00061514805 0.008638185 -0.005078608 0.033875287 -0.0017303455 0.017247096 -0.016881997
0.035376254 0.00429481 0.008804565 -0.0202777 0.0038497872 0.030377397 -0.00788906 0.015661657
0.012937547 -0.016629249 0.003806355 -0.017585767 -0.010108758 0.0025110678 0.009065569 0.013246724
-3.2950367e-05 -0.009146743 0.019634312 0.0014030846 0.018660432 0.0053970246 -0.005789669 -0.005121896
-0.0022496018 0.0075963605 -0.00940722 -0.014117329 -0.0079583 -0.015135655 0.0009378637 0.0014330631
-0.0012806095 -0.012165582 0.0036679774 0.012523858 -0.006905358 -0.010673054 -0.004177621 0.013641719
0.010137589 0.011181577 0.002521109 -0.0022904356 -0.0031262785 -0.0043083415 0.018284634 -0.010776878
0.047934912 -0.0012617664 0.0183215 -0.0062170494 0.003022831 0.015549549 0.012585489 0.026811872
-0.0057051466 0.009396744 0.0018846944 0.008230098 0.003645852 -0.0034977996 0.012754552 0.017380994
0.011012637 0.009643217 0.0043687266 -0.017189834 -0.00014382938 0.013045544 0.006078679 -0.024883319
3.466986e-05 0.023150558 -0.0064897942 0.0028540804 -0.0093612755 -0.027021239 -0.002503173 -0.014662988
0.014122349 -0.006354987 0.00421143 -0.0059971237 0.0122674415 -0.009175355 -0.013534798 -0.0029504327
-0.0030964722 0.0042800684 0.00042469928 -0.021704692 -0.0019043578 0.002439706 0.009285662 0.008288981
-0.010137317 0.024926852 0.020328848 0.02582289 -0.005419296 0.0036064521 -0.020464752 -0.006570943
-0.02645801 -0.014097041 -0.032423973 0.01845218 0.024568146 -0.006366443 0.009985488 0.008436658
-0.0063289185 0.024826236 -0.005424192 0.021269415 0.0046962574 -0.0019655782 0.012912593 -0.015454378
-0.007009994 -0.008110523 0.009837673 0.009028783 0.016391644 0.011099711 0.01056142 -0.01317981
-0.0014845656 0.013790873 -0.002984537 -0.00038839356 0.02786094 -0.0048649213 -0.002499519 0.005008342
-0.03170851 0.01334356 0.0050483816 0.01051954 0.002991311 0.008088954 0.0060398 -0.0075195245
0.01770954 -0.0120964665 0.0014493895 0.00014086421 0.012944919 0.01103888 0.0014234007 -0.008834911
0.0023921416 0.011928058 0.0074064783 0.010199166 -0.025365254 -0.0030045684 -0.013490698 0.010538333
0.007291748 -0.02029611 -0.005008304 0.004660864 0.0035135017 -0.0020145231 -0.009365321 -0.005012539
0.01793354 -0.009468321 -0.009368416 0.0022481622 0.010116797 -0.006172704 0.007799019 -0.002584556
0.003802777 0.0074065784 -0.013522188 -0.0068473634 0.0077551077 -0.012420834 -0.004801084 0.013495711
-0.007491756 0.015949633 -0.0004387505 -0.014588899 0.010561795 -0.0059375637 0.008960556 0.02220205
0.022232927 0.0143639 0.0035500708 0.005821582 -0.009806258 -0.0023422881 -0.004900184 -0.0052999044
0.01023386 -0.00824719 0.0041527203 -0.01198173 -0.0026219368 -0.008067626 0.004522611 0.027701946
0.009066395 0.0019070529 0.016173072 0.0048689293 0.006961048 -0.011350807 0.014141575 0.005093166

network_body._body_endoder.seq_layers.2.weight f4 [256, 256]
00000000: 3ec3 93bd 5021 e83c b745 933d bbfc 8dbc
00000010: d895 a9bd 5e00 113d 7bae 44bd 3a4d fc3d
00000020: eb5f a2bd bcaa f5bd 0802 93bd 8a3a 6ebc
00000030: 75e9 48bd 0496 03bd 5b33 163d 1d8a d0bc
00000040: 88b6 51bd 3ba3 e33c da4f 59bd e91a 8bbd
00000050: 34ee 15bd 7605 943d 60c5 943d a21c a4bd
00000060: ae9f cabc 3119 c03c 423d edbd f9d1 093d
00000070: 8d39 573d 59ca 9cbb 8ab6 7abb 101b 3d3d
00000080: 5a09 8fbc d080 9b3d 06bd b13d 16d2 ce3d
00000090: 4d96 fdbc 641c 0fbd c513 5d3d 4a61 253d
000000a0: 9e31 453d 476d d0bd da2b 673d 8a29 d6bd
000000b0: 19ee 4b3d 2120 8a3d 5543 683b 0060 2abc
000000c0: a1a5 2cbd f758 04bd 0473 88bd ab20 a93d
000000d0: 34de 3ebd d8f1 01bd 7983 4cbb b493 303b
000000e0: 3b37 dd3c 4231 54ba cd6f 19bd 25ca 5d3d
000000f0: 9134 733c 39d5 993d 9f22 3b3d 027d 05bc
00000100: d200 f03c e34d fabd 4eb5 b4bd 7a61 48bd
00000110: 745f 27bd 70f9 f1bc 8680 6d3c 3106 9cbd
00000120: d47d 953c ec7c a0bc a87e d93b dc50 8f3d
00000130: 41ca 183d f5f3 3abb 1152 013e 312f 0f3d
00000140: 1a58 123d 5d50 183d 50d6 bebb 068d 7f3d
00000150: 0e30 ae3d 7dcc 35bd 8beb 193d 196e c03d
00000160: 5a50 c63d 4f65 e23b 32c1 c5bc 4eca 443c
00000170: c5f5 7f3d 1def 80bd ff00 3a3c ea27 323d
00000180: bc7a 4fbc f7b0 873d 22c0 04bd 44c5 b1bd
00000190: f4a5 65bc ffad d0bd 2f65 d03a 2dc0 ce3c
000001a0: 6965 93bc a08e 99bc d2bd 75bd 72f9 da3d
000001b0: 316d 02bd b8c1 aa3d 1179 2abd f7d0 a2bb
000001c0: 9d6c d1bd 8da7 853d 6db6 4fbd 2295 75bd
000001d0: f8c8 10bc 2240 203d 954b 1e3d a0ba aebd
000001e0: 7422 f53c 81d4 1fbe 3cf3 45bd 6ccd d5bc
000001f0: b3bc 3ebd f1bb 9c3d 2ce4 123d 84c9 10bd
00000200: 06e3 d9bc 4668 7abd 2c61 55bd 3c8f 883c
00000210: 4248 0d3d cca3 293d 4c35 07bd e72d 88bd
00000220: 0ad5 0dbd 6f5b 753d 9102 b1bc 4214 02bd
00000230: 7178 9bbd e457 03be 81ed d73d 76b6 81bd
00000240: dd93 b23d 69f1 b7bd 18a5 4abd c997 10bd
00000250: e02a be3d 812a 993d 57d1 d8bc 0367 143d
00000260: b333 f0bb 2483 3cbd dc45 0bbb d99e 4ebd
00000270: 818a ac3d 628d ad3d 1b8e 2c3d dc1d ae3c
00000280: 1143 a23c 3a03 febd a3bc ab3d a4be 313d
00000290: 8c8f dbbd acca 5ebd d91f 2e3d fb07 6f3c
000002a0: 9e12 263d 4d04 7339 519a 95bd 25ca 91bd
000002b0: dc63 a33c 9fbf 6a3b 8619 00be 9ae1 303d
000002c0: 28fc debd f9b5 7abd 481e 453c c519 4dbc
000002d0: cbb3 34bc 0a38 63bd 5698 d3bc d83e a6bd
000002e0: b2e3 82bd 5f26 fa3b 4866 ce3d 6ef2 09bd
000002f0: 99e8 54bc 5902 793d 0b02 703c 0f9c 143d
00000300: f42c e03d 3333 7b3d 75ec dabc bf18 a7bc
00000310: 32d1 1abd eb7b 38bc b6d0 1a3e b960 b63d
00000320: fe20 b8bd 84d7 f1ba c436 f6bc 734b d5bd
00000330: a7f3 18bd 791e 363e 0304 503d e784 b1bc
00000340: 9ca5 1c3d e73d 3ebd c39b 833d 9386 e0bc
00000350: d7cc 263d 97e7 86bd d741 44bd 8163 d93d
00000360: c054 68bd eecd 86bd be58 1d3d 3b6f c9bd
00000370: 86dd 57bc 76b8 56bd 8501 f73b b594 7a3d
00000380: 7e9b 80bd 4ec4 55bd f9fc 2dbd a066 d0b9
00000390: 866e 103d 452b 18bd afc8 1a3b cce1 993d
000003a0: b3bd 1a3d aea8 c9bb e5e0 313d 79a7 193d
000003b0: 1628 bfbd a3f9 39bd 0006 eb3c d08a 99bc
000003c0: 574b 213e 8a9c a4bd 70c3 c63d 6150 a9bc
000003d0: bc40 8abc 4108 283d 10c7 233d 3655 2a3e
000003e0: de3b 8abc 1a41 8e3c a3ee 07bd 2c00 a83d
000003f0: bc9f 0dbd c5ee fd3c 7e37 3f3d 5d91 db3c
-0.07214974 0.028336197 0.071910314 -0.017332425 -0.082805336 0.03540074 -0.04801796 0.12319417
-0.07928451 -0.119954556 -0.07178122 -0.014540324 -0.049050767 -0.032125488 0.03667007 -0.025456483
-0.051199466 0.027787795 -0.053054668 -0.06792242 -0.03660412 0.07227604 0.07264209 -0.08013274
-0.024734344 0.023449512 -0.115839496 0.03364751 0.05254512 -0.004784864 -0.0038255774 0.046168387
-0.017460514 0.075929284 0.086786315 0.100986645 -0.030955458 -0.034939185 0.05397393 0.040375985
0.04814302 -0.10177093 0.056438304 -0.10457142 0.049787614 0.06744409 0.0035440524 -0.010398865
-0.042150144 -0.032311406 -0.066625625 0.08258184 -0.04659863 -0.03172478 -0.0031206293 0.0026943507
0.027003875 -0.0008094498 -0.037460137 0.05414786 0.014844076 0.07511372 0.045687314 -0.00814748
0.029297266 -0.12221887 -0.088236436 -0.048921086 -0.040862516 -0.029537886 0.014495974 -0.076183684
0.018248476 -0.019590817 0.006637413 0.069978446 0.03730226 -0.0028526757 0.12628962 0.034957115
0.03572855 0.037186015 -0.005823888 0.06239035 0.085052595 -0.04438447 0.037578147 0.093959995
0.096832946 0.0069090496 -0.024139974 0.012011124 0.062490243 -0.06295607 0.011352777 0.043495096
-0.0126635395 0.0662555 -0.032409795 -0.086802036 -0.014016617 -0.10189437 0.0015899296 0.02523812
-0.017992692 -0.018744767 -0.05999548 0.10692109 -0.031842414 0.0833773 -0.041619364 -0.004968758
-0.102257945 0.065260984 -0.050711084 -0.059956677 -0.008836977 0.03912366 0.0386463 -0.0853169
0.029923655 -0.15608408 -0.04832767 -0.02609893 -0.046566676 0.076530345 0.035862133 -0.03534843
-0.026597511 -0.0611346 -0.052094623 0.016669862 0.03449274 0.041415974 -0.033009812 -0.0664938
-0.034626998 0.05990165 -0.02160767 -0.0317576 -0.07591332 -0.12826496 0.10543347 -0.0633363
0.08719609 -0.08981592 -0.049473852 -0.035301004 0.092855215 0.0747881 -0.026467009 0.036231052
-0.007330382 -0.046023503 -0.0021251356 -0.050444458 0.08424855 0.08474232 0.04212771 0.021254472
0.01980737 -0.12402959 0.08385589 0.0433947 -0.10720739 -0.0543925 0.04251084 0.014589305
0.0405451 0.00023175888 -0.07304824 -0.07118634 0.019945078 0.0035819781 -0.12509736 0.0431839
-0.10887939 -0.0612087 0.012031145 -0.012518351 -0.011029194 -0.055473365 -0.025829475 -0.08117455
-0.06391086 0.0076339687 0.10078102 -0.033678465 -0.012994909 0.060793255 0.014648925 0.03628164
0.10946074 0.061328124 -0.02672408 -0.020397542 -0.03779716 -0.011260013 0.1511868 0.08905167
-0.08990668 -0.001845107 -0.030055411 -0.104147814 -0.03734174 0.17785062 0.050785076 -0.021669818
0.038243875 -0.046445753 0.064261936 -0.02740792 0.040722694 -0.06587141 -0.047914352 0.10614682
-0.05672145 -0.06582247 0.03841471 -0.09835669 -0.013175374 -0.05242201 0.007538023 0.061176974
-0.06279658 -0.052189164 -0.04247758 -0.00039749313 0.035261653 -0.03715064 0.0023618152 0.075137705
0.037778568 -0.0061541414 0.043427367 0.03751323 -0.09333818 -0.045404088 0.028689384 -0.018742949
0.15751396 -0.0803767 0.097052455 -0.02066821 -0.01687657 0.041023497 0.039984763 0.16634068
-0.01687425 0.017365027 -0.033186566 0.08203158 -0.034576163 0.030997643 0.04668378 0.026802713

network_body._body_endoder.seq_layers.2.bias f4 [256]
00000000: 24c9 003d 514a 023d 6932 47bc 24b4 67bc
00000010: 68eb 01bb 4e19 e83a 60f6 1c3c 7ca1 83bb
00000020: 27af 033b 21f4 343c 18c5 a33b 856f a13a
00000030: 2907 2e3c 7f39 9d3b 7169 b0bb 333a 04bb
00000040: d25c 32bb b91c a63b f0a9 0fbb a643 02bc
00000050: 2bb0 f6bb 0ba1 b53c 890e 5f3c 9c64 3bbb
00000060: 8803 25bb a468 e83b 0449 0ebc 0b40 0f3c
00000070: 8ee2 21bc 90bc 083c 01a5 b53c e017 c1bb
00000080: 67d8 483c 91ed 813a b74f ad3c c97a b5bb
00000090: e3bb 01bc 04db 353b e5ed 82bc 94ce 41bc
000000a0: b548 7ebc eb6c 10bc 2d45 27bb 8e8c debb
000000b0: 3e06 de3a 3afb 95bc 3c58 34bc fa8a 28ba
000000c0: e8ae a4bc e8de 1dbb ebc5 93bb 8f37 893b
000000d0: 02a9 f7bb 22b0 a43b c3ed d7bb 58b6 f8bb
000000e0: 566e 71bb 9642 ae3b 4791 ed3b 8973 ae3b
000000f0: 386b 8c39 a8cf b3bb 0141 8d3b edc7 9eba
00000100: 19d4 aa3b b505 4fbc 19a3 9bb9 909f c0bb
00000110: 4e20 733c 4313 10bc b4e1 e5ba b551 323c
00000120: 9e56 2ebc 69a8 b5bb ab86 b23b 7160 16bc
00000130: 84ee aabb 9766 c4bb 5dcf fe3b 53fa 253a
00000140: 2d3e 0a3c 8bf7 b039 c628 48bc 1914 87ba
00000150: f276 2e3b 8e57 b3bb f3a3 703b 411b 10bc
00000160: b2f1 adbb 4ae4 91bc 5c8d e53a 3fc1 5ebb
00000170: b4b2 43bc ff9d 10bc 72e9 b0bb 93f4 6a3c
00000180: 178b 243c d71a 383a e48b 8bbb dbe8 0abc
00000190: a289 b9bc 3386 6b3c fa5e 40b6 9e12 353c
000001a0: 7993 4bbc 1134 b83c b107 12bc c7d6 a23c
000001b0: 025b be39 add6 513c c850 913c 34e2 ec3b
000001c0: 4e45 a23c 6854 95bb e7cc 8c3b f19b 5bbb
000001d0: c5bf 333b 41e1 f13a 16cc 983c 745b 533c
000001e0: 5cd2 02bc 9b41 ccbb f522 ffbb 44a4 5cbc
000001f0: 3432 453b 6cc9 1d3c 72c0 ea3a a9b0 30bb
00000200: 535d 11bc 4e8f f3ba 27db 6dbc 0140 b83b
00000210: 47b9 f83c 5a32 1e3a 647b dabc 4ab5 353c
00000220: 468b 613c 7186 37bc 942e 29ba d1a1 15bc
00000230: 629c c3bb 440c 34ba 5d89 5c3c abf2 533c
00000240: d617 e5bb c786 f53c 8535 0e3d c53d 4e3c
00000250: c47f b5bb 8720 8bbb fdda 783c 37af 1b3c
00000260: b9ac 82ba 364a 423b a855 0dbc 4e38 433a
00000270: 2ba4 4fbb 1bdd c13b 29b0 4a3b 7944 cfbb
00000280: f3d0 11bb bf72 3bbc ac70 56bb ab04 bcba
00000290: 7ab8 ab3b a60e 30bb 867a 15bb 8629 a23b
000002a0: f0f8 bebb 02d2 06bc f63c 6dbc 01a3 a33a
000002b0: 2bb6 adb9 928c 73bc 92f1 0f3c 6709 e43b
000002c0: 312d 193c 58e7 a6bc 5727 17bc d377 333c
000002d0: f095 443a ad73 973c 5cfd b73b b6ec 68bc
000002e0: 35be 60bb a6bf b23c f54e 89bc 5a02 1cbb
000002f0: 4160 0bbc abf4 c93b 0e21 ddbb 4566 3abb
00000300: f48d a7bb ec5e dcbb b60e eb3b 0425 0cbc
00000310: 594c 5ebc 5fe2 11bc 1a2a 5a3c 700d d83a
00000320: 7c11 88bb c2ae 113c 2066 0fbc 448e 7cba
00000330: 48e0 54bc 7614 dcb8 d0ea 36bc 61c8 78bb
00000340: c70b 503c ff73 143a f95c 9ebb bbf3 58bc
00000350: 8851 64bb b786 e13b e0c1 26bb 0a4d e8ba
00000360: f1f6 d0bb 9630 723b 5ca2 063c efa0 69bc
00000370: 1cb5 7cbc a4c2 d6bc 3026 95bb b25f 25bc
00000380: 55e8 533c 30c8 6ebc 0ec1 053c f8d6 9e3b
00000390: 23c1 9bbb d0be 85bb f130 a1bc 805c a839
000003a0: 4564 67bc 61f2 d1bb 3f06 95bb 4f6b 70bc
000003b0: 2cfa c63b 502b 8dbb d340 f7bb 3d01 88bc
000003c0: 9a50 623b 8174 cd3b 9c31 1538 a708 133c
000003d0: 51ad 3aba 0f68 21bc 8222 5d3c a990 edbb
000003e0: e404 d5bb 240a 0cbc 2e06 40bc 607d 4f3a
000003f0: e02d 513c 26c1 d1bb a48b 493c 487c c7bc
0.031441823 0.031809155 -0.012158015 -0.01414207 -0.001982415 0.0017707737 0.009580225 -0.004017053
0.0020093413 0.011044533 0.0049978606 0.0012316561 0.010621824 0.004798114 -0.0053836633 -0.002017629
-0.002721597 0.005069342 -0.002192136 -0.007950699 -0.007528325 0.022171518 0.013614305 -0.0028593903
-0.0025179107 0.0070925523 -0.0086844005 0.008743296 -0.009880675 0.008345738 0.022173407 -0.0058927387
0.012258626 0.0009912719 0.021156175 -0.005538319 -0.007918331 0.0027748952 -0.015982578 -0.011829037
-0.015520264 -0.008815031 -0.002552341 -0.006791658 0.0016939116 -0.01830827 -0.011007365 -0.00064294005
-0.020102933 -0.0024089161 -0.0045096776 0.0041875313 -0.007557989 0.0050258795 -0.0065896227 -0.0075900964
-0.0036839447 0.0053179963 0.0072499844 0.0053238315 0.00026782765 -0.005487401 0.0043107276 -0.0012114026
0.0052132723 -0.012635638 -0.0002968542 -0.0058783963 0.014839245 -0.008793655 -0.0017538578 0.010883738
-0.010640768 -0.0055437577 0.0054481826 -0.009178267 -0.0052164216 -0.005993675 0.0077761845 0.00063315517
0.008437675 0.0003375377 -0.012216752 -0.0010305672 0.002662119 -0.005473084 0.0036718815 -0.00879556
-0.0053083533 -0.017809052 0.0017513442 -0.0033989695 -0.011944462 -0.008826732 -0.0053989226 0.014340538
0.010042927 0.00070230424 -0.0042586196 -0.008478369 -0.022648636 0.014375257 -2.8665513e-06 0.011051802
-0.012425297 0.022485765 -0.008912967 0.019877804 0.0003630743 0.01280753 0.017738715 0.007229114
0.019808438 -0.004557181 0.004296887 -0.0033509696 0.0027427536 0.0018453972 0.018652003 0.012900222
-0.007984724 -0.0062334067 -0.0077861496 -0.013466898 0.0030089738 0.009630542 0.0017910136 -0.0026960766
-0.008872348 -0.0018582137 -0.014517582 0.0056228642 0.030361785 0.00060347246 -0.026670165 0.011090586
0.0137661155 -0.011201487 -0.0006453779 -0.009132818 -0.00596957 -0.0006868283 0.013460484 0.0129362745
-0.006991367 0.029971493 0.03471901 0.012587969 -0.0055389125 -0.004245821 0.01518893 0.009502224
-0.0009969688 0.0029646284 -0.008626379 0.000744705 -0.0031683545 0.0059162504 0.0030927754 -0.0063253012
-0.0022249788 -0.011440932 -0.0032720966 -0.0014344653 0.005240497 -0.00268642 -0.0022808625 0.0049487976
-0.0058280155 -0.008228781 -0.014479866 0.0012484492 -0.00033132857 -0.014865058 0.008785622 0.0069591287
0.009349153 -0.020373985 -0.009225688 0.010953861 0.0007499149 0.018487776 0.0056149196 -0.014216593
-0.003429306 0.0218199 -0.016761282 -0.0023805113 -0.008506835 0.0061632 -0.006748325 -0.0028442305
-0.0051133577 -0.0067251828 0.0071733845 -0.008553747 -0.013568007 -0.008904069 0.013315702 0.0016483497
-0.004152475 0.008891763 -0.008752376 -0.00096342363 -0.012992926 -0.000104942286 -0.011164382 -0.0037961232
0.01269812 0.0005663037 -0.0048328605 -0.013241704 -0.0034838635 0.0068825143 -0.0025445148 -0.0017723155
-0.006377094 0.003695523 0.00821742 -0.014259561 -0.015424039 -0.026215859 -0.0045516714 -0.010093616
0.01293381 -0.014574096 0.008163704 0.0048474036 -0.0047532483 -0.0040815845 -0.019676657 0.00032112375
-0.014123027 -0.0064070676 -0.0045478637 -0.014674022 0.0060723033 -0.004308142 -0.0075455694 -0.016602153
0.0034532906 0.006269992 3.557057e-05 0.008974231 -0.0007121163 -0.00985147 0.013496997 -0.007249911
-0.006500827 -0.00854734 -0.011720223 0.00079151057 0.012767285 -0.006401199 0.012301359 -0.024351254

action_model._discrete_distribution.branches.0.weight f4 [3, 256]
00000000: 1588 aabb 146a e8bc 09d7 073c 4883 88bb
00000010: 636b b9bc 820b 0fbc c6b2 bdbc bdc7 953c
00000020: 42ae e3ba dbaf 89bb d2c0 70bb 02ac 60bb
00000030: 0535 2d3c 966a 003c f03f 423c cf4f fd3c
00000040: 1133 de3a 02b7 3d3a ae69 4ebb 0b8f 45bb
00000050: 6f37 df3a 57f6 7bbc 5e14 31bb 7e8c 31bc
00000060: ccd3 dfbb 3023 9c3c 0aaf eb3a 4491 9b3c
00000070: 1bb9 953a 92b3 833c 416a 38bc a729 ce3b
00000080: 686c 82bb 1795 91bc c542 3dbd cd73 33bb
00000090: d4aa f3bb fc68 8c3c b215 e13a 64db 81bb
000000a0: 8ddb 683b b085 62ba 6520 9c3b 305e 41ba
000000b0: 08f9 38bc 56bd 983c c0ed 9e3b 603d 0e3c
000000c0: 9a82 d1b9 7da5 5e3c 9f93 0cbc a7fc c93b
000000d0: 97b0 cbbc a445 47bb 8a94 163c f56e 58bb
000000e0: 4b4b adbb 7693 a1bc 5808 a0bb e9fe 883b
000000f0: dc84 2d3b f3d9 20bc b378 233b 3867 9bbc
00000100: 72b2 483c 3688 ee3a 14b4 a53c 6780 763c
00000110: 9b6b 09bd 0d35 293c 1a29 1bbc 7e22 dfbc
00000120: 20c2 d43b 3ee4 e33b 942f 09bb c3fa 7d3c
00000130: dd0d 2fbc 45f5 c83c 6ae7 1ebc 9916 33bc
00000140: be99 ae3b 5591 febb c78c 233b 3b5f be39
00000150: b03a 1c3c 5ec8 fb3b e7d9 5fbc 41fc 95bb
00000160: de2f 2a39 95b3 023c 4e9a 16bc 11e8 043b
00000170: 3168 dbbb 62a7 78bb 2023 523c a85a c3bb
00000180: 055a dbbc bbe4 4d3c eee3 c43b 195b 0abc
00000190: d47e 3d3c d9c7 93bc d717 b23c d494 11bc
000001a0: 32bf 423c 4802 02b9 57aa 1cbb b407 14bd
000001b0: f9b3 12bc 7b6e a53a 6712 85bc 88da 893c
000001c0: 9ec8 b13a 36c2 273c bb04 703c 2520 e63a
000001d0: facd eb3b 0a0b 1cbb d26d a23b 63ca 88bb
000001e0: 59d2 00bd b239 2abb 1fdd 393c 653f ef3b
000001f0: b718 5cbb 6ab6 383c ca1e f6bc e1b1 b9bb
00000200: ff51 ad3c 64d8 aabb c7af 803c f6f5 fe3b
00000210: db04 66bc ccff 88bc 6777 d43a 010d 74bc
00000220: bb02 16bc 70a8 e43a 3876 5cb9 5dd4 fd3c
00000230: 5313 eaba 1365 f0bb b485 2e3b ef72 8f3b
00000240: 85a0 eeba e422 13bb 3759 f2bb 650f ddbb
00000250: 698d 26b8 976c 3b3c cf89 823c 3cd1 413c
00000260: 73df 26bc 7806 ab3c 3fd3 92bb 6552 f9bb
00000270: d733 8d3c d365 0cbc 0936 773c aabc 1a3c
00000280: 94a9 683c 3658 143d 1c3b 673c 1012 553c
00000290: b489 d0b9 81bd 0f3c 37ba c5bb c513 5fbb
000002a0: a619 ddba 9f35 bbba d0ae b13c 2f04 6cbc
000002b0: 99f5 8e3b a5cd 4c3b 7110 98bc 8f7a 20bc
000002c0: d7b0 67bc e2e0 f2ba 3c96 ea3c e044 62ba
000002d0: 6286 fcbc 96f2 74bc 51be 023b 225a 99bb
000002e0: da5a 323c 5a81 26bc 3c2d 073d c09b 7739
000002f0: 1747 7dbb 5e10 b13b 5454 abba c6f7 8dbc
00000300: 007d 41bb 0b22 73bc 8116 653b 9e5a 2eb8
00000310: 0c5e bcbb f366 5a3c 7f51 73bc 4b0d e8ba
00000320: 14d9 6c3c cd80 173d 2271 553a 2e53 3abb
00000330: 42c6 30bc 77ef 3db9 1de8 87b8 92dd b03c
00000340: 55a3 f0ba a2ef 903b 1582 24bb 8708 843c
00000350: 9d9c 1fbb 15c9 9bbb 4760 a73c c849 393c
00000360: a925 4a3b b777 95bb dabe 71bc a2f0 45bc
00000370: 709d 9d3b eb96 80bb a496 34bb 0ce1 0fbc
00000380: a98e 7039 efb1 053c 6483 263b 8733 08bc
00000390: ddc2 03bb 7b83 f13c e822 793c 1014 bc3c
000003a0: c779 333c 7651 37bb 2acd 2b3c cecb 4bbc
000003b0: ae60 fc3a 1e82 423c 4051 8a3c 024c 303c
000003c0: 2683 463c eddd 8dbb 6a6a 9f3b fa8e 8cb9
000003d0: 1609 793c 8ddb 0d3c 9518 863c e516 553c
000003e0: 5d26 9d3c 15da cd3b 6bf6 753b 6907 60bc
000003f0: fe2a 383c 17e3 5d3c 1296 5c3b fd73 8d3b
-0.0052042105 -0.028370894 0.0082910145 -0.0041660406 -0.022634214 -0.008730771 -0.023156535 0.01828372
-0.0017370658 -0.004201872 -0.0036736024 -0.0034282212 0.010571723 0.007837912 0.011856064 0.030921845
0.0016952475 0.0007237048 -0.0031496095 -0.0030145075 0.001703007 -0.015378556 -0.0027020196 -0.010836719
-0.006830668 0.019059747 0.0017981243 0.018990166 0.0011422964 0.016076837 -0.011255802 0.0062915864
-0.003980208 -0.017771287 -0.046206255 -0.0027382255 -0.007436136 0.017139904 0.0017172603 -0.003962921
0.0035531253 -0.0008641137 0.004764604 -0.0007376401 -0.011289842 0.01864497 0.0048501194 0.008681625
-0.00039960892 0.01358926 -0.0085801175 0.0061641517 -0.024864478 -0.00304065 0.009190688 -0.003302512
-0.0052885166 -0.019723635 -0.004883807 0.0041807783 0.0026476895 -0.009817588 0.0024943769 -0.018970117
0.012249576 0.0018198553 0.02022747 0.015045262 -0.033549886 0.01032759 -0.009470249 -0.027238127
0.006492868 0.006954699 -0.00209329 0.015501681 -0.010684458 0.024531016 -0.009698728 -0.010930681
0.005328386 -0.00776879 0.0024955736 0.00036310576 0.009535477 0.0076837977 -0.013662792 -0.00457719
0.00016230295 0.007977386 -0.009192063 0.0020279924 -0.00669577 -0.0037941565 0.012825757 -0.005961735
-0.026776323 0.012566741 0.0060086166 -0.008444571 0.011565883 -0.01803963 0.021739883 -0.008885581
0.011886405 -0.00012398616 -0.0023905241 -0.03614016 -0.008954042 0.0012621427 -0.016244126 0.016827837
0.0013563817 0.010239175 0.014649565 0.0017557187 0.007196185 -0.002381029 0.0049569393 -0.004174517
-0.031450603 -0.002597433 0.011344223 0.0073012584 -0.0033584067 0.01127396 -0.030043978 -0.005666957
0.021157263 -0.005213784 0.015708817 0.0077807857 -0.014039244 -0.016723536 0.0016209901 -0.0148956785
-0.009155924 0.0017445218 -0.00021024875 0.030985052 -0.0017858542 -0.0073362677 0.0026629986 0.004377715
-0.0018205798 -0.0022451216 -0.007395889 -0.00674622 -3.9709183e-05 0.011439464 0.015934853 0.0118296705
-0.01018511 0.020877108 -0.004480749 -0.007608699 0.017236633 -0.008569199 0.015088567 0.009444395
0.014200587 0.036216937 0.014113214 0.013004795 -0.00039775448 0.008773209 -0.0060341614 -0.0034038883
-0.0016868606 -0.0014282948 0.021689802 -0.014405294 0.0043627736 0.0031250503 -0.018562527 -0.009794845
-0.014141283 -0.0018530155 0.02863609 -0.0008631479 -0.030825797 -0.014950415 0.0019949863 -0.004679934
0.0108859185 -0.010162676 0.033002123 0.00023613777 -0.003864711 0.0054035624 -0.0013071396 -0.017330062
-0.0029523969 -0.014839659 0.003495604 -4.1569227e-05 -0.005748516 0.013330209 -0.014850973 -0.0017704157
0.014456052 0.03698807 0.0008142163 -0.0028430927 -0.010789456 -0.00018113652 -6.480536e-05 0.021590028
-0.0018359224 0.0044230977 -0.002510195 0.016117347 -0.0024354823 -0.0047541955 0.02043165 0.011309095
0.00308452 -0.0045613903 -0.014754975 -0.012081297 0.004810028 -0.003924241 -0.002755561 -0.008781683
0.00022941329 0.008160098 0.0025407905 -0.008313066 -0.0020105161 0.02948164 0.015206076 0.022958785
0.010954327 -0.0027972138 0.010485927 -0.012438728 0.0019254887 0.011871843 0.016884446 0.010760309
0.012116229 -0.004329434 0.0048649805 -0.00026809407 0.01519992 0.008658302 0.016369144 0.013005947
0.019183332 0.006282101 0.003753091 -0.013673642 0.011240719 0.013542912 0.0033658785 0.0043168054

action_model._discrete_distribution.branches.0.bias f4 [3]
00000000: 84e5 43bc 5920 333c ecc6 5d3a
-0.011956576 0.010933005 0.00084601226

action_model._discrete_distribution.branches.1.weight f4 [3, 256]
00000000: e83a 5dbc 8113 54bc 1045 ccba 8403 2dba
00000010: 30ea e9bb e8d3 08bc 4766 12bc 6079 44bc
00000020: 7982 3c3c b24c 46bc b7d6 8939 2185 babb
00000030: b41b 343c a253 dbbc 9d36 923c 3e57 36bc
00000040: 284b 353c ccf4 c4bb dff1 8e3a 7c66 d1bb
00000050: b0bf fbbb f04a a93b 97f4 1ebc fb50 d2bb
00000060: 0315 b5bb 1cb0 14bc 4afd c43b 9c07 c5bc
00000070: 52be 0b3c 6869 3dbc 02dd 17bc 8fb6 f93b
00000080: ab7b c2bb 0331 05ba 3856 3ebb 6884 c6b8
00000090: 747c 783c 6e36 c1bb 97c4 503c 00cf 2ebc
000000a0: c398 ca3b 77a5 adb9 e0bd 06bb 406d 14bc
000000b0: 61ef 86bc 49e6 193c 5ac7 50ba c551 d5bb
000000c0: 9c17 d33b 8dcc 96b9 0737 01bc d744 40bc
000000d0: 4872 133a ccd4 4fbc c2dc 62bc 7dce 3b3c
000000e0: 1dd3 2c38 9358 88bc 688b a8bc ea5c b7b7
000000f0: 7bfe 553c 70ce b83c 7858 80bc fdb1 32b9
00000100: 488a 54bb f1a3 7d3c 56cf 153c f3bf 42bc
00000110: 1ab0 9fbb e0fd c939 b012 3a3c 35c0 bdbb
00000120: 5348 da3a 5792 3f3c a119 9bbc 41d7 f2ba
00000130: 704b 20bc d689 3fbc 66ad 1ebc eeef 27bc
00000140: 4c6a 703b f703 52bc 15c1 5b3c a8a5 22bc
00000150: 77e6 a43c 9bbe f2bb 3ce2 be3b 9d39 33bc
00000160: e2f9 a4bc 5822 433a 5f8f 29ba 52cf c6bb
00000170: 2cb4 643b f262 b5bc 756f ee3b 63c4 4abc
00000180: 95ab c23a af6b f6bb 9fa8 5cba ac4d 333b
00000190: 124b 1039 e25f 283b 6a4d 51bb 130e 05bc
000001a0: 6062 b63b 4e81 abbc 5dfa 79bc 8989 513c
000001b0: 73a6 97bb 8aeb e8bb 3a43 09bc 63cd 08bd
000001c0: 9a23 a03c 93b7 9bbb 285d 8bba 1f78 fcbb
000001d0: c195 c6ba 3224 703b 3e37 4bbc 682e 23bc
000001e0: 85b2 a9bb 6b03 c83b a8f3 7dbc 4616 5e3b
000001f0: 9865 6bbb 4cb7 12ba eaba dbbb ee0a 913b
00000200: 400c 1538 1409 06bc 3ff0 86bc 21df 86bb
00000210: c113 c7bc d7ba 3ebc e07a e23a 1cec cdbb
00000220: be99 353c 479b 363c 9f2c 0ebc 7acf 913b
00000230: 106a b83a 0cca caba eefa 8dbc 2776 26bc
00000240: fae6 543c d45f 0cbc 112e 6ebc b35a b83b
00000250: eece 253b 056f e83b 2dc9 5b3a 6966 79bb
00000260: 3a70 613c d977 76bc 3385 9abb 9a85 79bb
00000270: d580 e1b9 85b2 963c dbc1 94bc 8543 b8bc
00000280: 5f39 a4bb bb1b 403a be40 c4bb af41 a73c
00000290: aef5 9ebb eb31 a3bc 83a0 61ba dcdb a1b8
000002a0: 004f bd39 6577 54ba 6c39 223b 7858 553c
000002b0: bfa6 b33c 66fb 3abc 7c96 423a e1f0 943b
000002c0: 8bfa 23bb bed4 853a 6ab2 e33c 7c1e 8abc
000002d0: 332c 72bc bb29 253c fad3 163c 9939 c83b
000002e0: 979b 6c3c a34d 46bc 103a 863b e864 75bc
000002f0: ad26 ff3b 58b5 c03b ff2e 1b3b 7496 723b
00000300: 6cec 0abc 3886 b43c b377 e839 b385 b7bc
00000310: 09b4 723c 497f 35bc c333 5abb e3e7 68bc
00000320: 2659 a6bb b71f 313c e78b 91bb 143c cf3b
00000330: b28c b73a e21c ec3a 2f78 eb3b 6216 3fbc
00000340: 75b4 b0bc 43cb dfbb fed1 c5bb 1183 3dbc
00000350: 0860 d2bb f453 6ebc 5adb 073c 8900 9b3c
00000360: 4185 94bb 86d3 69bb 6a12 b039 9f35 b53b
00000370: 7c40 83ba 6cf4 4d3c e516 433b c356 24bc
00000380: 2e8b 32bc 93aa 673a d6cc d9bc 6b72 62bb
00000390: fb24 b43b f752 8cbc 953e 14bc 00c8 06bc
000003a0: 31bb c83b 2ced c1bb 7c8f 8abc d2db c5bb
000003b0: 5491 33bc f4b1 1f3c 3397 71bb 8a45 e33a
000003c0: 5dfb 413b 0f3e 9d3c 0bfb bbbb 5699 c0bc
000003d0: 1f77 80bb 0fc8 e03a 459c 9dbc 6124 acbb
000003e0: a772 873c 5b56 c53c 753a c83c dcca 523b
000003f0: 930a ab3c 8d00 cd3c 1320 49bc b222 cc3b
-0.013502814 -0.012944103 -0.0015584547 -0.000659995 -0.007138513 -0.008351304 -0.008935518 -0.011991829
0.0115057165 -0.0121032465 0.0002629065 -0.0056921397 0.010992933 -0.026773278 0.017848307 -0.011129199
0.011065282 -0.0060106274 0.0010905823 -0.006390391 -0.007682763 0.005166404 -0.009701869 -0.006418345
-0.0055261864 -0.009075191 0.0060116397 -0.02405148 0.008529263 -0.011560775 -0.009269001 0.0076206396
-0.0059351525 -0.00050808507 -0.002904309 -9.466038e-05 0.015166391 -0.005896381 0.012742183 -0.01066947
0.0061827614 -0.00033120412 -0.0020559952 -0.00905925 -0.016471567 0.009393283 -0.0007964276 -0.006509992
0.0064420234 -0.00028762632 -0.007886655 -0.011735163 0.0005624634 -0.012685012 -0.013846578 0.011462805
4.120461e-05 -0.016643798 -0.020574287 -2.1858566e-05 0.013061161 0.022559375 -0.015667185 -0.00017041709
-0.0032431055 0.015480981 0.009143671 -0.011886585 -0.004873288 0.0003852686 0.0113569945 -0.005790735
0.0016653634 0.011692605 -0.01893312 -0.0018527285 -0.009783611 -0.0116905775 -0.009684896 -0.010250075
0.0036684452 -0.012818328 0.013412734 -0.009927191 0.020129425 -0.007407976 0.005825309 -0.010939029
-0.020138685 0.0007443777 -0.00064682023 -0.006067195 0.003489743 -0.022141907 0.0072764703 -0.012375924
0.0014852161 -0.007520161 -0.00084174605 0.0027359528 0.00013760876 0.0025691916 -0.0031937012 -0.008121031
0.0055659264 -0.02093568 -0.015257445 0.012789139 -0.0046279966 -0.0071081566 -0.0083778445 -0.033398997
0.019548226 -0.0047521084 -0.0010632621 -0.0077047492 -0.0015150831 0.0036642668 -0.0124033075 -0.009959795
-0.005178752 0.006103923 -0.015499987 0.0033887788 -0.003591871 -0.00055967714 -0.0067056315 0.0044263517
3.5535777e-05 -0.008180875 -0.01647198 -0.0041159545 -0.024301412 -0.011641226 0.0017279051 -0.00628425
0.011084018 0.011145419 -0.008677631 0.004449782 0.0014069695 -0.0015471592 -0.017331567 -0.010160006
0.012994522 -0.008567769 -0.01453735 0.0056260466 0.0025300342 0.0070933127 0.00083841645 -0.0038055426
0.013759667 -0.015043222 -0.0047155856 -0.0038074018 -0.00043011332 0.018395672 -0.018158844 -0.022493133
-0.005011722 0.0007328351 -0.005989163 0.020417063 -0.0048510646 -0.019921264 -0.0008606987 -7.71803e-05
0.0003610775 -0.00081049494 0.0024753464 0.013021581 0.021930097 -0.011412477 0.00074229366 0.0045453166
-0.0025021161 0.0010210497 0.027795035 -0.01686024 -0.014781046 0.01008075 0.009205813 0.006110382
0.014441392 -0.012103471 0.004096277 -0.014977671 0.007786593 0.005880993 0.0023679135 0.0037015947
-0.008479219 0.022036657 0.0004433967 -0.02240262 0.014813432 -0.01107771 -0.0033295013 -0.014215442
-0.0050765453 0.010810784 -0.0044417265 0.0063243005 0.0014003722 0.0018013979 0.007185958 -0.011663051
-0.021570424 -0.0068296506 -0.006036996 -0.011566893 -0.006420139 -0.014546383 0.008292044 0.018921154
-0.0045324867 -0.0035679056 0.00033583055 0.005530074 -0.0010013725 0.012570482 0.0029768285 -0.010030451
-0.010897441 0.0008837368 -0.026586931 -0.0034553062 0.0054975725 -0.017129404 -0.009048124 -0.008226395
0.0061258306 -0.0059181657 -0.016914122 -0.0060381675 -0.010959942 0.009747017 -0.0036863803 0.001733945
0.0029599287 0.01919463 -0.0057367138 -0.023510616 -0.0039204503 0.0017149466 -0.019239554 -0.00525336
0.016534163 0.024089029 0.024441937 0.003216437 0.020879066 0.025024677 -0.0122757135 0.006229722

action_model._discrete_distribution.branches.1.bias f4 [3]
00000000: b7c6 3bbc 95e4 cc3b d307 a13b
-0.0114609515 0.006252835 0.004914263

action_model._discrete_distribution.branches.2.weight f4 [3, 256]
00000000: 68e7 2a3c 365c 2d3c 75a9 8ebb 4aec 17bc
00000010: d421 80b9 bc1d 9e3b b854 493b e076 0bbc
00000020: 7b41 76bc 63dc 983b fed7 4cbb 9f4d 483c
00000030: 5e3b 553c e79c 043a 3c6b 77bc e49f 7c3c
00000040: 99ec 433a 0213 2d3c 3995 8bbc 897a 34bc
00000050: 882f 7f3a 759d d03c ef5b 9bbb 2135 703b
00000060: cf0e 95ba 4d10 993b f3b8 c13c 48cb 153c
00000070: 1516 533c 3476 b3bb c0a1 503c 3b85 a53c
00000080: 3466 993c e84e 1dba 9e20 76bb 23e6 e8bc
00000090: a228 2abc b801 e63c afc1 683a 7465 52bc
000000a0: 2c3a 30bc 8d71 9a3c 5dcc baba 4e2d b5ba
000000b0: dafc 033c ed6f 9e3b 9ebc 5c3c 5c7b 0fbb
000000c0: 7724 2cbc 2793 0d3c 194c 29bc f0d5 853c
000000d0: 6619 c0bc c471 6d3b b775 dc3c b55b 1a3c
000000e0: 1ecc 42bc a47c e93b 5407 8f3c e8fa 543c
000000f0: 550d 22bb c429 0b3a 0dce a63b 71b4 86ba
00000100: e016 a5bb 2693 68bb 6633 8b3c 1a9c fd3b
00000110: 0097 283c 146a 1ebc 83a0 c93b 0714 43bc
00000120: dbea 413c c486 e3bc 9291 80bc 169c b03b
00000130: 6fc7 703a 0639 bfbb 8487 793c 2cd9 853a
00000140: c902 c23c 8443 323c 5796 f1ba 24f4 9b3c
00000150: 0f1b 7cbc 1a11 d13b dafe f13b ba47 a53c
00000160: 860d fcbb 2931 1dbc 719f fcbb a247 ed3c
00000170: da64 83bc 91ac c1bc 39c1 aabc 8341 e53c
00000180: d1bf 8f3c 9711 0cbc 158c 93bc 9e56 183c
00000190: e504 62bc 3d09 2dbc aa0f 13bd f8f3 733c
000001a0: 0512 1fbc 92a2 823c 4952 d53b c14d d6bb
000001b0: 4f1b 9c3a c663 2b3d b111 a33c aa9c b93b
000001c0: 27e1 2f3c d301 0bbc d875 ce3b ecf3 2b3c
000001d0: 240f 963c 79f5 903c d3a1 ee3a 9952 123c
000001e0: 57a3 5dbc fd69 2ebc 324c 90bb b8b6 89ba
000001f0: 26da a7ba 0190 98bb 5dc3 003c 53f0 393b
00000200: 7519 84bc f4d6 f73a 8730 6cbc c696 c8bc
00000210: 8e3f e13c 6063 3b3c caff cfbb 2a39 8e3c
00000220: 5dac 1bbb 7ea9 1a3c 5282 933c 0d39 0dbd
00000230: 8490 0abc 3953 87bc b5bc dbbb 6538 9e3c
00000240: 124e c43b 1100 273c eb81 513c 65f6 68ba
00000250: 9f9b f2bb b05b 33bc a82a 17bc b9de 533c
00000260: eb3e 2abc 09a0 59bc 1b9b c539 8011 583c
00000270: 4e93 ebbb 39aa ed3b e8bb 703c eb14 60bc
00000280: 39a3 94bc 06eb 373c 1317 103d 741c 79bb
00000290: c70b ccbb 28fb 8bbc 82c4 c53b c4fd 1c3b
000002a0: d825 5d3c dfc4 3e3c 8493 05bd d81d efbc
000002b0: 6a62 3c3c 50bf 57bc 4150 39ba c965 953b
000002c0: acf3 953b 7890 85bc 80c2 0bbc d577 e33c
000002d0: 8ea2 103c 7843 7d3c b9e2 883c 2865 56bc
000002e0: 6b40 85bc 990e b23c 4268 5abc 8034 323b
000002f0: bb2a f33b e5fc e93b cdf0 a9bc bb55 323c
00000300: b398 78bc 1c29 51bb d474 28bc 6ef7 aabc
00000310: 5c7d 11bc 6f8b 7e38 3876 5a3c 26fb a53b
00000320: 6087 353c 4bc9 ffbb 3640 ff3b 5782 0d3c
00000330: 5f4b ef3a 52a5 d43b 12da 41bb 5747 99bc
00000340: d723 c3bb a2da 84bc 7672 193c fbb0 15bc
00000350: 8016 343c b54b d5bb 5e09 b0bb 2bf0 bd3b
00000360: 8ce6 9cbc 12c8 81bc 6f42 683c 1fd7 023b
00000370: 0c75 0d3b d832 42bb 603f c23a bf58 903a
00000380: dc01 c7ba cacf b4bc 2104 063c 6ded 823c
00000390: fa58 003a 8290 f9bc e29d bdbc d3db 1bbc
000003a0: 8d30 913b db19 3839 5f5b 1bbd a23d fb37
000003b0: 84a9 c33c 1548 cbbc ff62 0c3b 71f5 d1bb
000003c0: 037e b1bc 2fbf d2ba 611d 133c aa3a 673c
000003d0: 0320 fcbb b604 91bc 84a2 f83c a068 b63b
000003e0: 8873 babb 42ea 81bc fbd0 b8bb 9f3a 1bbc
000003f0: 6928 a1bc 7766 543c bd13 e23c d7f4 f4bb
0.010431148 0.010581067 -0.004353697 -0.009272644 -0.00024439266 0.004825322 0.0030720662 -0.008512229
-0.01503026 0.004664944 -0.003125667 0.012225538 0.0130146425 0.00050587807 -0.01510125 0.01541898
0.00074739155 0.010563614 -0.017038928 -0.011015543 0.0009734561 0.025465706 -0.004741184 0.003665276
-0.0011372211 0.0046711327 0.023647761 0.009142704 0.012883683 -0.0054767374 0.012733877 0.02020513
0.018725492 -0.00060008327 -0.0037556062 -0.02843005 -0.010385664 0.028076991 0.0008878959 -0.012841571
-0.010756057 0.018852973 -0.0014251579 -0.0013822706 0.00805589 0.00483512 0.013472704 -0.0021893596
-0.010506741 0.008641041 -0.0103330845 0.016337365 -0.02344961 0.003623114 0.0269116 0.009421279
-0.011889486 0.007125454 0.017459549 0.012999274 -0.0024727185 0.0005308653 0.005090481 -0.0010277164
-0.0050381273 -0.0035488098 0.016992282 0.007739556 0.010289907 -0.009668846 0.0061531677 -0.01190663
0.011835779 -0.027774222 -0.015694413 0.0053897006 0.00091849914 -0.005835655 0.015230063 0.0010211817
0.023682969 0.010880355 -0.0018431646 0.019037314 -0.015387311 0.0063802125 0.007385117 0.020175803
-0.007692042 -0.00959424 -0.0077094366 0.028964821 -0.0160393 -0.023641856 -0.020844089 0.02798534
0.01754752 -0.008549116 -0.018011132 0.009297995 -0.013795112 -0.010561285 -0.03590361 0.01488971
-0.009708886 0.01594666 0.0065100533 -0.0065400307 0.0011909994 0.0418432 0.019905897 0.0056644278
0.010734833 -0.008484322 0.006300669 0.010495167 0.018317766 0.017695175 0.0018206186 0.008930826
-0.013527713 -0.010645387 -0.0044036144 -0.0010506725 -0.0012806102 -0.0046558385 0.007859078 0.0028372004
-0.01612542 0.0018908666 -0.014415867 -0.024485957 0.027496126 0.011437267 -0.006347631 0.017361242
-0.002375386 0.009439824 0.018006478 -0.034478236 -0.008457307 -0.016519176 -0.0067058452 0.019314
0.005990752 0.010192887 0.0127873225 -0.00088868133 -0.0074038054 -0.010947153 -0.009226479 0.012931519
-0.010390977 -0.013282784 0.0003769033 0.013187766 -0.007189191 0.007252958 0.014693238 -0.013676862
-0.018144237 0.011225468 0.035178255 -0.0038011344 -0.00622699 -0.017087534 0.0060353884 0.0023954967
0.013497792 0.011643617 -0.032611385 -0.029189035 0.011498073 -0.013168171 -0.00070691487 0.004559253
0.004576167 -0.01630424 -0.008530259 0.027767101 0.008827819 0.01545798 0.016709672 -0.013085641
-0.016266068 0.021735476 -0.013330521 0.0027191937 0.0074208654 0.007140743 -0.020744706 0.010884698
-0.015173125 -0.0031915372 -0.01028176 -0.020869937 -0.008879986 6.0688177e-05 0.01333385 0.0050653396
0.011079639 -0.0078059784 0.007789637 0.0086370325 0.0018256715 0.0064894343 -0.0029579443 -0.018710775
-0.0059552 -0.016217533 0.0093656685 -0.009136434 0.010991693 -0.006509269 -0.0053722104 0.0057964525
-0.019152902 -0.015842471 0.014175995 0.0019964648 0.0021584658 -0.0029632356 0.0014819913 0.0011012777
-0.0015183049 -0.022071738 0.008179695 0.015982354 0.0004896071 -0.030464415 -0.023146573 -0.009512859
0.0044308365 0.0001755724 -0.037928935 2.9950232e-05 0.023884542 -0.024814645 0.002142131 -0.0064074327
-0.021666532 -0.0016078706 0.008979172 0.014113108 -0.007694246 -0.017702442 0.030350931 0.0055666715
-0.005690042 -0.015858773 -0.005640147 -0.009474426 -0.01967259 0.012963883 0.027597303 -0.0074754762

action_model._discrete_distribution.branches.2.bias f4 [3]
00000000: 6299 553c 3c4c a7bb 61f5 0abc
0.013037058 -0.0051055234 -0.008481354
