results/VB_1/Badminton/Badminton-499994.onnx (onnx, 298576 bytes, 12 tensors)

discrete_act_size_vector f4 [1, 4]
00000000: 0000 4040 0000 4040 0000 4040 0000 0040
3.0 3.0 3.0 2.0

network_body.observation_encoder.processors.0.normalizer.running_mean f4 [11]
00000000: 0000 0000 0000 0000 0000 0000 0000 0000
00000010: 0000 0000 0000 0000 0000 0000 0000 0000
00000020: 0000 0000 0000 0000 0000 0000
0.0 0.0 0.0 0.0 0.0 0.0 0.0 0.0
0.0 0.0 0.0

network_body._body_endoder.seq_layers.0.weight f4 [256, 11]
00000000: 62a0 1cbe 9fa9 ac3d e0a2 17be d452 d2be
00000010: fe02 af3e a9ca 9c3e 88bb ab3c a5b9 57bf
00000020: 107e a0be dc4e b73d 6ef6 bbbd 6dab c3be
00000030: 5b11 a2bc e469 6dbf b8f1 a2be 0a78 983e
00000040: bd12 0dbe eb93 45be 0a75 ab3e 8aac b23d
00000050: 0a7d dc3e 5823 3abe 7020 99be d10d ba3e
00000060: 983c afbe 0e94 85be c766 9b3e 630d bebc
00000070: f458 efbe 5912 2c3e 9db1 a8be bf10 9abb
00000080: cb80 c13d 0f82 90be 025c 92be b6e3 283e
00000090: 5173 dd3d 3cea 4ebd 951a 8bba 8ea0 cc3d
000000a0: 15a1 85be ad53 1a3f 7ab2 493e 3b2f ed3e
000000b0: ae2d 74bd aefa a23c 058d cebe 5f83 3abe
000000c0: 21e0 f43e 15aa b5be 96b3 df3e 8536 703e
000000d0: b464 d8bc fe30 b9bd c70d d0be 7959 edbd
000000e0: 7bac 323e 2a96 0a3d af66 80bd 690c d33c
000000f0: e811 d53e 1116 063e 4112 0b3f 5ff1 783d
00000100: 46ac 8dbe f146 01bf 6766 d23e f0c6 72be
00000110: 8982 fc3d 7eb9 913e 2c45 3c3e fbe6 cabd
00000120: 1a44 36be 9931 b23d 8be8 93bc 3269 e23d
00000130: 7d3e 643e b454 fd3e 3be5 153e aa1a 10bc
00000140: a833 343e ef7b 0a3f 660a f8be 96b0 2bbe
00000150: 626c 1b3e d792 dbbe 8e11 093f 34f1 1b3c
00000160: c531 86bd 8f0f 0d3f c43a 2dbe f8f6 693f
00000170: 4044 3f3e 294d 9ebe 4dac b6bd ff8c 5ebe
00000180: 7a35 e23d 1c68 7cbe 492e 54bd 871a 04bf
00000190: 09ab cbbe 5162 e53c baa1 21be bd62 96be
000001a0: 086b ff3d 7968 84bd da71 06bd 62fc 413e
000001b0: b7e5 70be 4b80 8dbe f0bb 8ebd 2dd9 173d
000001c0: e4d0 5dbe 6344 3ebe cee6 c43c 25c9 bebd
000001d0: 7ff2 1d3e a4e3 84be 79b0 463c d250 b8bd
000001e0: 1481 7bbd 9a46 e33e ef4a 843e 5505 c5bc
000001f0: b110 07bf df90 063f f959 1fbf 6cb5 8dbe
00000200: 8c56 64be 0b54 75be 0c22 bbbe 97d5 e5bd
00000210: d1a2 c13d 2bc0 17be 1716 a43d 79a3 06bf
00000220: 1cd7 063e 4c46 1a3f e156 303f a549 1d3e
00000230: a5ea 3ebf 2cd7 6ebd 7ec5 1abe 75fd 0fbc
00000240: 4c59 fdbc a85e 1b3f 5aba e9be 70f1 1bbf
00000250: 1369 8bbd 0185 85be 3924 7e3e f7fc 743e
00000260: 3f3d a1be 788d dbbc dfba 203e f3ed 92be
00000270: 9e6f 0abf 478d 763e ac02 253f 6a90 b5bc
00000280: b64e 82be 6499 1cbf 4782 483d 229f 78be
00000290: 13b6 db3e 66ab 76bd 6139 a3bd 8c6f 353e
000002a0: f11f 573e 31ed 9c3e c7b8 063e d4af c83e
000002b0: 9794 89be e97d 86be 94c5 a33e 9fa0 3c3e
000002c0: 79a3 afbe ba2e 7dbc 7cb9 f43c 6640 a1bd
000002d0: 54fd fd3e baa4 c3be 50f8 093e a33d 2ebe
000002e0: b116 2d3b 651f 7c3e c9a4 dabd 14d3 943e
000002f0: 7b0c 7a3e b692 5cbe b371 43be f42d 48be
00000300: e074 f93e 1a3a 883e 4dd1 cd3e a592 61be
00000310: 1d56 28bf 0414 3d3f 71ac 35bd 3729 a63d
00000320: 9af6 91bd 9aca 73be cced c0be 96ed bbbb
00000330: b447 8b3d 2c80 3f3d e356 4fbe a494 13bf
00000340: f900 ba3e 24a4 1b3f 529d e3be 3902 0f3f
00000350: 123a b03e a40b 8fba 1945 a0bc 21f3 083f
00000360: 9b7c 043f fa9d be3e 6f9d 8b3d 6b6e ff3d
00000370: 4923 a33d c4c1 3a3e e697 0dbe 55f7 d73e
00000380: 8d6d c23e d5f2 e63e 02c5 613e 561a 8bbd
00000390: 405c 323e 38bf 7cbd a30b b1be d3f7 963e
000003a0: 11cd 2ebd e97f 193f 9a1c e7bd 24b4 d13e
000003b0: 2d53 88be 9eab fb3d 345c 4d3e faf2 70be
000003c0: 1202 55bd f245 0fbe 3cc2 063e b0b2 303f
000003d0: 6033 82be a681 a63e a0d3 313e 287e 97be
000003e0: 0783 dc3d 6a19 87be 4070 7e3e 6f56 92bd
000003f0: 7e65 bfbe 64a3 6abe 2b8d 183e 801f 9e3e
-0.15295556 0.0843079 -0.14808226 -0.41078818 0.3418197 0.30623367 0.020963445 -0.84267646
-0.31346178 0.08950588 -0.09177862 -0.38216725 -0.019783666 -0.927397 -0.31825042 0.29779083
-0.1377668 -0.19294707 0.3348773 0.087243155 0.43064147 -0.18177545 -0.2990756 0.36338666
-0.34225917 -0.2608952 0.3035185 -0.023199743 -0.46747553 0.16803874 -0.32948008 -0.0047017033
0.094483934 -0.28224227 -0.2858582 0.16493115 0.108130105 -0.050516352 -0.001061278 0.09991561
-0.26099458 0.6028393 0.1969699 0.46325096 -0.059613876 0.019894924 -0.40341964 -0.18214177
0.47827247 -0.35481325 0.436917 0.23458298 -0.026415206 -0.09042548 -0.4063551 -0.11589331
0.17448609 0.033834614 -0.06269585 0.025762754 0.41615224 0.13094355 0.5432473 0.060777064
-0.27670497 -0.50498873 0.41093752 -0.23708701 0.12329585 0.28461832 0.18385762 -0.09907337
-0.17799416 0.08700866 -0.018055221 0.11055221 0.22289462 0.49478686 0.14638226 -0.00879542
0.1759783 0.5409536 -0.48445433 -0.16766581 0.15178064 -0.42885467 0.5354241 0.0095179565
-0.065524615 0.55101866 -0.16916949 0.9139247 0.18678379 -0.30918244 -0.089195825 -0.21733473
0.11045356 -0.2464909 -0.051801953 -0.5160298 -0.39778927 0.028000982 -0.1578435 -0.29372206
0.124715865 -0.06465239 -0.03282342 0.18943933 -0.2352513 -0.27636942 -0.0696944 0.03707235
-0.21661717 -0.18580775 0.024035838 -0.09315709 0.15424536 -0.25954926 0.012127035 -0.0899979
-0.061402395 0.44389802 0.2583842 -0.024050394 -0.52759844 0.52564806 -0.6224666 -0.27677476
-0.2229864 -0.23957841 -0.36549413 -0.1122238 0.09454883 -0.148194 0.08012026 -0.5259319
0.13167995 0.60263515 0.68882567 0.15360124 -0.7457679 -0.058310673 -0.151144 -0.008788456
-0.03092637 0.6069131 -0.45649987 -0.6091528 -0.06807151 -0.26078036 0.24818505 0.23924623
-0.3149204 -0.026800856 0.15696286 -0.28697166 -0.54076564 0.2407733 0.644572 -0.022163589
-0.25450677 -0.61171556 0.048952367 -0.24279454 0.4291235 -0.060222052 -0.079699285 0.17718333
0.21008278 0.30649713 0.13156424 0.39196646 -0.26871178 -0.26267937 0.31986678 0.18420647
-0.34304407 -0.015453035 0.029873602 -0.07873611 0.49607337 -0.38211614 0.1347363 -0.170157
0.002641123 0.24621351 -0.106759615 0.2906729 0.24418823 -0.21540341 -0.19086342 -0.1954878
0.4872198 0.26606828 0.40198746 -0.22028597 -0.657564 0.73858666 -0.044353906 0.0811333
-0.07127114 -0.23807755 -0.37681425 -0.0057351096 0.06800786 0.046753094 -0.20247988 -0.5764868
0.36328867 0.60797334 -0.44455963 0.55862767 0.34419304 -0.0010913503 -0.019564198 0.53495985
0.5175263 0.37229902 0.068171374 0.124722324 0.079657145 0.18237978 -0.13827476 0.42180887
0.37974206 0.4510714 0.22047809 -0.067921326 0.17418003 -0.061705798 -0.3457919 0.2948595
-0.042676035 0.599608 -0.11284752 0.4095775 -0.26625958 0.12288593 0.20054704 -0.23530188
-0.052003928 -0.13991526 0.13160032 0.69022655 -0.2542982 0.3252079 0.17365885 -0.29588437
0.10767179 -0.26386577 0.24847507 -0.07145392 -0.3738212 -0.22913891 0.14897601 0.30883408

network_body._body_endoder.seq_layers.0.bias f4 [256]
00000000: 0000 0000 0000 0000 0000 0000 0000 0000
00000010: 0000 0000 0000 0000 0000 0000 0000 0000
00000020: 0000 0000 0000 0000 0000 0000 0000 0000
00000030: 0000 0000 0000 0000 0000 0000 0000 0000
00000040: 0000 0000 0000 0000 0000 0000 0000 0000
00000050: 0000 0000 0000 0000 0000 0000 0000 0000
00000060: 0000 0000 0000 0000 0000 0000 0000 0000
00000070: 0000 0000 0000 0000 0000 0000 0000 0000
00000080: 0000 0000 0000 0000 0000 0000 0000 0000
00000090: 0000 0000 0000 0000 0000 0000 0000 0000
000000a0: 0000 0000 0000 0000 0000 0000 0000 0000
000000b0: 0000 0000 0000 0000 0000 0000 0000 0000
000000c0: 0000 0000 0000 0000 0000 0000 0000 0000
000000d0: 0000 0000 0000 0000 0000 0000 0000 0000
000000e0: 0000 0000 0000 0000 0000 0000 0000 0000
000000f0: 0000 0000 0000 0000 0000 0000 0000 0000
00000100: 0000 0000 0000 0000 0000 0000 0000 0000
00000110: 0000 0000 0000 0000 0000 0000 0000 0000
00000120: 0000 0000 0000 0000 0000 0000 0000 0000
00000130: 0000 0000 0000 0000 0000 0000 0000 0000
00000140: 0000 0000 0000 0000 0000 0000 0000 0000
00000150: 0000 0000 0000 0000 0000 0000 0000 0000
00000160: 0000 0000 0000 0000 0000 0000 0000 0000
00000170: 0000 0000 0000 0000 0000 0000 0000 0000
00000180: 0000 0000 0000 0000 0000 0000 0000 0000
00000190: 0000 0000 0000 0000 0000 0000 0000 0000
000001a0: 0000 0000 0000 0000 0000 0000 0000 0000
000001b0: 0000 0000 0000 0000 0000 0000 0000 0000
000001c0: 0000 0000 0000 0000 0000 0000 0000 0000
000001d0: 0000 0000 0000 0000 0000 0000 0000 0000
000001e0: 0000 0000 0000 0000 0000 0000 0000 0000
000001f0: 0000 0000 0000 0000 0000 0000 0000 0000
00000200: 0000 0000 0000 0000 0000 0000 0000 0000
00000210: 0000 0000 0000 0000 0000 0000 0000 0000
00000220: 0000 0000 0000 0000 0000 0000 0000 0000
00000230: 0000 0000 0000 0000 0000 0000 0000 0000
00000240: 0000 0000 0000 0000 0000 0000 0000 0000
00000250: 0000 0000 0000 0000 0000 0000 0000 0000
00000260: 0000 0000 0000 0000 0000 0000 0000 0000
00000270: 0000 0000 0000 0000 0000 0000 0000 0000
00000280: 0000 0000 0000 0000 0000 0000 0000 0000
00000290: 0000 0000 0000 0000 0000 0000 0000 0000
000002a0: 0000 0000 0000 0000 0000 0000 0000 0000
000002b0: 0000 0000 0000 0000 0000 0000 0000 0000
000002c0: 0000 0000 0000 0000 0000 0000 0000 0000
000002d0: 0000 0000 0000 0000 0000 0000 0000 0000
000002e0: 0000 0000 0000 0000 0000 0000 0000 0000
000002f0: 0000 0000 0000 0000 0000 0000 0000 0000
00000300: 0000 0000 0000 0000 0000 0000 0000 0000
00000310: 0000 0000 0000 0000 0000 0000 0000 0000
00000320: 0000 0000 0000 0000 0000 0000 0000 0000
00000330: 0000 0000 0000 0000 0000 0000 0000 0000
00000340: 0000 0000 0000 0000 0000 0000 0000 0000
00000350: 0000 0000 0000 0000 0000 0000 0000 0000
00000360: 0000 0000 0000 0000 0000 0000 0000 0000
00000370: 0000 0000 0000 0000 0000 0000 0000 0000
00000380: 0000 0000 0000 0000 0000 0000 0000 0000
00000390: 0000 0000 0000 0000 0000 0000 0000 0000
000003a0: 0000 0000 0000 0000 0000 0000 0000 0000
000003b0: 0000 0000 0000 0000 0000 0000 0000 0000
000003c0: 0000 0000 0000 0000 0000 0000 0000 0000
000003d0: 0000 0000 0000 0000 0000 0000 0000 0000
000003e0: 0000 0000 0000 0000 0000 0000 0000 0000
000003f0: 0000 0000 0000 0000 0000 0000 0000 0000
0.0 0.0 0.0 0.0 0.0 0.0 0.0 0.0
0.0 0.0 0.0 0.0 0.0 0.0 0.0 0.0
0.0 0.0 0.0 0.0 0.0 0.0 0.0 0.0
0.0 0.0 0.0 0.0 0.0 0.0 0.0 0.0
0.0 0.0 0.0 0.0 0.0 0.0 0.0 0.0
0.0 0.0 0.0 0.0 0.0 0.0 0.0 0.0
0.0 0.0 0.0 0.0 0.0 0.0 0.0 0.0
0.0 0.0 0.0 0.0 0.0 0.0 0.0 0.0
0.0 0.0 0.0 0.0 0.0 0.0 0.0 0.0
0.0 0.0 0.0 0.0 0.0 0.0 0.0 0.0
0.0 0.0 0.0 0.0 0.0 0.0 0.0 0.0
0.0 0.0 0.0 0.0 0.0 0.0 0.0 0.0
0.0 0.0 0.0 0.0 0.0 0.0 0.0 0.0
0.0 0.0 0.0 0.0 0.0 0.0 0.0 0.0
0.0 0.0 0.0 0.0 0.0 0.0 0.0 0.0
0.0 0.0 0.0 0.0 0.0 0.0 0.0 0.0
0.0 0.0 0.0 0.0 0.0 0.0 0.0 0.0
0.0 0.0 0.0 0.0 0.0 0.0 0.0 0.0
0.0 0.0 0.0 0.0 0.0 0.0 0.0 0.0
0.0 0.0 0.0 0.0 0.0 0.0 0.0 0.0
0.0 0.0 0.0 0.0 0.0 0.0 0.0 0.0
0.0 0.0 0.0 0.0 0.0 0.0 0.0 0.0
0.0 0.0 0.0 0.0 0.0 0.0 0.0 0.0
0.0 0.0 0.0 0.0 0.0 0.0 0.0 0.0
0.0 0.0 0.0 0.0 0.0 0.0 0.0 0.0
0.0 0.0 0.0 0.0 0.0 0.0 0.0 0.0
0.0 0.0 0.0 0.0 0.0 0.0 0.0 0.0
0.0 0.0 0.0 0.0 0.0 0.0 0.0 0.0
0.0 0.0 0.0 0.0 0.0 0.0 0.0 0.0
0.0 0.0 0.0 0.0 0.0 0.0 0.0 0.0
0.0 0.0 0.0 0.0 0.0 0.0 0.0 0.0
0.0 0.0 0.0 0.0 0.0 0.0 0.0 0.0

network_body._body_endoder.seq_layers.2.weight f4 [256, 256]
00000000: e167 e7bc 2d43 c23b 7db3 6c3d eaed b63d
00000010: 66c7 8c3d da9c 613d 0a21 f33b 5c5a 8ebd
00000020: 9fbb 63bd e1c0 a93c fadc 2ebd c6eb 3d3c
00000030: 1451 46bc 8b9d 073d 9157 2dbd ed6c 423d
00000040: e132 043d 9f7d a33c 2bdc eebc a910 903d
00000050: 4491 b43c 7848 1ebd 38fa 333c 4ca1 a5bd
00000060: 1db7 61bd 0593 91bd 8206 983d 36df b73d
00000070: 4e8e 1a3b ec10 d13c abe3 2a3d 3ec7 053d
00000080: ff4e ae3d f7fb cebb 4c2b 193b 2132 2abe
00000090: be3c 7f3d 6dd7 2cbd f60d bd3d 59d6 a33c
000000a0: db23 03be c4a3 523d 20e2 223d 27a9 fbbd
000000b0: c35f bf3d d880 c4bd 2043 fbbd 2ffe a93b
000000c0: 5cdb e3bc f03c 0b3d 9d71 7c3c d898 94bd
000000d0: 80c3 463d e406 bc3d 1613 ce3d 80b6 973d
000000e0: ddb0 bbbc e8ee 50bd 63e3 98bb 8428 db3c
000000f0: e13e d33d 7d68 7e3d 6f23 133d 3f5e 8d3d
00000100: 73f9 88bd 014c 1a3c 79bb bcbd 4a08 d23c
00000110: cbb9 703d 5f88 e6bc ab9e c43c 3f49 943d
00000120: 2172 0ebd 0e3f 903d 6dfe 473d 82ea d63c
00000130: c3bc 253c d314 1abc 02de 203d 02c7 1b3d
00000140: c9bc 93bd c72a 563d 611e bd3d 5357 e6bc
00000150: 4b84 30bc db33 b0bd 1702 843b 5d50 67bc
00000160: a940 b1bd e42e 8ebd 9294 28bd e80e de3b
00000170: fe9d 8fbc fcaa 2bbb 67a9 1c3d 3929 c33b
00000180: 4da9 04bd 5b53 943b 380e 3b3d c4db ecbd
00000190: 3937 873c 84d5 283d 4547 26bd 70a3 5f3d
000001a0: 68fd 723d ecaf e4bc 49da c6bc 9d07 8b3d
000001b0: 611c de3c 6bad 933d 1ba5 d1bc 0c4b 2c3c
000001c0: 736a 2abd 6156 39bd c882 d23c be4a eb3c
000001d0: fda7 b1bc 68cf cfbc be7a 40bd 6442 063d
000001e0: 18db 0b3c 68de b43d b383 c43b 7565 b63d
000001f0: 7bd0 b83d 18e0 d7bd 8ed5 563d 72f6 963d
00000200: 3819 2cbc 9343 723d 7fd2 3cbc b838 9ebc
00000210: a30a 263d d964 123d 7791 0dba 8519 763d
00000220: 8fe5 60bd 801e b23b 775c 3dbb 9dab 98bc
00000230: 25bb 6dbd 119f 92bd b739 913d 04ab d4bc
00000240: 8b36 df3d 774b 22bc fe46 94bd 1364 0cbd
00000250: 7362 68bd d12b 273d 6083 21bd e8b8 bb3d
00000260: 15f2 26bc 3c3c 5dbc c3fb c1bd 22d1 9fbc
00000270: c3a3 fa3c 04d9 223d 9d30 e5bd e1eb 36bd
00000280: 12a0 2abe 4066 3ebb 5f02 713d 2bd5 b73b
00000290: 41b8 733d c26d 623d f65e 23bb 9859 36bb
000002a0: c3a1 a7bd 6d56 75bb 3b28 483d 2859 9836
000002b0: 1fb4 89bd c4c7 debc 6278 35bd d894 e43c
000002c0: f9c6 39bc 43d4 afbc f231 a9bd 7286 0dbd
000002d0: 08b8 463c 3cae d6bb f820 c53c b270 19bd
000002e0: a322 ccbd 9e12 a9bc f2d4 c63c 6ad9 44bd
000002f0: c903 8cbd 8936 063d 7473 ff3d f1ee 813b
00000300: 046c e3bd ad86 69bc da2f a33d 6fcb 09bc
00000310: 46c6 9d3c 9b7f 2dbd 563f 44bd fb71 dcbc
00000320: 0984 23bd 68c7 b2bc dd4a aa3c a616 72bc
00000330: 930e 6cbc e11b d73d 0ab4 243d c750 433c
00000340: e51a 023d e12f 30bd 053c c0bd a21f dcbc
00000350: b4aa ccbd 5de7 d6bd 6637 05bd 4a17 88bd
00000360: 5428 a23c 93b5 083d 06f0 91bd 9cbc 993d
00000370: 48c5 afbd 274c 0b3e 05ac 043c 3467 88bc
00000380: a137 403d 6e34 d8bc 9438 abbc 9b0d 6dbd
00000390: 7a32 ac3c 1f20 b03c b826 a1bd c970 03bc
000003a0: 6800 dfbc b526 02bd 96d9 db3d 2832 87bd
000003b0: 4d60 f1bd 48bb c3bd cf23 8bbc da17 c83d
000003c0: 3273 0a3d d7bf d5bc 838c c0bd 0e5f 633d
000003d0: 6952 9e3d 3bfd 33bd 61ae 2c3e 6af8 96bd
000003e0: ed4c 43bd 4009 463e c94f 03bd 1c4a e43d
000003f0: 3565 bebd 98f4 34bc 7954 d1bc 2186 083d
-0.028247776 0.005928418 0.05778836 0.08932097 0.0687397 0.055081226 0.00741971 -0.069508284
-0.05559885 0.020721855 -0.04269121 0.011591857 -0.0121042915 0.03310923 -0.042319838 0.04746716
0.032275084 0.019957362 -0.029157719 0.07034428 0.022041924 -0.03864333 0.01098495 -0.080874056
-0.05510627 -0.0710812 0.07423116 0.08978121 0.0023583355 0.025520764 0.041721027 0.032660715
0.08511161 -0.0063166576 0.0023371754 -0.16620685 0.062313788 -0.042197634 0.092311785 0.01999967
-0.12806647 0.05142571 0.03976643 -0.122881226 0.09344437 -0.095948875 -0.122686625 0.0051877717
-0.02781456 0.03399366 0.015407947 -0.07255715 0.048526287 0.09181002 0.10062234 0.07407856
-0.022911483 -0.05100909 -0.0046657785 0.026752718 0.103147276 0.062111367 0.035922464 0.06902742
-0.06688204 0.009417535 -0.09215445 0.025638718 0.058770936 -0.028141199 0.02400144 0.07240533
-0.03477681 0.07043277 0.048826624 0.026234869 0.010115805 -0.009404379 0.039274223 0.038031586
-0.07213742 0.05228689 0.0923431 -0.028117811 -0.010773729 -0.08603641 0.0040285694 -0.014118281
-0.08654911 -0.069425374 -0.041157313 0.0067766793 -0.017531391 -0.0026194444 0.038247492 0.005955842
-0.03238802 0.0045265383 0.045667857 -0.115653545 0.016505824 0.04121925 -0.04059531 0.054599226
0.0593237 -0.027915917 -0.024274008 0.067885615 0.027113141 0.07210811 -0.025591424 0.010515939
-0.041605424 -0.045248393 0.025697127 0.028722163 -0.021686548 -0.025367454 -0.046992056 0.03277816
0.008536123 0.08831483 0.005997145 0.0890607 0.090241395 -0.10540789 0.052449755 0.073712245
-0.0105040595 0.059146475 -0.011524796 -0.019314155 0.040537488 0.035740707 -0.0005400399 0.06008293
-0.054906424 0.005435765 -0.0028894225 -0.01863652 -0.058039803 -0.07159246 0.07091086 -0.025960453
0.10899075 -0.0099056875 -0.07240103 -0.034275126 -0.056734513 0.04081327 -0.03943193 0.091661274
-0.010189553 -0.0135031305 -0.09471848 -0.019508902 0.030595666 0.039757743 -0.11190913 -0.044658545
-0.16662624 -0.0029052645 0.058840152 0.0056101284 0.05950189 0.055280454 -0.0024928427 -0.0027824398
-0.081851505 -0.0037435547 0.04886649 4.540332e-06 -0.067238085 -0.027194865 -0.04430426 0.027903005
-0.011338943 -0.021463519 -0.082614794 -0.034552045 0.012128837 -0.006551532 0.024063572 -0.03746099
-0.09967544 -0.02063876 0.024271462 -0.048058905 -0.068366595 0.032766853 0.12473193 0.0039652516
-0.11104587 -0.014253301 0.07968111 -0.008410319 0.019259583 -0.042358022 -0.047911964 -0.026909819
-0.03992084 -0.0218236 0.02078765 -0.014775908 -0.014407772 0.10503364 0.04021076 0.011921114
0.03176393 -0.04301441 -0.09386448 -0.026870552 -0.099934965 -0.10493348 -0.032523535 -0.06645067
0.01979462 0.033376288 -0.07125859 0.075066775 -0.0858255 0.13603269 0.008097653 -0.016650774
0.04692805 -0.026392188 -0.020901002 -0.057874303 0.021020163 0.021499692 -0.07868713 -0.008022496
-0.027221873 -0.031775195 0.107348606 -0.066013634 -0.11785946 -0.095572054 -0.016984848 0.09770174
0.033801265 -0.026092453 -0.094018005 0.055510573 0.07730562 -0.04394267 0.16863395 -0.073716
-0.047680784 0.19339466 -0.03205851 0.11146948 -0.092966475 -0.011044644 -0.025552975 0.03333104

action_model._discrete_distribution.branches.0.weight f4 [3, 256]
00000000: 76bc 2639 a3a6 9d3b 1bd8 b33b 5b5e 6f3b
00000010: 18d9 113c 6504 8e3b 1c85 90ba b21c 053c
00000020: 1775 88bb b9e6 9fbb ff07 91ba e90a c23b
00000030: c926 30bb 5b7a 29bb fc41 003b e7bf 5ebb
00000040: 0213 553c 1212 d339 31c8 8bbb 6d56 53ba
00000050: 41c2 c63b 020b d5b9 3f91 71bb 4701 7f3b
00000060: b526 88bc 7233 c9bb 823c f9bb f377 e1ba
00000070: 733a ea3a 3027 10bb 438d 3b3c 3f77 253c
00000080: a7b6 5539 0b5a 96bb 54e2 8b3b b3eb 8fbb
00000090: 0109 043c 757e 433c 28c2 ea3a 58ea 163a
000000a0: c63d aebb 9064 46bb 7100 c5bb 828b cabb
000000b0: 6735 1dbc cdf3 afbb a2d8 a83b 32eb e7bb
000000c0: db4b a6bb 784a dd3b 57d1 9c3b 9f22 05bc
000000d0: b015 f93a 93d8 2a3b 27f2 14ba bbf0 9bbb
000000e0: b2f7 7dbc 8a03 3bbb 03c5 183c 5d8d cf3b
000000f0: d859 d23b 2a21 45bb f7fd a9bb 9c25 bfba
00000100: a559 ec3a 8b9f 1dbc 77fd f8b9 6733 e1bb
00000110: f678 00bc 6bc6 403b 6743 a63a 64da 31bc
00000120: 6845 83bc 777d 803b ab77 5a39 9884 eebb
00000130: abf5 cdbb 6fbe 23b8 ad7b 2e3c 3b2f c13b
00000140: f82b 71bb 271c 17bb d711 7fbb 441e 91bb
00000150: 8752 6fbb 8325 e13a 54c3 a8bb 28a9 fdbb
00000160: 2db3 93bb 2fc5 c93b 79f3 213c 252e 42bb
00000170: 57a5 b339 aaeb 3cbc 0108 a93b c4f3 13bc
00000180: 4317 bd3b fb1e a0bb 52da f439 df22 4e39
00000190: ada4 dfbb 5545 53bb bab3 763a 1a15 023b
000001a0: eff1 e0b9 63d6 163c 6498 3b3c 3bdb 1d39
000001b0: 6ab5 f73b 5ff9 403c 0ed9 07bb 077c 113b
000001c0: 5b37 af39 a75c 2ebb 3429 9f3b f999 823b
000001d0: 1a86 e9bb 98ae 5a3a 589a 003c 2f65 ecba
000001e0: a629 1b3b 3313 c4ba 5af8 0a3b df5c 5bb9
000001f0: 453e 683b a625 1fbb 45db 9ebb 6d76 acbb
00000200: a072 6fbb 883d 523b 67ad a4bb 1444 a1bb
00000210: 6709 bbbb bdfa 763b 9d75 6b3b 4f00 b1bb
00000220: 6b12 383b 7211 8d3b 6ad7 d43b ed05 cfbb
00000230: 5fa9 733b f581 83bb 628a 32bc c78a bfbb
00000240: 9d3b a63b 5dd6 653a 1b4f ba3b f000 8b3b
00000250: 6bef 193b 1066 92bb 3fe5 8f3b cb5b d2bb
00000260: ebdc 6bbb 4b1d 77bc 1281 143b 6c0c 9138
00000270: c661 8cbb 3a19 423b 19dd 373a 5069 cfbb
00000280: f6bc ae3b e6f5 4bba 8d25 443a a933 82bb
00000290: 38e8 2bba 967a 023c b519 183b 9407 adbb
000002a0: 4371 08bb d56e 3b3a e55a e83b f0fa 25bb
000002b0: 870a d93b 572e 443b 3aa1 fc3b 8188 85b9
000002c0: bb7b 833c 09fa 11bc cb66 943b b8fa 46bb
000002d0: 2249 da3b b3f0 8dba 9a03 5e3a 2bf1 fcba
000002e0: 0825 78bb c8e1 fe3b 2588 72bb a8b1 713b
000002f0: 734a 05bc f93a 363c c594 873c 9fb7 5fbb
00000300: a26f 14b9 9154 c3bb 7573 973a fe9e 0ab9
00000310: 5296 cfba 0419 913a f353 9d3b 582f 16bc
00000320: 4af0 fb3b c85d cfba 5dcf bebb 2f0d cfbb
00000330: 87b2 953b 3360 8bba 2c3d 9bbb f328 ef3b
00000340: 629b e5bb 35e8 cbba 98b8 ed3a 2785 343c
00000350: 2793 b5bb 7e80 32bb 0317 dbbb ad5f cb3a
00000360: 164f 093b 580d 95b9 07fd 07bc 6589 22bb
00000370: b574 81bb b9f5 37bc 9ea9 09bc fb05 8c3a
00000380: 2448 993b 55e2 f33a 6a9c dabb 3078 cf3a
00000390: 3706 0abb ed17 a73b dca4 2cbc 13f2 8b3b
000003a0: 1b4d a8bb ff90 863b 5231 3b3c cb0e c7bb
000003b0: cfc8 8ab9 bacc 67bb 96d4 cb3b bbbe ff3b
000003c0: 2ae8 ec3b 070b 3cbb 76d9 863b 10c6 763b
000003d0: e2e8 64bb 7288 7d3b 3382 99bb b319 0bbc
000003e0: 9522 5fbb 3507 53ba 8f1f da3a 0da8 a73b
000003f0: 6320 0d3a b79e 1f3b a789 67bb 6b60 26bb
0.00015901201 0.0048111244 0.0054884083 0.0036524746 0.008901857 0.00433402 -0.0011025998 0.008124517
-0.004164349 -0.004879799 -0.0011065005 0.0059217107 -0.0026878587 -0.0025860283 0.001957058 -0.0033988894
0.01300502 0.0004025852 -0.004265808 -0.00080618897 0.0060656373 -0.00040634727 -0.0036860255 0.0038910673
-0.01662002 -0.006140166 -0.00760609 -0.0017201885 0.0017870202 -0.0021996014 0.011447254 0.010099231
0.00020381306 -0.0045883707 0.004268924 -0.004392111 0.008058787 0.011932005 0.0017910646 0.0005756966
-0.0053174226 -0.0030272342 -0.0060120155 -0.0061811814 -0.009595252 -0.0053696395 0.005152778 -0.007077598
-0.0050749606 0.006753262 0.0047856974 -0.00812593 0.0019003656 0.002606903 -0.00056818355 -0.004758922
-0.01550095 -0.0028536045 0.009324315 0.0063339905 0.0064194016 -0.0030079582 -0.0051877457 -0.0014583352
0.0018032087 -0.009620558 -0.00047491092 -0.0068725827 -0.007841339 0.0029415141 0.0012684882 -0.010855291
-0.016024306 0.0039212066 0.0002083468 -0.00727899 -0.0062853894 -3.9039583e-05 0.010649604 0.005895523
-0.003679989 -0.0023057552 -0.0038920545 -0.004428657 -0.0036517696 0.0017177317 -0.005150238 -0.0077411123
-0.0045074434 0.0061575393 0.009884709 -0.0029629555 0.00034264728 -0.011530796 0.005158425 -0.009030286
0.0057705953 -0.0048865057 0.00046701968 0.00019658681 -0.006825051 -0.003223737 0.00094109366 0.0019849003
-0.00042904864 0.009206387 0.011449907 0.00015054356 0.007559468 0.011778205 -0.002072874 0.002219917
0.00033419844 -0.0026605518 0.0048572067 0.00398564 -0.007126582 0.00083420565 0.007849298 -0.0018035526
0.0023675947 -0.0014959335 0.0021205158 -0.00020920065 0.0035437506 -0.0024283915 -0.0048479163 -0.005263141
-0.0036536828 0.0032080133 -0.005025554 -0.0049214456 -0.005707908 0.0037686073 0.0035928257 -0.005401648
0.002808715 0.004305058 0.006495406 -0.006317845 0.003717981 -0.004013295 -0.010897251 -0.005845401
0.0050730244 0.00087675994 0.0056856996 0.004242055 0.0023488651 -0.004467733 0.004391342 -0.006419634
-0.0035989832 -0.015082668 0.002265994 6.9164525e-05 -0.0042841164 0.0029617087 0.0007013842 -0.006329693
0.0053325845 -0.0007780477 0.0007482402 -0.0039734435 -0.00065577356 0.007963797 0.0023208682 -0.0052804444
-0.0020819462 0.0007149999 0.0070909136 -0.0025326572 0.0066235694 0.0029934847 0.0077096494 -0.0002546944
0.01605021 -0.008909711 0.0045288554 -0.0030361842 0.00666155 -0.001082918 0.00084691646 -0.0019297948
-0.003786387 0.00777838 -0.0037007418 0.0036879573 -0.008135426 0.011122459 0.016550431 -0.0034136546
-0.00014155966 -0.005961009 0.0011554795 -0.00013219935 -0.0015837646 0.0011070077 0.0048012673 -0.009166561
0.007688557 -0.0015820796 -0.0058230595 -0.0063187103 0.0045684013 -0.0010633528 -0.004737517 0.0072985827
-0.0070070485 -0.0015556874 0.0018136678 0.011018074 -0.0055412236 -0.0027237232 -0.006686093 0.0015516185
0.002095168 -0.00028429436 -0.0083000725 -0.0024801132 -0.00395068 -0.011228018 -0.008402256 0.0010682935
0.0046777893 0.0018606881 -0.006671478 0.0015828665 -0.0021060833 0.0050992877 -0.010537352 0.004270801
-0.005136145 0.0041066404 0.011425333 -0.0060747615 -0.00026471025 -0.003536983 0.0062204106 0.0078047193
0.0072298246 -0.0028693096 0.004115279 0.0037654676 -0.0034928848 0.0038686064 -0.0046847104 -0.008490014
-0.0034047712 -0.0008050085 0.0016641485 0.0051164688 0.0005383549 0.0024356076 -0.003532985 -0.002538706

action_model._discrete_distribution.branches.0.bias f4 [3]
00000000: 0000 0000 0000 0000 0000 0000
0.0 0.0 0.0

action_model._discrete_distribution.branches.1.weight f4 [3, 256]
00000000: aee6 1a3b abdc d83a 4882 8ebb acb3 023c
00000010: 6e7c 843b cb8d 88bb 7cdf bcbb 5205 7cbb
00000020: bb77 a43b 57a1 a43b b979 a43b 93e3 47bc
00000030: a0fe 28ba 5245 2a3c 0756 05bc d746 2abc
00000040: 23b0 053c ffac b3bb 3e03 933b e799 98b9
00000050: 5349 7f39 ad7a 7f3b 9a86 fb38 389e f03b
00000060: 0d08 1a3c d202 9bbb 7d28 a4bb 8f6d 6f3a
00000070: 8230 913a 5c33 173a badb 1ebc b344 d6bb
00000080: 9fbc d93b 971f 90ba 0ef6 0b3b 4831 de3b
00000090: eda6 633c 8bf9 ae3a 1a49 31bc c750 133b
000000a0: dba9 97bb 4fa0 e93b f34c 9e3b 3f19 2f3c
000000b0: ca4a a33b c2d0 f13a 8f37 8d3b c4eb 35bb
000000c0: a5be 653a 52d8 593b bf73 153c f3f2 c83b
000000d0: eb33 163b 0340 393c db9f d43a e73a ee3a
000000e0: c222 393c b0f5 603b 85f1 ccba d5a6 1dbb
000000f0: c504 f03a adde 1b3c 56e6 0bbb 9b70 343b
00000100: a7bf 223b 8b9f 2e3b dff7 e6bb cf46 df3b
00000110: c5e1 f0bb 1819 86ba 83ab c2bb dcdf 063c
00000120: 605c 61bb 4158 b83b 2045 453a 0804 d23b
00000130: 7415 21ba a22e 1c3c 97b6 05bc d3f5 953b
00000140: c70b 65bb ef52 23ba 9395 18bb 4579 2b3b
00000150: 82ec f43a 152f 673c 535b 4ebb dc1f 813a
00000160: 8455 08bc cf8c aa3a 9d68 85bb f440 12ba
00000170: 3c42 b7bb 623a 76bc 0763 983b 1708 45bb
00000180: a128 90ba c8f8 793b 8bd2 5fbc 2ee8 cbb9
00000190: 587a d9bb da29 423b d56e ddba 5a3d 543a
000001a0: ca45 ca39 3590 e73b 6805 f03b f1f8 253b
000001b0: c1d3 0bba c7c7 19bb b8ff 243a 0218 14bc
000001c0: 5942 ccbb 7bf1 e8bb e3d1 1fbb ce23 a0bb
000001d0: 4ce5 41bc 1d0f febb a075 cc3b 4ec9 b03b
000001e0: 8b15 03bb bf10 27bb e54e 98bb bf06 1abc
000001f0: 22ef 0d3c dc45 ae3b 8b5b f3ba 8a3a cb3b
00000200: 5da0 58bb 126d c83a 17d2 c2bb 9d49 863b
00000210: 1d1e cd3a 2994 023b 515b 0dbb b354 ddbb
00000220: aaa0 2c3c fb2b 3cbc 6035 5fbb 5019 23bc
00000230: d842 7039 da4e bc3a fea4 883b eb68 2b3b
00000240: b8d2 113c 13f0 603b 2d1e 85b9 9395 37bb
00000250: 9662 893b 2f4d dc3a 2c10 15ba 4d18 11bc
00000260: f2ab 1b3c d585 6e3b 39a3 c33a 7bc2 58bc
00000270: fff5 8f3b f413 2abc 60cd 8dbc 8f49 60bb
00000280: 9d37 2f3b 4560 263b 2f39 87ba dc34 08bc
00000290: e197 1bbb b22a fd3a 13b6 363c e919 3d3b
000002a0: 3b5f 57bc 3f8b 033c d277 41bc 1e56 31bc
000002b0: da61 cd3b dfb8 1b3c c5dc fd3a c9a4 05bc
000002c0: 0958 873a 8d26 83bb f896 63bb 2c17 a1bb
000002d0: 2516 e63b f929 0e3c 72ed 843a 3212 9538
000002e0: 3d0e 523b 13c1 93bb ffb5 093c 8e84 85bb
000002f0: e7d6 653b 6c3a 08bb 53a6 2fbb 777b b43a
00000300: 3fe8 a23b cad5 203c 1f16 b03a 43be 9b3b
00000310: 3922 243c 358a 37bc 0bda 8eb9 330b 2f3c
00000320: 97ae 62bb de29 1a3b cb41 0ebb dbf8 833b
00000330: 4be7 5c3b d76e 17bc 5d22 723c 528d 9fbb
00000340: 7c64 1a3b ab97 4e3b a49d b53b 6678 44bb
00000350: d201 62bb 00d9 413b 304e fdbb 9648 3cbb
00000360: 8f54 9b3b 8314 583b 97dd fbba 239b efba
00000370: 43cd 1abc e382 d13a 6517 28bb 87b2 aeba
00000380: d317 6dbb fac7 0dbc 1234 56bb dac4 373b
00000390: a144 c1bb 6de6 6abc a7a0 4cbb dcff afbb
000003a0: 0f5a caba e02c 34bb d81b 0dbc 099a 81ba
000003b0: 7d2f cfbb 8f53 f8b9 5356 973b 0ff7 833b
000003c0: 3b55 b33a 8560 533b 9fee 033b 8ac4 d3bb
000003d0: e73c 0e3c 4b89 c8bb a86f 10bc c1d4 493c
000003e0: c7fb 11bc 3ef7 843a de43 caba fa97 46bb
000003f0: 884d 8f3b 7786 8a3a 09e3 8f3b 437b 543c
0.002363603 0.0016545256 -0.004349027 0.007977407 0.0040431535 -0.0041672937 -0.005763946 -0.003845532
0.005019156 0.005024116 0.0050193933 -0.012200254 -0.00064466335 0.010392504 -0.008138186 -0.010392866
0.00815967 -0.005483269 0.0044864705 -0.00029106365 0.0002434601 0.0038983033 0.00011993684 0.00734308
0.0094013335 -0.004730561 -0.0050097094 0.0009133452 0.0011077079 0.0005767846 -0.009695942 -0.0065389513
0.0066448 -0.0010995743 0.0021356377 0.006780777 0.013894779 0.0013349516 -0.010820651 0.0022478567
-0.0046284026 0.007129706 0.0048309504 0.0106871715 0.004983281 0.0018449055 0.0043096016 -0.0027758935
0.0008764065 0.003324051 0.009121834 0.0061324774 0.002291913 0.0113067655 0.0016221957 0.0018175513
0.011299791 0.0034326129 -0.0015635943 -0.0024055738 0.0018311968 0.009513539 -0.0021347008 0.0027532938
0.0024833472 0.0026645388 -0.0070485915 0.006813861 -0.0073511326 -0.0010230867 -0.005940856 0.008232083
-0.0034387335 0.005625755 0.0007525254 0.006409172 -0.00061448594 0.0095326025 -0.008161209 0.0045764237
-0.0034949647 -0.00062303146 -0.0023282513 0.0026164812 0.0018686207 0.014110346 -0.003148754 0.0009851414
-0.00832117 0.0013011935 -0.0040713088 -0.0005579137 -0.0055926125 -0.015028568 0.004650477 -0.0030064636
-0.0010998436 0.003814267 -0.013661037 -0.00038892165 -0.006636899 0.0029626996 -0.0016893992 0.00080963003
0.0003858044 0.0070667514 0.007324863 0.0025325383 -0.0005333983 -0.0023465024 0.00062942086 -0.009038927
-0.006233495 -0.007108865 -0.0024386577 -0.0048870808 -0.011834454 -0.0077532665 0.006239608 0.005395091
-0.0020001854 -0.002549216 -0.004648077 -0.009401022 0.008662971 0.0053183865 -0.0018566711 0.0062020468
-0.0033054568 0.0015291295 -0.005945455 0.004098131 0.0015649233 0.0019924736 -0.0021569321 -0.0067544817
0.010536352 -0.011485095 -0.0034058914 -0.009954765 0.00022913085 0.0014366761 0.004170059 0.0026155065
0.008900337 0.0034322783 -0.0002539022 -0.0028012737 0.0041926606 0.001680767 -0.0005686309 -0.008855891
0.009501444 0.0036395688 0.0014925963 -0.0132299615 0.0043933387 -0.010380734 -0.017309844 -0.0034223532
0.002673603 0.002538697 -0.0010316725 -0.008313384 -0.002374165 0.0019315092 0.011151808 0.0028854555
-0.013145263 0.008028804 -0.011808353 -0.010823755 0.0062677683 0.009504526 0.0019368163 -0.008156964
0.0010325919 -0.0040023983 -0.0034727436 -0.0049160924 0.007021683 0.008676999 0.0010141565 7.108263e-05
0.0032051944 -0.0045091 0.008405208 -0.0040746396 0.0035070719 -0.0020786775 -0.0026802018 0.0013769706
0.0049715335 0.009816596 0.0013434327 0.0047529056 0.010017925 -0.011202385 -0.00027246805 0.010683822
-0.0034588927 0.002352349 -0.0021706696 0.0040274686 0.0033707197 -0.009242735 0.014778701 -0.0048691416
0.0023558429 0.0031523507 0.005542474 -0.002997899 -0.0034485948 0.0029578805 -0.007730268 -0.0028729788
0.004740305 0.003297121 -0.0019215819 -0.0018280487 -0.009448352 0.0015984442 -0.002564871 -0.0013328352
-0.003617753 -0.008653635 -0.0032684845 0.0028040917 -0.005898074 -0.014337164 -0.0031223686 -0.005371077
-0.0015438217 -0.0027492568 -0.0086125955 -0.0009887825 -0.0063227997 -0.00047364502 0.004618445 0.0040272544
0.0013682017 0.0032253575 0.0020131243 -0.0064626383 0.008681512 -0.006119882 -0.008815683 0.012318791
-0.008910126 0.0010144485 -0.0015431603 -0.0030302987 0.004373256 0.0010568638 0.0043910784 0.012968841

action_model._discrete_distribution.branches.2.weight f4 [3, 256]
00000000: f0a2 8dbb f53a d43b a3db 903b e3d2 1fba
00000010: c2de 66ba 26f9 acbb 124b 283c abfc 35bb
00000020: 0796 6ebb e8c6 753b 12f3 923b 6564 9cbb
00000030: 6fa5 bbbb 5fba 0c3c ba55 b03b 5898 393c
00000040: 2034 8a3a 94b1 083c 493f 8f3b a3a3 0a3c
00000050: e3d8 6a3a 6124 233b e9c6 133b 1393 febb
00000060: 8171 cb3b 478b 8cba a3b3 16bc 22a7 d33a
00000070: 3b69 94bb 7360 513b 23d7 a2bc a2ed ce3b
00000080: 7283 3f3b e26c 27bb 936b 1b3c aa50 2bbc
00000090: c8bf 6e3c 7ba5 393b 4a1a a63b 4705 89bb
000000a0: 0f7f 91ba 6b0a 353b 9a3c 1b3a 729f 613c
000000b0: cf51 f33b e714 b53a 5a0f f33b 360d 243b
000000c0: b7aa 7e3c 8e7d 94ba 5a5e 193b f7d8 e3b9
000000d0: 0dd8 e33a ab1e caba 1416 c0bb fa2d 543b
000000e0: 7f7c 10bc 70ea 92bb faff 47bb 5531 533b
000000f0: b5c1 d13b 5cd4 0abc c345 2a3c abbf 153a
00000100: 6fd3 2bbc 7fe9 51bb 38b8 5cba c7b5 21bc
00000110: 9fd0 10bb a30e 953b 1429 a3ba c287 1dbb
00000120: 5c82 9eba 674e 2cba b203 f639 7bed 603b
00000130: fbf5 ed3b 1bb6 bebb 858d 4cbc 87f3 a6bb
00000140: b077 e4b9 5853 f5bb a972 0bbc 4aaf ce39
00000150: 8781 0bbb 4846 81bb 574a d63b a864 5a3b
00000160: ea32 e0ba fda1 07b9 9467 9b3b cbe1 913b
00000170: e433 8d3b 00e0 cb3b a084 a4ba 2f38 80bb
00000180: d59f 403c a286 2ebb e82c 9bbb 4e70 173b
00000190: e33f adbb 9f49 95bc e83d f63a 92d7 803c
000001a0: c376 4d3a 23a6 883b f1ad 33bc 56ce 863c
000001b0: f8b1 a23b 53b9 2ebb 5f3b a93b 473e 8dba
000001c0: 2abb d73b c36e 8c3a ca6c d3ba d753 0d3c
000001d0: a032 e9bb 47e5 413a 0afa 28bb fafb 5d39
000001e0: df8d ac3b fc8c 383c f7f0 613c 1596 dcbb
000001f0: 6892 e43a efd4 37bb a7bc ad3b 4b22 043c
00000200: 0fba 823b d06a 223a 5815 503c 973d 023b
00000210: 5b32 49bb fb1b 6d3a ca68 6d3c b1b4 853b
00000220: 600a 80ba f792 e23b e919 8fbb ebcf d6b9
00000230: 70fa 923b daf0 f53a 5e53 3eba f667 a5bb
00000240: 12ec 993b 4773 a73a d2d9 5e3a c074 7cbb
00000250: 4839 c73a 41ba caba 4531 77bb 7de7 7cbb
00000260: a153 9d3b 82a7 c5bb 1b95 273c d6b6 083a
00000270: edd0 19bc 4f5b 143b 54be 01bc dbdf 3cbc
00000280: 0f84 9b3b 938d de3a 62e1 50bb 0819 00bb
00000290: 13ee ce38 9053 af3b 7731 99bb a859 49ba
000002a0: 0c92 84b9 a034 b2bb 55d9 563b 0c31 a2ba
000002b0: 305a 11bc 0421 2bbc c3d6 c0bb 1830 803b
000002c0: e626 a1ba 09a8 2b3c 57b0 433b 0c53 0ebb
000002d0: db91 45b8 9838 ac3b d2c5 bfbb 3b86 a53b
000002e0: 7a97 c53b 6f56 48bb 65cc d63b b42e 83bb
000002f0: 10ca 08bb 1f1d 493b 6dba 19bb a21b 2ebc
00000300: 6f13 30bc be19 1239 4ad6 c3b9 3b3d 753a
00000310: 309c 8d3a b888 e53b 1864 d9bb 8f82 83bb
00000320: f8fb 9cbb 0ee0 31bc 2330 35bb 3379 1fbc
00000330: 57c6 b3ba a219 7cbb 7f58 19bb 6790 9abb
00000340: 651f 0d3c bf2a 813b 63da 863b 4092 1b3c
00000350: a3d0 b03a 28c6 563c e550 0238 0551 d1bb
00000360: 0998 13ba 3f87 cb3b 8d4e 233c f084 e8bb
00000370: 4fdb 9aba 1176 31ba ce61 25bc 2fc1 c1bb
00000380: 4734 89bb bb2a 9ebb cb18 c63b f7c7 c1bb
00000390: 8efd c9bb 8534 763b f145 273c 7352 363b
000003a0: 73f3 103a 4b26 f23a 530e 20bb 60dd 7238
000003b0: 9baa 403c 9732 013c 202b f039 d2a3 e53b
000003c0: da04 a2bb 8c69 3d3a a2b7 6e3b 5c7e 2bbc
000003d0: bc42 c53b bc44 c8bb bacf 44bc f6e7 32bb
000003e0: e8a6 39bb 97ea 9fbb af50 d7bb ffcf 493c
000003f0: d259 f5bb 8b58 49bc ffe4 2ebb 9bc9 063c
-0.004322402 0.006476755 0.004420714 -0.0006096793 -0.0008806997 -0.0052787242 0.010271804 -0.002776901
-0.0036405341 0.003750259 0.0044845426 -0.00477271 -0.0057265083 0.008589356 0.005381313 0.0113278255
0.0010544099 0.008343119 0.004371558 0.008461866 0.000895871 0.002489351 0.002254898 -0.0077689975
0.006208599 -0.001072266 -0.009198102 0.0016147832 -0.004529146 0.0031948357 -0.019877976 0.006314949
0.0029222635 -0.0025547077 0.009486097 -0.0104562435 0.014572091 0.0028327394 0.005069052 -0.0041815373
-0.0011100488 0.0027624618 0.0005921811 0.013770925 0.007425524 0.0013815433 0.0074176015 0.0025032288
0.015543631 -0.0011328922 0.0023402185 -0.00043458465 0.0017383114 -0.0015420517 -0.005862007 0.0032376037
-0.008818745 -0.0044835135 -0.0030517564 0.003222545 0.0064012655 -0.008473482 0.010392609 0.00057124597
-0.010487421 -0.0032030044 -0.0008419785 -0.009869999 -0.0022097004 0.004548864 -0.0012448155 -0.0024037217
-0.0012093293 -0.0006572962 0.0004692353 0.0034321237 0.007261989 -0.0058200485 -0.012484913 -0.0050949487
-0.00043576723 -0.007486742 -0.008511224 0.00039421982 -0.002128692 -0.0039451458 0.0065396237 0.0033324156
-0.0017105017 -0.00012934949 0.004742572 0.0044519654 0.0043091644 0.0062217712 -0.0012551732 -0.0039129476
0.011756857 -0.002663054 -0.004735578 0.002310771 -0.005287157 -0.018223582 0.001878676 0.015727792
0.0007837826 0.0041701957 -0.010966764 0.01645581 0.004965063 -0.0026660755 0.0051645483 -0.0010776006
0.006583591 0.0010714162 -0.0016130444 0.008625946 -0.0071166307 0.0007396531 -0.00257838 0.00021170071
0.005265936 0.011264082 0.013790361 -0.0067317584 0.0017438652 -0.0028050502 0.00530203 0.008064817
0.003989465 0.0006195726 0.012700401 0.0019873136 -0.003070018 0.0009045002 0.014490316 0.004080378
-0.0009768717 0.006914492 -0.0043671024 -0.00040972172 0.004485421 0.0018763796 -0.00072603475 -0.0050477935
0.004697331 0.0012775444 0.00085010857 -0.0038521737 0.0015199566 -0.0015466885 -0.0037718576 -0.0038590126
0.004801229 -0.0060319314 0.010228421 0.0005215233 -0.009388191 0.0022637432 -0.007918913 -0.011527981
0.004745967 0.0016979448 -0.003187262 -0.001954617 9.86719e-05 0.0053505376 -0.004675086 -0.00076809013
-0.00025285815 -0.0054384023 0.0032783349 -0.0012374236 -0.0088716 -0.010444883 -0.0058849766 0.003911983
-0.0012294918 0.010477074 0.0029859745 -0.002171698 -4.71043e-05 0.00525577 -0.0058524394 0.005051402
0.0060300203 -0.0030569097 0.0065551274 -0.00400337 -0.0020872392 0.0030687524 -0.0023457066 -0.010626705
-0.010746821 0.00013933235 -0.00037352956 0.00093551324 0.0010803994 0.0070048235 -0.0066342466 -0.0040133665
-0.004790779 -0.010856641 -0.00276471 -0.009733486 -0.0013715726 -0.0038467427 -0.0023398695 -0.004716921
0.008613442 0.0039418633 0.004115389 0.009495318 0.0013489913 0.013108768 3.1069754e-05 -0.006387832
-0.000563026 0.006211191 0.009967458 -0.0070959255 -0.0011814627 -0.00067696074 -0.010094119 -0.005912922
-0.00418714 -0.004826871 0.006045436 -0.0059137302 -0.0061642593 0.0037567925 0.010209546 0.002782014
0.0005529441 0.0018474547 -0.00244226 5.7903468e-05 0.0117594255 0.007885597 0.00045808498 0.0070080543
-0.004944426 0.00072255055 0.0036425372 -0.010467138 0.0060199182 -0.0061117094 -0.0120124165 -0.0027298904
-0.0028328244 -0.00488026 -0.0065708975 0.012317657 -0.007487514 -0.012289177 -0.0026686785 0.008226777

action_model._discrete_distribution.branches.3.weight f4 [2, 256]
00000000: 9254 debb 0df5 023b 1632 b33a 44c3 a33c
00000010: 6756 31bb 4c50 cabb fbae 15bc 7add b0bb
00000020: 7826 86bb 6a85 a5bb 7b44 c23b 0349 3b3c
00000030: dd7b 5cbb a985 10bc 37f0 e3ba d1eb 233b
00000040: cddf cc3b af58 6cba b56b d9bb 00a9 6c3b
00000050: 3d47 4d3a afce 163c 69c5 133c 5264 2cbc
00000060: 23d6 59bc 6f5f 36bb 2fa8 bdba f46e 953b
00000070: afbd 0fbb 8854 5d3c bc6f 30bb 1fbe 273b
00000080: d765 e4bb 0302 1b3b 883a 193c 8a4a 733a
00000090: 326f 28ba 5f75 073c 9bee 35ba 7ae1 a1bc
000000a0: aaa8 f0b9 ebf6 5c3c 7399 203c 674c 0cbb
000000b0: e245 d73a dd32 f43b 2954 c2bb 64d3 13bb
000000c0: 3b36 dfb9 671a 06bb 767f 39bc 0ce7 873c
000000d0: 0975 9a3b 487f 3abc 8b4b 6cbb d6a0 11bc
000000e0: b744 1e3a 5fd6 e5bb 70fb 243b 2aa5 c9bb
000000f0: 6c91 85bb d8b3 a53b c84b 503c 97e7 a8bb
00000100: e79d 463c ae20 cc3b 8d53 89bb c459 ccbb
00000110: 781b f2bb e754 3c3b 881a f0bb c5cb d4bb
00000120: 470c 96bb 1b04 513c 9f18 8eba c5b4 60bb
00000130: f5bf 24bb 72b5 f1bb 7a6a d8bb 87c8 963b
00000140: 51c6 a43b 52ff 0cbc 87dc eb3a eb67 5b3b
00000150: 5889 dd3a 0b89 9fbb 8f72 943b 87ec 31bc
00000160: 02dc c6ba dab2 d0b9 8dbd 43bc 83f0 1abc
00000170: b916 293b 630f 543c 492f 353b 7743 e5b9
00000180: b90b c63b c772 2bbb c4d5 1ebc 857d 47bb
00000190: 80ec b0b8 676b cabb 3f67 e23a c74c b0ba
000001a0: 7142 41bb 67a4 193b 457b 6d3a c79f 4ebb
000001b0: e947 973b 3fa6 a13b b5a1 e8ba 5969 c63a
000001c0: 9e2a c4bb 57fc 93bb aabe e43b 3bde b33b
000001d0: 78f4 dcbb 1d3d 2c3c 7449 493b daac 0c3c
000001e0: 0a41 7d3c 7a4e d039 0827 103b aaf6 b93b
000001f0: e94e 40bc 4faa f33b fa5d ebb9 beb4 1a3c
00000200: a287 d4bb e0ba 5f3b 0fff 883a 624b 643b
00000210: 474d 813c 2270 e1ba 6528 1d3c 9c1f 143b
00000220: 9299 f5bb 3aa2 b73b 2305 c03b 30cc 56bb
00000230: a0a1 56bc b8ba afbb d666 453b ab93 72bb
00000240: bf95 e2bb 2451 b0bb 9c5a 20bb af6f 813b
00000250: 2851 333a 9faa 24bc 98a4 26bb 2075 dfba
00000260: 6dfb deba 25fc 453b 87ad 6abc 8699 473c
00000270: 7b4f f9ba 6301 2d3c 65e6 2dba bd0d 5f3a
00000280: c730 d03a 830d d8ba 304c ae3a 5eeb ba3a
00000290: 0658 a4bb 4043 5ebb f5b2 fc3b 8bc8 3eba
000002a0: 839e 893a 9dde 613c aa53 093c cbb6 aa3b
000002b0: cd92 673c 7f53 823b 3a1d b43b 0f2e 0a3c
000002c0: 8339 8cba 1e0c 08bb ad0d f839 c282 683c
000002d0: d201 19ba 70e9 9fb9 19d8 23ba 1512 5f3b
000002e0: d271 ac3b a428 203b 9bdb e43a 8e71 013c
000002f0: 3874 5eb9 ef8f e4b9 07af 343b 957c aa3b
00000300: 8012 903a 9749 23bc 0f9b 6f3b 57ad 8ab9
00000310: 537a 1a3a d1b3 903b 9972 013c 9be5 2fbb
00000320: dd23 b63a 2937 c9bb f3f5 75ba 2354 5fbb
00000330: 0a41 8f3a 9327 673b 878c 61bc 1713 ee3b
00000340: cd96 453b 4f73 8a3b e45e 8fbc 94b1 08bb
00000350: 1d25 3abc 8067 503b 3f66 01bc fa2d b1bb
00000360: 7a2a 04bc 2b39 01bb 804e 463b 9861 e13b
00000370: 9f21 f03b bde9 ee3a 822d 1f3b 99c5 2bbc
00000380: e3f4 babb def5 27bc ebd4 9d3b 9e3d bd3b
00000390: 9a5c ddb8 0d7e 72bb 38cb 86bb d780 15bb
000003a0: bbe5 4f3c 0264 dbbb 7d5f 88bb 22b2 b43a
000003b0: 976f 13bc db68 6f3b 0fec 563b c73a 513b
000003c0: 36d4 c2ba 2f74 26bb 36b4 233c cbbf 38bc
000003d0: bff2 2cbc 0ae5 22bb 3080 583b aea9 2dbb
000003e0: 3ade d7bb e783 c53a b46e bb3a ccfd 44bb
000003f0: 4bb3 e8bb 23c3 3cbb 6827 613a 5fba 3e3b
-0.006784984 0.0019982487 0.0013671543 0.01999057 -0.0027059556 -0.006174123 -0.009135957 -0.005397496
-0.0040939413 -0.0050513046 0.0059285737 0.011430982 -0.0033643164 -0.00882093 -0.0017390315 0.0025012384
0.006252265 -0.00090159004 -0.006635154 0.0036111474 0.0007830745 0.009204551 0.009019234 -0.010521965
-0.013295683 -0.002782788 -0.0014469678 0.004560346 -0.0021933129 0.013508923 -0.0026922068 0.0025595499
-0.006970148 0.0023652322 0.009352334 0.00092808215 -0.0006425261 0.00826773 -0.0006940157 -0.019760836
-0.00045902032 0.013486604 0.00980221 -0.0021407844 0.0016424025 0.0074523524 -0.005930443 -0.0022556419
-0.0004257428 -0.0020462514 -0.011321893 0.016589664 0.0047136587 -0.011382885 -0.003605577 -0.008888444
0.0006037461 -0.0070140804 0.0025174282 -0.0061537223 -0.0040761735 0.0050568394 0.01271338 -0.005154561
0.012122608 0.0062294817 -0.004190868 -0.006236287 -0.0073885284 0.002873713 -0.0073273815 -0.006494018
-0.0045791003 0.0127573265 -0.0010841078 -0.0034287435 -0.002513883 -0.0073763663 -0.00660449 0.0046015414
0.005028524 -0.008605795 0.00179948 0.0033478688 0.0016901894 -0.0048686317 0.004530258 -0.010859615
-0.0015171769 -0.00039806106 -0.011947048 -0.0094567565 0.0025800897 0.012943122 0.0027646592 -0.0004372855
0.006043878 -0.0026160942 -0.00969452 -0.0030439806 -8.4363855e-05 -0.006177354 0.0017273201 -0.0013450616
-0.0029489065 0.0023443939 0.0009059201 -0.003152834 0.0046167267 0.004933148 -0.0017748388 0.0015137597
-0.0059865257 -0.0045161652 0.0069807367 0.0054891384 -0.00674301 0.010512617 0.0030713947 0.008586133
0.015457401 0.0003973132 0.002199592 0.0056751566 -0.011737564 0.007436074 -0.0004489271 0.009442506
-0.0064858953 0.0034138486 0.001045199 0.003483497 0.015783919 -0.0017199556 0.00959215 0.0022601848
-0.0074951136 0.0056040557 0.0058599873 -0.0032775514 -0.013100058 -0.005362835 0.003012111 -0.0037014286
-0.006914824 -0.0053807665 -0.002446807 0.0039500813 0.00068404013 -0.010050445 -0.0025427695 -0.0017048456
-0.0017012187 0.0030210104 -0.014323599 0.012182599 -0.0019020879 0.010559413 -0.0006633758 0.0008508822
0.0015883677 -0.0016483519 0.0013297852 0.0014260819 -0.005015376 -0.0033914596 0.007711763 -0.0007277808
0.0010499511 0.013785985 0.0083817635 0.005209779 0.014134121 0.0039772387 0.005496648 0.008433833
-0.0010698292 -0.0020759176 0.00047312435 0.014191331 -0.0005836758 -0.00030500768 -0.00062501576 0.0034037877
0.005262592 0.0024438286 0.0017460467 0.007900609 -0.00021214865 -0.00043594788 0.0027570145 0.0052028396
0.0010991842 -0.009966276 0.0036560928 -0.0002645056 0.00058928615 0.004415967 0.007900857 -0.0026839736
0.0013896186 -0.006140609 -0.00093826576 -0.003407725 0.0010929417 0.003527139 -0.0137664145 0.0072654593
0.0030149699 0.0042251716 -0.017501302 -0.0020857798 -0.011361388 0.0031799972 -0.0078979125 -0.005407092
-0.008066768 -0.0019717913 0.0030259192 0.006878089 0.0073282267 0.0018227618 0.00242886 -0.010484123
-0.0057054623 -0.01025149 0.0048166416 0.0057751676 -0.000105553496 -0.0037001402 -0.004113581 -0.002281239
0.012689049 -0.0066952715 -0.0041617737 0.0013785998 -0.008998773 0.0036531005 0.003279451 0.0031925903
-0.0014864269 -0.002539884 0.009991696 -0.011276196 -0.010555922 -0.0024855756 0.003303539 -0.0026498842
-0.006587771 0.0015069217 0.001429996 -0.0030058501 -0.0071014515 -0.0028802834 0.0008588941 0.0029102785

action_model._discrete_distribution.branches.3.bias f4 [2]
00000000: 0000 0000 0000 0000
0.0 0.0

onnx::Div_100 f4 [11]
00000000: 0000 803f 0000 803f 0000 803f 0000 803f
00000010: 0000 803f 0000 803f 0000 803f 0000 803f
00000020: 0000 803f 0000 803f 0000 803f
1.0 1.0 1.0 1.0 1.0 1.0 1.0 1.0
1.0 1.0 1.0
