results/B_1/Badminton.onnx (onnx, 299422 bytes, 15 tensors)

discrete_act_size_vector f4 [1, 4]
3.0 3.0 3.0 2.0
00000000: 0000 4040 0000 4040 0000 4040 0000 0040

network_body.observation_encoder.processors.0.normalizer.running_mean f4 [11]
-0.12802431 -0.053181928 0.6172864 0.4082778 5.2670407 -0.018445387 -0.33171508 0.0030172127
-2.1443257 1.8189894e-11 -5.3660187e-11
00000000: ce18 03be 4bd5 59bd 7b06 1e3f ca09 d13e
00000010: 998b a840 c81a 97bc 8fd6 a9be 6ebc 453b
00000020: a23c 09c0 0000 a02d 0000 6cae

network_body._body_endoder.seq_layers.0.weight f4 [256, 11]
0.8704263 0.18629119 0.48465186 0.1344614 -0.005659651 -0.63221455 0.37131014 -0.39686516
0.35794872 0.039144162 0.26415712 -0.26302674 -0.4182845 0.40756822 0.12504299 0.0016090677
0.2278051 0.4641033 -0.30031726 -0.46828738 0.251017 -0.2249082 0.08379831 -0.28923604
0.3077741 0.14109984 -0.23857696 -0.52434075 -0.28595996 -0.1012413 -0.06716639 0.15168162
0.5395204 0.32492283 -0.62661314 0.04457397 0.43730015 -0.7568733 -0.2567827 0.67931587
-0.25069556 0.23163609 -0.32402852 0.007105016 0.0872835 -0.78290373 -0.4409311 -0.32131428
-0.7987672 -0.21721849 0.5136892 0.0034129266 -0.2708348 0.22838145 0.29518187 -0.6195345
0.3541966 -0.124901734 0.23859908 -0.30552405 -0.26184598 0.52298236 -0.01893304 -0.7151521
0.3569506 0.05172788 -0.49922532 0.25080404 0.33522546 -0.11207395 0.03080496 -0.116288394
0.10572043 0.3025999 -0.008584166 -0.04709465 0.4649552 0.2547193 -0.1602754 0.40726772
0.37804404 0.30303282 0.72006035 -0.375251 0.15917777 0.9165776 -0.051007483 0.3084787
-0.0016203861 0.3991225 0.47992608 0.38757563 0.10120506 -0.041328415 0.33278605 0.16855489
-0.037898622 -0.58367527 -0.11199762 -0.0876049 0.281754 -0.0130586345 0.88364655 -0.06958057
0.09331146 -0.2790965 -0.010048 -0.048343126 0.16996174 0.17136954 0.59541136 0.30543733
0.06362471 0.11740802 -0.0035542871 0.105979174 0.11370885 -0.0923534 -0.41097173 0.051825162
-0.101241924 -0.2702795 0.34222698 0.01589301 0.6403148 0.0021156906 0.08693869 -0.20451283
0.36082727 -0.16268417 -0.075823046 -0.22898519 0.36344543 -0.3065409 0.40288922 -0.082638696
0.2931721 -0.15659972 0.58958906 0.094546154 -0.24996379 -0.10387843 0.11395419 -0.10780893
-0.15658015 0.19548108 0.27302435 -0.7336548 0.034363426 -0.5346787 0.5957005 0.0710709
0.4496829 -0.14947923 -0.15581241 0.012211684 -0.0720731 -0.23053443 0.69942164 -0.27676782
0.08852983 -0.41199875 -0.020114258 0.29877687 -0.45332533 0.3940254 0.43493295 0.011730442
0.3486242 0.0060754325 0.11124356 0.2882463 0.17150916 -0.27926406 -0.11437079 0.63225335
-0.13748859 0.58686227 0.015920123 0.4496791 -0.028911436 0.2775403 -0.17878751 -0.14942071
0.046267238 -0.064519346 -0.1704812 0.28965902 0.023658771 -0.3234219 0.030059371 -0.34631792
0.09637962 0.24204716 -0.120020956 -0.13564022 0.1824454 -0.13377078 0.4264394 -0.3179025
-0.00750412 0.21694146 -0.1347408 -0.120116256 0.31470504 0.0699893 0.01920111 0.09442844
0.2758246 0.17268427 -0.06837281 0.18667857 0.23666264 0.095157064 0.0009468106 0.01384944
0.63050586 -0.08818531 0.013979412 -0.10300534 0.011905247 -0.4408276 -0.502962 -0.038126107
0.44786754 0.08834926 -0.116589546 0.20225163 0.0907923 -0.07828054 0.051940512 0.57795817
-0.12617101 -0.07724199 0.44747755 0.26979816 0.2649565 0.027247082 -0.06636759 0.17940648
0.10510757 -0.23835082 -0.039353766 -0.06721264 0.07709541 -0.38072038 0.23749015 0.02139551
0.4546238 -0.36397275 -0.23465957 -0.56386346 -0.49431092 -0.03865664 0.11105806 0.4072746
00000000: 42d4 5e3f 1ec3 3e3e 4a24 f83e 40b0 093e
00000010: 9874 b9bb d0d8 21bf 5d1c be3e e931 cbbe
00000020: 0e45 b73e a155 203d 9a3f 873e 71ab 86be
00000030: 6329 d6be c8ac d03e 450b 003e 5ae7 d23a
00000040: bd45 693e f39e ed3e 2fc3 99be 5dc3 efbe
00000050: 4d85 803e 564e 66be 739e ab3d bf16 94be
00000060: 9194 9d3e 7a7c 103e 854d 74be 323b 06bf
00000070: 5869 92be 9957 cfbd 888e 89bd 6d52 1b3e
00000080: 021e 0a3f 495c a63e b869 20bf 3293 363d
00000090: cee5 df3e 73c2 41bf 0679 83be a5e7 2d3f
000000a0: 2b5b 80be 0332 6d3e 11e7 a5be 32d1 e83b
000000b0: b1c1 b23d 616c 48bf b9c1 e1be 4e83 a4be
000000c0: 027c 4cbf 866e 5ebe 2381 033f 68ab 5f3b
000000d0: dcaa 8abe d4dc 693e 1422 973e d099 1ebf
000000e0: 4259 b53e 7bcc ffbd 5153 743e a66d 9cbe
000000f0: ad10 86be 2ce2 053f 7619 9bbc 3514 37bf
00000100: 3bc2 b63e 9de0 533d 769a ffbe 6369 803e
00000110: aca2 ab3e 0787 e5bd af5a fc3c 9c28 eebd
00000120: f483 d83d 60ee 9a3e 9aa4 0cbc 52e6 40bd
00000130: 9c0e ee3e 916a 823e 3c1f 24be 6585 d03e
00000140: fd8e c13e 1e27 9b3e e055 383f e620 c0be
00000150: 7fff 223e d4a4 6a3f 39ed 50bd ecf0 9d3e
00000160: 2363 d4ba c959 cc3e dfb8 f53e 5070 c63e
00000170: 9944 cf3d fc47 29bd ef62 aa3e a799 2c3e
00000180: 963b 1bbd be6b 15bf 025f e5bd 336a b3bd
00000190: 0f42 903e e2f3 55bc a936 623f 4280 8ebd
000001a0: 141a bf3d bde5 8ebe 5ea0 24bc 7103 46bd
000001b0: 730a 2e3e 7f7b 2f3e e16c 183f 4862 9c3e
000001c0: ac4d 823d 9e73 f03d 0bef 68bb 9c0b d93d
000001d0: 30e0 e83d c823 bdbd e36a d2be 9f46 543d
000001e0: ed57 cfbd 1362 8abe 6038 af3e 0f32 823c
000001f0: aceb 233f 66a7 0a3b e90c b23d d06b 51be
00000200: 5abe b83e ae96 26be 1d49 9bbd 187b 6abe
00000210: 8515 ba3e eef2 9cbe 7f47 ce3e 7a3e a9bd
00000220: a71a 963e ad5b 20be 4fef 163f 6aa1 c13d
00000230: 82f6 7fbe 37be d4bd d060 e93d eeca dcbd
00000240: 8c56 20be 312c 483e d9c9 8b3e cdd0 3bbf
00000250: aac0 0c3d b4e0 08bf d47f 183f 9f8d 913d
00000260: d63c e63e 1511 19be 4a8d 1fbe 8413 483c
00000270: 109b 93bd 3811 6cbe 4c0d 333f 83b4 8dbe
00000280: 214f b53d 80f1 d2be a8c6 a4bc 48f9 983e
00000290: 421a e8be b2bd c93e 88af de3e 0a31 403c
000002a0: df7e b23e 6c14 c73b aad3 e33d 0595 933e
000002b0: 19a0 2f3e b3fb 8ebe 3c3b eabd 5bdb 213f
000002c0: cfc9 0cbe 9b3c 163f eb6a 823c 573c e63e
000002d0: add7 ecbc c319 8e3e 1314 37be be01 19be
000002e0: b782 3d3d b822 84bd a092 2ebe 304e 943e
000002f0: 0ad0 c13c 8e97 a5be 123f f63c 9550 b1be
00000300: ae62 c53d 36db 773e 8ccd f5bd 45e5 0abe
00000310: f8d2 3a3e 35fb 08be 4456 da3e 1ec4 a2be
00000320: 1fe5 f5bb e725 5e3e 7ef9 09be 83ff f5bd
00000330: 0521 a13e 8d56 8f3d a54b 9d3c b363 c13d
00000340: e238 8d3e 25d4 303e 0b07 8cbd ab28 3f3e
00000350: b157 723e b5e1 c23d 6233 783a c3e8 623c
00000360: d568 213f 809a b4bd e709 653c 77f4 d2bd
00000370: 3a0e 433c 28b4 e1be 1ec2 00bf 1f2a 1cbd
00000380: e54e e53e 75f0 b43d 80c6 eebd 0d1b 4f3e
00000390: 50f1 b93d 8c51 a0bd 93bf 543d 11f5 133f
000003a0: f932 01be 0c31 9ebd c71b e53e fc22 8a3e
000003b0: 61a8 873e 4635 df3c bbeb 87bd 55b6 373e
000003c0: a342 d73d 3d12 74be 6a31 21bd c8a6 89bd
000003d0: 33e4 9d3d c8ed c2be 9e30 733e a345 af3c
000003e0: 73c4 e83e a35a babe 994a 70be 5b59 10bf
000003f0: 5216 fdbe 6d56 1ebd 6872 e33d 4c86 d03e

network_body._body_endoder.seq_layers.0.bias f4 [256]
-0.002037832 0.056551334 0.025979586 0.07488474 0.02874782 0.042777147 -0.013935077 0.03082347
0.06372728 0.07713704 0.016409105 0.06379288 0.044674285 0.047960237 0.006232321 0.0061752084
0.046060562 0.009847207 0.048573125 0.03450048 0.09046654 0.073397465 0.017385086 0.03488361
0.015679494 0.048638582 0.012304156 0.014102981 0.0809271 0.0133862505 -0.004909734 0.0051356894
0.036326777 0.030108225 0.017459704 0.021696921 0.0013635508 0.027581546 0.03833344 0.007149422
0.008211448 0.03010642 0.06977876 0.008953063 0.06382012 0.01354511 -0.0020493588 0.0002763632
0.02286965 -0.022563467 0.03739335 0.007977387 -0.0027512168 0.0038678779 0.034312055 -0.028725442
-0.019709656 0.03528953 -0.0046381867 0.032490227 0.021504432 0.09429246 -0.0120899035 0.052657083
-0.02122727 -0.018134201 0.0760528 0.0082616005 -0.009223441 0.047349762 -0.022775132 0.024346577
-0.03870635 0.013542742 0.033829544 0.09824013 -0.02859993 0.020777434 0.0017870829 0.033672526
0.07133141 0.039860364 0.039452896 -0.033170685 0.033791855 0.035421744 -0.046593495 0.043727256
0.059514206 0.0038866182 0.032435562 -0.013239838 0.011689976 0.017981654 0.013079122 0.065626316
0.061373115 0.042430624 0.052879028 0.034848683 0.016451903 0.06496005 0.010148315 0.030890988
0.02430949 0.05879977 0.025200134 0.049641214 0.009289586 0.0066730347 0.034573387 0.026550027
0.023873443 0.022973089 0.06505358 0.070346504 0.05393883 0.02247124 0.0056197364 0.03166357
0.0359873 0.0009438482 -0.011346392 0.012319002 -0.019154092 0.005050636 0.07527029 0.035807453
0.036235217 -0.012102917 -0.008989822 0.026418539 0.033662103 -0.030965276 0.07556546 -0.0060738013
0.038440175 0.022840757 0.0145392 0.008445136 0.009684953 0.00038188323 -8.5648506e-05 0.043171342
0.033273675 0.024959462 0.073374175 0.019460661 0.020808602 -0.014381776 0.021519206 0.038936123
0.00976759 -0.014705169 0.0030916035 0.03202041 0.013198152 -0.01734038 0.016226307 0.055035587
0.010740729 -0.0141812945 0.06319391 0.047064222 0.024865108 0.07496732 0.020834224 0.030441104
0.08342286 0.025690012 0.073336616 0.036785074 -0.012268568 0.048741434 0.016819747 0.086828075
0.061835952 -0.029174453 0.035645254 0.024416603 -0.038432706 0.015545641 0.0067916377 0.012805944
0.04382106 -0.012199729 0.05162486 -0.026419874 0.06530548 -0.024335518 0.013563587 0.020908274
0.019799368 0.013659433 0.006293553 0.020603921 0.040230498 -0.022536695 -0.0068969456 0.034897
0.07697448 -0.0009726802 0.11043948 0.043567132 0.06715733 0.050752077 0.054458797 0.01732309
0.06829131 0.070433006 0.047139063 -0.015722483 0.013700862 0.020656746 0.06799143 0.05910431
0.053767044 0.044034284 0.020868769 -0.02112548 0.043218013 0.051040765 0.009282096 0.015809247
0.033662744 -0.015324193 0.083106935 -0.0121212825 -0.00040031664 0.017743666 0.020110331 0.04948542
0.06537284 0.013690762 0.013600421 0.047982544 0.07674513 -0.01568424 0.056379553 -0.025805581
0.08239582 0.011924712 0.009121287 0.060182933 -0.009029304 0.010554106 0.051541395 0.033073477
0.030741371 0.101899646 0.064071566 -0.021134583 0.013844136 0.060719598 0.013674057 0.06387412
00000000: 268d 05bb 5fa2 673d 24d3 d43c 2c5d 993d
00000010: 8c80 eb3c 1737 2f3d f34f 64bc 8081 fc3c
00000020: 7383 823d 06fa 9d3d 636c 863c d7a5 823d
00000030: 62fc 363d f471 443d 7f38 cc3b 6759 ca3b
00000040: 00aa 3c3d 2e56 213c 9df4 463d 6050 0d3d
00000050: 8546 b93d 6951 963d 2b6b 8e3c 1ee2 0e3d
00000060: 4872 803c 4039 473d 5f97 493c 3110 673c
00000070: 1bbd a53d 0152 5b3c d5e1 a0bb 4949 a83b
00000080: 63cb 143d 86a5 f63c a707 8f3c bebd b13c
00000090: 2cb9 b23a b2f2 e13c 8603 1d3d b345 ea3b
000000a0: 4f89 063c bda1 f63c 2be8 8e3d deaf 123c
000000b0: 20b4 823d 4fec 5d3c 894e 06bb d7e4 9039
000000c0: 2259 bb3c 05d7 b8bc c529 193d 96b3 023c
000000d0: c24d 34bb 397c 7d3b cc8a 0c3d 9e51 ebbc
000000e0: 2576 a1bc c18b 103d eefb 97bb 7914 053d
000000f0: 102a b03c 681c c13d bb14 46bc f4ae 573d
00000100: d0e4 adbc 2d8e 94bc 92c1 9b3d aa5b 073c
00000110: ea1d 17bc d3f1 413d ea92 babc 7972 c73c
00000120: 8d8a 1ebd 60e2 5d3c d990 0a3d 1f32 c93d
00000130: 674a eabc 7035 aa3c 8d3c ea3a 34ec 093d
00000140: 3416 923d 9f44 233d 5c99 213d fcdd 07bd
00000150: 5469 0a3d 6416 113d d2d8 3ebd 5a1b 333d
00000160: 2bc5 733d a2b6 7e3b 27db 043d e8eb 58bc
00000170: 5087 3f3c 434e 933c d049 563c 1767 863d
00000180: 6062 7b3d bccb 2d3d ae97 583d 7ebd 0e3d
00000190: 24c6 863c c609 853d 1e45 263c 190f fd3c
000001a0: b224 c73c 07d8 703d 8370 ce3c 9654 4b3d
000001b0: 5933 183c 79a9 da3b d39c 0d3d 717f d93c
000001c0: 3d92 c33c 0f32 bc3c d03a 853d d411 903d
000001d0: f6ee 5c3d 9b15 b83c c425 b83b a9b1 013d
000001e0: 6b67 133d 956c 773a 38e6 39bc a4d5 493c
000001f0: 0be9 9cbc ce7f a53b 4f27 9a3d d6aa 123d
00000200: 616b 143d 504b 46bc 0c4a 13bc b16b d83c
00000210: 46e1 093d e4aa fdbc 10c2 9a3d bd06 c7bb
00000220: 7273 1d3d 8a1c bb3c d335 6e3c 785d 0a3c
00000230: a3ad 1e3c 8037 c839 319e b3b8 6fd4 303d
00000240: fa49 083d c977 cc3c 3345 963d f76b 9f3c
00000250: cd76 aa3c 8aa1 6bbc 0c49 b03c 7c7b 1f3d
00000260: 3e08 203c f3ed 70bc 809c 4a3b d527 033d
00000270: 103d 583c 6a0d 8ebc 08ed 843c ff6c 613d
00000280: e2f9 2f3c a958 68bc cf6b 813d 6ac6 403d
00000290: e9b1 cb3c 7788 993d 89ac aa3c 9f5f f93c
000002a0: 9bd9 aa3d dc73 d23c 8231 963d f2ab 163d
000002b0: 1b02 49bc 19a5 473d 91c9 893c ebd2 b13d
000002c0: b247 7d3d 43ff eebc c200 123d 5405 c83c
000002d0: 9d6b 1dbd 25b3 7e3c 638c de3b 06d0 513c
000002e0: b67d 333d 5fe1 47bc 9774 533d 7e6e d8bc
000002f0: e1be 853d 485b c7bc cf39 5e3c d447 ab3c
00000300: 4932 a23c d1cb 5f3c 263a ce3b 8ec9 a83c
00000310: bcc8 243d e09e b8bc c6ff e1bb 28f0 0e3d
00000320: cca4 9d3d 77fb 7eba 182e e23d 7373 323d
00000330: c889 893d 69e1 4f3d 3010 5f3d 27e9 8d3c
00000340: 50dc 8b3d 2e3f 903d e414 413d 70cc 80bc
00000350: 9579 603c 5638 a93c 173f 8b3d 5c17 723d
00000360: d53a 5c3d 4b5d 343d fbf4 aa3c 580f adbc
00000370: 5f05 313d 1f10 513d ef13 183c 6582 813c
00000380: f2e1 093d 5312 7bbc f833 aa3d 5898 46bc
00000390: 97e1 d1b9 2a5b 913c 6cbe a43c 39b1 4a3d
000003a0: 32e2 853d 384f 603c 4dd4 5e3c 5889 443d
000003b0: 8d2c 9d3d 3c7c 80bc 3fee 663d 3a66 d3bc
000003c0: 24bf a83d de5f 433c 7371 153c 6182 763d
000003d0: a5ef 13bc 21eb 2c3c 121d 533d 0e78 073d
000003e0: 54d5 fb3c c3b0 d03d f437 833d 6f22 adbc
000003f0: 84d2 623c 1db5 783d 2709 603c 6fd0 823d

network_body._body_endoder.seq_layers.2.weight f4 [256, 256]
-0.007802138 -0.1995418 0.04735999 -0.01043328 -0.009360392 0.11061172 -0.020968882 0.052167427
0.07476733 -0.10240756 -0.041201703 -0.09074347 0.01109488 0.074951746 0.060711294 0.050600514
-0.03223506 -0.036972545 -0.022989104 -0.021157255 -0.14229104 0.017113492 0.104880646 -0.029853884
0.039826147 0.10058981 -0.10677066 -0.069344856 -0.019012792 0.012489944 -0.009662816 -0.060073588
-0.03594232 -0.053869665 0.08491822 -0.057460625 -0.063879415 0.006964567 0.014643858 0.035061043
0.09858954 -0.06047146 -0.0016670389 -0.11150489 -0.091130465 -0.0021985897 0.074638195 0.07924338
0.073264435 -0.038488425 0.01000027 0.028255839 -0.12947614 -0.026001014 0.027304988 -0.024166036
-0.01107704 -0.009934379 0.08546727 -0.0020303063 -0.04596231 -0.0036273545 0.067628354 -0.10185489
-0.043945786 -0.035744254 -0.08310092 -0.054118782 -0.002834432 0.085337915 -0.070883915 0.016750917
0.079285726 -0.023381568 0.09473349 0.04881584 -0.018012587 -0.04249126 -0.10106345 -0.022511652
-0.023121877 0.010645026 0.026679095 0.032812767 0.10068561 0.07151081 -0.00484664 0.071468815
-0.0031977927 0.05607909 0.05854064 0.013242665 -0.014072458 0.043026455 -0.06259155 0.046128683
-0.09561915 -0.0124921575 0.011218444 0.006279197 0.001307443 0.08550099 0.08871272 0.09622295
-0.020786114 0.041047536 0.012293774 -0.12042253 -0.007800954 -0.07701467 0.0929788 0.08375705
-0.0342325 0.08293076 0.1463236 0.04007863 -0.08842456 -0.07781341 -0.027526768 0.0057003475
-0.108107954 -0.088259496 0.04789138 0.041286908 0.017741175 -0.055255976 -0.11506129 -0.052384228
0.07339351 -0.052022602 0.037253484 -0.07276674 -0.09499699 -0.089745715 -0.036456175 -0.08273301
-0.064574726 0.051914774 -0.15061052 -0.04616678 0.06370029 0.06502808 -0.014063869 0.032767925
-0.0179477 0.0016612601 0.022899996 0.013112859 0.008847499 -0.035526183 0.017932445 -0.0343302
-0.010215646 0.006230987 -0.01671185 0.056953605 0.04767334 -0.020255229 0.09925499 -0.06950542
0.018035427 -9.134888e-05 -0.024330353 0.03501798 0.10659072 -0.10770726 -0.09728192 -0.015594714
0.0071298415 0.07568033 -0.078915484 0.036043476 0.053673442 -0.032453816 -0.015803182 -0.01882403
0.11740996 0.00056095974 -0.024911663 0.020677833 -0.037186638 0.050386876 -0.08608046 0.098044485
0.027235053 0.061455943 -0.0792726 0.036283124 -0.03134911 -0.021060336 -0.05675357 -0.061160233
-0.005567302 -0.0040323697 -0.11614199 -0.09767359 -0.15231241 -0.05899704 0.018130198 0.022663403
-0.0899545 0.09733537 -0.022220649 0.058300547 0.032266468 0.031180585 -0.033235937 0.040389556
-0.097030215 0.017895475 0.07078975 -0.03955935 -0.06942051 0.03714253 -0.08085381 0.004385584
-0.09074654 -0.13942285 -0.0401934 -0.082512215 -0.024926467 0.17102715 0.041474953 0.044971187
0.06413946 0.011986047 -0.050856736 0.23900865 -0.03138014 -0.11011337 0.15369177 0.17662701
-0.033883266 0.039175734 -0.068333924 -0.020614812 -0.011417948 0.083824895 0.14922479 0.031231642
0.003884679 -0.058156975 0.048294026 0.026291113 -0.045206126 0.04609109 0.011113071 0.13466328
-0.08283603 0.059418336 0.032321174 0.07591453 -0.06318502 -0.075782366 0.030932626 -0.13618867
00000000: 14a9 ffbb b054 4cbe 8dfc 413d 59f0 2abc
00000010: 545c 19bc 6688 e23d efc6 abbc 83ad 553d
00000020: 9d1f 993d 0ebb d1bd 1ec3 28bd b6d7 b9bd
00000030: 4dc7 353c 4d80 993d 68ac 783d 7c42 4f3d
00000040: e908 04bd 8670 17bd a553 bcbc fb51 adbc
00000050: beb4 11be 9831 8c3c aacb d63d 2290 f4bc
00000060: be20 233d 0802 ce3d 93aa dabd ad04 8ebd
00000070: b7c0 9bbc 9fa2 4c3c ca50 1ebc b90f 76bd
00000080: 4138 13bd 70a6 5cbd 9be9 ad3d d55b 6bbd
00000090: 36d3 82bd 0637 e43b cbec 6f3c 2b9c 0f3d
000000a0: 50e9 c93d ecb0 77bd 8b80 daba ad5c e4bd
000000b0: 9ca2 babd 3716 10bb e9db 983d 5a4a a23d
000000c0: aa0b 963d 0aa6 1dbd 2cd8 233c ca78 e73c
000000d0: 6595 04be 1400 d5bc b6ae df3c daf7 c5bc
000000e0: 797c 35bc cec3 22bc 7709 af3d e30e 05bb
000000f0: fa42 3cbd e9b8 6dbb bc80 8a3d 4c99 d0bd
00000100: 7f00 34bd 9168 12bd d130 aabd a8ab 5dbd
00000110: e1c1 39bb a5c5 ae3d 962b 91bd 3839 893c
00000120: 8e60 a23d b48a bfbc a203 c23d 1ef3 473d
00000130: 228f 93bc 510b 2ebd 5bfa cebd 5b6a b8bc
00000140: 176a bdbc 7a68 2e3c 1e8e da3c ae66 063d
00000150: 4234 ce3d 4274 923d 90d0 9ebb 3e5e 923d
00000160: 0f92 51bb 30b3 653d 4fc8 6f3d c3f7 583c
00000170: 2b90 66bc 823c 303d 0030 80bd 6ef1 3c3d
00000180: f9d3 c3bd e8ab 4cbc 91cd 373c b9c1 cd3b
00000190: 825e ab3a 251b af3d 04af b53d 8a10 c53d
000001a0: a447 aabc 7621 283d d36b 493c 16a0 f6bd
000001b0: 259f ffbb deb9 9dbd ab6b be3d d188 ab3d
000001c0: 6137 0cbd 9ad7 a93d dbd5 153e 7d29 243d
000001d0: f017 b5bd a35c 9fbd d17f e1bc fbc9 ba3b
000001e0: b467 ddbd 65c1 b4bd c029 443d 761c 293d
000001f0: f155 913c 1754 62bd 41a5 ebbd d890 56bd
00000200: 564f 963d a715 55bd 1c97 183d bb06 95bd
00000210: c88d c2bd 9acc b7bd 1253 15bd ed6f a9bd
00000220: c13f 84bd 96a4 543d a539 1abe 6119 3dbd
00000230: 4c75 823d 712d 853d 246c 66bc a937 063d
00000240: 0e07 93bc a4be d93a c698 bb3c 51d7 563c
00000250: 1af5 103c e783 11bd 10e7 923c d39d 0cbd
00000260: 865f 27bc 4f2d cc3b 4ae7 88bc 2f48 693d
00000270: 1f45 433d 4bee a5bc 3346 cb3d dc58 8ebd
00000280: 08bf 933c 8e92 bfb8 7350 c7bc 036f 0f3d
00000290: 3c4c da3d a095 dcbd be3b c7bd f980 7fbc
000002a0: 72a1 e93b 4afe 9a3d 719e a1bd 53a2 133d
000002b0: afd8 5b3d 4bee 04bd ad75 81bc da34 9abc
000002c0: a274 f03d 5f0d 133a 8b13 ccbc 8f64 a93c
000002d0: 0451 18bd 7862 4e3d f44a b0bd 8ccb c83d
000002e0: 0c1c df3c 3ab9 7b3d ac59 a2bd 9d9d 143d
000002f0: ed67 00bd ba86 acbc 6e76 68bd 2783 7abd
00000300: ea6d b6bb f821 84bb dadb edbd 1709 c8bd
00000310: c9f7 1bbe e1a6 71bd c885 943c 9aa8 b93c
00000320: 113a b8bd c457 c73d 1408 b6bc 8ecc 6e3d
00000330: d829 043d 6d6e ff3c 6822 08bd 856f 253d
00000340: c7b7 c6bd 8899 923c 37fa 903d fc08 22bd
00000350: 572c 8ebd c422 183d af96 a5bd f2b4 8f3b
00000360: 52d9 b9bd ddc4 0ebe d6a1 24bd 2afc a8bd
00000370: 9732 ccbc be21 2f3e a4e1 293d b533 383d
00000380: 8d5b 833d 2061 443c 274f 50bd afbe 743e
00000390: 7688 00bd 1e83 e1bd 6061 1d3e b6dd 343e
000003a0: 2ec9 0abd bc76 203d a8f2 8bbd 65e0 a8bc
000003b0: 5812 3bbc 63ac ab3d 62ce 183e 80d9 ff3c
000003c0: 1996 7e3b 0236 6ebd f5cf 453d 7660 d73c
000003d0: 0f2a 39bd 03ca 3c3d 9913 363c 2ce5 093e
000003e0: f0a5 a9bd a460 733d 3563 043d 1479 9b3d
000003f0: 2667 81bd c933 9bbd 6b66 fd3c 0b75 0bbe

network_body._body_endoder.seq_layers.2.bias f4 [256]
0.009725859 -0.025902625 0.037494417 0.03668342 0.039903987 0.0029481628 -0.004206954 -0.017664135
0.0066312184 0.008773755 0.021936545 0.019755168 0.018158488 0.04244509 0.04937207 0.008004607
-0.019421142 -0.02725885 0.040784676 -0.011730647 -0.023959646 -0.004437774 0.036837965 0.046619922
0.0028235584 0.02790879 -0.031847585 -0.018548235 -0.0152943265 0.01699421 0.026649352 0.034830626
0.0045983475 -0.0028361555 0.010414622 0.012674447 0.008617514 -0.017686915 -0.037840944 0.004420513
-0.032625586 -0.025771203 0.0146392975 -0.03576642 0.021396456 0.021051832 -0.031312026 0.012255046
0.052395843 0.038480833 -0.018029816 0.05875054 -0.00096726127 0.028407428 -0.0041984576 0.017424934
-0.030065509 0.015426205 -0.023482844 -0.011661883 0.02218907 0.0021126308 0.0017380096 0.015514411
0.0014028691 -0.01100446 -0.032424685 -0.02573953 0.073996566 -0.014030801 0.033236165 0.0511584
0.028189877 -0.027234875 -0.0046814056 0.014546283 0.055363007 0.0065236297 0.012931638 0.008109056
-0.014633557 0.007639595 0.035386045 0.040626094 0.011460594 0.012839539 -0.010436299 -0.015953775
-0.0070859636 0.027988557 0.015977228 0.028968498 0.016909486 -0.017801587 -0.014212879 0.011771873
-0.011344861 0.016783245 0.013623345 0.0051276493 0.040860083 -0.00024987076 -0.0032307995 0.028752144
0.010312151 0.022311844 0.03721284 0.020626131 -0.016724978 0.02588929 0.028878553 0.006602641
-0.027831813 0.05564105 0.034662567 -0.016413987 -0.0051845894 0.045740016 0.016209787 0.08692103
-0.0073171123 0.043440767 -0.016816864 -0.024243603 0.011148483 0.011087986 -0.002011071 0.05365677
-0.014608887 0.0051692324 0.020036299 0.021817122 -0.019754585 -0.0042977454 0.025726017 -0.0037900594
0.004543863 -0.0039268625 0.012531547 -0.0009793792 0.0020964278 0.04742849 0.015628241 0.028473767
0.036494743 -0.009741894 0.0153983375 -0.0048227306 0.023271812 -0.018031083 -0.03615179 0.050598226
-0.0066928323 -0.009355582 -0.007890729 -0.020234924 0.036456577 0.00930625 -0.0258454 0.0149142295
-0.0379012 -0.021586495 0.008488679 0.010642829 -1.8295166e-05 0.026007902 -0.010627907 -0.015495452
0.028746225 -0.0067113927 -0.011382116 -0.015309698 0.023917207 0.02969262 -0.008546797 0.019003421
-0.018045325 -0.001443775 -0.011783246 -0.016220236 -0.0011541122 0.0012042974 0.0048789224 -0.011706574
0.0083874585 0.005715836 0.005417437 0.013258404 -0.005929744 0.039962444 -0.005199743 -0.012735378
-0.002097955 0.033576384 0.01167563 0.010004439 0.022271631 0.024672383 0.00513156 0.008032062
-0.038430482 0.0003483848 0.042275053 0.017496608 0.013242847 -0.02256928 0.039207816 -0.01498527
0.07320084 0.011912705 0.006158445 -0.0059387553 -0.0033285038 0.017809147 -0.0073321043 0.023397597
0.044197686 -0.03279242 -0.006236337 -0.001634489 -0.00058300974 0.018525189 0.0045357044 -0.0008390594
0.022006854 0.048421305 0.001649336 -0.0029611636 -0.023655074 0.021634972 0.019261908 -0.0017042957
-0.012328122 -0.0077923825 -0.03087349 -0.017107295 0.018525813 0.008453644 0.023793625 0.049376324
-0.017594414 0.022271384 0.019363575 0.011699175 0.000936485 -0.017097028 -0.01705425 -0.01651721
0.027008533 0.02574191 0.01705573 -0.01535283 0.042012345 0.0057020015 -0.03428147 0.039600477
00000000: 3659 1f3c be31 d4bc bf93 193d 5b41 163d
00000010: 5d72 233d f735 413b 7dda 89bb 60b4 90bc
00000020: b14a d93b ccbf 0f3c 45b4 b33c 97d5 a13c
00000030: 1cc1 943c e7da 2d3d 5e3a 4a3d c125 033c
00000040: 1619 9fbc f44d dfbc d50d 273d e631 40bc
00000050: 0547 c4bc bf6a 91bb 68e3 163d 88f4 3e3d
00000060: 730b 393b faa0 e43c 9d72 02bd 78f2 97bc
00000070: 0e95 7abc 7137 8b3c be4f da3c 8faa 0e3d
00000080: bcad 963b cbde 39bb 17a2 2a3c 7ca8 4f3c
00000090: 7930 0d3c 26e4 90bc 1bff 1abd f3d9 903b
000000a0: 68a2 05bd 211e d3bc aad9 6f3c cf7f 12bd
000000b0: 9f47 af3c e474 ac3c 0a41 00bd 63c9 483c
000000c0: 069d 563d 149e 1d3d 44b3 93bc 68a4 703d
000000d0: ce8f 7dba b2b6 e83c 3793 89bb bcbe 8e3c
000000e0: f14b f6bc 31be 7c3c 185f c0bc 7c11 3fbc
000000f0: dac5 b53c 1074 0a3b edcd e33a 2830 7e3c
00000100: 7ae0 b73a 0d4c 34bc bfcf 04bd b5db d2bc
00000110: 838b 973d 72e1 65bc a522 083d 788b 513d
00000120: 75ee e63c ac1b dfbc 7a66 99bb 8853 6e3c
00000130: 52c4 623d 2cc4 d53b 39df 533c d9db 043c
00000140: 96c1 6fbc 9155 fa3b f5f0 103d 8c67 263d
00000150: 37c5 3b3c ee5c 523c 03fd 2abc 7eb1 82bc
00000160: 5f31 e8bb 4248 e53c ade2 823c 584f ed3c
00000170: c385 8a3c a2d4 91bc 23dd 68bc d0de 403c
00000180: ccdf 39bc 047d 893c 7334 5f3c d705 a83b
00000190: e75c 273d 1601 83b9 d2bb 53bb 9e89 eb3c
000001a0: 4cf4 283c 54c7 b63c 7e6c 183d 22f8 a83c
000001b0: d202 89bc c715 d43c b792 ec3c f85a d83b
000001c0: 8bff e3bc dfe7 633d 56fa 0d3d a076 86bc
000001d0: 7de3 a9bb e259 3b3d 63ca 843c a703 b23d
000001e0: 63c4 efbb f2ee 313d 85c3 89bc 859a c6bc
000001f0: 20a8 363c 62aa 353c 2ccc 03bb 34c7 5b3d
00000200: 1d5a 6fbc aa62 a93b 2a23 a43c d2b9 b23c
00000210: 5ed4 a1bc 1ad4 8cbb 5ebf d23c a562 78bb
00000220: afe4 943b e9ac 80bb 1e51 4d3c 835e 80ba
00000230: 3964 093b 6044 423d cc06 803c d141 e93c
00000240: 837b 153d 779c 1fbc 4f49 7c3c ff07 9ebb
00000250: 87a4 be3c ecb5 93bc e613 14bd 1640 4f3d
00000260: 8c4f dbbb 2848 19bc 1e48 01bc b6c3 a5bc
00000270: 7e53 153d 3e79 183c bbb9 d3bc d05a 743c
00000280: 4a3e 1bbd 29d6 b0bc 1a14 0b3c 435f 2e3c
00000290: 9278 99b7 860e d53c ac20 2ebc a3e0 7dbc
000002a0: 347d eb3c 3eeb dbbb 0e7c 3abc 87d5 7abc
000002b0: 05ee c33c f03d f33c dd07 0cbc 10ad 9b3c
000002c0: cad3 93bc 0d3d bdba 840e 41bc 4de0 84bc
000002d0: 9445 97ba 84d9 9d3a 5edf 9f3b eecc 3fbc
000002e0: 8d6b 093c e84b bb3b c184 b13b c739 593c
000002f0: 4c4e c2bb a9af 233d 9b62 aabb 0ca8 50bc
00000300: d87d 09bb 6487 093d 244b 3f3c a9e9 233c
00000310: ff72 b63c bd1d ca3c a526 a83b e998 033c
00000320: 4869 1dbd 6ba7 b639 9b28 2d3d 0c55 8f3c
00000330: 87f8 583c 36e3 b8bc 6098 203d c784 75bc
00000340: 52ea 953d 822d 433c c8cc c93b e499 c2bb
00000350: 0723 5abb 7de4 913c 2642 f0bb 51ac bf3c
00000360: a208 353d 5851 06bd 305a ccbb 5a3c d6ba
00000370: 1fd5 18ba 23c2 973c 3fa0 943b 53f4 5bba
00000380: b847 b43c 6b55 463d 882e d83a 1510 42bb
00000390: 49c8 c1bc d33b b13c 26cb 9d3c ad62 dfba
000003a0: e4fb 49bc 3e57 ffbb 67ea fcbc 9924 8cbc
000003b0: 72c3 973c 2781 0a3c d9ea c23c d43e 4a3d
000003c0: 2922 90bc 7a72 b63c 5ca0 9e3c e6ad 3f3c
000003d0: 727e 753a 110f 8cbc 5bb5 8bbc 1a4f 87bc
000003e0: 0041 dd3c b3e0 d23c 75b8 8b3c 708a 7bbc
000003f0: 2315 2c3d dbd7 ba3b ba6a 0cbd 1c34 223d

action_model._discrete_distribution.branches.0.weight f4 [3, 256]
-0.01076648 0.020214017 -0.00032329344 0.030750986 -0.015923474 -0.0052165133 -0.024132555 0.008122814
-0.0061347624 0.0049386593 -0.02444271 0.02062386 0.010014941 0.017679384 -0.006572197 -0.0165681
0.01821425 0.015088318 0.014054771 0.01705779 -0.012913755 0.010534876 -0.016908934 -0.0014176986
0.014861319 0.0013065324 -0.02389907 0.0014734765 0.006984369 0.008522168 0.016374843 0.032998145
0.024530945 0.0050354553 0.025384912 -0.0045455005 0.010862044 -0.0002740325 0.0033161843 0.008605675
-0.013900797 -0.031151304 0.01678457 0.00862153 -0.0018611319 -0.0063421517 -0.006103915 -0.0015691896
0.006084785 -0.03396632 -0.022301251 0.017127566 -0.0046264203 0.01362965 0.002417075 -0.031400222
-0.0052981316 -0.01969033 0.028584698 0.0018195824 -0.012067401 0.0060209837 -0.007244895 0.0015312146
0.016049365 0.012400585 0.007864096 0.023981135 0.03512938 -0.01332024 0.025167363 0.007247681
-0.00080411235 -0.0025355876 0.0136461565 -0.006507028 0.005409353 -0.023353579 0.021896882 0.036127575
-0.0007569094 0.004531105 0.0024146605 -0.00031039488 -0.023264213 -0.0008721875 -0.0017025835 -0.0053871917
-0.0033646086 0.010269859 -0.0047732196 -0.006539518 0.03238268 -6.3133964e-05 0.009965543 0.011239383
-0.008495896 -0.009006402 0.0038908746 -0.0061355354 0.006875057 -0.0146545395 -0.009883247 0.009814122
-0.030643541 -0.03704784 -0.0111706415 0.0017062793 -0.00042553953 -0.024360515 -0.0011811747 0.001434076
-0.018628635 0.000469589 -0.003721478 -0.037179034 0.010618534 0.0081337085 -0.0010872971 0.023874382
-0.020581223 -0.012609353 -0.0010205795 0.0055684117 0.013714484 0.015825124 0.0015677967 -0.0023902503
0.0075425515 -0.023124652 0.017490132 -0.023415366 0.014177182 0.002095702 -0.016101353 0.015036947
0.0051547145 0.0015219572 -0.022316411 -0.0041006533 -0.003700884 0.02108671 0.0037203978 -0.000475539
-0.0018180822 -0.011528435 0.040903535 0.0073862784 -0.013490918 0.00897685 -0.007892241 0.017674237
0.011513992 -0.0052635605 -0.015770063 0.012665054 0.013571422 -0.02023877 -0.0013954331 0.011187689
0.0005731645 0.0041047223 0.0059928047 -0.009447749 -0.024206756 0.009592625 0.0053182105 -0.018298242
0.0052056327 -0.0013438474 -0.024238372 -0.01199057 -0.01003351 0.016764443 -0.020833999 -0.002686597
0.0010382942 -0.0015888236 -0.00478307 -0.008215129 -0.0035955172 0.020389207 0.0033578868 -0.0071058944
-0.011647479 -0.007901189 0.003169829 0.009067643 -0.04002123 -0.011553951 0.016458351 0.02420547
0.009613208 0.010282799 0.01278363 -0.0120827975 0.018254347 -0.033076566 -0.001969302 0.039845426
-0.0069956635 0.007928302 -0.0010698461 -0.01435102 -0.007030688 -0.0040197587 0.0018058593 0.004168756
0.05298363 -0.00016903035 0.014246892 -0.0066841324 0.0005635886 -0.019126896 0.0031819437 0.0072050043
0.0013908759 -0.013755771 0.007979783 -0.010662595 -0.016717847 0.04731253 0.0050614155 -0.019689357
-0.0151995635 -0.006125538 -0.011276693 -0.002501328 -0.027475849 0.0047316994 -0.004303179 0.017178832
0.0024932758 0.009934417 0.0042091147 0.005899185 0.012009206 0.0030894168 -0.019725919 0.051808666
-0.0044260346 0.013233443 -0.014534057 -0.010834042 0.0053501735 0.0073961504 -0.00044992557 0.0060716136
-0.028363282 -0.0011090722 -0.0013250281 0.023761518 -0.0060478495 -0.008475309 -0.0012415465 0.014379151
00000000: e465 30bc de97 a53c b67f a9b9 7ee9 fb3c
00000010: f271 82bc 49ef aabb a3b1 c5bc 8d15 053c
00000020: 1e06 c9bb 7ad4 a13b 143c c8bc 5ff3 a83c
00000030: b515 243c 5bd4 903c 965b d7bb d3b9 87bc
00000040: 0d36 953c fe34 773c fb45 663c c7bc 8b3c
00000050: 3794 53bc 799a 2c3c 9b84 8abc 12d2 b9ba
00000060: e47c 733c f43f ab3a fcc7 c3bc ab21 c13a
00000070: 22dd e43b 90a0 0b3c 8924 863c 1029 073d
00000080: 1ff5 c83c 7600 a53b 05f4 cf3c 6cf2 94bb
00000090: b7f6 313c 05ac 8fb9 5754 593b d1fe 0c3c
000000a0: 2bc0 63bc 0531 ffbc cb7f 893c 5141 0d3c
000000b0: 39f1 f3ba d3d1 cfbb 5a03 c8bb 44ad cdba
000000c0: e062 c73b 4520 0bbd 1db1 b6bc 1c4f 8c3c
000000d0: 3a99 97bb e54e 5f3c ca67 1e3b 859d 00bd
000000e0: f39b adbb 9d4d a1bc 752a ea3c 0e7f ee3a
000000f0: 59b6 45bc ac4b c53b 9666 edbb 09b3 c83a
00000100: f579 833c d32b 4b3c 69d8 003c 1674 c43c
00000110: d3e3 0f3d 233d 5abc c92b ce3c f47d ed3b
00000120: 11cb 52ba 1a2c 26bb 2194 5f3c e838 d5bb
00000130: f140 b13b 0150 bfbc 1761 b33c 82fa 133d
00000140: 546b 46ba aa79 943b 483f 1e3b 7fbc a2b9
00000150: 9794 bebc 83a3 64ba 3929 dfba 0a87 b0bb
00000160: c480 5cbb e942 283c ab68 9cbb 7449 d6bb
00000170: b3a3 043d ca66 84b8 8446 233c 6425 383c
00000180: 5f32 0bbc 978f 13bc 0bfe 7e3b 9a0c c9bb
00000190: 2848 e13b 9819 70bc 58ed 21bc 69cb 203c
000001a0: 2a08 fbbc 7abf 17bd 1105 37bc 3ca5 df3a
000001b0: f31a dfb9 b48f c7bc a5d1 9aba 9bf7 bb3a
000001c0: 149b 98bc 2b33 f639 0ae4 73bb 0b49 18bd
000001d0: 5cf9 2d3c 3f43 053c a383 8eba 3594 c33c
000001e0: f499 a8bc 7697 4ebc f7c4 85ba 3977 b63b
000001f0: b7b2 603c b1a3 813c 877e cd3a bfa5 1cbb
00000200: 8227 f73b e96f bdbc 7747 8f3c 95d1 bfbc
00000210: 6947 683c 0c58 093b fce6 83bc 875d 763c
00000220: e1e8 a83b 697c c73a e8d0 b6bc c65e 86bb
00000230: 888a 72bb 09be ac3c ebd1 733b c451 f9b9
00000240: b74c eeba c3e1 3cbc 778a 273d 9808 f23b
00000250: 0309 5dbc a313 133c 754e 01bc 90c9 903c
00000260: 2fa5 3c3c f279 acbb 3830 81bc 1681 4f3c
00000270: ab5a 5e3c c7cb a5bc f7e6 b6ba 924c 373c
00000280: 6b40 163a e880 863b 4a5f c43b bbca 1abc
00000290: 3f4d c6bc 632a 1d3c 6244 ae3b 32e6 95bc
000002a0: 0394 aa3b 0924 b0ba 8d8f c6bc 1974 44bc
000002b0: 9763 24bc 9655 893c 10ac aabc 9e11 30bb
000002c0: 5f17 883a 1340 d0ba 4dbb 9cbb c098 06bc
000002d0: c5a2 6bbb 4407 a73c fe0f 5c3b 90d8 e8bb
000002e0: 11d5 3ebc fd73 01bc e8bc 4f3b 7490 143c
000002f0: 4ded 23bd c84c 3dbc aad3 863c 8d4a c63c
00000300: b780 1d3c 2f79 283c 6e72 513c edf6 45bc
00000310: 248a 953c 4b7b 07bd 680f 01bb f534 233d
00000320: e13b e5bb b5e5 013c 143a 8cba 8a20 6bbc
00000330: b061 e6bb 2eb8 83bb 95b2 ec3a 0f9a 883b
00000340: 5d05 593d bd3d 31b9 cc6b 693c 9106 dbbb
00000350: cabd 133a 02b0 9cbc 2888 503b f517 ec3b
00000360: 0d4e b63a e35f 61bc a3bd 023c 2ab2 2ebc
00000370: def3 88bc c9ca 413d 3bda a53b 934b a1bc
00000380: 9707 79bc bdb8 c8bb e1c1 38bc 52ed 23bb
00000390: 0815 e1bc 5f0c 9b3b af01 8dbb 9fba 8c3c
000003a0: 3a66 233b f7c3 223c 9dec 893b f34d c13b
000003b0: 43c2 443c d077 4a3b 4098 a1bc 5335 543d
000003c0: 4508 91bb 15d1 583c 4120 6ebc 4481 31bc
000003d0: 8250 af3b 685b f23b fde3 ebb9 63f4 c63b
000003e0: 1d5a e8bc 4a5e 91ba 91ac adba 84a7 c23c
000003f0: 0a2d c6bb 06dc 0abc 63bb a2ba 8896 6b3c

action_model._discrete_distribution.branches.0.bias f4 [3]
0.003306761 0.021924818 -0.02480989
00000000: 3eb6 583b ad9b b33c 1c3e cbbc

action_model._discrete_distribution.branches.1.weight f4 [3, 256]
-0.011078586 0.022393905 -0.017291456 -0.015122063 0.0065029818 0.016696347 -0.014431639 0.01385878
0.0030043367 -0.010920695 0.014388346 0.009784379 0.021855874 -0.0019294855 -0.021474356 -0.008281702
0.0039857184 0.020011839 -0.010075004 0.007860591 -0.0033575112 0.014368263 -0.055749506 0.024413573
-0.03469128 0.014059496 0.017586246 0.0121552395 0.017907139 0.019314252 0.0077178474 0.014600427
0.05452827 0.019308282 0.003619764 0.002964128 0.0132519575 0.019702682 0.020106085 -0.017492134
-0.0198699 -0.020459345 -0.043514043 0.01690274 -0.015066004 0.011116843 0.022329034 0.002749203
-0.009411974 -0.024124002 0.007550993 -0.019216659 -0.010924454 -0.017256582 0.015130295 -0.018512292
0.0055537582 -0.0040792795 0.010697907 0.0043377695 -0.028610665 -0.021263883 0.0031403962 0.00049335195
0.027741645 0.015222856 -5.469813e-05 0.054162506 0.02542126 0.0073654824 0.017655991 0.034954667
0.0051437104 0.008831263 -0.016353477 -0.022761615 0.009052985 -0.032172684 -0.010352646 -0.01912145
0.0017856319 0.010532996 0.0008265179 -0.007243642 0.009933617 0.019487018 0.021840926 0.006162274
-0.032141317 0.0005753852 -0.017157884 0.016854329 0.0058806 0.02326467 0.019194055 0.008612732
0.018029992 0.013869282 0.004762108 -0.008210195 -0.012109666 0.00036257028 0.008175467 0.0096685095
-0.014379399 -0.02933645 -0.055029016 -0.017004339 0.004965602 -0.03323824 0.002060257 -0.019860853
-0.025439518 -0.030006215 -0.037821557 0.004675866 -0.02389603 -0.014743873 0.01621341 0.024795732
-0.014443554 0.0075694537 -0.0011383038 -0.0019541704 0.024464885 0.008573532 0.013219929 0.01088633
-0.0074937437 -0.004273564 0.00510435 -0.00038492968 0.026737243 0.012059373 -0.018110115 0.035225496
0.008132393 0.0033555045 0.016065557 -0.0044479 -0.014211281 0.022645038 0.015376437 0.01538826
-0.017695148 0.005059599 0.033049654 -0.005630195 -0.009652825 0.019138634 -0.010756267 0.022329416
0.02424472 0.0035166116 0.008914661 -0.0011340778 0.012011741 0.0019745706 -0.008182638 0.03145318
0.019060588 0.011600562 -0.0032225486 -0.016450787 -0.008812942 -0.01316741 0.015985897 -0.0019993267
0.024382954 0.010326878 -0.0017114886 -0.0006986702 -0.020461343 0.008282197 0.004168216 -0.02763245
0.006670145 -0.002283269 -0.003745041 0.025007226 0.011941876 -0.028164534 0.0062194006 -0.005534026
0.006000818 -0.019905543 0.011299525 0.028674064 -0.015067653 -0.020315822 0.021912513 0.028079566
0.006671971 0.043030404 0.019762224 -0.034563515 0.010063077 -0.020443344 -0.016140202 -0.0063328994
0.04334728 -0.02885094 -0.022564974 -0.026165666 -0.02844169 0.0024868029 0.014353286 0.009565973
0.01421814 0.014236571 -0.015099844 0.006354811 0.01924516 -0.030095568 0.006522475 -0.011280228
0.0140931755 -0.016840415 0.003563379 -0.01021759 -0.013431263 0.003995213 0.008415098 -0.022013204
-0.023536375 0.020938233 -0.0058848136 0.0035011598 -0.026372356 0.007538829 -0.003609798 0.012948432
0.023451706 0.01854779 -0.009503659 0.00029313852 -0.0041010445 -0.0074510104 -0.00018657256 0.011996056
0.004484352 0.009413426 -0.011133724 -0.010468833 0.042948835 0.013235876 0.009850808 0.022126604
-0.014683156 -0.0016891537 0.0010715703 0.034587428 -0.013860267 -0.011262653 0.010102089 -0.016460467
00000000: f582 35bc 6c73 b73c d0a6 8dbc 88c2 77bc
00000010: f716 d53b c7c6 883c ae72 6cbc f00f 633c
00000020: 68e4 443b b7ec 32bc 19bd 6b3c a94e 203c
00000030: 170b b33c cae6 fcba fdea afbc faaf 07bc
00000040: a19a 823b deef a33c a111 25bc b5c9 003c
00000050: b109 5cbb dd68 6b3c 9859 64bd f9fe c73c
00000060: 7218 0ebd cd59 663c 0811 903c c526 473c
00000070: feb1 923c ec38 9e3c ffe5 fc3b a136 6f3c
00000080: 0959 5f3d 672c 9e3c 9039 6d3b d141 423b
00000090: bd1e 593c 8567 a13c 84b5 a43c aa4b 8fbc
000000a0: 33c6 a2bc 5b9a a7bc c83b 32bd 9d77 8a3c
000000b0: 67d7 76bc 6b23 363c 61eb b63c f92b 343b
000000c0: ae34 1abc b39f c5bc 526e f73b 416c 9dbc
000000d0: 7bfc 32bc ad5d 8dbc 0fe5 773c 17a7 97bc
000000e0: 4dfc b53b 7aab 85bb 4646 2f3c d923 8e3b
000000f0: ea60 eabc 9831 aebc 1bcf 4d3b 4a54 013a
00000100: 7242 e33c 4969 793c ab6b 65b8 81d9 5d3d
00000110: 3f40 d03c 255a f13b 4ca3 903c a02c 0f3d
00000120: 928c a83b 00b1 103c baf7 85bc 9176 babc
00000130: f952 143c 81c7 03bd 259e 29bc 96a4 9cbc
00000140: dd0b ea3a 9692 2c3c adaa 583a 135c edbb
00000150: 9cc0 223c 3da3 9f3c beeb b23c e7ec c93b
00000160: 9da6 03bd 72d5 163a b18e 8cbc 1712 8a3c
00000170: 0cb2 c03b 8d95 be3c da3c 9d3c 6b1c 0d3c
00000180: a2b3 933c fc3b 633c 750b 9c3b 0e84 06bc
00000190: 9f67 46bc 5c17 be39 65f2 053c ab68 1e3c
000001a0: 9297 6bbc ff52 f0bc 1b66 61bd af4c 8bbc
000001b0: 7db6 a23b d224 08bd 6005 073b 3ab3 a2bc
000001c0: 8966 d0bc 98cf f5bc c7ea 1abd 0238 993b
000001d0: 9bc1 c3bc 4990 71bc fcd1 843c 6b20 cb3c
000001e0: a8a4 6cbc 2e09 f83b 2333 95ba 8a11 00bb
000001f0: 956a c83c 0078 0c3c 6798 583c 945c 323c
00000200: 148e f5bb 4109 8cbb 6442 a73b 63d0 c9b9
00000210: 1008 db3c ad94 453c aa5b 94bc 9c48 103d
00000220: ba3d 053c 06e8 5b3b ea9b 833c b1bf 91bb
00000230: 6fd6 68bc 1682 b93c 74ed 7b3c 0a1f 7c3c
00000240: 6af5 90bc feca a53b 135f 073d 807d b8bb
00000250: e226 1ebc a0c8 9c3c 0e3b 30bc 2eec b63c
00000260: dd9c c63c f476 663b cc0e 123c 56a5 94ba
00000270: e5cc 443c cc67 013b 7910 06bc 0dd5 003d
00000280: f324 9c3c 4910 3e3c 6531 53bb cdc3 86bc
00000290: 2864 10bc 1fbc 57bc dbf4 823c 2307 03bb
000002a0: c3be c73c 1132 293c 0754 e0ba f726 37ba
000002b0: 8c9e a7bc 0db2 073c 8895 883b 735d e2bc
000002c0: 3b91 da3b e6a2 15bb 5d6f 75bb f4db cc3c
000002d0: dca7 433c 4fb9 e6bc 1dcc cb3b c656 b5bb
000002e0: 83a2 c43b f310 a3bc a521 393c dfe5 ea3c
000002f0: 51de 76bc 5e6d a6bc df81 b33c 1e07 e63c
00000300: 8da0 da3b a640 303d 63e4 a13c 7992 0dbd
00000310: 9bdf 243c cd78 a7bc 7538 84bc 3684 cfbb
00000320: eb8c 313d ce58 ecbc 2eda b8bc 6159 d6bc
00000330: 8cfe e8bc a1f9 223b 0b2a 6b3c 99ba 1c3c
00000340: 34f3 683c 8240 693c 5665 77bc 053c d03b
00000350: 07a8 9d3c fb8a f6bc 7cba d53b b5d0 38bc
00000360: 10e7 663c e9f4 89bc 9487 693b ae67 27bc
00000370: cd0e 5cbc 47ea 823b 7bdf 093c 0955 b4bc
00000380: 5bcf c0bc a886 ab3c 65d5 c0bb b773 653b
00000390: d70a d8bc 4808 f73b 5c92 6cbb a925 543c
000003a0: cb1d c03c 89f1 973c 3cb5 1bbc 63b0 9939
000003b0: 0e62 86bb 9b27 f4bb b1a2 43b9 1b8b 443c
000003c0: 79f1 923b c53a 1a3c 396a 36bc 7885 2bbc
000003d0: 1eeb 2f3d 4adb 583c 4965 213c da42 b53c
000003e0: 9f91 70bc 9866 ddba ef73 8c3a 8cab 0d3d
000003f0: 2c16 63bc fe86 38bc 3b83 253c 1ad8 86bc

action_model._discrete_distribution.branches.1.bias f4 [3]
-0.005346244 -0.009360466 0.014783523
00000000: 8c2f afbb a45c 19bc 9736 723c

action_model._discrete_distribution.branches.2.weight f4 [3, 256]
-0.019356387 -0.027409853 0.020466667 0.017573321 0.04913914 0.031624608 0.024213305 0.01674014
0.040144656 0.017246753 -0.029694868 -0.030994529 -0.030111676 0.04006781 -0.033895887 0.0008512763
-0.028778058 -0.023350433 0.02936013 -0.053773526 -0.012403212 0.073389344 -0.021327453 0.039073132
0.037679646 -0.0074931146 0.024398545 0.0019451019 -0.029321821 0.049664743 -0.046924178 0.0062575284
-0.037669253 0.0015740116 -0.064375535 0.014845866 -0.020452103 0.019765552 -0.007077092 0.014568453
0.025483102 0.04744002 0.013863606 0.002490572 -0.023032773 0.055592734 -0.024456672 0.057670273
0.09889114 0.028533947 0.074902825 0.025113134 -0.030254195 0.026655093 -0.00060314516 0.0055661476
0.005423245 0.013405014 -0.030149182 -0.035355855 -0.030536577 0.007835451 0.013047922 0.011203799
-0.05065015 -0.0034494419 -0.010356699 -0.023601806 0.08046502 -0.00030690894 0.028438112 0.009900001
-0.042513866 -0.019038713 -0.0008846595 -0.03425058 0.034218032 -0.007204678 -0.015959762 -0.0019069114
0.08355774 0.0010022711 0.03842524 0.012311678 -0.019120116 -0.0127973845 -0.008657891 0.019741155
0.0020915617 0.027586924 -0.008174042 0.015653782 -0.023337906 0.056732178 -0.022667272 -0.01513028
0.005565123 0.004556307 0.004198034 0.01527859 0.02568205 -0.009602136 0.015368582 0.056523845
0.031069864 -0.008267987 0.028312227 -0.018335002 -0.004146946 0.039517604 0.019886436 -0.021714557
-0.0008583078 -0.00034354161 -0.021009622 0.005078402 0.020334046 0.01768007 -0.021912584 0.01993898
0.018133134 0.033108074 0.0019314977 0.0018778277 0.0032813034 -0.028452672 -0.031591684 0.003954351
-0.0027228056 0.03572066 -0.022983741 -0.00072251505 -0.028116971 0.002096935 0.008292102 -0.015152745
-0.028954875 -0.021627855 0.042354446 0.011092823 -0.0068476545 0.001185528 0.021840168 0.07397472
0.020993138 0.02053777 -0.0043579144 -0.015694072 -0.0044264183 -0.0038255665 -0.0020782847 0.011581635
-0.019423403 0.05789224 -0.0005614463 0.007641882 0.037583016 0.047909465 -0.008383417 0.0074113957
-0.01073865 0.033822283 0.0051063164 0.033414844 0.017592786 -0.02764767 -0.019078255 -0.009147465
0.029065955 0.010879598 0.08205601 0.0035173935 -0.00085128046 -0.073816404 0.02680878 0.014872513
-0.017842833 -0.00068049354 0.005511387 -0.014576854 0.011378681 0.003827237 0.020328818 0.01400665
0.040873725 0.0010256389 0.00028405 0.005955359 0.0057390654 0.03765734 -0.014740468 -0.055528205
0.013005612 0.014411297 -0.049873177 0.013211116 0.03655659 0.039773375 -0.016038718 -0.074211195
-0.047782388 0.02756981 0.010782127 -0.019197714 -0.029171852 -0.005434941 -0.0077355416 -0.032064606
0.0011205242 -0.03203813 -0.039593477 0.02046328 -0.0058910493 0.025314696 -0.0040536537 -0.020895181
0.070299506 0.0018495029 -0.026414689 0.008915152 0.009651454 -0.051470652 -0.012016664 0.03451487
0.038791783 0.03715257 -0.02033959 -0.0065199393 0.0028659839 0.0025601205 0.042488657 -0.017132515
-0.0058525265 -0.0053328266 -0.006082589 -0.040907133 -0.0015527749 -0.04718135 -0.0069013257 -0.021013664
-0.016543895 -0.0047044414 0.024813432 0.020937186 0.009737764 -0.0064593134 0.008145925 -0.032810703
0.023987722 -0.019535437 0.035139106 -0.016734611 -0.00044748417 -0.022725971 -0.0003112568 0.012453691
00000000: 4991 9ebc a18a e0bc b6a9 a73c edf5 8f3c
00000010: 1f46 493d ce88 013d fb5a c63c 9e22 893c
00000020: b96e 243d 1049 8d3c a742 f3bc 3de8 fdbc
00000030: c3ac f6bc 251e 243d 6ad6 0abd 2f28 5f3a
00000040: f6bf ebbc 6849 bfbc a884 f03c a141 5cbd
00000050: d736 4bbc 274d 963d e9b6 aebc 260b 203d
00000060: f955 1a3d cd88 f5bb 75df c73c caf2 fe3a
00000070: 5134 f0bc 426d 4b3d 9133 40bd f40b cd3b
00000080: 134b 1abd 114f ce3a 52d7 83bd 133c 733c
00000090: 2b8b a7bc 5eeb a13c f3e6 e7bb 85b0 6e3c
000000a0: f0c1 d03c 7750 423d 2e24 633c dd38 233b
000000b0: 3aaf bcbc 35b5 633d 5c59 c8bc aa37 6c3d
000000c0: 7087 ca3d 06c0 e93c a766 993d 0fba cd3c
000000d0: a5d7 f7bc c85b da3c 631c 1eba 3b64 b63b
000000e0: 7ab5 b13b b4a0 5b3c 6bfb f6bc 4dd1 10bd
000000f0: d827 fabc 4360 003c f4c6 553c 2490 373c
00000100: 8876 4fbd 0810 62bb 25af 29bc 9358 c1bc
00000110: d8ca a43d 9fe8 a0b9 0bf7 e83c 9d33 223c
00000120: 0523 2ebd 13f7 9bbc 7ee8 67ba 564a 0cbd
00000130: 3528 0c3d 3815 ecbb 0cbe 82bc 54f1 f9ba
00000140: 5220 ab3d a35e 833a c963 1d3d ecb6 493c
00000150: caa1 9cbc 1fac 51bc d4d9 0dbc 34b8 a13c
00000160: 9512 093b f9fd e13c 6bec 05bc 5c3c 803c
00000170: 232f bfbc 0060 683d b7b0 b9bc fee4 77bc
00000180: a35b b63b 134d 953b a98f 893b 0d53 7a3c
00000190: 2a63 d23c 4752 1dbc 81cc 7b3c 8c85 673d
000001a0: 3a86 fe3c 7376 07bc 0bef e73c 4933 96bc
000001b0: 1be3 87bb 36dd 213d e1e8 a23c bae2 b1bc
000001c0: 1000 61ba 601d b4b9 5f1c acbc b968 a63b
000001d0: 9693 a63c cbd5 903c 0582 b3bc 1257 a33c
000001e0: f08b 943c 559c 073d 4f2a fd3a 7121 f63a
000001f0: 230b 573b 9415 e9bc 4866 01bd 8093 813b
00000200: 1971 32bb d44f 123d 6648 bcbc 2a67 3dba
00000210: 9055 e6bc bb6c 093b 99db 073c 3843 78bc
00000220: c632 edbc e62c b1bc db7b 2d3d acbe 353c
00000230: 4a62 e0bb b863 9b3a 27ea b23c 0f80 973d
00000240: cdf9 ab3c d33e a83c d6cc 8ebb db90 80bc
00000250: 7d0b 91bb 5bb6 7abb d533 08bb e6c0 3d3c
00000260: d41d 9fbc 6a20 6d3d 062e 13ba c168 fa3b
00000270: a6f0 193d b73c 443d 995a 09bc 4bdb f23b
00000280: 2af1 2fbc 3c89 0a3d e352 a73b 01de 083d
00000290: bf1e 903c 5e7d e2bc 004a 9cbc 40df 15bc
000002a0: ba1b ee3c 5740 323c fb0c a83d 1284 663b
000002b0: 7728 5fba 0e2d 97bd 169e db3c d7ab 733c
000002c0: 222b 92bc 2663 32ba dd98 b43b c2d3 6ebc
000002d0: a66d 3a3c 62d2 7a3b 9f88 a63c 267c 653c
000002e0: 356b 273d bb6e 863a 8cec 9439 2c25 c33b
000002f0: c50e bc3b 953e 1a3d 0182 71bc 8b71 63bd
00000300: 7e15 553c 5c1d 6c3c d147 4cbd 7073 583c
00000310: 5dbc 153d 68e9 223d a163 83bc 0afc 97bd
00000320: 77b7 43bd 15da e13c 85a7 303c 8644 9dbc
00000330: cff9 eebc 9717 b2bb 6d7a fdbb 2d56 03bd
00000340: 8ede 923a 6a3a 03bd c52c 22bd 9ca2 a73c
00000350: b409 c1bb c460 cf3c 83d4 84bb 5f2c abbc
00000360: 30f9 8f3d 056b f23a 9e63 d8bc dc10 123c
00000370: 2221 1e3c e4d2 52bd 8be1 44bc 775f 0d3d
00000380: 22e4 1e3d 4b2d 183d 369f a6bc 37a5 d5bb
00000390: 3bd3 3b3b b2c7 273b 9608 2e3d 7d59 8cbc
000003a0: 8dc6 bfbb febe aebb 7450 c7bb 3d8e 27bd
000003b0: 7b86 cbba 3b41 41bd 8424 e2bb d924 acbc
000003c0: 1087 87bc b727 9abb 8a45 cb3c 7684 ab3c
000003d0: 248b 1f3c a6a8 d3bb 7c76 053c 8464 06bd
000003e0: e681 c43c c808 a0bc 06ee 0f3d 0617 89bc
000003f0: 4f9c eab9 d12b babc 2e30 a3b9 910a 4c3c

action_model._discrete_distribution.branches.2.bias f4 [3]
0.021652933 -0.024146192 0.0016864677
00000000: 7e61 b13c 3cce c5bc 770c dd3a
