results/B_MultiHit/Badminton/Badminton-5348.pt (torch, 577006 bytes, 26 tensors)

discrete_act_size_vector f4 [1, 4]
3.0 3.0 3.0 2.0
00000000: 0000 4040 0000 4040 0000 4040 0000 0040

network_body.observation_encoder.processors.0.normalizer.running_mean f4 [11]
-0.026663523 0.00094711315 0.51801926 0.45380872 6.141483 -0.03380704 -0.48389855 -0.054743566
-3.2647536 1.3969839e-09 6.693881e-10
00000000: 766d dabc b047 783a e99c 043f 9e59 e83e
00000010: 0787 c440 4079 0abd 8dc1 f7be ca3a 60bd
00000020: b9f1 50c0 0000 c030 0000 3830

network_body.observation_encoder.processors.0.normalizer.running_variance f4 [11]
992.00134 1020.6452 740.21814 1053.1735 25498.543 141860.55 648464.1 117064.25
23034.727 1214.4489 2688.2087
00000000: 1600 7844 4b29 7f44 f60d 3944 8da5 8344
00000010: 1635 c746 2389 0a48 0251 1e49 20a4 e447
00000020: 74f5 b346 5dce 9744 5703 2845

network_body.processors.0.normalizer.running_mean f4 [11]
-0.026663523 0.00094711315 0.51801926 0.45380872 6.141483 -0.03380704 -0.48389855 -0.054743566
-3.2647536 1.3969839e-09 6.693881e-10
00000000: 766d dabc b047 783a e99c 043f 9e59 e83e
00000010: 0787 c440 4079 0abd 8dc1 f7be ca3a 60bd
00000020: b9f1 50c0 0000 c030 0000 3830

network_body.processors.0.normalizer.running_variance f4 [11]
992.00134 1020.6452 740.21814 1053.1735 25498.543 141860.55 648464.1 117064.25
23034.727 1214.4489 2688.2087
00000000: 1600 7844 4b29 7f44 f60d 3944 8da5 8344
00000010: 1635 c746 2389 0a48 0251 1e49 20a4 e447
00000020: 74f5 b346 5dce 9744 5703 2845

network_body._body_endoder.seq_layers.0.weight f4 [256, 11]
0.53133166 -0.29508215 0.35954377 -0.4808434 -0.30989203 0.06194621 0.26625493 0.0067657433
-0.21910676 -0.124268636 -0.25704727 -0.50104433 -0.12811548 -0.03804452 -0.049546998 0.45156664
0.43832988 -0.15206257 0.10485367 -0.2445013 -0.3814393 -0.08847517 0.22977637 0.3933382
-0.026577778 0.14200242 0.041415602 0.061759118 0.15960017 0.2810257 -0.19841807 0.14902571
-0.122015074 0.0027365526 -0.16516413 0.14869933 0.18769357 0.2721921 -0.1234241 0.4115968
0.25459695 0.42859006 -0.03856346 0.16907406 0.46497267 0.01098252 0.050633974 0.28036958
-0.2947071 -0.2916091 0.25662234 -0.15837112 -0.053835332 -0.16714695 -0.25578433 0.41841063
0.18634653 -0.8345831 -0.14339411 -0.31993252 -0.6644656 -0.27598733 0.14135057 0.26842606
0.021133082 -0.25236973 -0.22542322 0.28575018 -0.26270267 0.7253613 0.219063 0.101279244
0.41421983 -0.038348816 0.07511134 -0.23231731 0.06992841 -0.07946408 0.06615122 0.29024377
0.66487694 0.43218318 0.1539394 -0.035172597 0.21552393 0.3540855 -0.18646705 0.38277733
-0.101489164 -0.054244626 0.037042063 -0.3732325 0.11467432 0.46399602 -0.046562128 0.2154473
0.14114568 -0.21892728 -0.40148002 0.17821379 -0.10295105 -0.22519456 0.35285175 0.32983834
-0.46334657 0.06719054 0.050051723 -0.35695785 0.39069948 0.7489951 0.024615305 -0.23142095
0.020305978 0.11675952 -0.25605834 0.32996258 -0.53767425 0.39131793 -0.16483338 -0.117703125
-0.3035397 0.3869832 0.19794407 0.13489906 -0.20871821 0.13406636 0.69487697 0.2743808
0.3070852 0.20491812 0.41126654 -0.34086555 -0.004393611 -0.27199903 0.18379305 0.18365201
-0.06862135 -0.19130486 0.13170198 0.034447175 -0.9901177 0.15203562 0.06736442 -0.38176733
0.23924518 -0.79589677 -0.064792514 -0.04045334 0.0647158 0.12462475 0.37886724 0.01551282
-0.17017427 0.24475884 -0.23281208 0.07346301 0.17416623 0.027374605 0.07107539 -0.2665733
0.37827253 0.18824849 0.08585809 -0.12371508 -0.032836895 -0.10990361 -0.27255097 -0.21549326
-0.18701756 -0.14429416 -0.26357108 -0.41321048 0.47738504 -0.250139 -0.36119786 -0.37232763
-0.29724768 0.04658887 0.36651683 0.7694948 -0.17786744 0.15162162 -0.103055626 -0.11379046
-0.20618084 0.0087493425 0.00048083303 0.57151544 0.040776927 -0.15755278 0.5183003 0.1771894
0.1824098 -0.12622985 -0.27604425 -0.16267526 -0.4399369 -0.15118556 -0.083121926 -0.18074498
0.481568 -0.1199988 -0.26773512 -0.052021157 -0.26137128 -0.0032344316 -0.11593797 -0.1283469
-0.57577145 -0.29046658 -0.09870406 -0.016542798 0.19354509 -0.076586016 -0.7300785 0.220734
0.206206 0.28783065 -0.04222967 -0.20001031 -0.020033738 0.05364388 -0.24089159 0.23011304
-0.23885638 -0.31561863 0.40806645 -0.13838848 -0.31372896 0.044505157 0.020551791 -0.39541018
-0.26179767 0.078492284 0.21610895 -0.3482681 0.10850316 -0.048979282 0.004846927 0.4291871
-0.04779313 0.54657334 0.27358088 0.2868012 0.0870786 -0.5533509 0.38398263 0.10488913
-0.037039977 0.19069791 -0.4240926 0.25022614 0.19283037 -0.11257386 -0.36645868 0.36509407
00000000: 5a05 083f 0215 97be 1f16 b83e 1b31 f6be
00000010: 2baa 9ebe 4fbb 7d3d 9152 883e 2bb3 dd3b
00000020: 865d 60be 8e80 febd b39b 83be 7144 00bf
00000030: b430 03be 92d4 1bbd cbf1 4abd be33 e73e
00000040: c66c e03e 4ab6 1bbe 85bd d63d 8c5e 7abe
00000050: 034c c3be 7832 b5bd 7f4a 6b3e a063 c93e
00000060: a4b9 d9bc 1569 113e 68a3 293d 21f7 7c3d
00000070: 3a6e 233e 9ae2 8f3e 1b2e 4bbe 329a 183e
00000080: 0ae3 f9bd bc57 333b c920 29be a344 183e
00000090: be32 403e c35c 8b3e c6c5 fcbd d1bc d23e
000000a0: 885a 823e 2870 db3e b8f4 1dbd c021 2d3e
000000b0: e610 ee3e 07f0 333c 9265 4f3d 9a8c 8f3e
000000c0: d9e3 96be ca4d 95be 0164 833e 0a2c 22be
000000d0: 7082 5cbd 9228 2bbe 2af6 82be eb39 d63e
000000e0: a0d1 3e3e 3da7 55bf e8d5 12be 32ce a3be
000000f0: 6b1a 2abf 364e 8dbe 34be 103e 246f 893e
00000100: 491f ad3c 9b36 81be 58d5 66be d94d 923e
00000110: f780 86be 47b1 393f 0d52 603e 7e6b cf3d
00000120: 9f14 d43e a613 1dbd f9d3 993d 97e4 6dbe
00000130: a036 8f3d 10be a2bd 4a7a 873d d59a 943e
00000140: 6035 2a3f 1d47 dd3e 4aa2 1d3e 2411 10bd
00000150: 4eb2 5c3e b24a b53e 38f1 3ebe 64fb c33e
00000160: 8dd9 cfbd 9d2f 5ebd 6bb9 173d 5518 bfbe
00000170: 5fda ea3d e390 ed3e eeb7 3ebd 389e 5c3e
00000180: 7e88 103e 792e 60be ca8e cdbe ad7d 363e
00000190: 00d8 d2bd 6799 66be fca8 b43e 92e0 a83e
000001a0: c33b edbe 329b 893d 0903 4d3d 2ec3 b6be
000001b0: c309 c83e 25be 3f3f 09a6 c93c 9df9 6cbe
000001c0: b958 a63c 9d1f ef3d 141a 83be dbf0 a83e
000001d0: 05a5 09bf d35a c83e 15ca 28be 560e f1bd
000001e0: 8e69 9bbe a922 c63e dab1 4a3e fb22 0a3e
000001f0: 3aba 55be b148 093e 75e3 313f a47b 8c3e
00000200: 453a 9d3e 0ed6 513e 8791 d23e ee85 aebe
00000210: 48f8 8fbb 7543 8bbe 3f34 3c3e 460f 3c3e
00000220: 5a89 8cbd 6ce5 43be e2dc 063e 7b18 0d3d
00000230: 5b78 7dbf 3aaf 1b3e 5bf6 893d 0277 c3be
00000240: b0fc 743e e4bf 4bbf f0b1 84bd 67b2 25bd
00000250: b889 843d 433b ff3d e3fa c13e 7c29 7e3c
00000260: 2a42 2ebe 10a2 7a3e 4a66 6ebe c673 963d
00000270: a258 323e b540 e03c f98f 913d 4c7c 88be
00000280: f0ac c13e 36c4 403e 5ed6 af3d 555e fdbd
00000290: fb7f 06bd 2515 e1bd cd8b 8bbe 44aa 5cbe
000002a0: 8881 3fbe d9c1 13be caf2 86be 5390 d3be
000002b0: d06b f43e 3812 80be edee b8be baa1 bebe
000002c0: d930 98be f9d3 3e3d 18a8 bb3e 9cfd 443f
000002d0: e222 36be b342 1b3e d40e d3bd f90a e9bd
000002e0: 1221 53be 6759 0f3c 5118 fc39 d64e 123f
000002f0: b505 273d 8455 21be 54af 043f 2371 353e
00000300: a2c9 3a3e 6642 01be ac55 8dbe 5894 26be
00000310: 693f e1be 63d0 1abe d43b aabd 3615 39be
00000320: 1590 f63e eec1 f5bd 9414 89be 2314 55bd
00000330: 75d2 85be c2f8 53bb e370 edbd 5f6d 03be
00000340: c265 13bf 09b8 94be 5b25 cabd c384 87bc
00000350: af30 463e 21d9 9cbd 6de6 3abf 1808 623e
00000360: aa27 533e 8a5e 933e 05f9 2cbd 81cf 4cbe
00000370: cb1d a4bc afb9 5b3d 49ac 76be c1a2 6b3e
00000380: c496 74be c498 a1be 16ee d03e b6b5 0dbe
00000390: 15a1 a0be 0a4b 363d 3b5c a83c 3473 cabe
000003a0: 580a 86be 90c0 a03d aa4b 5d3e 3250 b2be
000003b0: e836 de3d 809e 48bd f8d2 9e3b 69be db3e
000003c0: bbc2 43bd 3bec 0b3f cb12 8c3e 9bd7 923e
000003d0: 4456 b23d 68a8 0dbf 5f99 c43e 1dd0 d63d
000003e0: 3bb7 17bd 5046 433e aa22 d9be a41d 803e
000003f0: 5375 453e 208d e6bd 79a0 bbbe 9ced ba3e

network_body._body_endoder.seq_layers.0.bias f4 [256]
0.0 0.0 0.0 0.0 0.0 0.0 0.0 0.0
0.0 0.0 0.0 0.0 0.0 0.0 0.0 0.0
0.0 0.0 0.0 0.0 0.0 0.0 0.0 0.0
0.0 0.0 0.0 0.0 0.0 0.0 0.0 0.0
0.0 0.0 0.0 0.0 0.0 0.0 0.0 0.0
0.0 0.0 0.0 0.0 0.0 0.0 0.0 0.0
0.0 0.0 0.0 0.0 0.0 0.0 0.0 0.0
0.0 0.0 0.0 0.0 0.0 0.0 0.0 0.0
0.0 0.0 0.0 0.0 0.0 0.0 0.0 0.0
0.0 0.0 0.0 0.0 0.0 0.0 0.0 0.0
0.0 0.0 0.0 0.0 0.0 0.0 0.0 0.0
0.0 0.0 0.0 0.0 0.0 0.0 0.0 0.0
0.0 0.0 0.0 0.0 0.0 0.0 0.0 0.0
0.0 0.0 0.0 0.0 0.0 0.0 0.0 0.0
0.0 0.0 0.0 0.0 0.0 0.0 0.0 0.0
0.0 0.0 0.0 0.0 0.0 0.0 0.0 0.0
0.0 0.0 0.0 0.0 0.0 0.0 0.0 0.0
0.0 0.0 0.0 0.0 0.0 0.0 0.0 0.0
0.0 0.0 0.0 0.0 0.0 0.0 0.0 0.0
0.0 0.0 0.0 0.0 0.0 0.0 0.0 0.0
0.0 0.0 0.0 0.0 0.0 0.0 0.0 0.0
0.0 0.0 0.0 0.0 0.0 0.0 0.0 0.0
0.0 0.0 0.0 0.0 0.0 0.0 0.0 0.0
0.0 0.0 0.0 0.0 0.0 0.0 0.0 0.0
0.0 0.0 0.0 0.0 0.0 0.0 0.0 0.0
0.0 0.0 0.0 0.0 0.0 0.0 0.0 0.0
0.0 0.0 0.0 0.0 0.0 0.0 0.0 0.0
0.0 0.0 0.0 0.0 0.0 0.0 0.0 0.0
0.0 0.0 0.0 0.0 0.0 0.0 0.0 0.0
0.0 0.0 0.0 0.0 0.0 0.0 0.0 0.0
0.0 0.0 0.0 0.0 0.0 0.0 0.0 0.0
0.0 0.0 0.0 0.0 0.0 0.0 0.0 0.0
00000000: 0000 0000 0000 0000 0000 0000 0000 0000
00000010: 0000 0000 0000 0000 0000 0000 0000 0000
00000020: 0000 0000 0000 0000 0000 0000 0000 0000
00000030: 0000 0000 0000 0000 0000 0000 0000 0000
00000040: 0000 0000 0000 0000 0000 0000 0000 0000
00000050: 0000 0000 0000 0000 0000 0000 0000 0000
00000060: 0000 0000 0000 0000 0000 0000 0000 0000
00000070: 0000 0000 0000 0000 0000 0000 0000 0000
00000080: 0000 0000 0000 0000 0000 0000 0000 0000
00000090: 0000 0000 0000 0000 0000 0000 0000 0000
000000a0: 0000 0000 0000 0000 0000 0000 0000 0000
000000b0: 0000 0000 0000 0000 0000 0000 0000 0000
000000c0: 0000 0000 0000 0000 0000 0000 0000 0000
000000d0: 0000 0000 0000 0000 0000 0000 0000 0000
000000e0: 0000 0000 0000 0000 0000 0000 0000 0000
000000f0: 0000 0000 0000 0000 0000 0000 0000 0000
00000100: 0000 0000 0000 0000 0000 0000 0000 0000
00000110: 0000 0000 0000 0000 0000 0000 0000 0000
00000120: 0000 0000 0000 0000 0000 0000 0000 0000
00000130: 0000 0000 0000 0000 0000 0000 0000 0000
00000140: 0000 0000 0000 0000 0000 0000 0000 0000
00000150: 0000 0000 0000 0000 0000 0000 0000 0000
00000160: 0000 0000 0000 0000 0000 0000 0000 0000
00000170: 0000 0000 0000 0000 0000 0000 0000 0000
00000180: 0000 0000 0000 0000 0000 0000 0000 0000
00000190: 0000 0000 0000 0000 0000 0000 0000 0000
000001a0: 0000 0000 0000 0000 0000 0000 0000 0000
000001b0: 0000 0000 0000 0000 0000 0000 0000 0000
000001c0: 0000 0000 0000 0000 0000 0000 0000 0000
000001d0: 0000 0000 0000 0000 0000 0000 0000 0000
000001e0: 0000 0000 0000 0000 0000 0000 0000 0000
000001f0: 0000 0000 0000 0000 0000 0000 0000 0000
00000200: 0000 0000 0000 0000 0000 0000 0000 0000
00000210: 0000 0000 0000 0000 0000 0000 0000 0000
00000220: 0000 0000 0000 0000 0000 0000 0000 0000
00000230: 0000 0000 0000 0000 0000 0000 0000 0000
00000240: 0000 0000 0000 0000 0000 0000 0000 0000
00000250: 0000 0000 0000 0000 0000 0000 0000 0000
00000260: 0000 0000 0000 0000 0000 0000 0000 0000
00000270: 0000 0000 0000 0000 0000 0000 0000 0000
00000280: 0000 0000 0000 0000 0000 0000 0000 0000
00000290: 0000 0000 0000 0000 0000 0000 0000 0000
000002a0: 0000 0000 0000 0000 0000 0000 0000 0000
000002b0: 0000 0000 0000 0000 0000 0000 0000 0000
000002c0: 0000 0000 0000 0000 0000 0000 0000 0000
000002d0: 0000 0000 0000 0000 0000 0000 0000 0000
000002e0: 0000 0000 0000 0000 0000 0000 0000 0000
000002f0: 0000 0000 0000 0000 0000 0000 0000 0000
00000300: 0000 0000 0000 0000 0000 0000 0000 0000
00000310: 0000 0000 0000 0000 0000 0000 0000 0000
00000320: 0000 0000 0000 0000 0000 0000 0000 0000
00000330: 0000 0000 0000 0000 0000 0000 0000 0000
00000340: 0000 0000 0000 0000 0000 0000 0000 0000
00000350: 0000 0000 0000 0000 0000 0000 0000 0000
00000360: 0000 0000 0000 0000 0000 0000 0000 0000
00000370: 0000 0000 0000 0000 0000 0000 0000 0000
00000380: 0000 0000 0000 0000 0000 0000 0000 0000
00000390: 0000 0000 0000 0000 0000 0000 0000 0000
000003a0: 0000 0000 0000 0000 0000 0000 0000 0000
000003b0: 0000 0000 0000 0000 0000 0000 0000 0000
000003c0: 0000 0000 0000 0000 0000 0000 0000 0000
000003d0: 0000 0000 0000 0000 0000 0000 0000 0000
000003e0: 0000 0000 0000 0000 0000 0000 0000 0000
000003f0: 0000 0000 0000 0000 0000 0000 0000 0000

network_body._body_endoder.seq_layers.2.weight f4 [256, 256]
-0.044465564 0.008433877 0.0030080422 -0.013352205 0.07889295 -0.035760257 0.046595145 0.0075822566
0.04540813 -0.06281587 0.060077816 -0.06615528 0.065521896 -0.017387688 0.0045944545 0.045320738
-0.10222629 0.04661214 -0.030196508 -0.012823518 -0.06262313 0.018533248 -0.0076976996 -0.008493588
0.09822038 0.028057324 -0.035237793 -0.041802034 0.14506704 0.047010127 0.022434814 0.1599581
-0.036471102 0.074884705 -0.02702893 -0.04521027 -0.038585953 0.008665394 0.0020003945 0.028263478
-0.036422245 0.032314777 -0.02927652 0.05350106 0.0861147 -0.062252406 0.024946561 -0.0067156674
0.03838448 0.00857093 0.04850459 0.05586473 0.13881542 -0.050691757 -0.035866093 -0.026900597
0.033355147 0.09502504 0.03371102 -0.11039568 0.015634995 0.060008537 -0.033728898 -0.016870303
-0.08822726 -0.07159236 0.12663005 0.02860935 0.062304348 -0.030212272 -0.01159784 0.054509114
0.00263278 -0.06858472 -0.03883721 0.0065706684 -0.085993685 0.0417275 0.061182126 0.025061637
-0.15778084 -0.023818085 0.07595229 0.049272485 0.0054591293 -0.0003049242 0.015057262 -0.038744677
-0.022317987 -0.0067669475 -0.054859687 0.008431403 -0.082937084 -0.054367203 0.049470484 -0.0122524565
0.0189768 -0.03312004 0.075423576 0.036099117 -0.119790316 0.0012523197 0.082693584 -0.110231854
0.011599072 0.08355738 0.01020693 -0.0018533337 -0.032313168 0.060558807 0.09151772 0.0023046725
0.1252883 -0.0048279143 -0.0708358 -0.031228142 -0.040650755 -0.04080908 0.034762464 -0.018339993
-0.05142645 -0.010517748 -0.10589063 -0.03682613 0.07568282 0.06786409 0.02174494 0.06592564
0.00040146106 0.0055179554 -0.006976068 0.09338066 -0.008911122 -0.010932874 -0.060366962 -0.024200434
-0.080090925 -0.037577223 -0.047668085 0.0072133285 0.09630629 -0.12581322 0.16339475 0.07590139
-0.013700197 -0.009628152 0.051177632 0.0075952406 -0.08682366 0.06801395 -0.0029405225 0.049983297
0.145353 0.1359956 -0.0014692838 0.07651791 -0.06891536 0.08770264 -0.043747824 0.044462897
0.003930694 0.07864474 0.044895783 0.08682619 0.0066207717 0.006566374 -0.04489705 0.005151787
-0.06837843 0.028465925 -0.010976292 0.04421226 -0.009927925 0.013837979 -0.086109914 0.04103474
0.03436734 0.037741277 0.08727863 -0.034423616 0.030381156 -0.035397936 -0.12844656 -0.051209122
-0.048970256 0.04385285 -0.031381715 0.120411485 0.046842642 -0.003263569 -0.10024966 -0.013649393
-0.050141197 0.020386301 -0.016173895 -0.006820921 -0.026560415 -0.02700436 0.104399525 0.03701501
-0.039988626 0.13198918 0.1250416 -0.08774742 -0.046502255 0.03765352 0.017569898 -0.049273495
0.026116999 -0.018883733 0.06664445 0.05247227 0.09523836 -0.0014708719 -0.010829582 -0.025061697
0.032555416 -0.03227439 0.0942885 0.09822029 0.067595966 0.02140074 0.042464416 -0.08244455
0.046328127 -0.14514494 -0.07509914 -0.037391186 -0.032970883 0.07176406 0.111452505 -0.04590306
-0.010318802 -0.11896482 0.021035563 0.036104467 -0.027776843 0.154801 -0.10591776 0.069479264
0.01313741 0.03990176 0.098638624 -0.08721042 -0.01285392 -0.014465354 0.011372844 0.008686204
0.024842396 -0.014922677 -0.040091835 -0.000580462 -0.016012454 -0.10503908 -0.007132953 -0.036850415
00000000: 8621 36bd 3e2e 0a3c 9322 453b 35c3 5abc
00000010: a192 a13d 5979 12bd 8dda 3e3d 9474 f83b
00000020: e0fd 393d 9ba5 80bd 2814 763d 6b7c 87bd
00000030: 5830 863d a070 8ebc 148d 963b 3da2 393d
00000040: 045c d1bd 5fec 3e3d ab5e f7bc bc19 52bc
00000050: 8e40 80bd 0ad3 973c fc3c fcbb b128 0bbc
00000060: c427 c93d 79d8 e53c 8155 10bd 9c38 2bbd
00000070: 748c 143e b18d 403d 37c9 b73c 0ecc 233e
00000080: b962 15bd 275d 993d c66b ddbc 672e 39bd
00000090: 4e0c 1ebd 4cf9 0d3c 0d19 033b cf88 e73c
000000a0: 7e2f 15bd 805c 043d 50d5 efbc ed23 5b3d
000000b0: e75c b03d 61fc 7ebd bb5c cc3c 1a0f dcbb
000000c0: 0b39 1d3d 166d 0c3c c0ac 463d 6ad2 643d
000000d0: a125 0e3e 29a2 4fbd 53e8 12bd a45e dcbc
000000e0: 689f 083d 7d9c c23d 9114 0a3d 2117 e2bd
000000f0: f614 803c 83cb 753d 5027 0abd 9733 8abc
00000100: 7eb0 b4bd 049f 92bd 4fab 013e 285e ea3c
00000110: d832 7f3d ba7f f7bc de04 3ebc f344 5f3d
00000120: b88a 2c3b 2576 8cbd c413 1fbd c34e d73b
00000130: 751d b0bd 74ea 2a3d 1c9a 7a3d 104e cd3c
00000140: 4d91 21be 251e c3bc e08c 9b3d f2d1 493d
00000150: 7fe2 b23b 3cde 9fb9 bcb2 763c bdb2 1ebd
00000160: 36d4 b6bc 45bd ddbb 8db4 60bd de23 0a3c
00000170: ebda a9bd 25b0 5ebd 90a1 4a3d 87be 48bc
00000180: 3c75 9b3c e1a8 07bd ad77 9a3d abdc 133d
00000190: a054 f5bd e024 a43a 415b a93d 3dc1 e1bd
000001a0: 090a 3e3c 2220 ab3d f83a 273c 8feb f2ba
000001b0: d05a 04bd 830c 783d a46d bb3d fd09 173b
000001c0: 934b 003e 7b33 9ebb 5c12 91bd 29d2 ffbc
000001d0: 6881 26bd 6c27 27bd 1663 0e3d c13d 96bc
000001e0: 8ba4 52bd a252 2cbc 30dd d8bd ffd6 16bd
000001f0: 98ff 9a3d 54fc 8a3d 7222 b23c 0604 873d
00000200: 317b d239 f7cf b43b 8097 e4bb 5c3e bf3d
00000210: f4ff 11bc cc1f 33bc 5943 77bd fd3f c6bc
00000220: b606 a4bd 93ea 19bd 9c3f 43bd c95d ec3b
00000230: 3b3c c53d 2ed5 00be f450 273e 3072 9b3d
00000240: cb76 60bc 65bf 1dbc a39f 513d 7fe1 f83b
00000250: 9ad0 b1bd e64a 8b3d c8b5 40bb 49bb 4c3d
00000260: 6bd7 143e 6e42 0b3e fc94 c0ba 6cb5 9c3d
00000270: 7f23 8dbd 719d b33d eb30 33bd ba1e 363d
00000280: 0dcd 803b 7e10 a13d a4e4 373d eed1 b13d
00000290: 0ff3 d83b bd2a d73b f8e5 37bd 52d0 a83b
000002a0: fe09 8cbd 5f31 e93c e8d5 33bc ea17 353d
000002b0: bca8 22bc b1b8 623c 655a b0bd 0b14 283d
000002c0: c5c4 0c3d 9996 1a3d 23bf b23d c7ff 0cbd
000002d0: e7e1 f83c 6dfd 10bd 7f87 03be a8c0 51bd
000002e0: 0995 48bd 0c9f 333d 1d8a 00bd 4c9a f63d
000002f0: 12de 3f3d 9ae1 55bb b24f cdbd b4a1 5fbc
00000300: db60 4dbd 2c01 a73c 1e7f 84bc 0882 dfbb
00000310: 3a95 d9bc 3f38 ddbc 6bcf d53d 0d9d 173d
00000320: 1dcb 23bd 2c28 073e e80a 003e ebb4 b3bd
00000330: 2679 3ebd 943a 1a3d bfee 8f3c 01d3 49bd
00000340: 51f3 d53c 0fb2 9abc e37c 883d 2aed 563d
00000350: 540c c33d 45ca c0ba 8f6e 31bc 304e cdbc
00000360: d458 053d 2732 04bd 541a c13d b827 c93d
00000370: c16f 8a3d 9b50 af3c 2bef 2d3d b0d8 a8bd
00000380: 90c2 3d3d e0a0 14be 94cd 99bd 8027 19bd
00000390: 7a0c 07bd 09f9 923d 3641 e43d d904 3cbd
000003a0: 3110 29bc d4a3 f3bd c652 ac3c 47e2 133d
000003b0: 438c e3bc 2784 1e3e 69eb d8bd 254b 8e3d
000003c0: 4b3e 573c 0770 233d 0c03 ca3d 609b b2bd
000003d0: 4099 52bc 1800 6dbc 2a55 3a3c 9550 0e3c
000003e0: 4882 cb3c 3e7e 74bc 5637 24bd 252a 18ba
000003f0: 8d2c 83bc bb1e d7bd 8cbb e9bb 76f0 16bd

network_body._body_endoder.seq_layers.2.bias f4 [256]
0.0 0.0 0.0 0.0 0.0 0.0 0.0 0.0
0.0 0.0 0.0 0.0 0.0 0.0 0.0 0.0
0.0 0.0 0.0 0.0 0.0 0.0 0.0 0.0
0.0 0.0 0.0 0.0 0.0 0.0 0.0 0.0
0.0 0.0 0.0 0.0 0.0 0.0 0.0 0.0
0.0 0.0 0.0 0.0 0.0 0.0 0.0 0.0
0.0 0.0 0.0 0.0 0.0 0.0 0.0 0.0
0.0 0.0 0.0 0.0 0.0 0.0 0.0 0.0
0.0 0.0 0.0 0.0 0.0 0.0 0.0 0.0
0.0 0.0 0.0 0.0 0.0 0.0 0.0 0.0
0.0 0.0 0.0 0.0 0.0 0.0 0.0 0.0
0.0 0.0 0.0 0.0 0.0 0.0 0.0 0.0
0.0 0.0 0.0 0.0 0.0 0.0 0.0 0.0
0.0 0.0 0.0 0.0 0.0 0.0 0.0 0.0
0.0 0.0 0.0 0.0 0.0 0.0 0.0 0.0
0.0 0.0 0.0 0.0 0.0 0.0 0.0 0.0
0.0 0.0 0.0 0.0 0.0 0.0 0.0 0.0
0.0 0.0 0.0 0.0 0.0 0.0 0.0 0.0
0.0 0.0 0.0 0.0 0.0 0.0 0.0 0.0
0.0 0.0 0.0 0.0 0.0 0.0 0.0 0.0
0.0 0.0 0.0 0.0 0.0 0.0 0.0 0.0
0.0 0.0 0.0 0.0 0.0 0.0 0.0 0.0
0.0 0.0 0.0 0.0 0.0 0.0 0.0 0.0
0.0 0.0 0.0 0.0 0.0 0.0 0.0 0.0
0.0 0.0 0.0 0.0 0.0 0.0 0.0 0.0
0.0 0.0 0.0 0.0 0.0 0.0 0.0 0.0
0.0 0.0 0.0 0.0 0.0 0.0 0.0 0.0
0.0 0.0 0.0 0.0 0.0 0.0 0.0 0.0
0.0 0.0 0.0 0.0 0.0 0.0 0.0 0.0
0.0 0.0 0.0 0.0 0.0 0.0 0.0 0.0
0.0 0.0 0.0 0.0 0.0 0.0 0.0 0.0
0.0 0.0 0.0 0.0 0.0 0.0 0.0 0.0
00000000: 0000 0000 0000 0000 0000 0000 0000 0000
00000010: 0000 0000 0000 0000 0000 0000 0000 0000
00000020: 0000 0000 0000 0000 0000 0000 0000 0000
00000030: 0000 0000 0000 0000 0000 0000 0000 0000
00000040: 0000 0000 0000 0000 0000 0000 0000 0000
00000050: 0000 0000 0000 0000 0000 0000 0000 0000
00000060: 0000 0000 0000 0000 0000 0000 0000 0000
00000070: 0000 0000 0000 0000 0000 0000 0000 0000
00000080: 0000 0000 0000 0000 0000 0000 0000 0000
00000090: 0000 0000 0000 0000 0000 0000 0000 0000
000000a0: 0000 0000 0000 0000 0000 0000 0000 0000
000000b0: 0000 0000 0000 0000 0000 0000 0000 0000
000000c0: 0000 0000 0000 0000 0000 0000 0000 0000
000000d0: 0000 0000 0000 0000 0000 0000 0000 0000
000000e0: 0000 0000 0000 0000 0000 0000 0000 0000
000000f0: 0000 0000 0000 0000 0000 0000 0000 0000
00000100: 0000 0000 0000 0000 0000 0000 0000 0000
00000110: 0000 0000 0000 0000 0000 0000 0000 0000
00000120: 0000 0000 0000 0000 0000 0000 0000 0000
00000130: 0000 0000 0000 0000 0000 0000 0000 0000
00000140: 0000 0000 0000 0000 0000 0000 0000 0000
00000150: 0000 0000 0000 0000 0000 0000 0000 0000
00000160: 0000 0000 0000 0000 0000 0000 0000 0000
00000170: 0000 0000 0000 0000 0000 0000 0000 0000
00000180: 0000 0000 0000 0000 0000 0000 0000 0000
00000190: 0000 0000 0000 0000 0000 0000 0000 0000
000001a0: 0000 0000 0000 0000 0000 0000 0000 0000
000001b0: 0000 0000 0000 0000 0000 0000 0000 0000
000001c0: 0000 0000 0000 0000 0000 0000 0000 0000
000001d0: 0000 0000 0000 0000 0000 0000 0000 0000
000001e0: 0000 0000 0000 0000 0000 0000 0000 0000
000001f0: 0000 0000 0000 0000 0000 0000 0000 0000
00000200: 0000 0000 0000 0000 0000 0000 0000 0000
00000210: 0000 0000 0000 0000 0000 0000 0000 0000
00000220: 0000 0000 0000 0000 0000 0000 0000 0000
00000230: 0000 0000 0000 0000 0000 0000 0000 0000
00000240: 0000 0000 0000 0000 0000 0000 0000 0000
00000250: 0000 0000 0000 0000 0000 0000 0000 0000
00000260: 0000 0000 0000 0000 0000 0000 0000 0000
00000270: 0000 0000 0000 0000 0000 0000 0000 0000
00000280: 0000 0000 0000 0000 0000 0000 0000 0000
00000290: 0000 0000 0000 0000 0000 0000 0000 0000
000002a0: 0000 0000 0000 0000 0000 0000 0000 0000
000002b0: 0000 0000 0000 0000 0000 0000 0000 0000
000002c0: 0000 0000 0000 0000 0000 0000 0000 0000
000002d0: 0000 0000 0000 0000 0000 0000 0000 0000
000002e0: 0000 0000 0000 0000 0000 0000 0000 0000
000002f0: 0000 0000 0000 0000 0000 0000 0000 0000
00000300: 0000 0000 0000 0000 0000 0000 0000 0000
00000310: 0000 0000 0000 0000 0000 0000 0000 0000
00000320: 0000 0000 0000 0000 0000 0000 0000 0000
00000330: 0000 0000 0000 0000 0000 0000 0000 0000
00000340: 0000 0000 0000 0000 0000 0000 0000 0000
00000350: 0000 0000 0000 0000 0000 0000 0000 0000
00000360: 0000 0000 0000 0000 0000 0000 0000 0000
00000370: 0000 0000 0000 0000 0000 0000 0000 0000
00000380: 0000 0000 0000 0000 0000 0000 0000 0000
00000390: 0000 0000 0000 0000 0000 0000 0000 0000
000003a0: 0000 0000 0000 0000 0000 0000 0000 0000
000003b0: 0000 0000 0000 0000 0000 0000 0000 0000
000003c0: 0000 0000 0000 0000 0000 0000 0000 0000
000003d0: 0000 0000 0000 0000 0000 0000 0000 0000
000003e0: 0000 0000 0000 0000 0000 0000 0000 0000
000003f0: 0000 0000 0000 0000 0000 0000 0000 0000

action_model._discrete_distribution.branches.0.weight f4 [3, 256]
0.0052195275 -0.0029024917 0.012937076 -0.010880522 0.008780031 -0.0028724337 -0.008844114 -0.009949218
-0.0028817945 0.0018826658 -0.0029908335 -0.0054644737 -0.006610978 0.0040402333 0.008477875 0.004305896
0.006911121 0.00023256268 0.0027573544 0.0072068 -0.0056570703 0.0019034758 0.009463952 0.0010480986
0.011808648 0.0048538004 -0.0031996258 0.0014409558 0.004181842 -0.0005979471 0.0006322909 0.0052265576
-0.007213945 0.0141933635 0.00040361757 0.01042295 -0.0064076814 0.003331455 0.005560502 0.0029284172
0.0039201467 -0.0016573331 0.0070428285 0.003399384 -0.006345515 0.0025284335 -0.007246236 0.0018363625
-0.001485202 0.007277034 0.001393524 -0.0024598178 -0.006971337 -0.0009139849 -0.0026376224 0.0027340336
0.009225154 -0.012119978 0.00026703393 0.0014281622 0.0119909635 -0.0010596603 -0.008112366 -0.011406633
0.0038815872 -0.0118529955 -0.0061359303 -0.011002251 0.0016239937 0.00025824222 0.004159185 0.00095537753
0.00030513474 -0.0008454189 0.005293671 0.004626933 -0.01208103 -0.008097118 -0.0064458335 0.012829666
-0.0032694328 -0.0110092815 -0.0028536583 -0.0031344467 0.004193668 0.001250946 -0.005632518 0.004961664
0.008899223 -0.020224957 -0.006551905 0.0109863905 -0.0053340164 0.00705417 0.0012346746 -0.0066991323
0.006786678 5.3284166e-05 -0.00019952285 0.006767916 -0.0019193873 0.0037857068 -0.0021837458 0.006889712
0.00839495 -0.011339952 0.015062012 0.006478969 0.008080005 0.0060303356 -0.0020613102 0.008001701
0.0063569816 -0.0060779117 -0.009348535 0.004055658 0.0051582693 0.00908225 0.007200543 -0.0061104004
0.0105751995 0.005950071 -0.0038538252 -0.007987249 0.0009299253 -0.0050668092 0.0009559503 0.0066530867
-0.0022850593 -0.0078045316 0.0030471853 -0.0030939018 0.00094750256 -0.012620767 0.0029478658 0.0038981636
0.014338593 0.002924559 -0.005938658 -0.0016778872 -0.010161278 -0.004511939 -0.0010629407 0.0034907148
0.0012314259 0.0076945275 0.011503863 -0.008372902 0.0062657385 -0.009889148 0.00024816205 0.009108417
0.0064157024 0.005042206 0.0012050964 0.0022037167 0.0062470883 0.003982702 0.0027050623 -0.01305462
-0.0011373418 0.005141312 -0.006844077 -0.0077198767 0.0016960241 0.010360701 0.00041985666 0.008480046
-0.00012588884 0.0058276155 0.0008215977 0.0031699676 0.001623583 -0.0044125505 -0.0014806314 -0.0066967043
0.003782957 -0.0049761953 -0.002618068 0.00569864 0.00033646633 0.0073168315 0.010890673 -0.0015159041
-0.0071071903 -0.0029213715 0.0054430678 -0.0009638038 -0.0023483743 0.007386041 -0.0053371857 -0.0027570722
3.381727e-05 0.00019166856 0.0026104033 0.0005129687 0.0036187812 0.0038364746 -0.013497585 -0.0060670474
0.009047995 -0.0036800716 -0.008882151 -0.0060780733 -0.0025513275 -0.009572184 -0.010170655 -0.00026151244
-0.0024886816 0.003577628 0.00078368606 0.0029748844 -0.0022907841 -0.0014065747 0.005379002 -0.0032079783
0.014126006 -0.007372676 -0.0053316415 -0.0049922224 0.0021790105 -0.00723814 -0.0043247826 -0.007326598
0.0058819726 -0.0014874632 0.005214899 0.001783854 -0.0022715095 -0.0058416347 0.000781881 -0.008082045
0.0009897923 0.0031284764 0.006047967 -0.0030953276 -0.0061413157 0.0072261477 0.0021342223 0.0017707236
0.00527602 0.001850592 -0.009087752 0.0038536042 -0.00084824575 -0.0052373325 -0.002698032 -0.0043185013
0.0032891822 -0.00908155 0.0010325805 -0.011796745 0.0018779285 -0.004697036 0.003839067 -0.0011634383
00000000: 9208 ab3b bb37 3ebb 08f6 533c 3844 32bc
00000010: 1fda 0f3c 713f 3cbb e7e6 10bc 0b02 23bc
00000020: 7ddc 3cbb c8c3 f63a dc01 44bb 540f b3bb
00000030: e7a0 d8bb ef63 843b c9e6 0a3c 7918 8d3b
00000040: af76 e23b 12dc 7339 bbb4 343b 0527 ec3b
00000050: f25e b9bb 0d7e f93a b10e 1b3c 5a60 893a
00000060: 0f79 413c a10c 9f3b d0b0 51bb 74de bc3a
00000070: d507 893b 8dbf 1cba 53c0 253a 8b43 ab3b
00000080: f562 ecbb 488b 683c a29c d339 05c5 2a3c
00000090: 87f7 d1bb 8a54 5a3b df34 b63b b0ea 3f3b
000000a0: 9374 803b df3a d9ba 87c7 e63b 33c8 5e3b
000000b0: 0aee cfbb 13b4 253b d571 edbb 1ab2 f03a
000000c0: 1cab c2ba 3074 ee3b e8a6 b63a e534 21bb
000000d0: d06f e4bb 7d98 6fba f6db 2cbb 792d 333b
000000e0: 1a25 173c df92 46bc b000 8c39 2c31 bb3a
000000f0: bf75 443c 4de4 8aba bbe9 04bc e3e2 3abc
00000100: 3a62 7e3b 1133 42bc ea0f c9bb c942 34bc
00000110: 30dc d43a af64 8739 c649 883b 4d72 7a3a
00000120: 7efa 9f39 1a9f 5dba 8876 ad3b 879d 973b
00000130: 83ef 45bc c6a9 04bc 9237 d3bb 8533 523c
00000140: fb43 56bb 4660 34bc 7104 3bbb 4a6b 4dbb
00000150: 096b 893b c8f6 a33a fc90 b8bb 7495 a23b
00000160: 0cce 113c cfae a5bc 5db1 d6bb 4300 343c
00000170: f9c8 aebb ab26 e73b ced4 a13a 6584 dbbb
00000180: c862 de3b 707d 5f38 0237 51b9 65c5 dd3b
00000190: f393 fbba 9f19 783b 2d1d 0fbb 18c3 e13b
000001a0: f98a 093c 35cb 39bc a8c6 763c 884d d43b
000001b0: ff61 043c 1f9a c53b 0c17 07bb 9119 033c
000001c0: 3a4e d03b 3829 c7bb 992a 19bc 53e5 843b
000001d0: b306 a93b b8cd 143c 88f2 eb3b c139 c8bb
000001e0: 9a43 2d3c d0f8 c23b 7590 7cbb f3dc 02bc
000001f0: 3bc6 733a 7a07 a6bb bd98 7a3a 2302 da3b
00000200: efc0 15bb 28bd ffbb 49b3 473b 0fc3 4abb
00000210: d261 783a 55c7 4ebc fb30 413b 5578 7f3b
00000220: 6bec 6a3c f5a9 3f3b 1399 c2bb 8dec dbba
00000230: 7d7b 26bc e3d8 93bb 5f52 8bba 7ac4 643b
00000240: cc67 a13a 6022 fc3b b37a 3c3c 7f2e 09bc
00000250: d350 cd3b 1806 22bc bf1b 8239 783b 153c
00000260: d03a d23b 1739 a53b 53f4 9d3a 3b6c 103b
00000270: 60b4 cc3b 5381 823b 6a47 313b 0be3 55bc
00000280: dc12 95ba 7378 a83b 4744 e0bb 05f7 fcbb
00000290: 204d de3a eebf 293c 3520 dc39 e4ef 0a3c
000002a0: 0701 04b9 95f5 be3b 7d60 573a 3bbf 4f3b
000002b0: 68ce d43a 2897 90bb bf11 c2ba 0770 dbbb
000002c0: 7deb 773b 5a0f a3bb e493 2bbb a8bb ba3b
000002d0: bf67 b039 08c2 ef3b cb6e 323c 4db1 c6ba
000002e0: 6fe3 e8bb 7b74 3fbb c35b b23b c7a7 7cba
000002f0: 2fe7 19bb 9a06 f23b 8fe3 aebb ffaf 34bb
00000300: 04d7 0d38 a3fa 4839 4d13 2b3b bf78 063a
00000310: 1329 6d3b 5d6d 7b3b fa24 5dbc 15ce c6bb
00000320: 0b3e 143c 5b2d 71bb 7186 11bc 932a c7bb
00000330: 2c34 27bb a6d4 1cbc d2a2 26bc 9b1b 89b9
00000340: 2619 23bb a376 6a3b 4870 4d3a 47f6 423b
00000350: fb20 16bb d15c b8ba 5742 b03b f23c 52bb
00000360: c370 673c 7d96 f1bb 0db5 aebb cc95 a3bb
00000370: bbcd 0e3b eb2d edbb e8b6 8dbb f513 f0bb
00000380: 90bd c03b fcf6 c2ba bee1 aa3b 35d0 e93a
00000390: 9bdd 14bb 2f6b bfbb 25f7 4c3a 8e6a 04bc
000003a0: ebbb 813a 2007 4d3b 062e c63b fbda 4abb
000003b0: 173d c9bb 52c9 ec3b 4fde 0b3b a017 e83a
000003c0: 77e2 ac3b 908f f23a cbe4 14bc c08c 7c3b
000003d0: cf5c 5eba ee9d abbb 77d1 30bb 3782 8dbb
000003e0: 528f 573b c8ca 14bc a757 873a 2247 41bc
000003f0: d324 f63a 98e9 99bb db98 7b3b 837e 98ba

action_model._discrete_distribution.branches.0.bias f4 [3]
0.0 0.0 0.0
00000000: 0000 0000 0000 0000 0000 0000

action_model._discrete_distribution.branches.1.weight f4 [3, 256]
-0.005863995 -0.0043239063 -0.0051870104 -0.0033696431 -0.0074924403 -0.0036764652 -0.005242343 -0.0032540925
-0.013854265 -0.0042389906 0.007296455 -0.0015807077 0.006476664 -0.0072614746 0.010207112 -0.0058936747
-0.0005841804 0.004636818 0.0013967649 0.004057625 0.00046000333 0.0022178988 -0.00044633984 -0.0011550069
0.0020878413 -0.0035793248 -0.0066128424 0.0011004021 -0.0034882308 0.0016539929 -0.0018973837 -0.002858258
-0.008797004 0.00032148958 -0.009563938 0.0061887386 0.0043359734 0.016313463 0.0056668897 -0.0036065828
0.0034470686 -0.008766655 -0.003584589 -0.003920828 0.003556947 0.0012825255 -0.0034533907 0.0029065227
0.004423228 0.011250602 0.009961807 -0.00015584302 -0.009579466 -0.0026062327 0.00027880873 -0.0059958994
-0.009955871 -0.008313615 -0.0031397708 0.0036327485 -0.0003512427 -0.0010205429 0.00057173974 0.0043643317
0.002972277 -0.010116906 -0.003525243 -0.0092897555 0.009202535 -0.0012650045 0.007342653 0.0037382897
-0.006510193 0.007311365 -0.0036918023 0.0033159666 0.0062679844 -0.0018702326 0.002780162 -0.0017127678
-0.0062746927 0.0059462413 -0.0038087629 0.006568726 0.0035847686 -0.004468288 -0.001476027 -0.0057085534
0.0014236862 0.01218317 0.004039727 0.0048359223 0.008034164 -0.0010094993 -0.0036256078 -0.008283081
-0.0034083463 0.0030387358 -0.005712232 -0.00015054857 -0.012428526 -0.0018398184 0.0062678168 0.0016266374
-0.0027337817 0.00476911 -0.0043936744 0.0027920036 0.0034210326 0.009848294 -0.0074157803 0.0041099186
0.0063868337 0.0061598266 0.009779947 -0.0028849943 0.00017816531 0.00015086248 0.0017694483 -0.005554546
-0.0028983557 0.00366208 -0.004289172 0.0018318966 -0.0058191116 -0.0063484027 -0.0072607384 -0.0096153375
-1.2745639e-05 -0.0054418934 -0.003810074 0.004103912 -0.00558966 0.0020347785 0.0031214012 -0.009404298
0.0030994758 0.008680067 -0.0030250128 -0.005949459 0.0004807602 -0.004080128 -0.00197164 0.00022816572
-0.018469883 0.005329565 0.005534165 -0.0036838625 0.0034251602 -0.0023275486 0.004964519 0.006817748
-0.009479105 -0.0031020816 -0.012312136 0.011088031 2.4559884e-05 0.01551273 -0.016117886 -0.0035644923
-0.016250541 0.00898572 0.0008436379 0.0015765239 -0.00047329682 0.0053923507 -0.0009709498 0.0011839297
-0.0011646674 -0.002607879 0.0024397483 0.005735732 0.0034899272 0.0071980814 -0.00057919807 -0.0020471674
-0.006153737 -0.0016628078 0.002516575 -0.006507491 -0.009053397 -0.009050358 0.005904496 0.0093167005
-0.005407537 -0.006275305 0.0072410116 -0.00649462 0.010650704 -0.010086127 -0.0019283185 0.0075449273
-0.0027694795 -0.012256368 -0.00072781433 -0.0094949305 -0.0021997697 0.0010309261 -0.0029261752 0.005491537
-0.0019457022 -0.0051556644 -0.0058334614 0.0072255577 -0.0012856777 -0.0074962 0.011427692 0.00561609
0.0083309105 -0.0003603115 0.0022453195 -0.0077451332 -0.0074855606 -0.0020770505 -0.0023732947 0.003185305
-0.01164072 0.005969913 0.0025653318 -0.007113998 0.014401927 -0.0008924234 0.003598536 -0.0038989324
0.0026961837 0.0054147495 -0.0014711799 0.006231476 0.00032967687 0.0016500388 -0.008718525 -0.01099776
-0.007502492 0.004429068 -0.0046168077 -0.0058259163 0.002148885 0.008263426 -0.0066148154 -0.0055384
0.004080707 0.0025230546 -0.010094405 -0.001755759 0.0072263028 -0.00030913283 -0.00702622 -0.0024165479
-0.0005900879 0.0024467 0.0012066743 0.0035065159 -0.0043866294 -0.016779063 -0.0024358763 -5.4209446e-05
00000000: c126 c0bb 8eaf 8dbb ccf7 a9bb 3bd5 5cbb
00000010: 2583 f5bb daf0 70bb f6c7 abbb 9d42 55bb
00000020: 00fd 62bc 3be7 8abb 1a17 ef3b c02f cfba
00000030: 323a d43b aaf1 edbb bb3b 273c ba1f c1bb
00000040: af23 19ba 73f0 973b a713 b73a d3f5 843b
00000050: 9a2c f139 2b5a 113b b802 eab9 9a63 97ba
00000060: 2ad4 083b 1b93 6abb 8bb0 d8bb 5e3b 903a
00000070: cd9a 64bb cbca d83a a2b1 f8ba 9d51 3bbb
00000080: 4f21 10bc 9a8d a839 10b2 1cbc e7ca ca3b
00000090: c814 8e3b d0a3 853c 51b1 b93b 6b5c 6cbb
000000a0: 37e8 613b 04a2 0fbc 6deb 6abb 4a7a 80bb
000000b0: ab1b 693b 6a1a a83a 4852 62bb 5c7b 3e3b
000000c0: baf0 903b 7254 383c d936 233c cb69 23b9
000000d0: 31f3 1cbc 54cd 2abb 132d 9239 4079 c4bb
000000e0: f31d 23bc d435 08bc 9dc4 4dbb 6813 6e3b
000000f0: ff26 b8b9 bdc3 85ba cee0 153a ab02 8f3b
00000100: 89ca 423b 61c1 25bc c307 67bb 0f34 18bc
00000110: 3bc6 163c 82ce a5ba a39a f03b 18fe 743b
00000120: 7553 d5bb 2d94 ef3b 2af2 71bb b050 593b
00000130: aa63 cd3b 9822 f5ba 6133 363b f37e e0ba
00000140: f09b cdbb b0d8 c23b 709c 79bb 783e d73b
00000150: 70ee 6a3b b76a 92bb 3f77 c1ba d10e bbbb
00000160: fb9a ba3a eb9b 473c b05f 843b a876 9e3b
00000170: baa1 033c 2d51 84ba 9b9b 6dbb c3b5 07bc
00000180: 905e 5fbb 8725 473b ad2d bbbb 93dc 1db9
00000190: 04a1 4bbc 1026 f1ba 4262 cd3b e534 d53a
000001a0: 3f29 33bb 3246 9c3b d0f8 8fbb 0cfa 363b
000001b0: 6733 603b bd5a 213c 1300 f3bb 7fac 863b
000001c0: a548 d13b 5fd8 c93b 123c 203c 2c12 3dbb
000001d0: e3d1 3a39 d730 1e39 d5ec e73a e902 b6bb
000001e0: 57f2 3dbb 82ff 6f3b 2f8c 8cbb 401c f03a
000001f0: 3fae bebb 4306 d0bb 7deb edbb a689 1dbc
00000200: 1ad6 55b7 e951 b2bb 6fb2 79bb 1c7a 863b
00000210: 7729 b7bb eb59 053b 6c90 4c3b 7c14 1abc
00000220: 9320 4b3b d736 0e3c 4b3f 46bb aef3 c2bb
00000230: 8b0e fc39 98b2 85bb a136 01bb c53f 6f39
00000240: 274e 97bc a2a3 ae3b f157 b53b f56c 71bb
00000250: a778 603b c989 18bb 67ad a23b 6a67 df3b
00000260: 3f4e 1bbc 4b4c 4bbb d7b8 49bc 93aa 353c
00000270: f305 ce37 1b29 7e3c a809 84bc 429a 69bb
00000280: db1f 85bc d738 133c 9527 5d3a 5da3 ce3a
00000290: d324 f8b9 51b2 b03b 5787 7eba 172e 9b3a
000002a0: c1a7 98ba f3e8 2abb 2fe4 1f3b cff2 bb3b
000002b0: 43b7 643b e2dd eb3b 53d5 17ba c529 06bb
000002c0: 4aa5 c9bb 92f2 d9ba 1fed 243b cb3c d5bb
000002d0: b354 14bc f447 14bc 817a c13b 13a5 183c
000002e0: b531 b1bb 13a1 cdbb 0246 ed3b d2d0 d4bb
000002f0: 4a80 2e3c 4840 25bc a2bf fcba 703b f73b
00000300: 2880 35bb efce 48bc cbca 3eba a090 1bbc
00000310: 032a 10bb 2420 873a 13c5 3fbb 5af2 b33b
00000320: ef06 ffba d9f0 a8bb 9f26 bfbb 5fc4 ec3b
00000330: 2f84 a8ba afa2 f5bb 373b 3b3c 2d07 b83b
00000340: 5f7e 083c 31e8 bcb9 3626 133b e3ca fdbb
00000350: 6f49 f5bb 201f 08bb 4789 1bbb 8dc0 503b
00000360: b8b8 3ebc 439f c33b 201f 283b 8a1c e9bb
00000370: 0ff6 6b3c 85f1 69ba 6ad5 6b3b 3b85 7fbb
00000380: 75b2 303b 366e b13b 9bd4 c0ba 6931 cc3b
00000390: 7bd8 ac39 1d46 d83a 25d8 0ebc f32f 34bc
000003a0: 77d7 f5bb b721 913b 9748 97bb 54e7 bebb
000003b0: 4fd4 0c3b 5263 073c 18c1 d8bb 777b b5bb
000003c0: 74b7 853b d559 253b 0163 25bc 7f21 e6ba
000003d0: 9fca ec3b 1b13 a2b9 353c e6bb f25e 1ebb
000003e0: 21b0 1aba d058 203b 4529 9e3a 93cd 653b
000003f0: b7bd 8fbb 3f74 89bc 39a3 1fbb f35e 63b8

action_model._discrete_distribution.branches.1.bias f4 [3]
0.0 0.0 0.0
00000000: 0000 0000 0000 0000 0000 0000

action_model._discrete_distribution.branches.2.weight f4 [3, 256]
-0.010446915 0.009344175 0.010055612 -0.0005379434 -0.0009116147 -0.0036251494 -0.0035346497 -0.0024815379
0.007898959 0.000710861 -0.0029902437 0.0074686757 0.00917877 0.0022386299 0.0019382288 0.00632727
0.002322014 0.005071782 0.006071703 -0.013063046 -0.009597956 0.0055322526 0.008957468 -0.0011651847
-0.003290837 -0.00026717104 -0.0031692039 0.002405492 0.00060435245 0.0009870302 -0.0030428383 0.012288455
0.004677932 -0.0031990446 3.371799e-05 0.0021250665 -0.0009609977 -0.005589168 0.0033024081 -0.003658165
-0.007334873 -0.01008458 -0.0016958265 -0.00019689112 -0.0067208656 0.005860004 0.004674014 -0.0034742416
-0.004118264 -0.010108796 -0.0097148 0.00035734402 -0.005079225 -0.0025399716 -0.0055516767 0.015023522
-0.0013999715 -0.0026207296 0.007175751 -0.0090726195 -0.00032262827 0.0058836075 -0.00960227 -0.010751907
-0.004920694 -0.0033527284 0.0014643869 -0.0057074646 -0.009369263 0.0004575681 -0.004964902 -0.0071856207
0.0064403475 0.0022561697 -0.0017617021 -0.004337476 -0.008421301 0.003291682 0.0043958067 0.0071648876
0.0025401283 0.003449066 0.0026159082 -0.00091702753 -0.0057720216 0.0064631267 0.0067871287 0.009954226
-0.008513227 0.010423338 0.006463582 -0.0019178961 0.003620901 0.006915445 0.0018111086 -0.008381499
0.0017741064 0.0034297076 -0.0022926952 -0.0032622167 -0.003543779 -0.0037662487 0.007381405 -0.006521179
-0.0037036908 -0.022004588 0.001430404 0.00440844 0.0054406542 0.010410252 0.01458021 0.014199728
-0.012709728 -0.008954665 0.004959331 -0.0036725574 -0.010706583 0.0059552374 0.0031389878 -0.003177596
-0.011283936 -0.006814138 0.0017403926 -0.0012211831 -0.0057289563 -0.010843712 0.012661471 -0.0077641434
-0.002248586 0.001257065 -0.0037587334 -0.0155384615 0.009416013 -0.0004774661 0.0043119565 -0.014432791
-0.0072253505 0.0013975292 -0.0041154106 0.0068797567 -0.012520777 0.006168554 -8.024218e-06 0.0028710968
-0.0017173631 0.0033477899 -0.0011032707 0.0044600037 0.0018747997 0.009211096 -0.004221017 0.0049154176
0.009224877 -0.005341415 -0.006399347 0.008382016 0.0006905819 0.0047470946 -0.008482571 0.003150392
-0.0043076733 0.00068054086 -0.004370342 -0.004018457 -0.0024736475 0.007940284 0.008083067 -0.0015207132
0.0003808371 0.0055420916 0.0016474808 0.0042049955 -0.0012170263 0.0029589895 0.0027808626 0.007066025
0.003114908 0.0014988807 -0.0013834679 0.0012201199 -0.0022794257 -0.0034763825 -0.0048156935 0.003688709
0.007752269 0.0050648856 -0.0019276798 0.015817365 -0.0038946785 0.0025084754 -0.0046890615 0.0020152777
-0.0031481702 -0.001659848 -0.0052459445 0.014299074 0.0030149682 0.0037117403 0.003442969 -0.008180353
0.004621193 -0.0014385445 0.007338136 0.004529148 -0.00070550054 0.004932999 0.007536205 0.007383555
0.0016266045 -0.0014247097 0.00717874 -0.0022562905 -0.008438441 -0.0082447585 -0.002332336 -0.0036189144
0.011357287 -0.0003529499 -0.0028978158 0.0079808645 -0.0051969 0.011909857 0.010503901 0.0009774494
0.007221336 -0.0001529529 -0.0019371035 -0.00048132028 -0.008021729 0.008544366 0.010451115 0.0064072213
-0.004250753 -0.0046757157 0.013588515 -0.0080871815 -0.00040334632 0.00021971688 -0.004875961 0.0037664992
0.0007335846 0.0004791326 -0.0057994546 0.0011582518 0.0038736728 -0.0012951748 0.011710434 0.0037243937
0.008113956 0.0005406615 0.0025951527 0.0005188685 0.004986955 -0.0026327155 -0.0009360593 0.0009421212
00000000: 8a29 2bbc 5018 193c 4bc0 243c c504 0dba
00000010: 6df9 6eba ea93 6dbb 95a5 67bb 4ca1 22bb
00000020: a36a 013c 1359 3a3a f7f7 43bb cbbb f43b
00000030: 8d62 163c fab5 123b 2b0c fe3a fd54 cf3b
00000040: ee2c 183b 3131 a63b 23f5 c63b 6306 56bc
00000050: bf40 1dbc e647 b53b 58c2 123c 1cb9 98ba
00000060: 15ab 57bb 1713 8cb9 6bb2 4fbb 75a5 1d3b
00000070: 686d 1e3a 3d5f 813a 5b6a 47bb 8455 493c
00000080: 5649 993b 10a7 51bb 6b6c 0d38 b344 0b3b
00000090: 77eb 7bba 5725 b7bb 376d 583b d3bd 6fbb
000000a0: 6059 f0bb cb39 25bc 7f46 deba 8f74 4eb9
000000b0: b53a dcbb 4705 c03b 7928 993b 1ab0 63bb
000000c0: 81f2 86bb 5d9f 25bc d32a 1fbc e759 bb39
000000d0: a16f a6bb a775 26bb d7ea b5bb 3825 763c
000000e0: 407f b7ba 8cc0 2bbb 9022 eb3b 53a5 14bc
000000f0: 6f26 a9b9 47cb c03b d752 1dbc c428 30bc
00000100: c63d a1bb 73b9 5bbb acf0 bf3a af05 bbbb
00000110: 8a81 19bc c0e5 ef39 9eb0 a2bb 5b75 ebbb
00000120: 8d09 d33b 3fdc 133b eae8 e6ba 6321 8ebb
00000130: 7ff9 09bc 43b9 573b b30a 903b 6fc7 ea3b
00000140: 4878 263b ba09 623b a86f 2b3b ad64 70ba
00000150: 3a23 bdbb a3c8 d33b 9066 de3b 0d17 233c
00000160: 107b 0bbc a6c6 2a3c 75cc d33b ea61 fbba
00000170: a34c 6d3b f59a e23b b862 ed3a 8e52 09bc
00000180: 2289 e83a f2c4 603b 0b41 16bb eaca 55bb
00000190: bf3e 68bb 2bd3 76bb b7df f13b 9daf d5bb
000001a0: 9fb9 72bb f742 b4bc 657c bb3a ad74 903b
000001b0: 8447 b23b c38f 2a3c d5e1 6e3c faa5 683c
000001c0: 773c 50bc 96b6 12bc e281 a23b 4aaf 70bb
000001d0: aa6a 2fbc 2724 c33b 7ab7 4d3b 373f 50bb
000001e0: 42e0 38bc 2249 dfbb e31d e43a 1b10 a0ba
000001f0: f8b9 bbbb d3a9 31bc 0f72 4f3c 5b6a febb
00000200: 035d 13bb 1ac4 a43a 1555 76bb 0895 7ebc
00000210: 9f45 1a3c 6a54 fab9 504b 8d3b 8377 6cbc
00000220: a2c2 ecbb 4c2d b73a 91da 86bb 956f e13b
00000230: f223 4dbc 9521 ca3b c19f 06b7 0329 3c3b
00000240: 2519 e1ba 9866 5b3b 9f9b 90ba 3925 923b
00000250: d7bb f53a 23ea 163c 7550 8abb 8311 a13b
00000260: f023 173c 0907 afbb 9db1 d1bb b954 093c
00000270: 2b08 353a 848d 9b3b 7bfa 0abc cf76 4e3b
00000280: 6227 8dbb 5366 323a 1635 8fbb 43ad 83bb
00000290: eb1c 22bb f717 023c d76e 043c ab52 c7ba
000002a0: 17ab c739 6f9a b53b 48f0 d73a 0fca 893b
000002b0: a084 9fba 9beb 413b 223f 363b 1d8a e73b
000002c0: 7c23 4c3b 1776 c43a 7b55 b5ba 6eec 9f3a
000002d0: 6b62 15bb 05d4 63bb f7cc 9dbb 45be 713b
000002e0: bf06 fe3b 57f7 a53b 33aa fcba 6b93 813c
000002f0: dd3d 7fbb 3c65 243b b3a6 99bb c012 043b
00000300: 8851 4ebb 428f d9ba 2ce6 abbb aa46 6a3c
00000310: c696 453b ab40 733b 6fa3 613b e306 06bc
00000320: 606d 973b 8b8d bcba bf74 f03b 3f69 943b
00000330: 57f1 38ba ffa4 a13b 45f2 f63b c0f1 f13b
00000340: ca33 d53a 53bd baba a33b eb3b 46de 13bb
00000350: 6341 0abc 0615 07bc 1bda 18bb 4f2b 6dbb
00000360: ea13 3a3c 220c b9b9 48e9 3dbb 2cc2 023c
00000370: c24a aabb 9021 433c 8e18 2c3c c21d 803a
00000380: f5a0 ec3b fb61 20b9 68e6 fdba b759 fcb9
00000390: 926d 03bc abfd 0b3c 273b 2b3c abf3 d13b
000003a0: e749 8bbb bf36 99bb 5da2 5e3c 1980 04bc
000003b0: 3a78 d3b9 cd63 6639 87c6 9fbb 5fd7 763b
000003c0: 074e 403a 1734 fb39 5a09 bebb 7bd0 973a
000003d0: 72dd 7d3b dbc2 a9ba 1fdd 3f3c f514 743b
000003e0: 66f0 043c 2ebb 0d3a 7013 2a3b ad04 083a
000003f0: 9c69 a33b a389 2cbb e061 75ba aff8 763a

action_model._discrete_distribution.branches.2.bias f4 [3]
0.0 0.0 0.0
00000000: 0000 0000 0000 0000 0000 0000

action_model._discrete_distribution.branches.3.weight f4 [2, 256]
0.009270276 0.00078436575 -0.0034812118 0.0044248453 0.009891994 -0.006105473 -0.00475569 0.00031255174
-0.004210668 0.0019392886 0.004947984 -0.0015332644 -0.0019417809 0.005117519 0.011041573 0.00970184
-0.0053032185 0.009535017 0.002286705 0.0063931975 0.0072969706 0.0023382583 -0.0041815634 0.001757928
-0.011765763 0.0013201571 -0.001634219 0.0035233994 -0.004436849 0.0015676465 0.004049799 0.0028461257
-0.008119081 0.00023979395 0.010725061 -0.0033014405 0.0052769175 0.000973859 0.0043546557 -0.011002716
0.0047323224 0.0033590414 0.006764674 -0.0011963214 0.0029415686 -0.002505968 -0.0018974614 -0.0029967935
0.002672935 0.0013753303 0.003961747 -0.0035852331 -0.0055281436 0.0006383791 0.0047181486 0.0037876032
-0.0009487476 -0.0032405467 -0.0053491676 -0.011183534 0.004731576 -0.0077202297 -0.0018486677 0.006164148
0.00291546 0.0017910622 -0.0009485733 0.0016048787 0.004995817 6.449962e-05 0.0019603842 -0.0076204757
0.0014892133 -0.0035229144 -0.0008369926 -0.0036943443 -0.0049157827 0.0020736645 -0.0033899252 0.004056919
0.0010703754 0.017421821 0.0050635836 -0.009102735 0.00096813 0.00042131302 0.0014603626 -0.00022314019
0.009708858 0.0003229065 -0.003943354 0.0017811069 -0.0066480353 0.00576104 0.010110365 -0.0041890345
-0.011465383 0.0031968993 0.0021148238 0.0029469216 -0.0015377434 0.012082848 -0.002313513 -0.0007800086
0.0028612248 -0.0066102557 -0.002685067 -0.0010202042 0.0070799403 -0.0043282956 -0.0058604768 -0.0012655681
0.0028925026 0.0008966899 0.006083042 -0.0073874667 -0.0003111491 -0.005349708 0.0039675846 -0.003441094
0.00615458 0.0046740887 0.0067140283 0.0011679817 -0.004829654 -0.0070368755 -0.0019219902 0.0025460771
-0.00433001 -0.0048154285 -0.0095494995 0.0125231 0.011047148 -0.0047573308 -0.011143795 -0.0040982054
0.010015313 0.002414514 0.009622397 -0.005001697 -0.0016161094 0.0034393843 -0.008879626 -3.267684e-05
-0.0024190282 -0.002154058 -0.005040295 -0.0048020077 0.0036402706 0.0006157724 0.007108492 0.0073349066
0.00068761344 0.0071507804 -0.0029512872 -0.0054549673 -0.0022052806 0.005791953 -0.017014498 -0.003748726
0.0075075976 -0.009395069 0.0069829696 0.0061014774 0.0067477725 -0.0002781315 0.009763156 0.0024186168
0.0038724348 0.0070544095 0.004851837 -0.009020118 -0.0024302634 -0.001332134 0.0019406822 -0.001485553
-0.0059490665 0.0023558803 0.016159793 -0.0071343416 -0.00073622883 0.0002921156 0.0023305316 -0.005746146
0.0068428847 0.0008304731 0.004503809 -0.00483561 -0.0011139377 0.0039530727 -0.0007957062 0.0036520765
5.338824e-05 0.0013974326 0.0053426414 -0.001001351 0.0077460706 -0.001111319 -0.011290817 -0.001329617
0.009764786 -0.0016828951 0.010570845 0.0016143604 0.012866597 0.009428321 -0.0023786563 0.0097589325
0.0061372933 -0.012108964 -0.0052128052 0.0031178691 0.0020818713 0.0077242763 0.0030691621 0.0032145528
0.0043091103 0.0064480077 -0.0025178138 -0.0022190216 0.0008401119 0.0075900154 -0.0027992714 0.012149883
0.01545 0.0032594271 0.006879742 -0.0054867375 0.00068114 0.0067399405 0.0049354066 0.006926615
-0.0025020766 0.0009162468 0.0069953315 -0.009556253 -0.015725678 -0.0039070244 -0.0041438304 0.0031412814
-0.0037357372 0.0022311527 -0.005467852 0.0008630751 -0.004808379 0.00799605 0.011223237 0.014491804
-0.009305428 0.000846952 5.1938005e-05 0.0026784942 -0.003963827 -0.0073565217 -0.0011848931 -0.006527209
00000000: 5be2 173c e59d 4d3a 0b25 64bb 4bfe 903b
00000010: 0812 223c 6b10 c8bb 9fd5 9bbb fcdd a339
00000020: a5f9 89bb ba2f fe3a b322 a23b d1f7 c8ba
00000030: 5b83 feba dcb0 a73b b7e7 343c 77f4 1e3c
00000040: 9fc6 adbb c338 1c3c 8bdc 153b 077e d13b
00000050: 6d1b ef3b 773d 193b 7f05 89bb 476a e63a
00000060: 30c5 40bc 1f09 ad3a 4a33 d6ba d5e8 663b
00000070: fd62 91bb 7d79 cd3a 2db4 843b 1186 3a3b
00000080: e505 05bc 3371 7b39 2bb8 2f3c fb5c 58bb
00000090: fee9 ac3b 924a 7f3a 80b1 8e3b bc44 34bc
000000a0: 9911 9b3b 5d23 5c3b 33aa dd3b e3cd 9cba
000000b0: 55c7 403b 2b3b 24bb 3db4 f8ba da65 44bb
000000c0: 682c 2f3b 6d44 b43a 8bd1 813b 3bf6 6abb
000000d0: 6e25 b5bb e558 273a b39a 9a3b 7039 783b
000000e0: 60b5 78ba 5a5f 54bb 1248 afbb 243b 37bc
000000f0: 560b 9b3b fbf9 fcbb ff4e f2ba 9ffc c93b
00000100: 4d11 3f3b 13c2 ea3a ada9 78ba cb5a d23a
00000110: f3b3 a33b f843 8738 ca79 003b 2fb5 f9bb
00000120: b531 c33a b2e0 66bb 9f69 5bba d01c 72bb
00000130: 9314 a1bb 51e6 073b 8229 5ebb e7ef 843b
00000140: d74b 8c3a 35b8 8e3c 6bec a53b a323 15bc
00000150: 1bca 7d3a ade3 dc39 a369 bf3a bdfa 69b9
00000160: e711 1f3c c74b a939 4037 81bb 0874 e93a
00000170: c3d7 d9bb 1bc7 bc3b f2a5 253c 2b44 89bb
00000180: 4dd9 3bbc 1283 513b db98 0a3b 2421 413b
00000190: 1b8e c9ba 23f7 453c 4f9e 17bb 7e79 4cba
000001a0: 6383 3b3b d89a d8bb f3f7 2fbb 5fb8 85ba
000001b0: d8fe e73b 60d4 8dbb 3e09 c0bb 6be1 a5ba
000001c0: 2490 3d3b d70f 6b3a 4154 c73b 9012 f2bb
000001d0: ba21 a3b9 9a4c afbb 8302 823b fa83 61bb
000001e0: 5cac c93b 1929 993b 5a01 dc3b f616 993a
000001f0: 1342 9ebb 9795 e6bb 4aeb fbba 16dc 263b
00000200: c2e2 8dbb beca 9dbb 8175 1cbc b02d 4d3c
00000210: 19ff 343c 62e3 9bbb 7794 36bc 3d4a 86bb
00000220: 4417 243c d33c 1e3b 42a7 1d3c 47e5 a3bb
00000230: a2d3 d3ba 4b67 613b da7b 11bc 7d0e 09b8
00000240: 8f88 1ebb 192b 0dbb 0f29 a5bb 295a 9dbb
00000250: 9b91 6e3b c96b 213a 5aee e83b a859 f03b
00000260: f540 343a 1851 ea3b 626a 41bb 95bf b2bb
00000270: 7886 10bb 6cca bd3b fd61 8bbc 30ad 75bb
00000280: 4b02 f63b c7ed 19bc 65d1 e43b e7ee c73b
00000290: 6b1c dd3b 2ed2 91b9 a5f5 1f3c a881 1e3b
000002a0: adc8 7d3b ad28 e73b 29fc 9e3b 1ec9 13bc
000002b0: 0e45 1fbb 009b aeba 7d5e fe3a e3b6 c2ba
000002c0: 63f0 c2bb 1d65 1a3b 8b61 843c 32c7 e9bb
000002d0: 7bff 40ba 1827 9939 d5bb 183b 2b4a bcbb
000002e0: 473a e03b 1bb4 593a b094 933b 0974 9ebb
000002f0: 8c01 92ba c788 813b f096 50ba ad57 6f3b
00000300: 30ed 5f38 0f2a b73a 5311 af3b c43f 83ba
00000310: c0d2 fd3b aea9 91ba 1efd 38bc 8b46 aeba
00000320: 7bfc 1f3c 9794 dcba 5631 2d3c f298 d33a
00000330: 6bce 523c 3f79 1a3c 3be3 1bbb eee3 1f3c
00000340: 591b c93b ad64 46bc 2ed0 aabb 2a55 4c3b
00000350: 0170 083b ed1b fd3b ff23 493b 3fab 523b
00000360: 7033 8d3b cf49 d33b e801 25bb 016d 11bb
00000370: f53a 5c3a aab5 f83b fb73 37bb 4e10 473c
00000380: ff21 7d3c 1d9c 553b 756f e13b 17ca b3bb
00000390: 888e 323a b8da dc3b 31b9 a13b a8f8 e23b
000003a0: e1f9 23bb 4830 703a 1839 e53b d591 1cbc
000003b0: 23d3 80bc 7f06 80bb f8c8 87bb f5dd 4d3b
000003c0: 45d3 74bb 8838 123b ab2b b3bb fd3f 623a
000003d0: 9b8f 9dbb dd01 033c abe1 373c 086f 6d3c
000003e0: cb75 18bc fd05 5e3a 02d8 5938 ad89 2f3b
000003f0: fee2 81bb fa0e f1bb 6a4e 9bba 33e2 d5bb

action_model._discrete_distribution.branches.3.bias f4 [2]
0.0 0.0
00000000: 0000 0000 0000 0000

network_body.observation_encoder.processors.0.normalizer.running_mean f4 [11]
-0.026663523 0.00094711315 0.51801926 0.45380872 6.141483 -0.03380704 -0.48389855 -0.054743566
-3.2647536 1.3969839e-09 6.693881e-10
00000000: 766d dabc b047 783a e99c 043f 9e59 e83e
00000010: 0787 c440 4079 0abd 8dc1 f7be ca3a 60bd
00000020: b9f1 50c0 0000 c030 0000 3830

network_body.observation_encoder.processors.0.normalizer.running_variance f4 [11]
992.00134 1020.6452 740.21814 1053.1735 25498.543 141860.55 648464.1 117064.25
23034.727 1214.4489 2688.2087
00000000: 1600 7844 4b29 7f44 f60d 3944 8da5 8344
00000010: 1635 c746 2389 0a48 0251 1e49 20a4 e447
00000020: 74f5 b346 5dce 9744 5703 2845

network_body.processors.0.normalizer.running_mean f4 [11]
-0.026663523 0.00094711315 0.51801926 0.45380872 6.141483 -0.03380704 -0.48389855 -0.054743566
-3.2647536 1.3969839e-09 6.693881e-10
00000000: 766d dabc b047 783a e99c 043f 9e59 e83e
00000010: 0787 c440 4079 0abd 8dc1 f7be ca3a 60bd
00000020: b9f1 50c0 0000 c030 0000 3830

network_body.processors.0.normalizer.running_variance f4 [11]
992.00134 1020.6452 740.21814 1053.1735 25498.543 141860.55 648464.1 117064.25
23034.727 1214.4489 2688.2087
00000000: 1600 7844 4b29 7f44 f60d 3944 8da5 8344
00000010: 1635 c746 2389 0a48 0251 1e49 20a4 e447
00000020: 74f5 b346 5dce 9744 5703 2845
