results/B_MultiHit/Badminton/Badminton-5348.onnx (onnx, 298576 bytes, 12 tensors)

discrete_act_size_vector f4 [1, 4]
00000000: 0000 4040 0000 4040 0000 4040 0000 0040
3.0 3.0 3.0 2.0

network_body.observation_encoder.processors.0.normalizer.running_mean f4 [11]
00000000: 0000 0000 0000 0000 0000 0000 0000 0000
00000010: 0000 0000 0000 0000 0000 0000 0000 0000
00000020: 0000 0000 0000 0000 0000 0000
0.0 0.0 0.0 0.0 0.0 0.0 0.0 0.0
0.0 0.0 0.0

network_body._body_endoder.seq_layers.0.weight f4 [256, 11]
00000000: 8c89 1b3f 34e7 3fbe 99f6 d6be e597 6f3e
00000010: 8048 043e f8a6 d63e 027e a6be 2425 af3e
00000020: 77f7 61be c708 973e b465 803e f9fd 283e
00000030: f008 ca3d b04f 173f 1fac 99be 21fa 2cbf
00000040: cba5 e5be cfbb 9fbe 312d eb3d 43b4 0abe
00000050: 965d c03e 10fc e2bd 76e1 283e 2d1f c43e
00000060: 76f1 003e adda d9bc c63a efbd 10b2 883e
00000070: e375 803e c10b 01bc 3f6c 58bd 5a6b 473e
00000080: 6084 b13e f626 cabe ec6b c8bd 0736 a53d
00000090: ff79 8dbe 07f5 75be 6413 173e 9d79 8a3e
000000a0: 061a c0be cb9b c7be efb4 683c 6a1e b53e
000000b0: 819c bcbe dceb 33bd b6ee 973d 61af 96be
000000c0: 98cd 2fbe 8228 25be 0dc4 683e c3b5 ff3e
000000d0: 2e21 883e 0235 cebe cbb8 bc3e 2085 5cbf
000000e0: bac9 aa3e e831 a93e c5d9 cabe 7f1d b1be
000000f0: b6bf d33d c2e6 5ebe 7ffa 553e 4493 eabe
00000100: 1b18 2ebf 1203 8a3e 3215 fe3e 3c64 c2bd
00000110: 6566 8cbb 1370 83be e5a1 483e dfa5 1abf
00000120: e529 0fbe bca3 b9be 8fa1 0bbe 8926 97be
00000130: 6c1b 66be 1ac7 c83e a148 06be 18a0 41be
00000140: 4a85 e5be 2c08 1e3f 18dc 1fbe 3162 013f
00000150: 7842 75be 754c b93e b8a4 773d 4b6a 4ebd
00000160: 5f69 edbd f953 d43d ebdb 5a3e d143 fc3d
00000170: 9bf1 173e 33d3 46bc 6b91 2dbd df9c 203f
00000180: d0a3 8b3e bf2d d63e 9522 ad3e 4c84 20be
00000190: bbb0 84be b399 9a3e cef3 7cbe 22e6 26bf
000001a0: a62c f23e ff33 59be 3f8e d4be 979f c43d
000001b0: d6b7 53bf 6145 0b3b 9c45 e3bd ae22 fabd
000001c0: 1a87 a33c ef11 633e fd14 b73d 2d79 e2bb
000001d0: 291d 0a3f 1169 e9be 539d 7abe b095 f5bd
000001e0: 9c84 b8be e384 b23e 9d52 82be cfcb 95be
000001f0: 45f7 81be 7a97 8f3e 5618 d63b 8a3e 46be
00000200: 639c 4e3e fb22 1abe 2013 b23e 4a25 59be
00000210: d1b6 1d3f 4b03 9fbe cf02 eabe c4c9 45be
00000220: 95d3 2dbe e34e 84be ecd9 bcbe d6d6 293e
00000230: 52d3 87be 88ad 103e 492c 1abe 638d 973d
00000240: 55d2 19bd 57a0 933e 5cd2 ccbe dc08 f6be
00000250: 0f7f 273e 3e27 5b3e aff6 413e 5312 3bbd
00000260: f0fd 6b3c 02fb 2b3d aaaf 91be 2e79 37bf
00000270: 6734 c9be 232f 1ebf e4e8 2abd 2d7e 983e
00000280: 0d4f e93c e23b 19be fad6 c53e be6d 863c
00000290: 3f1f 343e 2657 6cbd 45bc a93e 9f6b 19bf
000002a0: f53c 183f 8f4a 683e 9ca9 76bc b68c 65bc
000002b0: 693d d0be 284c 18be 2d85 acbe bb91 093e
000002c0: 67d7 38bd 303a 06bf f7e9 eb3e edb2 a7be
000002d0: e1f4 f8bd 5424 4d3e 0c1d 75be 8fea 3bbf
000002e0: 2885 15bd 581b 123f 16d3 cc3e dd6e 1b3e
000002f0: ab9d 90bd 757a ecbe 8871 633d 3162 5c3e
00000300: a4c3 8f3d 1e8c e13d 66e1 44be 73d5 19be
00000310: 6fe9 523f d82a af3d e64c 673c 9473 7bba
00000320: 0459 8fbe 5aa2 9b3e eff3 6e3e 5019 57bd
00000330: 5591 8fbc bc29 b13d f556 0cbd d823 193e
00000340: 1d29 c0be 1639 973e 0851 21be fc76 20bf
00000350: 46f7 b33d 361f 1ebd 854d 69be 9d4b 703e
00000360: 91a8 9f3e 054e c23e 88a3 14bf 61d2 bc3e
00000370: ac3f 28bf f537 9f3e a971 45be 8ee9 a33e
00000380: 325f b73e 2345 403e c817 09be 6adf 3cbe
00000390: 9f6f 73bd 85f9 64bd 238d 983e 781e a03e
000003a0: 3ca8 10bf a3c5 edbe ff02 dbbe 2d27 2fbe
000003b0: 23e2 b9be 3fbf c83e 5242 873d 041a b3be
000003c0: 99cd d9be fc8d 303e 0670 a03e 7213 26bd
000003d0: 5d6b db3e 0346 4fbe c8a7 30be f3c7 b93e
000003e0: 12d4 e03d 7fd0 003d 9506 1bbe 145b d7be
000003f0: 361a 99bd 4e35 633c 0fd3 c2be 7ede 4dbe
0.60756755 -0.1874054 -0.41985014 0.23397787 0.12918282 0.41924262 -0.3251801 0.34208024
-0.22067057 0.29498884 0.25077593 0.16503133 0.09864986 0.5910597 -0.3001413 -0.67569166
-0.44853052 -0.31197974 0.11483229 -0.13545327 0.375714 -0.11083233 0.16492257 0.38305035
0.1259211 -0.02659353 -0.11681132 0.2669835 0.2508994 -0.0078763375 -0.052837607 0.19474545
0.34671307 -0.3948285 -0.097862095 0.080669455 -0.27632138 -0.24019252 0.1475349 0.2704591
-0.37519854 -0.38986048 0.014203294 0.35374767 -0.36838153 -0.043926105 0.074185774 -0.29430678
-0.17168272 -0.16128734 0.22731037 0.4994336 0.26587814 -0.40274817 0.36859736 -0.8614063
0.3335703 0.33045888 -0.3961927 -0.34592816 0.103393 -0.21767715 0.20896338 -0.4581548
-0.6800553 0.26955467 0.49625546 -0.094917744 -0.0042846673 -0.25671443 0.19593008 -0.6040935
-0.13980825 -0.36257732 -0.13635848 -0.29521587 -0.22471398 0.39214402 -0.13113643 -0.18908727
-0.44828254 0.6173122 -0.15611303 0.50540453 -0.23951137 0.36191145 0.060459822 -0.050394338
-0.115923636 0.10367579 0.21372955 0.123176225 0.14838259 -0.012135315 -0.04237501 0.62739366
0.27273417 0.41831776 0.33815446 -0.15675467 -0.25916085 0.30195388 -0.24702379 -0.65194905
0.4729969 -0.21211241 -0.41514775 0.09600752 -0.82702386 0.002125107 -0.11097261 -0.12213646
0.019961882 0.2217481 0.0893955 -0.006911418 0.53950745 -0.45587972 -0.24474077 -0.11991441
-0.36038673 0.3486701 -0.25453654 -0.29257056 -0.25383964 0.28045255 0.006533663 -0.19359794
0.20176844 -0.15052406 0.34780216 -0.21205631 0.6160708 -0.310572 -0.45705268 -0.19315249
-0.16975243 -0.25841436 -0.3688501 0.1658586 -0.26528412 0.14128697 -0.15055956 0.07400014
-0.037554104 0.28833267 -0.4000424 -0.48053634 0.16357063 0.21401688 0.18941759 -0.045671772
0.014403805 0.041987427 -0.28454334 -0.7166928 -0.39297792 -0.61790675 -0.041726008 0.29783764
0.028480077 -0.1496425 0.38640577 0.016409751 0.17590044 -0.0577003 0.3315145 -0.5992984
0.59468013 0.22684692 -0.015055086 -0.014010599 -0.40671852 -0.14872801 -0.33695355 0.13434498
-0.0451273 -0.5243254 0.4607694 -0.32753697 -0.12156082 0.2003339 -0.23936862 -0.73404783
-0.03650394 0.57072973 0.40004796 0.1517901 -0.07061323 -0.46187177 0.055528194 0.21521832
0.07019737 0.11013053 -0.19226608 -0.1502283 0.8238744 0.08553094 0.014117455 -0.00095921126
-0.279976 0.30397302 0.23335241 -0.052514374 -0.017525354 0.08650538 -0.034262616 0.1495508
-0.37531367 0.2953574 -0.15753567 -0.62681556 0.08787398 -0.038603984 -0.22783478 0.23466344
0.31183293 0.3795015 -0.5806203 0.36879256 -0.65722156 0.3109738 -0.19281639 0.32014126
0.35814816 0.18776374 -0.13387978 -0.184446 -0.059432622 -0.055902023 0.2979518 0.31273246
-0.56506705 -0.46439847 -0.42775723 -0.17104788 -0.3630534 0.3920841 0.066044465 -0.34980786
-0.4253967 0.17241663 0.31335467 -0.04054589 0.4285535 -0.20241551 -0.17251503 0.36285362
0.10977949 0.031448837 -0.1513923 -0.42061675 -0.074757025 0.013867689 -0.3805165 -0.20104405

network_body._body_endoder.seq_layers.0.bias f4 [256]
00000000: 0000 0000 0000 0000 0000 0000 0000 0000
00000010: 0000 0000 0000 0000 0000 0000 0000 0000
00000020: 0000 0000 0000 0000 0000 0000 0000 0000
00000030: 0000 0000 0000 0000 0000 0000 0000 0000
00000040: 0000 0000 0000 0000 0000 0000 0000 0000
00000050: 0000 0000 0000 0000 0000 0000 0000 0000
00000060: 0000 0000 0000 0000 0000 0000 0000 0000
00000070: 0000 0000 0000 0000 0000 0000 0000 0000
00000080: 0000 0000 0000 0000 0000 0000 0000 0000
00000090: 0000 0000 0000 0000 0000 0000 0000 0000
000000a0: 0000 0000 0000 0000 0000 0000 0000 0000
000000b0: 0000 0000 0000 0000 0000 0000 0000 0000
000000c0: 0000 0000 0000 0000 0000 0000 0000 0000
000000d0: 0000 0000 0000 0000 0000 0000 0000 0000
000000e0: 0000 0000 0000 0000 0000 0000 0000 0000
000000f0: 0000 0000 0000 0000 0000 0000 0000 0000
00000100: 0000 0000 0000 0000 0000 0000 0000 0000
00000110: 0000 0000 0000 0000 0000 0000 0000 0000
00000120: 0000 0000 0000 0000 0000 0000 0000 0000
00000130: 0000 0000 0000 0000 0000 0000 0000 0000
00000140: 0000 0000 0000 0000 0000 0000 0000 0000
00000150: 0000 0000 0000 0000 0000 0000 0000 0000
00000160: 0000 0000 0000 0000 0000 0000 0000 0000
00000170: 0000 0000 0000 0000 0000 0000 0000 0000
00000180: 0000 0000 0000 0000 0000 0000 0000 0000
00000190: 0000 0000 0000 0000 0000 0000 0000 0000
000001a0: 0000 0000 0000 0000 0000 0000 0000 0000
000001b0: 0000 0000 0000 0000 0000 0000 0000 0000
000001c0: 0000 0000 0000 0000 0000 0000 0000 0000
000001d0: 0000 0000 0000 0000 0000 0000 0000 0000
000001e0: 0000 0000 0000 0000 0000 0000 0000 0000
000001f0: 0000 0000 0000 0000 0000 0000 0000 0000
00000200: 0000 0000 0000 0000 0000 0000 0000 0000
00000210: 0000 0000 0000 0000 0000 0000 0000 0000
00000220: 0000 0000 0000 0000 0000 0000 0000 0000
00000230: 0000 0000 0000 0000 0000 0000 0000 0000
00000240: 0000 0000 0000 0000 0000 0000 0000 0000
00000250: 0000 0000 0000 0000 0000 0000 0000 0000
00000260: 0000 0000 0000 0000 0000 0000 0000 0000
00000270: 0000 0000 0000 0000 0000 0000 0000 0000
00000280: 0000 0000 0000 0000 0000 0000 0000 0000
00000290: 0000 0000 0000 0000 0000 0000 0000 0000
000002a0: 0000 0000 0000 0000 0000 0000 0000 0000
000002b0: 0000 0000 0000 0000 0000 0000 0000 0000
000002c0: 0000 0000 0000 0000 0000 0000 0000 0000
000002d0: 0000 0000 0000 0000 0000 0000 0000 0000
000002e0: 0000 0000 0000 0000 0000 0000 0000 0000
000002f0: 0000 0000 0000 0000 0000 0000 0000 0000
00000300: 0000 0000 0000 0000 0000 0000 0000 0000
00000310: 0000 0000 0000 0000 0000 0000 0000 0000
00000320: 0000 0000 0000 0000 0000 0000 0000 0000
00000330: 0000 0000 0000 0000 0000 0000 0000 0000
00000340: 0000 0000 0000 0000 0000 0000 0000 0000
00000350: 0000 0000 0000 0000 0000 0000 0000 0000
00000360: 0000 0000 0000 0000 0000 0000 0000 0000
00000370: 0000 0000 0000 0000 0000 0000 0000 0000
00000380: 0000 0000 0000 0000 0000 0000 0000 0000
00000390: 0000 0000 0000 0000 0000 0000 0000 0000
000003a0: 0000 0000 0000 0000 0000 0000 0000 0000
000003b0: 0000 0000 0000 0000 0000 0000 0000 0000
000003c0: 0000 0000 0000 0000 0000 0000 0000 0000
000003d0: 0000 0000 0000 0000 0000 0000 0000 0000
000003e0: 0000 0000 0000 0000 0000 0000 0000 0000
000003f0: 0000 0000 0000 0000 0000 0000 0000 0000
0.0 0.0 0.0 0.0 0.0 0.0 0.0 0.0
0.0 0.0 0.0 0.0 0.0 0.0 0.0 0.0
0.0 0.0 0.0 0.0 0.0 0.0 0.0 0.0
0.0 0.0 0.0 0.0 0.0 0.0 0.0 0.0
0.0 0.0 0.0 0.0 0.0 0.0 0.0 0.0
0.0 0.0 0.0 0.0 0.0 0.0 0.0 0.0
0.0 0.0 0.0 0.0 0.0 0.0 0.0 0.0
0.0 0.0 0.0 0.0 0.0 0.0 0.0 0.0
0.0 0.0 0.0 0.0 0.0 0.0 0.0 0.0
0.0 0.0 0.0 0.0 0.0 0.0 0.0 0.0
0.0 0.0 0.0 0.0 0.0 0.0 0.0 0.0
0.0 0.0 0.0 0.0 0.0 0.0 0.0 0.0
0.0 0.0 0.0 0.0 0.0 0.0 0.0 0.0
0.0 0.0 0.0 0.0 0.0 0.0 0.0 0.0
0.0 0.0 0.0 0.0 0.0 0.0 0.0 0.0
0.0 0.0 0.0 0.0 0.0 0.0 0.0 0.0
0.0 0.0 0.0 0.0 0.0 0.0 0.0 0.0
0.0 0.0 0.0 0.0 0.0 0.0 0.0 0.0
0.0 0.0 0.0 0.0 0.0 0.0 0.0 0.0
0.0 0.0 0.0 0.0 0.0 0.0 0.0 0.0
0.0 0.0 0.0 0.0 0.0 0.0 0.0 0.0
0.0 0.0 0.0 0.0 0.0 0.0 0.0 0.0
0.0 0.0 0.0 0.0 0.0 0.0 0.0 0.0
0.0 0.0 0.0 0.0 0.0 0.0 0.0 0.0
0.0 0.0 0.0 0.0 0.0 0.0 0.0 0.0
0.0 0.0 0.0 0.0 0.0 0.0 0.0 0.0
0.0 0.0 0.0 0.0 0.0 0.0 0.0 0.0
0.0 0.0 0.0 0.0 0.0 0.0 0.0 0.0
0.0 0.0 0.0 0.0 0.0 0.0 0.0 0.0
0.0 0.0 0.0 0.0 0.0 0.0 0.0 0.0
0.0 0.0 0.0 0.0 0.0 0.0 0.0 0.0
0.0 0.0 0.0 0.0 0.0 0.0 0.0 0.0

network_body._body_endoder.seq_layers.2.weight f4 [256, 256]
00000000: f1d0 f2b9 1eb4 033d c443 053d 29d3 2fbd
00000010: c3e2 82bd 2328 433d 4140 4f3d 94bf cb3c
00000020: 085d 323c b728 6b3c 67a1 013d 59bb f6bb
00000030: a3bc 2cbd ab0a eebd 3e4f 26bd 644f 91bd
00000040: 589b c9bc 64d3 073d 1209 c13d 7ab4 133d
00000050: 445e 0abd 4202 cabc abbc 823d bf56 ff3c
00000060: c622 373d b596 693d 43c7 9ebd ae5f d73d
00000070: 2bc7 033d 7f09 703d 8764 dabd d1de 8dbc
00000080: 7a81 8dbd 7ad1 77bc 1000 073d 1603 a93d
00000090: c833 c8bd ff61 5b3d 7706 7ebc 3939 423d
000000a0: a4f9 003c a8ae 373e 83e8 703c e7d5 0cbd
000000b0: 29d0 ed3d 004b bf3c cc1b 04bb d633 06bd
000000c0: 9ff9 ebbc 0dd3 333c 44e7 db3b f5ac fb3c
000000d0: 9acb 803d 48fa 93bd e5d2 b5bb 6d9f 8cbc
000000e0: 2887 f2bd b920 b7bd 2748 d93d 5b6b 5f3d
000000f0: c269 05bd 97cf e9bc 1365 6ebb 858d 99bd
00000100: 5e14 133d d0c7 1c3d 2472 2e3d 57e1 15bd
00000110: 2616 e73d bd04 b23d 07a2 863d e2bc 6ebd
00000120: 70dc bcbd 52eb f43b f3f0 933d 8fbf dfbc
00000130: bc25 663d 9f24 133d cb59 bdbd d705 933c
00000140: ec5d d63d 12d2 f0bd 39c3 7dbc 11b0 c23d
00000150: 6517 b53d 184f 1ebb 42a8 253d a92d b6bd
00000160: 8bc2 19bd 1fb7 b8bd f0a5 a4bd 2a08 4dbd
00000170: 5caf 03bd 9887 243d c0e1 a83d 4f7a 2bbd
00000180: 07d3 21bd 7714 f7bc cf47 0f3b fc6f 593d
00000190: 2d5c daba 58f0 da3d 8174 a1bd 68e3 e6bc
000001a0: db9e 5b3d e2b7 8d3c 05a0 923c 5013 61bd
000001b0: d646 20bd 57a5 993d a3d8 393d de0f 883d
000001c0: f0cf f73d 77a9 253d db0f 2e3c fd1b 803d
000001d0: 5575 9a3d 3f72 25bd fa35 8b3c 0bcd 3ebe
000001e0: a40a aebc b685 13bd 57f0 223b e1a2 c73c
000001f0: 0b66 11bd adcb 0c3e ca91 f8bd b97a 013d
00000200: 9065 bc3d 7d95 d5bc 2c39 c6bc 915e 173d
00000210: a5c1 d4bc dac1 bebb 5c09 463c 99ec e9bd
00000220: 2985 e4bc ee10 103d 45a2 0fba 5496 733c
00000230: 1ba5 993c 41a6 9ebd 7f81 fb3c eb3a 053d
00000240: 16f6 193e bab1 e2bb 3c84 87bd 389c b4bd
00000250: c812 1b3d e0cb 91bb d8f6 613d 278c dcbb
00000260: 6c73 153e 0887 71bd 7cee 33bc fe9b d83d
00000270: adea 7bbc 8cec c2bd 1a19 41bc 1e43 5c3c
00000280: 4c24 553d a64c 083c 8692 a7bc 430f 64bc
00000290: 1086 14bc 4660 afbc 020d 8b3c 6d7b 40bd
000002a0: 7610 613d 991b 063d d315 44bc 509f c5bc
000002b0: eb22 c4bb 47f0 e3bc 9fd6 8ebc b8f0 a4bd
000002c0: e182 dc3d 37ad 173d b84f a4bd f1ef 36bc
000002d0: 155b 8bbd afa9 4e3b 9751 5c3d 0bee ab3d
000002e0: fbcb 6ebd ad0b d23d 3b4b 4c3d b528 0b3c
000002f0: b71b b4bd 9e36 b43d 782d 9c3d 553f 293d
00000300: eae7 0bbd 2b1b 6a3d ff54 f3bc 50eb 66bd
00000310: 31fc 193d 6807 5e3c 2f93 b6bc e692 8abd
00000320: ea54 3abd cc18 413d d4cd 673d 738b c9bd
00000330: b953 573d 85b4 15be 1c6f 29bd b320 a1bd
00000340: 2cc0 ff3c a66a bfbc 67bf cabc 5291 14bd
00000350: c192 b43d 2d7e 293d 8d84 babd 728d f03c
00000360: d565 b63d 8823 4abd 2c9e 59bb 5720 15bb
00000370: 01a1 64bc 37e2 713a 8ab6 653d f589 01be
00000380: d34f e3bc c4f5 af3d 53bd 22be 1c49 8a3d
00000390: 7490 c4bd b363 233d 9566 c23d a6ef db3d
000003a0: 75cf 12be 448c e43c df1e dd3d 5b71 453d
000003b0: 3cd7 fd3d 19c0 233d 08c7 bf3d f16b 6ebc
000003c0: 0d53 9dbc f374 513b 8b34 84bc 53f2 153d
000003d0: 3e4a ebbc 9d01 0e3d cd98 25bd a851 aebc
000003e0: 65eb 82bc 5562 923d 7623 c03d 7de9 2b3d
000003f0: bae9 ab3c 7a49 0f3e 82f9 4ebc d25a 003e
-0.0004631351 0.032154195 0.03253533 -0.042925987 -0.063909076 0.0476457 0.050598387 0.024871625
0.010886438 0.014352969 0.031648066 -0.007529658 -0.042172085 -0.116231285 -0.040602915 -0.07095221
-0.024610206 0.033160582 0.09425558 0.036060788 -0.033781305 -0.02465928 0.06383642 0.031169293
0.044710897 0.05702849 -0.0775285 0.10516296 0.032172363 0.058602806 -0.10663705 -0.017318161
-0.06909461 -0.015125627 0.032959044 0.08252542 -0.097755015 0.053560253 -0.015504471 0.047417853
0.007872019 0.1793772 0.014703873 -0.03438368 0.11611969 0.023351192 -0.002015817 -0.03276428
-0.028805552 0.010975611 0.0067109186 0.03072212 0.06288834 -0.07225472 -0.005548822 -0.017165864
-0.11842185 -0.08941788 0.10609465 0.05454574 -0.03257156 -0.02854137 -0.0036376163 -0.07497696
0.035908096 0.038276494 0.04258932 -0.036591854 0.11283521 0.0869231 0.06573873 -0.0582856
-0.092217326 0.0074743414 0.07223692 -0.027313022 0.05618833 0.035923596 -0.09245642 0.01794712
0.10467133 -0.11758818 -0.015488439 0.09506238 0.08842353 -0.002415603 0.040443666 -0.08895428
-0.037539046 -0.090193026 -0.080394626 -0.050056614 -0.032149658 0.040168375 0.082461834 -0.04186469
-0.039507892 -0.030161126 0.002186287 0.053085312 -0.0016659551 0.10690373 -0.078835495 -0.028184608
0.053618293 0.017299596 0.017898569 -0.05495006 -0.039130054 0.07502239 0.045372616 0.066436514
0.12100208 0.040444817 0.010623897 0.06255338 0.075419106 -0.040392157 0.016993511 -0.18632905
-0.021245308 -0.03601619 0.0024862492 0.024369659 -0.035497706 0.13749571 -0.12137182 0.031611178
0.09199059 -0.026072258 -0.024197184 0.03695542 -0.025971243 -0.0058214488 0.012087192 -0.114220805
-0.027895527 0.035172395 -0.0005479197 0.014867384 0.018755486 -0.07746554 0.030701397 0.03252689
0.1503528 -0.0069181593 -0.066170186 -0.08818859 0.037859708 -0.0044493526 0.05516705 -0.0067305746
0.14594811 -0.058966666 -0.010982152 0.10576628 -0.015375775 -0.09517774 -0.01178577 0.013443736
0.05203657 0.008319056 -0.02045561 -0.013919654 -0.009065166 -0.021408211 0.016973976 -0.046992708
0.05494734 0.032741163 -0.011968094 -0.024123818 -0.005985608 -0.027824534 -0.017436324 -0.08053726
0.10767151 0.037030425 -0.08023018 -0.011165605 -0.06804482 0.0031534245 0.053788748 0.083950125
-0.0583 0.10256133 0.049876433 0.008493592 -0.08794349 0.0879948 0.0762586 0.041320164
-0.034156717 0.057154816 -0.029703615 -0.056376755 0.037594024 0.0135515705 -0.02228698 -0.067663
-0.045491137 0.04714279 0.056592777 -0.09841051 0.05257008 -0.14619644 -0.041365728 -0.07867565
0.031219564 -0.023366284 -0.02474947 -0.0362714 0.088170536 0.041380096 -0.09107313 0.029364321
0.08906142 -0.04935029 -0.003320585 -0.0022754872 -0.013954402 0.0009227129 0.056082286 -0.12650283
-0.027748024 0.08591798 -0.15892534 0.06752226 -0.09597865 0.039890002 0.09492222 0.10739069
-0.14336951 0.027898915 0.10796904 0.048203807 0.12394568 0.03997812 0.09364134 -0.014552102
-0.01920464 0.0031960576 -0.016138336 0.03660805 -0.028721925 0.034669507 -0.040428925 -0.021279171
-0.015981385 0.071476616 0.09381764 0.04197072 0.020985473 0.13992873 -0.0126327295 0.12534645

action_model._discrete_distribution.branches.0.weight f4 [3, 256]
00000000: 65a3 563b bf87 343a 23e3 9cbb 87a5 5f3c
00000010: 5fa0 9f39 6598 fabb 2c75 bcbb d072 313b
00000020: b598 843a 5b89 393b 7277 cfbb 0a23 adbb
00000030: 8d0e f9b9 9355 abbb 99e2 3c3c da78 d8bb
00000040: d92a 3abb c3fa 02bc 624c f33a 0a1c 0bbb
00000050: ebb6 053b dedd 85bb 4488 20bb a81c 0b3b
00000060: d890 343b 9312 0fbb 139c 823b f555 0abb
00000070: 3674 b73b 9a7f c7b9 146d 01ba 02b4 843b
00000080: 0620 96bb f7dd a539 7b3c 313c 5778 12bc
00000090: 2c4a 013c 4f8d d3bb f560 fd3a 85a7 2bbc
000000a0: 0e98 403a 7064 df3b d800 e2bb 95e4 82bb
000000b0: 7ec7 343b c860 ef3b fdf0 b3ba 3347 313c
000000c0: fd34 caba cb98 893b 4ad3 cd3b f0bd 6b3a
000000d0: 4a17 ea3b 39e2 3a3c b7ca 86bb f5d6 be3b
000000e0: f233 5d3b ff57 bfbb 6a60 8eba eb31 13bc
000000f0: 1308 a8bc 93b8 aaba 4561 da3b 6fdb f93b
00000100: 27af 913b 611b 873b 3b16 db3b 4d0b f83a
00000110: 483b 74bb ad92 663b ffb5 51ba 174b 3fbb
00000120: b7c7 df3b 8302 2d3b d391 07bc 8f33 af3a
00000130: e5cc 89bb 2fe0 dfba c33b 08bb 2093 083b
00000140: 7627 363b 1e9d 273b 77f2 15bb c060 ff3b
00000150: 1088 223b 13e1 173c bb50 afbb e281 f13a
00000160: 9b64 84bb e8d4 54bc 63c0 a13a 7ae3 cd3b
00000170: b3ed 033c 82db 933a 8fde 81b9 50ac 56bb
00000180: eb3b 1a3c 93a3 b638 c7de 77bb 96d5 943b
00000190: 371d 39bc cc6d 45bc 8558 2cba 8d72 b2bb
000001a0: 24a9 113c 0aee e83a 6d07 7b38 d451 b33b
000001b0: 9ca7 3f3b 03d5 4dbc a3a8 8f3a 872a 17bc
000001c0: 882c 943b 92a4 5ebb 79d3 be3b bcfe 323c
000001d0: 9819 31bb 2770 623b 7f31 f63b a0dc 25bb
000001e0: f5c8 08bc 96c5 0d3c 5b57 c3bb 8b80 cdbb
000001f0: 09bd 023c 5332 8338 3500 ef3b a8e8 083c
00000200: fbb5 eabb efc3 0a3c dc33 893b e9c5 873b
00000210: 7a97 febb 6d95 f0b9 dae9 9abb 2756 eb3b
00000220: 37b5 1bbb db76 3c3b 2ef2 11bc 0769 afbc
00000230: 4267 fab9 5615 84ba efae 353a 4e49 b6bb
00000240: 4bd1 3c3a 541e 9c3b da8a eabb 44ee 90bb
00000250: d79c 7c3a f3ce 4e3c e73c f53b 24be 92ba
00000260: 68fb 1fbc 7d45 fa3b e23c 8338 c977 3a3c
00000270: 6017 373c da2e 243c ba36 ed3a b0c3 45bc
00000280: f3bc bfba b525 d83b 3a08 163c 0dc7 363b
00000290: ad0d a23a e726 f5ba 478a 8b3b af9f 9eba
000002a0: 46c6 17ba 8a95 7f3b 9243 2bbc 4797 3b3a
000002b0: 11ce 3abb db0e 0a3c afb6 b83b 2210 7e3b
000002c0: 0ac8 e43b 08e0 1e3a d7f1 09bc 4495 c5ba
000002d0: 5dfd c33b 637c 31b9 8729 acbb f76a 1a3b
000002e0: d1de 23bb 08fb a53b 57d7 c9bb f39c eb39
000002f0: 09bd 1c3a 9f93 4ebb 6777 2f3b 6ff4 123b
00000300: 4dff ecba 635b 8a3b 6850 a93b 6e91 0abc
00000310: f2a6 e3bb c361 01bc 2bee d1b9 afc6 b8bb
00000320: 4b16 c43b 54fa c9bb 0bfc 203c 2f9b 753c
00000330: 2e91 163b bdf5 b7ba 83b1 51bb ab87 90ba
00000340: 73ce 05bc dbd9 c2bb b841 4ebb b8e2 d03b
00000350: c8f3 a037 73b6 4c3a 0039 803b 12e6 e539
00000360: 55f2 513b 7781 4d3b 08ac 273b 2b22 51bb
00000370: 4819 7e3a 4c48 06bc de40 113a 8219 ec3a
00000380: 40ba d2bb 5b52 4a3b b331 103c 1fcb e8ba
00000390: 36f5 0a3c c727 fc3a 97c4 e0b9 bb93 283b
000003a0: 178b 73bb a3aa 8d3b d4c0 86bb b752 173c
000003b0: f053 6e3b 7ffb 923a a40b 1bbb 6fd0 013c
000003c0: 9dc2 70bb 0a8e e03b 8346 b43a a008 5fbc
000003d0: 4d58 5f3c d8b5 523b 6838 a83b e07e 2bbb
000003e0: 7bf8 11bb 6d6a 71bc be51 b8b9 fa6e 1e3c
000003f0: a85b 11bb 1b10 0e3b 9866 bfba 4587 ee3b
0.00327512 0.0006886683 -0.004787819 0.013650305 0.0003044633 -0.0076475614 -0.0057512727 0.002707649
0.0010116311 0.002831063 -0.0063313777 -0.005283718 -0.00047503822 -0.005228707 0.0115286345 -0.0066062035
-0.0028406887 -0.007994357 0.0018562193 -0.002122643 0.0020403217 -0.0040852865 -0.0024495283 0.0021226797
0.0027552154 -0.002183114 0.0039858907 -0.0021108363 0.00559857 -0.00038051308 -0.00049372134 0.004049779
-0.004581454 0.0003163663 0.010817642 -0.008939824 0.007891219 -0.0064560543 0.0019331264 -0.0104769515
0.00073468767 0.006817393 -0.0068970732 -0.0039945343 0.0027584727 0.0073052384 -0.0013728436 0.010820198
-0.0015427169 0.0041991225 0.006281291 0.00089928415 0.0071438896 0.011406475 -0.004113521 0.0058239647
0.0033752886 -0.0058393474 -0.0010862474 -0.008984069 -0.020511663 -0.0013024978 0.0066644275 0.0076250355
0.0044459286 0.004123137 0.0066859997 0.0018924266 -0.003726678 0.003518264 -0.0007999837 -0.0029189044
0.006829228 0.0026399202 -0.008274513 0.0013366806 -0.0042053335 -0.0017080362 -0.0020787574 0.0020839646
0.0027794517 0.0025575827 -0.0022880116 0.007793516 0.0024800338 0.0092699705 -0.0053502 0.0018425549
-0.0040403134 -0.012990214 0.0012340661 0.006283221 0.008052277 0.0011280628 -0.00024770616 -0.0032756515
0.0094137 8.708904e-05 -0.0037821995 0.004542063 -0.011298469 -0.012050103 -0.000657447 -0.0054457844
0.008890424 0.0017771136 5.984998e-05 0.005472401 0.002924419 -0.012562993 0.0010960292 -0.009226448
0.00452191 -0.0033972603 0.0058235493 0.010924991 -0.0027023312 0.0034551711 0.0075132246 -0.0025308505
-0.008348693 0.008653065 -0.0059613413 -0.006271427 0.00797964 6.2559404e-05 0.007293726 0.008356251
-0.007162807 0.008469566 0.0041870903 0.004143466 -0.0077695223 -0.00045887698 -0.0047275843 0.007181901
-0.0023759136 0.0028757367 -0.008907838 -0.021412386 -0.0004776065 -0.0010077159 0.0006930669 -0.005562938
0.0007202818 0.0047643576 -0.0071576657 -0.0044229347 0.0009636408 0.012622583 0.0074840668 -0.0011195582
-0.00976453 0.007637678 6.257907e-05 0.011381098 0.011175007 0.010020936 0.0018097975 -0.012070581
-0.0014628455 0.006596292 0.009157235 0.002788964 0.0012363695 -0.001870361 0.0042584273 -0.0012102033
-0.0005789738 0.0038999044 -0.010453122 0.0007156026 -0.0028504173 0.008426393 0.005637012 0.003876694
0.0069818543 0.0006060605 -0.0084194755 -0.0015074392 0.005981131 -0.00016926373 -0.005253974 0.0023562291
-0.0025004635 0.0050653256 -0.0061597037 0.0004493963 0.0005979096 -0.0031521094 0.002677405 0.0022423526
-0.0018081457 0.00422232 0.005167056 -0.008457525 -0.0069473917 -0.007896843 -0.00040041035 -0.0056389193
0.005984103 -0.0061638746 0.009825717 0.014990612 0.0022974717 -0.0014035028 -0.0031996674 -0.001102676
-0.008166897 -0.0059463806 -0.0031472277 0.006374683 1.9187006e-05 0.00078091695 0.003913045 0.000438497
0.003203531 0.0031357685 0.0025584716 -0.0031911235 0.0009693098 -0.008195948 0.0005540977 0.0018012973
-0.006430894 0.0030871842 0.008800912 -0.001776073 0.008481314 0.0019237929 -0.0004287108 0.002572282
-0.0037161761 0.00432332 -0.0041123424 0.009236029 0.0036365949 0.0011213868 -0.0023658061 0.00792323
-0.0036737092 0.00685287 0.0013753924 -0.013612896 0.013631892 0.0032151844 0.0051336773 -0.0026168153
-0.002227335 -0.014734847 -0.00035156118 0.009670014 -0.0022179876 0.002167708 -0.0014602719 0.007279309

action_model._discrete_distribution.branches.0.bias f4 [3]
00000000: 0000 0000 0000 0000 0000 0000
0.0 0.0 0.0

action_model._discrete_distribution.branches.1.weight f4 [3, 256]
00000000: c942 a2bb ab84 2c3c 0a7a 0fbb d545 e13b
00000010: 0212 eebb df85 31bc aec8 c6bb 1641 aebb
00000020: 973c c63a 8edc b3ba 37ed 87bb 01ce 813b
00000030: 12b8 b93b 4f67 e4bb 6795 353c abed a13b
00000040: de30 1fbb b504 ff3b c28d c43b 7375 d83b
00000050: cc0b 38bc 6be5 7abb abf2 b83b 237d c93b
00000060: ae6a 433a 1c53 31bb f04e 59bc a21c 5b38
00000070: 57a8 4ebc 11df be3b 8b8d 293a dbaf 8cbb
00000080: 60f7 b4bc 891c b33b 772d 20bc 513a 873b
00000090: d955 a8bb 6378 f0bb 8777 a037 1185 07bc
000000a0: b24e be3b 6a6c f73b 924a 2fbc 1bff 20bc
000000b0: ad2a eeba 3ab4 e63b 43ab c4bb cb2d c6bb
000000c0: 4564 0a3b 9df4 3fbb ab64 0abb cf34 53bb
000000d0: cd2d 7b3b 9326 10bb cfa9 aa3b 98e1 c73b
000000e0: 7d50 773b e7ed 8ebb e2d6 dcb9 4b91 77bb
000000f0: ffb5 de3b 2392 0d3c d054 3a3a 7039 94ba
00000100: 2c43 31ba 4fd9 003c c7a9 d0bb 373f 403c
00000110: 219a a33b e87d debb 2355 d93b 1f57 8fbb
00000120: 6b3a 0ebc 37ec 763c e25a 1cbc 6a03 933a
00000130: 0fa8 123c 20fd 69b9 dd70 133b 3f22 84bb
00000140: 5f60 a5b9 0f69 fb3b 5a4f 923b 53c6 193c
00000150: f1cf b0ba f7a6 1dbb cbe6 8bbb 6352 90b9
00000160: f775 c9bb e519 523c 5fbb 00bc 19d2 cbbb
00000170: 35b8 cb3b 7027 c5bb 6781 543c 4b82 2eba
00000180: e76d 68bb a9a4 cc3b 95d4 14bb 3f1f 873b
00000190: 9359 3cbc ea17 3dbc 72e7 613b 8a3a ef3a
000001a0: e2ba d6bb 2234 dc3b f558 7bbb ecac c13b
000001b0: 7f29 d63b 813b c43a 72f1 933b e3e1 b5bb
000001c0: 2a29 b5b9 ccba 023b 6888 8f3b b177 2fbb
000001d0: bb83 7c3b 88c2 7d3b 9cdc 363c 2b1a 79ba
000001e0: 6d93 e4bb 02ff 743b d384 55bb bfdf a5bb
000001f0: bcab 303b fac0 2fbc 3ac0 5c3b fa05 5abb
00000200: 9f1e 1d3c cb45 5d3b 4fa2 883b ea65 feba
00000210: 82e4 6c3b bfd7 ee3b ea49 943b 219d 0dbc
00000220: 47c3 02b9 45bf f038 535a 6a3a ab8a 623b
00000230: 7fbd 16bc daa6 eabb 1bc2 6838 4183 c23b
00000240: b0bd e2bb 8ab3 933b 17b6 813b 85c1 ff3b
00000250: 114c 9c3b 89c1 b2bb 2d43 cdbb e5c2 5e3b
00000260: 17f0 cfba 5a89 333a afc9 233a 20c3 db3a
00000270: ece8 223c 0dc9 d4bb edf4 133b 6fd1 0cbc
00000280: 2238 e2bb 37a3 8f3a 5f2a 5c3c 4711 753b
00000290: f944 1a3c 4187 0e3c 9f92 8c3a f1ee 1abc
000002a0: a929 87bb 10ea 97bb 644d 3d3c b22a 293c
000002b0: 1e48 15bb 3d44 79bc d04c 0b3c bb74 b2bb
000002c0: 60e8 28bb c5d6 083c 5d5a 38b9 17d0 14bc
000002d0: 390e 1d3c 4563 fdbb 0fbf eeba 3dda e13b
000002e0: 22fc 0dbb 686b 6c3c da88 ce3b ae06 153a
000002f0: bf77 a7bb daf9 4e3b 92f0 6c3c 128c 983b
00000300: 18c9 9abb d7db 893b 3f10 34bb 85ac 84bb
00000310: 7d86 66bc fe8a 2c3b 7c40 8c3b 82db 073c
00000320: cd1a 49bb c457 3cba f6e6 a8bb f007 13bc
00000330: 088f 163c 9121 2b3c aad1 ee3b ff16 3e3b
00000340: c721 5bbb 7da6 303a 4d5e ea3b e08b 50bb
00000350: 53a0 88bb bb0a 36ba 525d acbc 4401 893a
00000360: 57d5 0dbb b60c 46bb 4b40 0bbc 3dbb a13b
00000370: 3a71 f93b 614a 913b 5564 baba e7c3 12bc
00000380: daf0 013c e781 03bc dfeb c03b 28f3 533b
00000390: 0025 833b 9119 023b f542 c73b f5d3 d2bb
000003a0: 35ab d83a 1705 b3ba acab 87bb af11 d93b
000003b0: ba80 753b e992 183c 3580 0d3b 8734 493c
000003c0: cba9 15bc 5a93 653b 2517 55bb a808 d8bb
000003d0: 3af1 a7bb 8348 13bb 05f3 733a 7d14 c63c
000003e0: efeb c0bb 712f 8d3b efdd a53a e31a 35bc
000003f0: 4b48 37bc 0716 f63b 4dc9 623b dd41 3abb
-0.004951809 0.010529677 -0.002189281 0.0068747797 -0.0072653303 -0.01083514 -0.0060664034 -0.0053178174
0.0015124258 -0.0013722347 -0.0041481513 0.003961325 0.005667695 -0.006970323 0.011082984 0.0049416623
-0.0024290602 0.0077825435 0.005998344 0.006605798 -0.011233281 -0.0038283716 0.0056441627 0.0061489507
0.0007454556 -0.0027057594 -0.013263449 5.2240335e-05 -0.0126133775 0.0058249314 0.000646793 -0.0042934245
-0.022090614 0.005466048 -0.009776465 0.004126825 -0.005137187 -0.00733857 1.9129146e-05 -0.008271472
0.005807721 0.0075507658 -0.010698931 -0.009826447 -0.0018170677 0.0070405276 -0.0060018613 -0.0060479394
0.0021116894 -0.0029290088 -0.0021117132 -0.0032227521 0.003832686 -0.0021995648 0.005208231 0.006099891
0.0037737184 -0.0043618563 -0.0004212177 -0.003777581 0.006796598 0.008640799 0.0007107975 -0.0011308622
-0.00067620235 0.00786431 -0.0063678953 0.011733822 0.004992739 -0.0067899115 0.0066324635 -0.0043743993
-0.00868092 0.015070966 -0.0095431525 0.0011216227 0.008951201 -0.00022314908 0.0022497692 -0.0040324028
-0.00031543055 0.007672436 0.004465026 0.009385663 -0.0013489706 -0.0024055818 -0.004269456 -0.00027527203
-0.0061480957 0.012823557 -0.007857173 -0.006220114 0.0062170275 -0.006016664 0.012970305 -0.00066569884
-0.0035465898 0.006245215 -0.0022709717 0.004123598 -0.0114959655 -0.011541346 0.0034470228 0.0018251699
-0.00655304 0.006720082 -0.0038352583 0.0059105065 0.0065357084 0.0014971347 0.0045148665 -0.0055506094
-0.0003455368 0.0019947765 0.0043802746 -0.0026774222 0.0038530666 0.0038720686 0.011160996 -0.00095024955
-0.0069755823 0.0037383442 -0.003258039 -0.005062073 0.002695783 -0.010727162 0.0033683912 -0.0033267722
0.00958982 0.0033763524 0.0041697393 -0.0019409035 0.0036146943 0.0072889025 0.004525413 -0.0086434195
-0.00012470513 0.000114797185 0.0008939851 0.0034567516 -0.009200453 -0.0071610035 5.5493885e-05 0.005936057
-0.006919585 0.0045074867 0.0039584744 0.0078050517 0.00476981 -0.0054552 -0.0062641115 0.0033990678
-0.0015864399 0.0006848775 0.000624801 0.0016766526 0.009943228 -0.0064936937 0.0022576407 -0.008594855
-0.006903664 0.0010958676 0.013437836 0.0037394331 0.009415858 0.008699239 0.0010724849 -0.009456382
-0.0041248393 -0.0046360567 0.011554096 0.010325121 -0.002277858 -0.015214023 0.0085022 -0.0054460443
-0.0025773272 0.008351986 -0.0001758127 -0.009082816 0.0095859105 -0.007732781 -0.0018214899 0.006892471
-0.0021665175 0.0144299045 0.006302935 0.0005684894 -0.0051107104 0.0031582029 0.014461653 0.0046553696
-0.0047236793 0.004207115 -0.0027475504 -0.0040488862 -0.01407015 0.0026327963 0.004280148 0.008292081
-0.003068614 -0.0007184709 -0.005154486 -0.00897406 0.009189375 0.010445015 0.0072881775 0.0029005406
-0.003343688 0.0006738676 0.007152355 -0.0031821653 -0.0041695028 -0.0006944348 -0.021040592 0.0010452648
-0.0021642053 -0.0030219979 -0.008499215 0.0049356506 0.0076123746 0.0044339155 -0.0014220575 -0.00895784
0.007930959 -0.008026577 0.005887493 0.0032340977 0.0040022135 0.0019851665 0.00608098 -0.0064339587
0.0016530516 -0.0013658133 -0.004140338 0.0066244225 0.003746076 0.00931237 0.002159131 0.01228059
-0.00913472 0.0035030455 -0.0032515016 -0.006592829 -0.005125192 -0.002247364 0.0009305927 0.024179691
-0.0058875005 0.004308634 0.0012654642 -0.011053774 -0.01118667 0.00750995 0.0034604848 -0.0028420605

action_model._discrete_distribution.branches.2.weight f4 [3, 256]
00000000: b1ab 9c3a 8565 d73a 73e3 99bb 1b5b 663b
00000010: ca9e fd3a 3fdf e4bb 3726 573a 0993 c8ba
00000020: 8bb9 3b3b 6956 bfba 9f9d 5b3c 50e9 463a
00000030: eb40 2d3c f771 8d3b 7d8c dd3b d5bb 38bc
00000040: f30e 00bc 274b 303b 0035 cb3b 5f90 d33b
00000050: 5259 d2ba 18f2 4abb 7703 53bc 8f84 72bb
00000060: 0bf6 093c f244 a4bb a9cd a03b 2be5 dd3b
00000070: d2d4 7ebb 98de 363b 0185 ccba b9f3 2fbc
00000080: 7146 90bb edbc 103c 20c5 1339 1e79 163c
00000090: 8bf2 4f3b f155 1dbc da14 d0bb c723 a83b
000000a0: 0efe 9339 3bac 5c3b 2f21 283c d39e 31bc
000000b0: 0f9c ebbb 0d93 e6bb 1957 823a 67a7 2739
000000c0: b74a b8bb d847 2eba 5ece a63b 708f b1bb
000000d0: eb90 4eba f77b 20bc ee63 b4ba a484 a93b
000000e0: 9735 05bc 67b8 1d3b 00ca 92bb 4307 40bc
000000f0: 24bf 9dbb d0bc 70bb 8918 403b 925a 09bc
00000100: 950c 183b 084a f43a 5750 09bc 703f b13a
00000110: 33ee 09bc a299 e1bb 2d48 0bbc a2db 623b
00000120: a3cc 863b 6267 6c3b 8c30 383a cd2d 66ba
00000130: e9da b3bb 151c 013c 77e5 36ba 4f95 84bb
00000140: 80db 073c 4225 aa3b 969d bbbb f3b7 a33b
00000150: 671b 753b 3d7f 06bb 0532 68bc 896e b73a
00000160: aa2c 563c d84d 8c3a 480d 5abb 9890 683b
00000170: b7a8 cdba ca61 cfbb f50b bdba 6d5e 513c
00000180: 1f88 69bb 3fd8 a5bb c5ce bd3a 7029 9fbb
00000190: 37e9 aebb 78ac 773b 107d 2fbc a996 043b
000001a0: da1a 0c3a 0bf7 903b adad 5d3a 8ed2 29bc
000001b0: 7ee6 25b9 6516 1cbb bfa5 c9b9 3003 633b
000001c0: 5f2d 46bc 4b91 243b 3b65 0cbb 6f76 54bb
000001d0: 365f 99ba 8628 2ebb f3be 103a 9bfd 013b
000001e0: d7ce b8ba 93eb 9bbb 3f7c 09bc 855d 843b
000001f0: ea43 75b9 43d5 223c 39d4 2bbc 9ad6 f63b
00000200: 5bf4 4abb 4035 be3b a42a c238 8d1a 073c
00000210: 4daf b1ba bbfd babb 40e2 5c3b fe1b 03bc
00000220: 1c1a 97bb c103 1a3c fd13 283b 3f12 26bc
00000230: 5d12 b83b dceb 38bb 1294 11bc 6a46 b33a
00000240: 4a47 f33a 8784 a43b b432 ba39 d751 84bb
00000250: 5313 a1bb 32b7 4d3a 4c24 0c3c 6a0c c83b
00000260: 8821 efbb afae e0bb 8479 893a b591 c9ba
00000270: 7ae2 853a 1f6c 8bba cfdd 19bb 5779 943b
00000280: f34a 51bc db0f 943b 0958 84bb c67b 3e3b
00000290: e122 06bb 8fc0 a5ba 29aa 39bc ba27 3b3b
000002a0: 0f52 b23a 7f5d cfbb 501a c6ba b2b6 21bc
000002b0: e7e2 adba 6014 c43b 2fc0 a03b b727 30bc
000002c0: de35 c8bb 65b0 85bb 8f17 4bbc b30b 8a3b
000002d0: 0d4e 5dbb 9a1c e43b c42b a63b 1720 9fbb
000002e0: b4f3 1c3b 3734 69ba cae3 10bb eb8a 2d3b
000002f0: 3be1 ecba 5b69 433c 659e dbbb dbec d63a
00000300: 7f39 d63b dc4c af3a c411 03bb 9fad d23a
00000310: a776 0b3c 0731 06bc 5f63 d737 9405 16ba
00000320: 8daa 623b 1551 15bc ff2d 733c cdc5 0a3c
00000330: 4ed1 89ba e689 4bbb 8d7e e3bb 5056 69bb
00000340: a333 25bc 8773 43ba ab7f b639 629a a339
00000350: 3792 753b c736 03bc 50ab c0ba 5008 2dba
00000360: 032b d7bb a6a3 283c 7aa5 e63b 447f a03b
00000370: 476f 203c c038 72bb a07c 6fbb 15d0 ef3a
00000380: 32eb 833b 306f dbba 314d beba 14b4 003c
00000390: 2684 00bc f5a9 8ebb 3e82 823b 07dd c1bb
000003a0: bf85 6a3b 65ff c83a b7e9 39bc f513 eeba
000003b0: d86a feba 0af2 203b 4b15 1cbb 8001 aebb
000003c0: 27b2 b23a ab88 46bc ffc6 253c 3827 a03a
000003d0: 5132 04bc d09c c73b bb6a 0e3c 18ef 1abc
000003e0: 3556 f03b e229 dbbb 8224 463a 50ff 773c
000003f0: abfb 7ebb 6b1f 0c3c 8f2d c137 f83d f1bb
0.0011953023 0.0016433453 -0.0046963035 0.0035149518 0.0019349691 -0.006984621 0.00082072936 -0.0015302609
0.0028644528 -0.0014597896 0.013404279 0.0007587867 0.01057456 0.004316564 0.0067611323 -0.011275251
-0.007816064 0.0026900263 0.0062013865 0.0064564194 -0.0016048348 -0.0030967053 -0.012879244 -0.003700528
0.008420478 -0.0050131017 0.004907329 0.0067717037 -0.0038884175 0.0027903672 -0.0015603603 -0.01073926
-0.0044029285 0.008834106 0.00014092447 0.00918415 0.003173026 -0.00960301 -0.006350142 0.005131218
0.0002822731 0.0033671993 0.010261818 -0.010841089 -0.0071902345 -0.007036573 0.000994417 0.00015988723
-0.005624141 -0.0006648279 0.005090519 -0.0054187104 -0.0007879871 -0.0097951805 -0.0013762692 0.0051732827
-0.008130453 0.0024066211 -0.0044796467 -0.011720481 -0.0048140455 -0.0036733635 0.00293115 -0.00838341
0.002320086 0.0018637786 -0.008380971 0.0013522934 -0.0084186075 -0.0068847695 -0.008501095 0.0034615775
0.00411375 0.0036072363 0.0007026277 -0.00087806286 -0.0054887426 0.00788023 -0.0006976942 -0.0040461193
0.008292079 0.0051924298 -0.005725573 0.0049962937 0.0037400366 -0.0020522617 -0.014172082 0.0013994734
0.013072172 0.0010704352 -0.0033272076 0.0035486575 -0.001569054 -0.006328796 -0.0014423119 0.0127788605
-0.0035634113 -0.005061179 0.0014481178 -0.0048572347 -0.00533786 0.0037792008 -0.01071097 0.0020231402
0.00053445774 0.004423981 0.00084563607 -0.010365142 -0.00015821491 -0.002381706 -0.00038461198 0.003463935
-0.012095778 0.0025111015 -0.0021422643 -0.0032419225 -0.0011701349 -0.0026574447 0.0005521618 0.0019834999
-0.0014099729 -0.0047583072 -0.008391439 0.0040394687 -0.0002339032 0.009938541 -0.01048761 0.0075329067
-0.00309684 0.0058046877 9.258583e-05 0.008246076 -0.0013556272 -0.0057065166 0.0033704191 -0.008002279
-0.004611267 0.009400309 0.002564668 -0.010136186 0.0056174234 -0.0028216755 -0.0088854 0.0013677601
0.0018560675 0.0050206813 0.0003551446 -0.0040380764 -0.0049156337 0.00078474276 0.008553576 0.0061049955
-0.0072976984 -0.0068567614 0.0010488485 -0.0015378507 0.001021459 -0.0010637081 -0.0023478155 0.0045310664
-0.012774217 0.0045184917 -0.004038815 0.0029065474 -0.0020467567 -0.0012645888 -0.011332073 0.0028557614
0.0013604778 -0.0063282843 -0.0015114043 -0.009870218 -0.0013266475 0.005983874 0.0049057226 -0.010751656
-0.006109937 -0.0040798658 -0.0123957535 0.0042128204 -0.0033768446 0.0069614174 0.0050711352 -0.0048561203
0.002394897 -0.0008896025 -0.002210843 0.0026480507 -0.0018072495 0.011926974 -0.0067022317 0.0016397493
0.006537616 0.0013374346 -0.0019999603 0.0016073472 0.008512176 -0.0081904 2.567627e-05 -0.0005722877
0.003458652 -0.00911357 0.014842509 0.008470011 -0.0010514648 -0.0031057536 -0.0069425763 -0.0035604425
-0.010083112 -0.00074558746 0.00034808865 0.00031204807 0.0037471184 -0.008008665 -0.0014699493 -0.0006600665
-0.0065664067 0.010292923 0.0070387693 0.0048979837 0.009792156 -0.0036960095 -0.0036542788 0.0018296266
0.00402584 -0.001674151 -0.0014518854 0.007855434 -0.007844007 -0.0043537566 0.0039828112 -0.005916241
0.0035785285 0.0015334903 -0.011347226 -0.0018163907 -0.0019410504 0.002455833 -0.0023816403 -0.0053102374
0.0013633416 -0.012117545 0.010118245 0.0012218719 -0.008068637 0.0060916916 0.008692439 -0.009456418
0.0073344954 -0.0066883424 0.00075585407 0.015136555 -0.003890733 0.0085524125 2.3028608e-05 -0.0073621236

action_model._discrete_distribution.branches.3.weight f4 [2, 256]
00000000: 7c5a af3b af24 b4b9 5301 19bc a321 0d3b
00000010: ef66 f639 db44 f0bb 57cb 14bc 9598 01bb
00000020: fb91 223b 709f 953b 2397 adbb c7cb 0338
00000030: 0586 cbba df0e d0ba 2fa6 03bc 6aaf f1bb
00000040: 67a8 10bc 4a79 cbbb dad1 8cbb 733a b83b
00000050: fb57 5e3b 9afe e4bb b6ce 3439 1f63 82ba
00000060: d009 6139 c228 c5ba 2d09 bcba 9ae2 34bb
00000070: 2abe 803b f356 be3b 057c 5fbb 714e 17bc
00000080: 5704 fd3b d322 8dba 8cc3 2a3b f83f 5c3b
00000090: 47a0 833a b334 ddba 0a17 61bb 42ad c5ba
000000a0: 2f12 153c d540 6b3b 45c1 e03a e536 53bb
000000b0: 2ca7 2b3c 0a0c 0b3b a411 213c 9713 a43b
000000c0: 5bef 62bb 974d 0b3b f72f f438 291e c5bb
000000d0: 85e1 96bb 7523 6abb ac48 b8bb 65fc f93b
000000e0: 0b93 2139 45c4 e6bb e8da 933c 86f4 083c
000000f0: 7f1a 82b9 45d2 c3b9 c1f7 13bc e641 1cbb
00000100: 3d57 e6bb c8ed d43b 8dff 63bb ccad 8a3b
00000110: 1f0b 31bb 8e11 be3b bafb e23b 3c43 11bb
00000120: ab0b 0ebb 2f6a 9bba 2f6a 263a dd9d e738
00000130: f518 c73b ba49 ec3b 16cf c03b 375e 0abc
00000140: 0cd3 02bc f552 b6ba 4535 aeba 56aa 06bc
00000150: 7faa 91bb 1772 433c 914f 86ba f451 95bb
00000160: e76e 83bb 3aa1 cf3b 1070 7cbb 6b26 4cba
00000170: 0c4c 3a3b 1af9 66bb 8d60 1a3b 367d c2ba
00000180: 773b efbb f71a 39b6 7028 6dbb a848 453c
00000190: 52a8 b93b 6374 213c e7d8 66ba 0b31 9dbc
000001a0: b1cd a2bb e1b0 413a 82ff e83b dfa9 b33b
000001b0: 8a6a 5b3b 4812 a33b 93a3 4fb8 b24d 4fba
000001c0: 3e93 c93b d706 6e3b 7c8d cb3b 959c e1bb
000001d0: ad9e debb a767 42bb d8ee 7c3b 274c 5dbc
000001e0: c74b 603c b569 27ba 2fd7 34bc 1fa5 cdba
000001f0: 5844 413b 77ce 45ba c81d 09bc 296e 223c
00000200: bcd3 3c3b c7f3 69ba 28a5 cbbb 349a 2d3b
00000210: a0cc 863b 574a 9d3b 4a0b f7bb 89de babb
00000220: 9805 91ba d31d d03b cc65 a7ba dde1 08ba
00000230: 40f9 cbbb 5a4a 513b c72d 553b a5d4 133a
00000240: c0f7 633a dfb3 06bc 8f45 7f3b 83ca 243c
00000250: 01c9 823a 330b 7cbb e99b 30bc 3d99 2c3a
00000260: 80cc 373b 4853 ff39 8e77 29ba ebf4 e53a
00000270: 15ef 75ba e3f7 2bbb fb0b a33b 8f84 b7bb
00000280: 4924 a7bb 8eec 053c 96d7 a53a f306 623a
00000290: 259b a73b cc70 1dbb 9c4c 00bb a665 a4bb
000002a0: 5a10 63bb e545 983b ebad f43b 471e 4ebb
000002b0: c9de 863b 5027 75bc a4cf 993b bd90 44bb
000002c0: 8866 3f3c da3b 5c3b ac64 88bb 8f1a 863b
000002d0: 58ef e83b 4893 a8bb 631e 1b3c 0244 58bc
000002e0: dbcb ab3b 72e4 91bb efd3 0b3c 8f1d 363b
000002f0: 2ac3 c33a e7a0 3c3b b3ff 40bb dbe8 823b
00000300: 6321 b7bb ca5b 553b 2fa8 573c d653 313c
00000310: 8d14 5ebb 0db7 6a3b 3f06 b83b 1d0c 393c
00000320: 37eb 9dbb b353 64bc 9ecc cb3a ef37 4cbc
00000330: 3d71 213b eb1c 8b3b b285 543b 336b 033c
00000340: b6d8 b3bb ef8a 61bb eafb 85bb 8c6a 40bb
00000350: 0700 c03b c2e5 dabb f5de 363b 27d7 1cbb
00000360: 284e 08bc cac3 ae3b 9c0e 81ba 884c 0d3a
00000370: ed68 c03a df4e 07bb e4c1 0b3b 3060 063c
00000380: 5331 f23b ffec d83b 31c7 acbb 2dcf 7f3a
00000390: fc37 1c3c 2699 1ebc 2808 0d3c 152b edbb
000003a0: 8069 50ba 1280 223b 7a21 863b e3f7 db3b
000003b0: b772 ca3b 4327 d13a 7aef 72bb 7500 fd3a
000003c0: 47c1 49bc ab93 64bb dadd 3b3c e1b7 af3b
000003d0: e7a2 683b f357 98bb d8b0 6c3b 77a7 b8ba
000003e0: ef58 dabb aff9 32bb 6bf7 22bc 9024 f9ba
000003f0: 9ac6 c8b9 fb3e 1fba d4ca 343b b8a1 e7bb
0.0053513627 -0.00034359607 -0.009338695 0.0021534942 0.00046997468 -0.007332427 -0.009081683 -0.0019774784
0.002480625 0.0045661256 -0.005297558 3.1422616e-05 -0.0015527612 -0.0015873573 -0.008035227 -0.0073756473
-0.008829213 -0.006209527 -0.004297477 0.005622202 0.0033926952 -0.0069883587 0.00017243144 -0.0009947753
0.00021461328 -0.0015042054 -0.0014345996 -0.0027600885 0.0039289193 0.005808705 -0.003410102 -0.0092350105
0.0077214646 -0.0010767825 0.0026056496 0.0033607464 0.0010042273 -0.0016876668 -0.0034346008 -0.0015081542
0.009098574 0.0035896797 0.0017147443 -0.0032228765 0.010476869 0.0021216893 0.009830866 0.005007218
-0.003462753 0.0021255964 0.00011643761 -0.0060155583 -0.0046045207 -0.00357267 -0.0056238975 0.0076289647
0.00015408934 -0.00704244 0.018048719 0.00835908 -0.00024815273 -0.0003734996 -0.009031237 -0.002384299
-0.0070294426 0.0064980723 -0.0034789771 0.004232144 -0.0027014685 0.0058004325 0.006926981 -0.002216532
-0.0021674435 -0.0011857207 0.000634822 0.00011044343 0.006075973 0.0072109373 0.0058840616 -0.008445314
-0.007984888 -0.0013910221 -0.0013291022 -0.008219322 -0.0044453735 0.011929057 -0.0010247101 -0.0045568887
-0.0040110233 0.0063363584 -0.0038518943 -0.0007787707 0.0028426675 -0.003524369 0.0023556084 -0.0014838341
-0.00730079 -2.7582844e-06 -0.0036187433 0.012041248 0.0056658173 0.009854409 -0.00088061247 -0.019188425
-0.004968368 0.0007388723 0.007110537 0.0054828967 0.003348025 0.0049765445 -4.9504986e-05 -0.0007908001
0.006151586 0.0036319995 0.0062119346 -0.006885121 -0.006793818 -0.0029663832 0.003859451 -0.013506926
0.013689942 -0.0006386296 -0.011037632 -0.0015689469 0.00294902 -0.0007545719 -0.008368917 0.00991396
0.0028812727 -0.000892457 -0.0062147565 0.0026489617 0.0041137487 0.0048001218 -0.0075391876 -0.005702798
-0.0011064289 0.0063512116 -0.0012771427 -0.00052216445 -0.0062247813 0.0031935186 0.0032528506 0.00056392915
0.00086962804 -0.008221596 0.0038951372 0.010058048 0.0009978117 -0.0038458824 -0.010779359 0.00065841136
0.0028045475 0.0004869944 -0.00064646534 0.0017544305 -0.00093816343 -0.0026240281 0.0049757934 -0.005600519
-0.005100761 0.008174075 0.0012652751 0.00086222513 0.00511493 -0.002402353 -0.0019576913 -0.0050170003
-0.0034647197 0.004647004 0.0074670217 -0.0031451152 0.0041159135 -0.014962986 0.004693942 -0.0029993497
0.01168216 0.003360501 -0.0041623916 0.0040925215 0.00710861 -0.0051445104 0.009467694 -0.013199808
0.0052428073 -0.0044522816 0.008534416 0.0027788614 0.0014935483 0.0028782429 -0.0029449284 0.0039950437
-0.005588697 0.0032555931 0.013162657 0.010823211 -0.003388676 0.0035814673 0.005615979 0.011294392
-0.0048192996 -0.013935971 0.0015548652 -0.0124645075 0.0024634146 0.0042453906 0.0032428321 0.008021164
-0.0054884804 -0.0034415086 -0.0040888684 -0.0029360382 0.0058593783 -0.0066802213 0.002790389 -0.0023931952
-0.008319415 0.0053333985 -0.0009846273 0.0005390127 0.0014679708 -0.0020646376 0.0021325285 0.008201644
0.007391134 0.006620049 -0.005272769 0.00097583496 0.009534832 -0.009680068 0.008607902 -0.007237802
-0.0007950291 0.0024795574 0.004093346 0.0067129 0.006178226 0.0015957135 -0.0037069009 0.0019302504
-0.012314147 -0.0034878056 0.011466468 0.0053624962 0.0035497488 -0.0046491562 0.003611615 -0.0014087994
-0.0066634337 -0.0027309468 -0.009946684 -0.0019008089 -0.00038294942 -0.00060747535 0.0027586715 -0.007068839

action_model._discrete_distribution.branches.3.bias f4 [2]
00000000: 0000 0000 0000 0000
0.0 0.0

onnx::Div_100 f4 [11]
00000000: 0000 803f 0000 803f 0000 803f 0000 803f
00000010: 0000 803f 0000 803f 0000 803f 0000 803f
00000020: 0000 803f 0000 803f 0000 803f
1.0 1.0 1.0 1.0 1.0 1.0 1.0 1.0
1.0 1.0 1.0
