results/B_1/Badminton/Badminton-499995.onnx (onnx, 299422 bytes, 15 tensors)

discrete_act_size_vector f4 [1, 4]
00000000: 0000 4040 0000 4040 0000 4040 0000 0040
3.0 3.0 3.0 2.0

network_body.observation_encoder.processors.0.normalizer.running_mean f4 [11]
00000000: f3f6 28bd 1fc4 723d ad0b 063f 4019 d73e
00000010: e707 be40 3ff3 a93c e562 00bf 8266 abbc
00000020: 19d7 53c0 0000 982f 0000 00ae
-0.041251134 0.059269067 0.52361566 0.42011452 5.9384646 0.020745872 -0.501509 -0.020922903
-3.3100035 2.764864e-10 -2.910383e-11

network_body._body_endoder.seq_layers.0.weight f4 [256, 11]
00000000: 6123 dfbe 7d28 e93c 35f1 b4be 18db b53d
00000010: eee0 05bd 02e8 9d3e 6d9c 53bd 26ed 54be
00000020: f7cf 183d 10ff 213e 353d 9d3e b0b9 84bf
00000030: 20f6 a33d ced6 443e f5fa d53d 2955 ecbd
00000040: 8cdb a3be 71c3 bf3e f69b 2dbd e272 93bd
00000050: d3ec 3e3e 85a0 fb3d 327d 2b3f 4aa2 093f
00000060: df51 023f 5270 b43e f672 b0bd 8d11 163f
00000070: 884b b13e f934 33bd 6adb 8cbe 4def f0be
00000080: ee93 9b3d a85e 773e 5ff3 503d 8692 a8be
00000090: b3b2 2abe 6e6e 68bd 0f7d 0d3f a83c 033e
000000a0: d83d 39bd 48a8 d7bd 337c e03e 3771 963d
000000b0: 94ca f4bd 40bb 29bf d6d9 213e c4dc 8cbe
000000c0: 9b20 33be 7b41 f6be ec51 2e3e acdf 28be
000000d0: 61d3 0ebc 33cd 953e 8f41 abbe b0e7 bc3e
000000e0: ef13 143e 2d01 403e 94e6 bc3e 3a84 053e
000000f0: 2978 18bd 220a f1bd 8676 1e3e 90f5 b03e
00000100: 1ab3 f8bb 0716 9c3e 19dc 243d 542c d0bc
00000110: caf8 8ebe f976 15be f966 cabd bcbc 97be
00000120: ce5e 7cbe 97ac 74be c683 d63d a2f9 aabe
00000130: 02b0 163f dd31 fb3e 6165 d13e c0eb 063f
00000140: 0342 123f 3425 e3be d3db 5dbe 2803 f13d
00000150: 24f9 663e 13bc b2be b748 3abf 09dd 38be
00000160: 9985 c63e 02b5 013e d088 693b 122b 4e3e
00000170: 96de 7bbe 478c f43d ef81 adbe 0b37 1b3f
00000180: b8f5 7a3d c93c ef3d e271 b13e 8a4f ddbc
00000190: 6a93 853e a9e3 8abe 52cf 39be 200f 53be
000001a0: 8861 8e3d 5b63 b03e 639c bfbe 1377 e4be
000001b0: 778c dc3a c745 a03d 3cfb acbe 8fe1 b93e
000001c0: f02e 2bbe 41a0 e23e 3841 193e 64f9 7bbd
000001d0: ac68 8f3e aaa9 29bf f739 d03e 4fc5 de3c
000001e0: c508 d2bd 7820 adbe db89 773e e7da c53e
000001f0: 0ded 64be c5f0 2f3e 181b 6e3b d12a 74bc
00000200: c93f 953e b7af 913e 0b70 8d3e 69b1 f6be
00000210: e84e 843e c074 9c3e 5c26 01bf 1bfe 3e3d
00000220: fdbc 0b3f 566e f6be 8b64 b1be 3535 81be
00000230: 5b4d 563e 5bab b33e e320 833e 226f a23d
00000240: 1430 98bd 66c3 fe3e 4659 913e 1f8b 573f
00000250: b566 3f3e 9c26 d53d 4325 40be 31ad ff3d
00000260: 5b28 aa3e 18ef 4d3f 6162 cabd 6746 803d
00000270: af05 53bd 5ef9 303d d5c7 e33e a1c0 59be
00000280: 4c32 c63e f894 05bf 0496 8fbe cccf a43e
00000290: b3a7 bc3e 69bb 123f d0ad ba3e a0b4 a7be
000002a0: 2a76 00be a0e4 063f 4a51 f9be 68ef 4fbe
000002b0: 6383 adbe 1331 043f b9ab 37be 666a 953e
000002c0: 4554 313e 1451 d53d c80f 8ebc cc6a 79be
000002d0: b334 a8be bae6 2f3e 47aa 803e 81b9 303e
000002e0: 5eaf 403e ffbe aa3e 8662 3abd 0054 83bd
000002f0: 3f58 e1be ddfe 853e 84a6 563e 6919 b33e
00000300: 14c1 323e 1c0e 49be 473d 1c3d 3acb d3be
00000310: a510 b1be 56a7 3e3d 38a5 09bd 10ab e33e
00000320: f26e ecbe c142 c8bd 0db2 f3bd ef43 843f
00000330: 131f da3e 8cd8 8bbe 654e c2be 8e9f 42bb
00000340: fc5a a63d ed26 97be 9ef0 dd3e 97b6 523e
00000350: 63d6 15be 4d0c 6ebd a38c c1be fd6a 80bd
00000360: 6625 00be 4bf0 833d 1b57 a7be a69b 30bd
00000370: 29d0 58bd 404b 133f a348 293e 385c 1c3d
00000380: a43a 22be ce19 efbe 5b79 283e ab0e 1d3f
00000390: bba2 123d a4f1 a9be f466 f23e 1523 b1be
000003a0: 9ebc c43e 45f0 7c3e b6ff 94be 4d22 583e
000003b0: ea3b cd3e a006 c63e 83df 46be 09d1 953e
000003c0: c3ca 5abd 25ee bc3d 73a4 9d3e 3875 c3be
000003d0: 6cff a0be e703 e7bd 568a d4be 1ed1 06be
000003e0: 257d 953e 0ca2 8ebe 3a5a cebc ea42 2dbe
000003f0: 1015 afbe e401 793e 2ebd c4be 140a 6bbe
-0.4358168 0.02846169 -0.35340276 0.088796794 -0.032685213 0.3084107 -0.05166285 -0.2079359
0.037307706 0.15819955 0.3071076 -1.0369167 0.08005929 0.19222566 0.10448257 -0.115396805
-0.32003438 0.37453797 -0.042385064 -0.071996465 0.18645029 0.12286476 0.6698791 0.5376326
0.50906175 0.35241944 -0.08615677 0.5862053 0.34627938 -0.04375169 -0.2751115 -0.47057572
0.07596575 0.24157202 0.051013347 -0.3292429 -0.16669731 -0.05674594 0.5526895 0.12816107
-0.045224994 -0.10530144 0.43844756 0.07345813 -0.11952701 -0.66301346 0.15805754 -0.2751218
-0.17492907 -0.48096833 0.17023438 -0.16491574 -0.008717389 0.29258117 -0.33448455 0.36895514
0.14460729 0.18750449 0.36894667 0.13038722 -0.03722397 -0.11769511 0.154749 0.3456235
-0.00758971 0.30485556 0.040248964 -0.025411762 -0.27924186 -0.14596166 -0.09882922 -0.2963618
-0.2464554 -0.23893963 0.104743525 -0.3339358 0.58862317 0.4906148 0.40897658 0.52703476
0.57131976 -0.4436432 -0.21665888 0.1176818 0.22555977 -0.34909114 -0.72767204 -0.18053068
0.38773802 0.12666705 0.0035634525 0.20133618 -0.24596629 0.11940818 -0.33888194 0.60630864
0.061269492 0.11681516 0.34657198 -0.027015466 0.2608903 -0.27126816 -0.18145493 -0.20611238
0.06952196 0.34450802 -0.37424 -0.44622096 0.001682653 0.07825809 -0.33785427 0.363049
-0.16717124 0.4426289 0.14966285 -0.061517134 0.28009546 -0.6627451 0.40669224 0.027193693
-0.10255579 -0.33813834 0.24173681 0.38643572 -0.22356053 0.1718169 0.0036332067 -0.014902786
0.29150227 0.28454372 0.27624545 -0.48182228 0.2584145 0.30557823 -0.50449157 0.046629053
0.5458525 -0.48131055 -0.3464702 -0.25235906 0.20927946 0.3509167 0.25611028 0.07931353
-0.07431045 0.49758452 0.28388423 0.84196657 0.18691523 0.10407755 -0.18764214 0.124842055
0.33233914 0.80442953 -0.098820455 0.06263428 -0.051519092 0.043206565 0.44488397 -0.21264888
0.38710248 -0.52180433 -0.2804414 0.32189786 0.36846694 0.57317215 0.36460733 -0.32754993
-0.12545076 0.52692604 -0.4869483 -0.2030617 -0.33889303 0.5163738 -0.179366 0.29182738
0.17317303 0.10415855 -0.01734151 -0.24357146 -0.32852706 0.17177859 0.2512991 0.17258264
0.18816897 0.33348843 -0.045504116 -0.06412506 -0.4401264 0.26171008 0.20961958 0.34980324
0.17456466 -0.19634289 0.038144376 -0.41365987 -0.3458301 0.046546303 -0.03360483 0.44466448
-0.46178395 -0.09778357 -0.11899195 1.0333232 0.42601833 -0.2731365 -0.37950435 -0.0029697153
0.08122823 -0.29521886 0.4334764 0.20577465 -0.14632563 -0.0581172 -0.3780261 -0.062704064
-0.12514266 0.064423166 -0.32683644 -0.043117188 -0.052932892 0.575367 0.16531615 0.038173884
-0.15842682 -0.46699375 0.16452543 0.61350507 0.035799723 -0.3319217 0.47344172 -0.34597078
0.38425153 0.2470103 -0.29101342 0.21106835 0.40084773 0.3867693 -0.194212 0.29261044
-0.053416025 0.0922511 0.30789527 -0.38175368 -0.3144487 -0.11280041 -0.41511792 -0.1316571
0.2919704 -0.27858007 -0.025189508 -0.16920057 -0.34195757 0.24317127 -0.38425583 -0.22953063

network_body._body_endoder.seq_layers.0.bias f4 [256]
00000000: ea78 b7bb 4087 183c f3a8 053c ad7f 55bb
00000010: 3438 643c 8085 8a3c b7d0 05bc ee4f e33b
00000020: 57ce bc3a bcec 2739 d809 ce3a 9880 933c
00000030: 3094 2fbc 25ee d139 785f 1c3c 080e a4bb
00000040: ad3c 0cbc f240 a33b d070 be3b f220 443a
00000050: 6d3b a43b 5f30 b53b 2893 0f3b 8b3a e53b
00000060: 0741 2a3c 8ba0 253c 9330 d1bb 5136 ab3a
00000070: 7401 353a 3d20 9cba d89b b13b 0072 093a
00000080: 7de4 003c 9a70 453b 0a84 a93a 913f f83b
00000090: cdef a93b 75f9 bbbb 5729 743c 1f5c 1bbb
000000a0: 6f4b 723c c1d5 9f3a f5a0 83bb 9100 ba3b
000000b0: 66b3 5d3c bbd2 47bc 0906 b7bb 3b48 52bb
000000c0: a4c1 993c 08d9 053c b69f 333c cb5f b1bb
000000d0: 6e21 50bc 0ada eb3b 07ca 143c 8451 47ba
000000e0: 9c52 423c 6115 493b b9fc df3a 1ca9 993b
000000f0: 961c b53b 6da1 00bc a06e 403c 69eb 0f3c
00000100: 04d5 e8ba db08 6a3b 4829 953b a225 973c
00000110: 3a45 32bb 4845 81ba f657 a53c f324 323c
00000120: ddc1 b43b 5598 23ba 61b7 b7bb 1356 413c
00000130: 45d0 543b 32b5 2fbc 3540 643b 9d1c 993b
00000140: e0f2 af3c e981 49bb f0d8 05bb b936 b6bb
00000150: 421e ae3b 3219 4f3c beee a53b 2c02 803c
00000160: f544 cc3a 131e 523b 8c19 84bb 2e3a 56bb
00000170: 4f7c 893b c90c 143c 0375 e53b 573f 163c
00000180: 7daf c23b d09f 2a3c 33c8 6d3c 0f06 95bb
00000190: 89a9 f13b 84da 4ebc c718 ba3a 68b1 d23a
000001a0: f6c4 7b38 3710 833b 38d5 f83a 62b7 0eb9
000001b0: db69 11ba b6e0 063c 1aae a83b 0746 af3b
000001c0: 1b57 8e3a 41dd b83c 08dd 10bb b717 3f3b
000001d0: 5528 333c 51f3 043c 016b 093c 999e b83b
000001e0: c3cf b1bb 36d6 493c 7476 013c a5f3 b438
000001f0: b5ee 8a3b 98a1 4f3a 674a e239 c34b cc3b
00000200: 3ff7 e03b dd2a 5ebb 87dc 683b 4c43 b0bb
00000210: 7c71 513c 48fb 35bb 3f20 953c 961a 313c
00000220: a81a 84ba 8f98 1cbc 992f ab3b 77fd 29b9
00000230: 8305 073c 1880 39ba 3660 e93c bf4e 1d3c
00000240: 9575 423c a747 bb3a b9f8 b03b ce71 863c
00000250: 4925 3f3b 31a1 8a3b 5ab1 2c3b b134 a43b
00000260: 04bc c5ba 221e 9239 e45e 2b3b 3876 eeba
00000270: 321c a63c 8485 52bb 3e64 25ba 7998 253c
00000280: 22ff 833c f2c3 16bc 163f cbbb aec6 28bc
00000290: 1503 f4bb 71d3 f83b 4272 c73a 78fe 833a
000002a0: a38f 44ba ff39 f53b 3a3f 3cbb bd28 133b
000002b0: 1e7e 053c 839e 2b3a c084 243b 844a ecba
000002c0: 5b78 bdba 871c 003c 79cd f53b a07a 8a3c
000002d0: c29b 2d3b f952 803c d43a 1bbb 065d 2b3b
000002e0: f093 863a 6f27 b33b d925 9abb 9eea 863a
000002f0: 2073 073c 7c74 393c 6561 1cbb 8574 533c
00000300: f7f9 1c3c da69 1bbc 1aae 6dbb 0881 f6bb
00000310: 9530 21bb 6d9a 3a3c ee49 74bb 1780 2b3b
00000320: 1793 2a3c ea4e 113b eda6 0ebb 3f9a 70bb
00000330: 6293 fe3b d9ac 353b 4c28 43bb 6c4d 2039
00000340: bb35 2b3c c61a a3ba cd6c f4bb bf19 413b
00000350: 79bc fb3b d1ab e93b 4ab7 6aba 8398 88bb
00000360: aa92 f13b c676 3c3c 31fc ecbb 6b37 f3bb
00000370: 3771 ea3b 6446 6a3c 9ab5 9739 fe8b b5ba
00000380: c438 f1bb 8a13 023c a91b cb3c 90cb 8cb9
00000390: 7c26 7b3c 7517 4d3c c122 f7ba 9ce5 f23b
000003a0: 8943 19bb c3a5 063c 42bb 153b 563f 48b9
000003b0: 222b 9b3b 0047 9f3b e63b 783c a19b 32bc
000003c0: 403e dcbb bdcd 0fba a40d 00bb 0202 47bc
000003d0: 51c6 593c 7971 46bb 657f 98bb 0372 fe3b
000003e0: 5442 9339 c6bf f13b f484 453b 4583 e83a
000003f0: 93da 033b 0463 a63b 559b 9f3b 258a 1ebb
-0.005599131 0.00930959 0.008157956 -0.0032577321 0.0139294155 0.01690936 -0.008167437 0.0069370186
0.0014404756 0.00016014552 0.0015719486 0.018005654 -0.010716483 0.00040041018 0.009544246 -0.0050065555
-0.008559388 0.0049821073 0.005811788 0.0007481716 0.005011967 0.005529448 0.002190778 0.0069955043
0.01039148 0.010109077 -0.0063839643 0.0013062452 0.00069048186 -0.0011911463 0.0054201894 0.00052431226
0.007866976 0.003012693 0.0012933027 0.007575937 0.005186057 -0.0057365247 0.014902434 -0.0023706031
0.014788493 0.0012194441 -0.0040169903 0.005676337 0.013531541 -0.012196238 -0.0055854362 -0.003208651
0.018769093 0.00816942 0.010963371 -0.0054130307 -0.012703283 0.007197623 0.00908137 -0.00076033943
0.011860516 0.003068291 0.0017088867 0.004689349 0.0055270893 -0.007850987 0.011745125 0.0087841535
-0.0017763679 0.0035710845 0.0045520402 0.018450562 -0.0027201907 -0.0009862566 0.020183545 0.010873067
0.0055162744 -0.0006240656 -0.0056065773 0.011800307 0.003247277 -0.010724353 0.003482831 0.0046726004
0.021478117 -0.0030747599 -0.0020423494 -0.0055607227 0.0053136656 0.012640284 0.0050638607 0.015626036
0.0015584516 0.0032061383 -0.0040313657 -0.0032688486 0.004195727 0.009036251 0.0070024743 0.009170375
0.00594133 0.010414079 0.014513063 -0.0045478414 0.0073749465 -0.01262534 0.0014198058 0.00160746
6.0026498e-05 0.0039997357 0.0018984443 -0.0001361049 -0.0005547085 0.008232286 0.0051477076 0.005348924
0.00108597 0.02256644 -0.00221044 0.0029158422 0.010934909 0.008114652 0.008387328 0.0056341407
-0.0054263785 0.012319138 0.007901777 8.628451e-05 0.004239882 0.00079205027 0.00043161513 0.0062346174
0.0068654115 -0.003390006 0.0035531835 -0.005379116 0.012783404 -0.0027768183 0.018203853 0.010809561
-0.0010078745 -0.009557857 0.00522418 -0.00016211519 0.00824106 -0.00070762774 0.02848826 0.009601294
0.011868854 0.0014288322 0.005400744 0.016411688 0.002916651 0.0042306413 0.0026350827 0.005011164
-0.001508594 0.0002786974 0.0026149089 -0.0018193191 0.020277116 -0.0032123039 -0.0006309188 0.010107153
0.016112868 -0.00920199 -0.006202589 -0.010301275 -0.0074466565 0.007593565 0.0015216547 0.0010070344
-0.000749821 0.0074837203 -0.002872421 0.0022454702 0.008147744 0.00065467524 0.002510354 -0.0018027578
-0.0014455424 0.007819301 0.007501301 0.016904175 0.0026490544 0.015664564 -0.0023686187 0.0026147976
0.0010267477 0.0054673473 -0.004704219 0.001029331 0.008267194 0.011319276 -0.0023861763 0.012906198
0.009581081 -0.009485686 -0.0036267103 -0.007522706 -0.0024595608 0.011389357 -0.003727551 0.0026168877
0.0104110455 0.002217228 -0.0021766976 -0.0036713032 0.0077690342 0.0027721433 -0.0029778657 0.00015287631
0.010449822 -0.0012443892 -0.007459259 0.0029464809 0.00768238 0.007131078 -0.0008953704 -0.0041685714
0.00737222 0.011502927 -0.007232212 -0.007422378 0.0071546095 0.014299009 0.00028936268 -0.0013850925
-0.0073615033 0.007939229 0.024793463 -0.00026854547 0.015329 0.0125178 -0.0018854962 0.0074126255
-0.0023386201 0.008218232 0.002284721 -0.00019097081 0.0047353664 0.004860759 0.015151 -0.010901363
-0.006721288 -0.00054856745 -0.001953938 -0.012146475 0.013291911 -0.0030280037 -0.0046538585 0.007765056
0.00028087443 0.0073775975 0.003013906 0.0017739317 0.0020119294 0.0050777216 0.004870812 -0.0024191227

network_body._body_endoder.seq_layers.2.weight f4 [256, 256]
00000000: 7a3f cb3c 5b7d d0bd a193 a9bd d8ea 043c
00000010: 0818 c13c 615a 163e 3439 bdbd dfaa 4f3c
00000020: a392 a03d 7b8b 5b3c 6dae 89bd d63a 903d
00000030: 0347 debd d14c f8bc 714a f03b c01d fa3c
00000040: caeb 8abd fefa 67bd 1eb0 dcbc ca97 dabd
00000050: 3294 5fbd 4216 d5bd 1283 9e3d a925 303d
00000060: 0f98 5cbd 2da8 bfbd 70d4 e43c 10fd 953c
00000070: eca5 96bc b85e 5cbd 35e3 813d 007b 023d
00000080: a91b c3bd db13 02bd 87de a5bd 7ec3 ea3b
00000090: 5495 d93b 9672 21bd a966 bdbc 49e2 c8bd
000000a0: 6ec5 023d 8aeb 67bd 8aea 8fbd 34ba 3f3c
000000b0: b7d1 633d 9e9f 4abc 6a77 9c3d 6648 6e3d
000000c0: 1726 b03b 3b9c 5b3c 1486 bf3c 6f7b 493b
000000d0: 5d86 883c e455 643d 6cfb bd3d e0f0 45bd
000000e0: ba31 ea3c f300 a93d 2c8d 06bd 4331 39bc
000000f0: 8a62 6f3d 0324 cfbd b19f 0abc 6451 243b
00000100: c7c5 0abd d303 0f39 0051 9dbd c170 f33d
00000110: c1fa b53d 2f62 adbc 4d21 40bc bccb 5d3d
00000120: 531c 63bd 8570 1e3e 479b ae3c 839d 263d
00000130: 2ff0 303d a2c0 e6bc 90be 0dbd 3434 01be
00000140: 74ee 073e f98f 8bbd 4617 303d 2e8d 003c
00000150: 10a2 65bd 3849 c3bc add3 bcbc ab17 fbbb
00000160: b39d c43c 0b6a c73d 55e0 8abd f312 b23c
00000170: 57a3 1f3c 5203 af3d 4b35 073d adfa 9ebd
00000180: 6302 0fbd 3431 f0bb 5dd7 8b3d 170b 1abc
00000190: 5f3a 62bd 128d 7c3d 8dc4 3c3c 65ac 82bd
000001a0: 8aab a2bc 8aa9 ccbd b14d d73a ceab f33d
000001b0: 6e87 8fbd 888a 18bc fb61 61bd 934e 1abd
000001c0: 499c dc3c 3ac8 563c 13cf f43d 0bab df3d
000001d0: c95c 10bd a84a d03c f8d8 7f3d bc7c 1b3d
000001e0: bc10 58bd 09f9 c83d 08f8 333d bfbf f93b
000001f0: 82d9 babd 370b 97bb 6980 253d d5e7 b73c
00000200: 19dd 813d 715d b33c 646a 32ba 112c 703d
00000210: 4a49 89bd ed11 463d 4e7c 97bc 5bb3 30be
00000220: 1d0e 19bd a288 a6bc c6df 053d 9ae9 693d
00000230: 40e6 24bc 381c 983c 3d6d 983d e968 a63d
00000240: bcee 61bc 09fa 9d3d 50b1 35be f481 54bd
00000250: 9155 243d 15bb 303d db69 63bd 2661 85bd
00000260: 52a9 5b3d a15b 263c f2e1 763c 3246 94bb
00000270: 3f96 65bd 5be3 89bd 9f4c 553d 034f 2fbc
00000280: 4e0d 9c3d 34bd c83d f264 86bc 180d 35bd
00000290: 07a7 223b 9356 ebbc da99 14be 41a1 89bc
000002a0: bfe6 3d3d fce7 9ebc ecfd 8ebd 6400 be3c
000002b0: 4ee8 65bb 99a0 d7bd 165a b1bb a04b 8cbd
000002c0: f1ca 923c 1bd9 58bd 68f0 48bd 4444 993d
000002d0: 8b0d 2bbc ff3c 363d 6e4f b4bd 8408 f23d
000002e0: 636b 1ebd 55f2 09be 85fd 57bd bcab 933c
000002f0: 2b42 693d 0c6c 333c d4ac b33d a5bd 283c
00000300: 1023 ba3d d1ca 063d 6708 423c 4ace 99bd
00000310: 1946 1e3d 7860 3c3c 84b6 be3c e42e c0bd
00000320: 8616 883c f2a1 f6bc a88e 9bbd d1d6 85bd
00000330: 4271 3dbc 3b5f 8bbd 0416 b63d abf2 ad3d
00000340: 30a3 26bd 9693 c03c fbee 85bd 5afe 793d
00000350: aebf 053c 4efc 9abc c703 2c3e 50d8 083d
00000360: 6693 e9bb d889 033c e0e9 30be ec29 36bc
00000370: 3f4a 173e 7c37 73bd bc49 21bd a8c4 af3d
00000380: a870 1b3d 490c b53c 442f 003d 7269 23bd
00000390: a79c a8bc 0914 afbd 3d3f 993c 58f8 473d
000003a0: 77ad e63c cdbf c1bc 6010 94bd 66e6 513c
000003b0: 7194 703b 94e7 113d 81ea 143d 2a4e eebc
000003c0: 7542 98bd 5d4e a23d e545 d33d 85de 13be
000003d0: 8ffb 4fbd c48c 47bd 9ad8 bcbd abc7 97bd
000003e0: 1132 0cbd 14ee dfbb 9236 64bc 3224 f7bd
000003f0: 34c8 1bbd 37f3 c23d 94ca ae3c 1754 1abd
0.024810541 -0.1018016 -0.08280111 0.008112632 0.02357103 0.14682914 -0.09239426 0.012675016
0.07840469 0.013399954 -0.06722722 0.07042472 -0.10853388 -0.030310066 0.007333093 0.030531764
-0.067832544 -0.05663585 -0.026939448 -0.10673483 -0.05458469 -0.10404636 0.077398434 0.043004666
-0.053855952 -0.09358249 0.02793333 0.018309146 -0.018389665 -0.05380127 0.063421644 0.031855583
-0.0952676 -0.031757217 -0.08099084 0.0071644178 0.0066401158 -0.03941592 -0.023120241 -0.098087855
0.031926565 -0.056621112 -0.07027157 0.011702109 0.05561992 -0.012367157 0.07639964 0.058174513
0.0053756344 0.013403947 0.023379363 0.0030743738 0.016665632 0.055745974 0.092764705 -0.04832542
0.028588165 0.08252134 -0.032849476 -0.011303249 0.058443584 -0.101142906 -0.008460925 0.0025072927
-0.03388002 0.00013638967 -0.07681465 0.118867405 0.08885718 -0.021164982 -0.0117266895 0.054149374
-0.055446934 0.1547261 0.021314276 0.04067756 0.043197807 -0.028168026 -0.034605563 -0.1261757
0.13274556 -0.0681457 0.042990945 0.00784616 -0.056062758 -0.023838624 -0.023050154 -0.0076627336
0.024000978 0.09737023 -0.06781069 0.021737551 0.009743533 0.08545555 0.03300981 -0.07762656
-0.034914386 -0.007330084 0.06828187 -0.009402058 -0.05523145 0.061657973 0.011521471 -0.06380538
-0.019857187 -0.099932745 0.0016426352 0.118980035 -0.07008253 -0.009310372 -0.055025082 -0.03767259
0.026929991 0.013109261 0.11953559 0.10921296 -0.035244737 0.025426224 0.062462777 0.037960753
-0.052750334 0.09813125 0.043937713 0.007621735 -0.091235176 -0.004609491 0.040405665 0.022449413
0.06340999 0.021895142 -0.00068060146 0.058635775 -0.06703432 0.04835694 -0.01849189 -0.17255919
-0.037366975 -0.020328823 0.03268411 0.057107545 -0.0100646615 0.018568143 0.074427105 0.08125479
-0.013789829 0.07713706 -0.1774342 -0.051881745 0.040120665 0.043147165 -0.055520874 -0.0651267
0.053628273 0.010153682 0.015068518 -0.0045249695 -0.05605149 -0.06732818 0.052075025 -0.01069999
0.07619725 0.09801713 -0.016405556 -0.04420194 0.0024818794 -0.028727805 -0.14511815 -0.016800525
0.046362635 -0.019397728 -0.069820255 0.023193546 -0.0035081091 -0.105286784 -0.0054123504 -0.06850362
0.017919036 -0.052941423 -0.049057394 0.07483724 -0.010440241 0.044491764 -0.088042125 0.118180305
-0.03867663 -0.13471349 -0.05273201 0.018026225 0.05694787 0.010951053 0.08773199 0.010299121
0.09088719 0.032908265 0.011842824 -0.0751005 0.03864107 0.011497609 0.02328039 -0.09383944
0.016612303 -0.030106518 -0.07595569 -0.065351136 -0.011562647 -0.06805273 0.08890918 0.08493551
-0.04068297 0.023507874 -0.065397225 0.061033584 0.008163376 -0.018919136 0.16798316 0.033409417
-0.007128167 0.00802847 -0.17276716 -0.011118393 0.14774416 -0.059379086 -0.03937696 0.08582431
0.037949234 0.022100585 0.031295076 -0.039895482 -0.02058251 -0.08548743 0.018706912 0.048820823
0.028158886 -0.023651028 -0.07229686 0.012811279 0.0036709572 0.03562124 0.036356453 -0.029090006
-0.07434551 0.07925103 0.10316066 -0.14440353 -0.050777014 -0.04871823 -0.09221001 -0.074111305
-0.034227435 -0.006833801 -0.013929026 -0.120674506 -0.038032725 0.09519046 0.021336831 -0.03767785

network_body._body_endoder.seq_layers.2.bias f4 [256]
00000000: 0a48 653c 53b9 1d3c 316d 6dbc 2be5 80bb
00000010: 08a6 8cbb 3d41 8a3c d346 45bc b631 8cb8
00000020: cc6d 393c 108d a53b 9fe3 523a 177b 993a
00000030: 03ad b53c 3784 3f3c 7a0c 783a dff1 3ebb
00000040: da1a 70bb 5464 fcba a6e7 4ebc fa03 e7bb
00000050: f380 29ba 8cee 6eba 0b44 75ba 7b92 7c3b
00000060: d1ed 823c 4f90 82ba fe28 903a 8afe e3bb
00000070: 77e7 233c 93c9 ad3c a8eb 203b faed ed3a
00000080: a32a d1ba e309 f5ba 1d13 333c e381 1439
00000090: 326b bc3b 3a64 8abb 4972 b9bb c67a 07bb
000000a0: 77cd 05bc 00ed 5dbb eb32 4ab9 a651 533c
000000b0: d902 a4bb 991a 963c c520 d83b 676e 49bc
000000c0: 7812 48bb 2972 8fbb 6b98 213c 6542 94bb
000000d0: 62fa e9ba 88bf c5ba d297 b13b 726d 0e3b
000000e0: 2bce 623c 45fd 463c c1c9 9f3b d68c 9abb
000000f0: cfc3 823b 26d7 66bc 6e72 96bc 046f 2c3b
00000100: 7b54 413b 383e bfbb aa98 383a 55df 923c
00000110: 9372 e9bb 7de9 17bb 49f3 e7bb 4a1e e03a
00000120: 46e8 a1ba f449 6ebc 0198 483b 1df2 103c
00000130: e658 ab3b e261 b13b d3c2 a03c 163f 123c
00000140: 0525 6abc 2fcb 453a 6c9c 8eba ffbc 22ba
00000150: 464c 03bc fdf9 cc3a 387f 05bc 5d19 a9bb
00000160: 0754 353a b1fe 803c af70 a6bb 352b 45bc
00000170: 6e07 223b 0ab4 503c 622d dc3b b2bb 5a3c
00000180: 9a6b 2dbb 1e38 413c c8f4 d7bb b85b 15bc
00000190: 3b37 7ebc 44b6 97bb 92d1 d73b 308e 80bb
000001a0: 804e 0d3b d194 b0bb abc7 893c 962f ebbb
000001b0: 7ebb 5dbc 63da 4fbb 647b 093c a64e 27bc
000001c0: 59f3 5e3c 5d2b 083c 5c18 5738 29ad 4eba
000001d0: a462 7bbb 4488 c73a 9499 32bb 6b0f a039
000001e0: f7e6 d83b cba4 693c 2e72 9cbb 5d2b 0f3c
000001f0: af9d 213b 7bc2 48bb ff49 153b e393 13bc
00000200: 0d8b 4abb fb67 3b3c 083b 013c 569e 8f3b
00000210: 10e3 1c3c 7713 9a3b 2728 923b e8c5 f93a
00000220: 835a aa3b f9fd cb3c 2c43 5abb 155f 3b3c
00000230: d414 ca3b 9ed6 05bc 1fd1 843c d932 e93b
00000240: fbb5 3b3b 919f ffb9 0aac c2bb 2468 0abc
00000250: c888 10bc b639 cbbb 1159 753a 6ecb d23a
00000260: 7ca4 d13a 2478 2d3b 1891 043b 2732 aabb
00000270: a185 0a3c c9f9 183c 12eb dabb 4a62 98bc
00000280: c567 493b 577f 3a3c c066 8c3b 5fef 17bb
00000290: 260a 92ba d60a 223a 36fc 0b3c c5a9 16bc
000002a0: 352a 323c df57 11bc 6006 463c aa5c 99bb
000002b0: 24cb 553c cd75 d93a fb9b 113c a035 39bc
000002c0: 63bb 5e3a 2430 623a 2aac 333c 9644 9c3b
000002d0: 960d 343b b722 2abb 1ee8 63bb f778 b2bb
000002e0: 4699 e73a 9017 7838 34eb df3b de59 05bc
000002f0: 07bd e53b 0a23 743c 9da4 533c b221 8eb9
00000300: 3b4b 003c b9e8 993c 5d61 7e39 2a64 6bbb
00000310: bccd 843c 586f 6f3c 579e 313c 7a1b 2e3c
00000320: b846 153c ddb5 2abc d01b 1d3c 497d 533c
00000330: 48fe d33b e1b2 353c e838 ebba 7416 263b
00000340: 18b3 b7bb 4b4e 8e3b 5286 243c e4f7 3bbc
00000350: bb31 2c3c 3fbb 0ebc 9124 8e3c ccbf adba
00000360: d938 b73b 9b8f ba3b 9d08 843b 0af2 aebb
00000370: a856 203c 0cf0 8a3c 7c13 0ebb 95f6 483c
00000380: b743 6f39 f9cb 883a 628d 063b e0bd 573b
00000390: 18d6 573c c11f 683b 6196 f7bb 9068 e53b
000003a0: a5dd 4bbc 84aa aebb d197 1abc 5ccb 95bb
000003b0: 9808 893c fadf 3b3c 5f09 4ebc 2a23 d339
000003c0: ab1f 2d3c 7445 ddbb 5990 1f3b 00d6 7bba
000003d0: 962c 10bc 842f 13bc 32f1 bcba 3135 33bc
000003e0: f6c6 183b 24bf 2f3b 8f0d a23b 792b 4cbb
000003f0: 564e 143c 0a81 a73b 2836 66bc 6061 563a
0.013994226 0.009626704 -0.014491365 -0.003933569 -0.0042922534 0.016876811 -0.012040812 -6.6849796e-05
0.0113176815 0.0050522164 0.00080447824 0.0011709657 0.022177225 0.011689237 0.00094623084 -0.0029135866
-0.0036637099 -0.0019255974 -0.0126284715 -0.0070500346 -0.00064660533 -0.0009114526 -0.00093561475 0.0038539458
0.01598254 -0.000996122 0.0010998545 -0.0069578337 0.010003916 0.021214282 0.0024554525 0.0018152588
-0.0015958141 -0.0018694963 0.01092985 0.00014162766 0.0057500834 -0.0042233737 -0.005659376 -0.0020672544
-0.008166662 -0.0033863187 -0.0001928319 0.0128978845 -0.0050052223 0.01832323 0.0065957033 -0.012294388
-0.0030528586 -0.0043776226 0.009862999 -0.0045245164 -0.0017851109 -0.0015086988 0.0054197097 0.0021732715
0.0138431 0.012145345 0.004876346 -0.004716496 0.0039906274 -0.014089381 -0.018365111 0.0026311288
0.0029499817 -0.0058362745 0.00070417917 0.017928759 -0.007124254 -0.0023179941 -0.0070785624 0.0017098871
-0.0012352548 -0.014543999 0.003060818 0.008846787 0.0052291034 0.00541328 0.01962415 0.008926174
-0.014291053 0.00075452303 -0.0010880358 -0.0006207972 -0.0080137905 0.0015638467 -0.008148007 -0.0051604942
0.0006917123 0.015746446 -0.005079351 -0.012034227 0.0024723667 0.012738237 0.0067192772 0.013350414
-0.002646184 0.011793165 -0.0065904595 -0.009116106 -0.015516098 -0.004629882 0.006586262 -0.0039232
0.0021561682 -0.005388834 0.016818842 -0.0071773035 -0.013533471 -0.0031715862 0.008391235 -0.010211622
0.013607823 0.00831112 5.128268e-05 -0.0007884079 -0.0038358355 0.0015223105 -0.0027252184 0.00030529065
0.00661933 0.014260481 -0.0047743535 0.008738366 0.0024660637 -0.0030633498 0.00227797 -0.009007427
-0.0030905635 0.011438365 0.007887609 0.004382889 0.00957562 0.0047020274 0.004460353 0.0019056173
0.005198778 0.024901377 -0.0033304198 0.011436244 0.0061670337 -0.0081688445 0.016212998 0.007116657
0.0028642404 -0.00048756276 -0.005940919 -0.008447681 -0.008821674 -0.006201948 0.000935928 0.0016082355
0.0015994455 0.0026469314 0.0020228084 -0.005193967 0.008454711 0.009336897 -0.0066808546 -0.018601555
0.0030732017 0.011382899 0.0042847097 -0.0023183448 -0.001114194 0.0006181424 0.0085440185 -0.00919575
0.010874321 -0.008871048 0.012086481 -0.004680236 0.013048921 0.0016590894 0.008887286 -0.011304289
0.0008496551 0.00086283893 0.01096634 0.0047689183 0.0027473918 -0.0025960633 -0.0034775804 -0.005446549
0.001766958 5.9149752e-05 0.0068334583 -0.008139102 0.007011059 0.014900932 0.012917665 -0.00027109456
0.007830436 0.018787729 0.00024259598 -0.0035917857 0.016211383 0.014613949 0.010840974 0.010626668
0.009111099 -0.010419336 0.009589151 0.012908288 0.0064695217 0.011090011 -0.0017946037 0.0025342973
-0.0056060664 0.0043428293 0.01004179 -0.011472676 0.010509904 -0.008711635 0.01735142 -0.0013256012
0.0055914936 0.0056933886 0.004029347 -0.005338912 0.009786285 0.016960166 -0.0021679094 0.012265821
0.00022818042 0.0010436765 0.0020531048 0.003291957 0.0131736025 0.0035419317 -0.0075557684 0.00700099
-0.012442981 -0.0053303856 -0.00943561 -0.0045713615 0.01672773 0.011466974 -0.012575476 0.00040271255
0.010566632 -0.006752664 0.0024347513 -0.00096067786 -0.008799693 -0.008983497 -0.0014415144 -0.010937975
0.002331195 0.002681681 0.004945464 -0.0031153841 0.00905188 0.005111818 -0.014050998 0.0008177962

action_model._discrete_distribution.branches.0.weight f4 [3, 256]
00000000: 2e4e 133c fa7d 27bc 68ee 253c 9c2b 0e3c
00000010: b547 e23b b506 ecbb 5fad fdbb ecd8 8e3a
00000020: e92a 8bbb e08b d0bb 9844 63bc 1302 b53a
00000030: c6c9 af3a 80bf 4c3c c07f 01bb 2861 383c
00000040: 474f 2d3b 2d22 2bb9 5775 19bc 3431 843b
00000050: 53e0 013c c8f0 da3b b922 ebbb 5bea 0d3b
00000060: 6054 95bb fdfa 6db9 85e1 3c3c 3b9f 813c
00000070: 2780 78ba a27c 15bc 50b6 20b8 aa65 05bc
00000080: 47cb 3cbc e167 693c 56f9 dbbb e63c 4b3c
00000090: 6509 20bb 0b99 00bc 75e0 1f39 e5fa bebb
000000a0: 5d3c 54bc 8c3f e83a d156 2d3b af2f 37bc
000000b0: bb05 27bc 018c 33bc f02f 56bc 8c6a bdbb
000000c0: 9f90 f4bb a558 003c 9661 e5bb 9b2f 8739
000000d0: 6e52 99bb 9adf e7ba b4cd ec3b 1896 ef39
000000e0: ea14 96bb aeca 87bb c651 6abb 5171 58bb
000000f0: 71e0 89bb 3cc1 eb3b 529a 093c 6d7d a93a
00000100: 9ca9 6db9 c6f6 bd3a 0949 983a 1b33 59bc
00000110: 2189 64bc fb8a 663a 13e5 15ba 15aa 15bc
00000120: cd3c 5ebb 62d3 8d3b 095a b8bb 3077 1b3c
00000130: 7701 90bc 2dd5 27bb 6c36 d33a 5845 bfbb
00000140: b79c 593a 0e27 bf3b 2db9 09bc f9bf 753b
00000150: d9db 1b3c 6696 443c 1b22 debb 2b61 803b
00000160: c0d5 f03b 52e7 e6bc 1941 a23b b8ad 693c
00000170: 076c 1b3b e0b8 b73b 509b a43b e914 a6bb
00000180: 8575 cbbb 3f06 7e3c f6c8 07bc 74ec efba
00000190: 3446 53bb 4abb c23b 6320 343b 51b9 093b
000001a0: 5774 b9ba 8680 de3b fe8b ddbb 2e34 08bc
000001b0: 60c2 a03b 7483 86ba 16f3 c8bb 9d65 afba
000001c0: 04c8 20bb e161 2fbc 79b6 05bb 7602 c53a
000001d0: b861 ab3b b3bb 53bb 29e6 693a bf10 ccbb
000001e0: 7304 f1bb 2b58 bbbb eb78 a53a 99d4 feba
000001f0: 2e85 1d3c bb6a eaba f295 38bc 163c 8d3b
00000200: 669a 853c aec4 fc3a e873 a83c 34ad cdb9
00000210: 6556 03bc a007 dfb9 065d d33b 0456 0f39
00000220: b05b bb3a 00cb 07bc 9db2 c2b9 62ce e4ba
00000230: 6f45 1a3b 7c53 4e3a 81e0 ac3b c70e 91b9
00000240: 58bc 10ba 47ef b63b 29c6 08bb 0770 563c
00000250: 491a 7b3b fcd0 fdbb 5427 b33a e63c cdba
00000260: 501f bb3b cf8a 153b 7904 d4ba efa0 bc3b
00000270: 9823 44bc 3daa 523b 8cf2 233c 87b3 493b
00000280: 76d3 efbb 83a7 023c 3687 97bb bdf5 bc3b
00000290: 5d43 f7ba ec47 cd3b 3e29 1abc 078a be3b
000002a0: 90c6 b3ba b2e7 593b 29c3 31bc a963 77bb
000002b0: b815 1ebc 9b0e 853c e07f ccb9 6c87 873b
000002c0: e91f eabb 42e1 7e3c 54cb c13b 6f12 4c3b
000002d0: fb2e 39bc 47ba 4bbc 3e22 3c3c 89fd 153b
000002e0: abf9 85ba d62b 06bb 30c1 0dbc 55f8 3d3b
000002f0: f620 f439 10ef c3bb e66e 143b 6c3d 54bc
00000300: edda 63bc 01e2 feba d652 0f3c 7791 c239
00000310: 281c e9bb 9893 053a b11c 8bbb c1e0 24bc
00000320: 78ce 7ebc 68ea 4db9 c39f a83a b0e4 c3bb
00000330: 919b 29bc 7d6f 0b3a d219 ff3b 8b59 8e3b
00000340: 7a4e 18bb ab53 17ba 8223 17bc 4414 94bb
00000350: 1b49 e43b 21f0 8bba ae7b 0dbc fabf 0dbc
00000360: 0980 223a 4a83 293a 1e6b 1b3c 539a ca3b
00000370: ae3f 1bbb f044 f839 b0e2 cf3b fa65 033c
00000380: 5787 d33b 49e8 b43a 8c99 ff3b 093b ad3a
00000390: 292b 11bc cf4b d63a 2742 9cbb 5f53 8dbb
000003a0: 123a a33a 27c0 393b f9bf 3eb9 f733 033c
000003b0: 6528 87bb 3a59 debb 49d7 453c 583f 1d3b
000003c0: fd75 cd39 8c1f 98bb e1ff 2c3b dd58 873c
000003d0: 793e b73c b5cf 833c 698d a13c cfd9 ccba
000003e0: bf27 7dbc 7fda bf3b 5f1c b2bb 8eb3 d8b9
000003f0: 4d29 4eba 3a70 e2bb 2f90 ea3b 5a4e bd3a
0.008990807 -0.010222906 0.010127641 0.0086773895 0.006905521 -0.007202948 -0.0077416147 0.0010898388
-0.0042470586 -0.0063643306 -0.0138713345 0.0013809822 0.0013411574 0.012496829 -0.0019759983 0.011253633
0.0026444958 -0.00016320562 -0.009366355 0.004034186 0.007927018 0.0066815354 -0.00717577 0.002165458
-0.0045571774 -0.00022695582 0.011528377 0.015822997 -0.00094795454 -0.009123953 -3.8316764e-05 -0.008141914
-0.0115230745 0.014245958 -0.006713073 0.012404656 -0.0024419662 -0.007848988 0.00015247038 -0.005828249
-0.012953845 0.0017719134 0.0026449452 -0.011180802 -0.010194237 -0.0109586725 -0.013072953 -0.0057805236
-0.0074635292 0.0078336345 -0.0070001585 0.00025784675 -0.004679016 -0.001769054 0.00722667 0.0004569746
-0.00458013 -0.0041440343 -0.0035754307 -0.0033026526 -0.0042076637 0.007194666 0.008398609 0.0012931057
-0.00022665266 0.00144931 0.0011618446 -0.013256813 -0.01394871 0.00087945134 -0.00057180336 -0.009134789
-0.0033910752 0.0043281773 -0.0056259674 0.009488866 -0.017578823 -0.002560924 0.0016114241 -0.005837124
0.00083012454 0.005833513 -0.008405966 0.0037498458 0.009512865 0.011998748 -0.006778968 0.0039178333
0.0073496997 -0.028186474 0.004951608 0.014262609 0.0023715512 0.0056067556 0.0050233975 -0.0050684107
-0.006209078 0.015504419 -0.008287659 -0.0018304721 -0.003223789 0.0059427368 0.0027485124 0.0021014998
-0.0014149052 0.0067902235 -0.006761073 -0.008313222 0.004905984 -0.0010262565 -0.0061324937 -0.0013381724
-0.002453328 -0.0107044885 -0.0020402952 0.0015030641 0.005230155 -0.0032307922 0.0008922541 -0.006227582
-0.0073552667 -0.0057172976 0.0012624537 -0.0019442021 0.009614272 -0.0017884591 -0.0112662185 0.0043101413
0.016308974 0.0019284689 0.02056308 -0.00039229693 -0.0080162035 -0.00042539556 0.0064502982 0.00013669586
0.0014294293 -0.008288145 -0.0003713564 -0.0017456526 0.002353992 0.00078707165 0.0052757864 -0.00027667565
-0.00055212295 0.0055827233 -0.0020870066 0.013088233 0.0038315228 -0.00774586 0.0013668337 -0.0015658408
0.00571052 0.0022818332 -0.0016175649 0.0057564895 -0.011971377 0.0032144927 0.010006558 0.0030777173
-0.0073189093 0.007974508 -0.0046242727 0.005766599 -0.001886468 0.0062646773 -0.009409247 0.005814794
-0.0013715792 0.0033249673 -0.010849752 -0.003774861 -0.009648733 0.016242316 -0.00039005186 0.0041360166
-0.0071449173 0.015556635 0.005914131 0.0031138917 -0.011302705 -0.012434549 0.011482773 0.0022886714
-0.0010221502 -0.0020472906 -0.0086520165 0.0028987129 0.00046563864 -0.005979426 0.0022649108 -0.012954097
-0.013907176 -0.0019446017 0.008747777 0.00037110943 -0.007113952 0.00050955405 -0.0042453636 -0.010063351
-0.015552156 -0.00019637647 0.0012864996 -0.0059781894 -0.010352031 0.0005319042 0.0077850604 0.0043441704
-0.0023240135 -0.00057726604 -0.009224774 -0.0045190174 0.0069667227 -0.0010676422 -0.008635445 -0.008651728
0.00061988883 0.0006466402 0.009485988 0.0061829477 -0.002368908 0.00047353609 0.006344162 0.008019919
0.0064553428 0.0013802137 0.0078002866 0.0013216446 -0.008860388 0.0016349497 -0.004768628 -0.004312917
0.0012453219 0.0028343291 -0.00018191327 0.008007995 -0.0041246885 -0.006785539 0.012075254 0.0023994055
0.00039188555 -0.0046424326 0.0026397633 0.016521866 0.022368656 0.016090253 0.01972075 -0.0015628877
-0.015451371 0.005854904 -0.005435511 -0.0004133251 -0.00078644307 -0.006910351 0.0071583013 0.0014442906

action_model._discrete_distribution.branches.0.bias f4 [3]
00000000: 69f1 d0bb dd6a 453c 6246 f5bb
-0.0063764346 0.012049404 -0.007485197

action_model._discrete_distribution.branches.1.weight f4 [3, 256]
00000000: b7e1 15bb 4d07 d03a 7b4b 883b 3568 193b
00000010: 7c86 653b 179f 28bc 6911 143c 6e77 fb3b
00000020: 6b3f 41bc 124b a93a 6cf2 f2ba d6c2 1bbb
00000030: c79f 4dbb 1c56 8ebb 60e8 b8bb 906d 14bc
00000040: a45e d43a a652 23bc d5a9 f2bb 020a b1bb
00000050: 4147 c6bb ef11 f93a ec67 0f3c 2a28 4ebc
00000060: b0c1 a5ba 8a0e 713c 250e ecbb 8d85 b93b
00000070: 5afc 15bc f217 0e3c 37fa 5aba aebd b6b9
00000080: c6b1 49bc 114e d13a a010 873c 3fb0 3b3b
00000090: dacd adbc 7a4c 3cbb 9510 55b9 8b53 32bc
000000a0: eab6 923b 04df 04ba 0ea9 a4bc 508b 1a3c
000000b0: 80c0 1abc d1a5 57bb 39d0 c1ba 4fbc ee39
000000c0: 6d21 003c e3a0 8b3b ccb9 963a fe48 f83b
000000d0: 7099 8ebb 3a20 11bc 24bc 04bc 6bc3 de3b
000000e0: c55d 40ba 88fa 35bb 50a7 21bc 6500 7bbc
000000f0: 95d6 803b 7e93 c3b9 06bc ecbb f980 88bb
00000100: b65b ddbb 750c f1ba 5758 35bc 0e8f dabb
00000110: 30c0 63bb 15f3 f13a f710 e1ba 7af7 713c
00000120: 6b3c c2ba a9b8 4cbb 68e1 5d3a 648a ef3b
00000130: b46b e3bb 2d0a ce3a 99ca 5c3b 93e1 313a
00000140: 30a2 10bb 9685 c43b 64a3 7abb fdd3 e1bb
00000150: 384d f53b 5e4d 86ba c482 0fbc df5e 6b3a
00000160: 384c e339 430c 833a 9abf 7d3b 0b3d ccbb
00000170: d60d d63b 0251 9f3b 7d47 2c3c 501f 58bb
00000180: c0d7 5abc 3a0d 043c 1236 39bb 2a33 a0ba
00000190: 623c 053b 6a0b 2fbc 6bd4 aebb 3b3b ab3a
000001a0: c662 183b 7734 5dbb 4c9b 83bb 341d 7bbc
000001b0: d07b 42bb 421b eb3b 9d98 333c 934a 683b
000001c0: 677d 373c d296 8a3b 83f8 933c 7cd5 e6b7
000001d0: c333 613c 3cf7 23bc 0f83 aebb cad6 e43b
000001e0: da63 8fbb e6c1 79bb b8a8 0a3c 3128 da3b
000001f0: 131b 7d3c 5a43 7ebb 3e78 d6ba bedc 363c
00000200: ff75 dfbb f643 14bc 8f2d 1e3c b453 09bc
00000210: 9cab b33b 02f9 963c b249 7ebb f4f5 1abb
00000220: 2512 18bc de95 6c3c cac0 cdbb 220f c6bb
00000230: d98f 80bb 0dbd dd3b 0111 07bb 2caa 3a3a
00000240: fc52 0c3a 890a a4ba 362d c33a 895e 00bc
00000250: 8615 59bb 161d 2b3c 2575 c73b 8c6a 273c
00000260: fcfb 2a3b b7ff 3d3c befb e7bb 6ab5 01bc
00000270: bd10 c8ba 28c0 303c 2e4f 133c 73d0 95bb
00000280: b5e4 fc3b c6e3 193c d79a 4f3c d72f 843b
00000290: 0fd2 613b cece cd3b c1e3 d3bb bb8d 7d3b
000002a0: e125 04bc a860 39bc 5b44 09bb 0ad3 83bc
000002b0: 1b2a 223c c57d 083a bf0f 19bb bd21 58bc
000002c0: 3539 2eba 8d57 d63b 4577 263c 3865 fbbb
000002d0: 0925 0ebc df03 fdba 043b a2ba 12dc c83b
000002e0: 0638 4d3c 5372 313b 51f2 3c3c 9c38 ab3a
000002f0: 0bb2 53bc 7977 153c 2e58 f7bb bf53 473c
00000300: abdb e0bb b43e 9dba b947 803c be8d f9bb
00000310: ec8b b23c d6a1 593c c09a 283c 167b a3ba
00000320: f589 1c3c 627e 07bc c949 073c 499f a93a
00000330: f713 1f3c e83c dbbc 77d6 61bb c18d 38bb
00000340: 2334 5dbb 397d dfba 2940 193c 8d83 a4bb
00000350: 94a6 af3b f9de 6e3b 7be1 7dbb b34b 053c
00000360: 4640 213c aea9 d83b 26ff ba3b 90e5 2e3c
00000370: e476 19bb dffd 5d39 a6b8 aebb 546c b03b
00000380: 4c9e 08bc 2173 0abc fc23 ee3b 3f65 763c
00000390: db3c fd3b f41d 4f3c 1ae1 c63a 9faa 213b
000003a0: 41d0 37bb 9041 73ba ccb3 10bc df35 81ba
000003b0: 4efe 7b3b 2282 91bb 0894 5d3b 52d1 013a
000003c0: 4575 613c 4edd a9bb cf96 153c fcfe 2ebb
000003d0: 05fa 2cbb bd06 30bc 4102 36bc cad5 4c3a
000003e0: 0727 74bc 0946 a8bc 5e67 54ba b362 08bc
000003f0: 0121 b6bb 895d 1b3c 5269 88bb 95d1 e2bb
-0.0022870132 0.0015871316 0.0041593886 0.002340806 0.0035022786 -0.010291836 0.009037354 0.0076741492
-0.011794905 0.001291605 -0.0018535382 -0.0023767254 -0.0031375752 -0.004343761 -0.0056429356 -0.009059325
0.0016202522 -0.009968435 -0.0074054995 -0.0054028044 -0.0060509746 0.0019002537 0.008752804 -0.012582818
-0.0012646224 0.014712939 -0.0072038346 0.0056616724 -0.009154404 0.008672701 -0.0008353325 -0.00034855067
-0.012310451 0.00159687 0.01648742 0.0028638986 -0.021216322 -0.0028732107 -0.0002031944 -0.010884176
0.0044773715 -0.00050686323 -0.020100143 0.009432629 -0.00944531 -0.003290523 -0.0014786787 0.00045535198
0.007820469 0.0042611226 0.0011499464 0.0075770607 -0.0043517873 -0.008857781 -0.008101497 0.006798198
-0.00073381915 -0.0027767736 -0.009866551 -0.015319918 0.00393183 -0.0003730319 -0.0072245626 -0.0041657654
-0.0067553176 -0.0018390553 -0.011068425 -0.0066698855 -0.0034752004 0.0018459285 -0.0017171194 0.014768476
-0.0014819031 -0.0031237996 0.0008464069 0.0073101986 -0.0069403294 0.0015719585 0.0033690094 0.00067856273
-0.0022069328 0.00599737 -0.003824436 -0.006891726 0.007486012 -0.0010246446 -0.008759204 0.00089786755
0.000433536 0.0009998161 0.003871894 -0.006232863 0.006532411 0.004861952 0.010515091 -0.0032977648
-0.013357103 0.008059794 -0.0028260988 -0.0012222279 0.002033018 -0.010683874 -0.005335381 0.0013063917
0.0023252233 -0.0033753195 -0.0040163156 -0.015326787 -0.0029675849 0.0071748802 0.010961679 0.003544484
0.011199332 0.004229405 0.018062836 -2.7517548e-05 0.013745251 -0.010007676 -0.005325682 0.0069836127
-0.004375917 -0.0038109957 0.008463077 0.006657623 0.0154483495 -0.003879747 -0.0016362739 0.0111610275
-0.006819486 -0.009049406 0.009654417 -0.008381773 0.005483104 0.018429283 -0.003880125 -0.0023645135
-0.00928167 0.014440028 -0.0062790858 -0.0060442844 -0.003923398 0.0067669214 -0.00206095 0.00071206945
0.0005352942 -0.0012515347 0.0014890793 -0.007835039 -0.0033124401 0.010443946 0.0060869628 0.010218274
0.0026090136 0.011596612 -0.0070795706 -0.007916788 -0.0015263777 0.010788001 0.008991046 -0.004571968
0.0077176937 0.009392684 0.012671194 0.0040340233 0.003445748 0.0062807566 -0.0064663594 0.0038689214
-0.008065672 -0.011314549 -0.0020945284 -0.016091842 0.009897734 0.00052067294 -0.0023355333 -0.013191638
-0.0006646098 0.0065411986 0.010160272 -0.0076719783 -0.008675822 -0.0019303522 -0.0012377207 0.00612975
0.012525564 0.00270762 0.011532382 0.0013063136 -0.012920867 0.009122723 -0.0075483536 0.012165963
-0.006862124 -0.0011996836 0.0156592 -0.007615774 0.021795236 0.013283214 0.0102908015 -0.0012472596
0.009554376 -0.008269878 0.008257338 0.0012941147 0.00970935 -0.02676244 -0.0034460106 -0.0028160664
-0.0033753 -0.0017050869 0.009353676 -0.005020565 0.005360434 0.003644882 -0.0038739133 0.008135724
0.009841984 0.0066120243 0.0057066856 0.010674849 -0.0023416812 0.00021170777 -0.0053320704 0.0053840075
-0.008338522 -0.0084503 0.0072674733 0.015038787 0.007728202 0.012641419 0.0015173287 0.0024668348
-0.0028047713 -0.0009279484 -0.008831929 -0.0009857974 0.0038451138 -0.004440562 0.0033810157 0.00049521506
0.013760869 -0.0051838523 0.009130194 -0.0026702275 -0.002639414 -0.010743794 -0.011108936 0.00078138395
-0.014901883 -0.020541208 -0.0008102561 -0.008324313 -0.0055581336 0.00948275 -0.004162946 -0.006921957

action_model._discrete_distribution.branches.1.bias f4 [3]
00000000: 57fa 6f3b 69b5 a7b9 efc5 36bb
0.003661772 -0.00031987883 -0.0027888974

action_model._discrete_distribution.branches.2.weight f4 [3, 256]
00000000: 94c1 ad3b 1509 483c 9be9 b3bb 5896 4aba
00000010: 5eb5 cc3b d8ad 7fbb bbfb 83bb 4034 85bb
00000020: 2b84 4dbb 506a 7b3b 2f03 c53b 2439 a0ba
00000030: ab61 84bb 3a7d 85bb 743b 8cbb bbc5 ff3a
00000040: 2ae0 f2b8 6101 02bb 7b35 a1bb 90e3 113c
00000050: c5b9 433b 18ac 893b 83d1 2f3b 107b aa3b
00000060: 2fd3 ceb9 1454 21bb c4a0 603c e05f edba
00000070: 7e54 cb3b 2255 c23b e45d 6d3c e5e0 0b3c
00000080: b6e3 63bb dc1f f5b9 7035 14bc a451 a2bc
00000090: 99ef a1bb 7fa8 b03a f016 45bc 09dc 723c
000000a0: 0607 013c b8ed e23b 69a6 953b ce9e 933b
000000b0: 0cc0 7bb9 e53b 883b 6533 523c 6ff2 43ba
000000c0: eb2b ab3b be03 c83b d066 02ba bf53 1bbb
000000d0: 3cc3 90bb 0841 063c 7420 f63b d854 ea3a
000000e0: 903c d63a 6d0b 9339 7ef3 d1bb bf7a 48ba
000000f0: 850d 12bb 6dd6 3e3a 50d8 31bb 6b81 8abb
00000100: fd3a d83b edd7 4dbc 7a30 03bc 0258 7dbb
00000110: f851 193c 3f67 cabb bd0d 0ebc fb82 a4bc
00000120: bd0d 0f3c de29 5fbb fc55 e6bb 5ddf ca3b
00000130: 688b 79ba cbcd 053b a4ca 593c d304 243a
00000140: f0b8 e83a 89cd 933c d0bd 85bb d879 46bc
00000150: 96e9 bebb 017c a23a fab6 09ba b144 39bb
00000160: 5b27 f43b 9d4e 7d3c 6b1f b7bb 3beb e7bb
00000170: 0239 043c 76c2 503c da71 32bc d6ee 1e3c
00000180: 82aa 06bc 7832 be3b ee85 e0b7 b7f0 bc3b
00000190: 8ba5 a23a 6027 e93b d155 2cbc c7ee 573a
000001a0: 5623 8ebb f4bc 843a ff75 fc3b 4549 c53b
000001b0: d41b e73a cbf8 a6bb 21d6 6d3b 5e22 5fb9
000001c0: 07b1 9fba 7b5b 51bb 6f0d f83b a502 d4bb
000001d0: 10e8 a0b9 4b21 7d3b d8a7 b8ba fadc 0bbc
000001e0: 89be 113b 1232 1d3c 0379 9ebb def1 303c
000001f0: 44b8 7eba cc2e 7bba 0791 853b 2519 7a3b
00000200: e35e 753c be2d 8d3b fe73 fbba 5b7a 163b
00000210: 0d36 d638 0cd6 6b3a c5f4 93bc ce41 bf39
00000220: a433 2e3a 131f 013c 48fb 4f3c 95b1 0bbc
00000230: 7aa1 e5b9 e4e4 fa3a 2b7b 8fbb 8c70 1f3c
00000240: f045 63bc 8422 423b dbbb 16bc 8030 f03a
00000250: 184d c0bb a842 223b ed83 a1bb 46be 84bc
00000260: 82fb b03a d422 a4bc d13c 65bb 8b6d 7bba
00000270: 79c5 20bc 28a4 023c 2dd3 fe3b f76f 843b
00000280: 3300 30bc aba0 d23b 8b6b 9f3b 9d87 05bb
00000290: 8704 54bb a865 5bbc ab43 eb3b 5d18 7abb
000002a0: ac4d 5d3b 980d efbb 5043 d7ba 0c50 b3bb
000002b0: 6998 6a3c 6b23 e3ba 7326 81ba 018a a839
000002c0: 0adc a0bb e77c 5cbc 956c aa3a 9dc8 ebbb
000002d0: 1a29 f63a c9eb 3dbc 177b 5e3b 9aa5 31bc
000002e0: 2b61 5e3b 7766 e23b 92db 6bbc 226b a4bc
000002f0: d1d9 bc3b 2505 273c 0cbd 86bc b86e 1e3c
00000300: 4473 89bb 18dc f4bb df09 16bb 86e9 d93b
00000310: cdef 6fbb 7010 213c 468f 83bb 2bc9 103b
00000320: 8c9e e8ba 7dc6 33bc 06af 163c 3c1b 30bb
00000330: e960 033c 6360 91ba ebc0 783b 5ebb 183a
00000340: 7d06 64ba 00fb ba3b d0a0 1a3c 9342 24bb
00000350: 0bf9 01bc 1239 e0bb 7157 98bb aafd b3bb
00000360: 9162 39bc b2fb 62bc 1cd7 733b 3eb1 8d39
00000370: 030a 72bb 8a84 cf3a c5fb ef3b 40d5 98ba
00000380: 5c68 39bb b040 423c 0f4b 3cbc ef6d b0bb
00000390: 6a05 3abc da16 083c 7c31 173c 28d7 633c
000003a0: dec2 1dbc c3e8 c03b 684c 93bb cef6 85bb
000003b0: 8760 1dbb 98e5 a83c c294 adba 3f76 273b
000003c0: 4bc7 923b 5c7c 8c3c 4c64 383b e1c1 4b3c
000003d0: 645f 4bbc 0ac8 afbb ecfe 31bc 364c 47bb
000003e0: d712 273b 99f1 30bc 52c7 ff3a f755 ed3b
000003f0: de6e afbc 72a4 b1bb 9ae4 52bc 0790 a2ba
0.0053026173 0.012209197 -0.0054904944 -0.00077280914 0.0062472066 -0.003901353 -0.0040278113 -0.0040650666
-0.0031359296 0.0038362928 0.0060123424 -0.001222406 -0.0040399632 -0.004073766 -0.0042795483 0.0019513884
-0.00011581213 -0.0019837248 -0.0049197054 0.008904353 0.0029865366 0.0042014234 0.002682776 0.0052026585
-0.00039448726 -0.0024616765 0.0137102045 -0.0018110238 0.0062051406 0.005930559 0.014487717 0.008537506
-0.0034773177 -0.0004675378 -0.009045944 -0.01981432 -0.0049418923 0.001347795 -0.0120293945 0.014822968
0.00787521 0.006925311 0.004566957 0.004505015 -0.00024008768 0.0041575306 0.012829636 -0.0007474785
0.0052237413 0.0061039617 -0.00049744267 -0.002370104 -0.004417805 0.008194216 0.007511193 0.0017878069
0.0016344953 0.00028046538 -0.0064072004 -0.0007647685 -0.002228589 0.0007279877 -0.002713699 -0.0042268536
0.006598829 -0.012563688 -0.008007163 -0.0038657193 0.009357922 -0.0061768587 -0.008670268 -0.020081988
0.008731303 -0.0034052054 -0.007029293 0.0061911778 -0.00095193693 0.0020416852 0.013292942 0.00062568224
0.0017755311 0.018042343 -0.0040814653 -0.012114011 -0.0058261855 0.0012396575 -0.0005253401 -0.0028269703
0.0074509806 0.015460637 -0.005588462 -0.007077602 0.008070232 0.012741676 -0.010891402 0.009700498
-0.008219363 0.005804356 -2.6765247e-05 0.005766 0.0012408955 0.0071152896 -0.010518507 0.000823718
-0.0043377085 0.0010127113 0.007704496 0.0060206973 0.0017632195 -0.0050955764 0.003629096 -0.0002127974
-0.0012183496 -0.0031945396 0.007569961 -0.006470042 -0.00030690478 0.003862458 -0.0014088107 -0.008536572
0.0022238812 0.009594457 -0.004836203 0.010799853 -0.0009716789 -0.00095818634 0.0040761265 0.003816196
0.014976236 0.0043084314 -0.0019184349 0.0022961113 0.00010214383 0.0008996434 -0.018061051 0.00036479387
0.00066452683 0.007880944 0.012694187 -0.008526226 -0.00043798593 0.0019141701 -0.0043786964 0.009731423
-0.013871655 0.0029622624 -0.009200062 0.0018325001 -0.0058685653 0.0024758969 -0.004929057 -0.01620401
0.001350269 -0.020036139 -0.0034978876 -0.00095912133 -0.009812706 0.007973708 0.007776639 0.0040416676
-0.010742235 0.0064278445 0.004865115 -0.0020375021 -0.0032351331 -0.013390936 0.0071796975 -0.0038161494
0.003376822 -0.0072953217 -0.0016423259 -0.005472189 0.014318564 -0.0017329281 -0.0009853378 0.00032146278
-0.004909043 -0.013457513 0.0013002331 -0.007195546 0.001878056 -0.01159186 0.003394788 -0.010842705
0.0033932428 0.0069091874 -0.014395611 -0.020070616 0.0057632704 0.010194098 -0.016447566 0.009669952
-0.004194649 -0.0074725263 -0.0022894067 0.0066501526 -0.0036611438 0.009830579 -0.0040148823 0.0022092562
-0.0017747446 -0.010972616 0.009197002 -0.0026871702 0.008018711 -0.0011091348 0.0037956785 0.000582626
-0.00086984766 0.005706191 0.009437755 -0.0025064095 -0.007932912 -0.006842741 -0.0046490957 -0.0054928856
-0.011315004 -0.013853954 0.0037207073 0.0002702567 -0.0036932237 0.0015832346 0.0073237144 -0.0011660233
-0.0028290963 0.011856243 -0.011492505 -0.005384199 -0.01135383 0.0083062295 0.009228107 0.013906278
-0.0096289795 0.0058871224 -0.0044951923 -0.0040882593 -0.0024013834 0.020617291 -0.0013243186 0.0025552658
0.004479324 0.017149143 0.0028135953 0.012436361 -0.01241288 -0.0053644227 -0.010864001 -0.0030410415
0.0025493407 -0.010799789 0.0019514358 0.007242914 -0.02141517 -0.0054212147 -0.012871886 -0.0012402543

action_model._discrete_distribution.branches.2.bias f4 [3]
00000000: c306 773b ea8a 3f3c 7032 86bc
0.003769324 0.011690835 -0.016381472
