results/B_1/Badminton/Badminton-1999776.onnx (onnx, 299422 bytes, 15 tensors)

discrete_act_size_vector f4 [1, 4]
00000000: 0000 4040 0000 4040 0000 4040 0000 0040
3.0 3.0 3.0 2.0

network_body.observation_encoder.processors.0.normalizer.running_mean f4 [11]
00000000: 5615 f1bd 16ab 52bd ebb7 073f 9433 da3e
00000010: 8b14 bd40 a573 74bd 6fcf efbe 2f47 1b3a
00000020: 9dbc 4dc0 f7fe 0f2e effe 132f
-0.11771648 -0.05143269 0.5301501 0.42617476 5.9087577 -0.0596806 -0.46837947 0.0005923388
-3.214637 3.274089e-11 1.3460143e-10

network_body._body_endoder.seq_layers.0.weight f4 [256, 11]
00000000: a293 503f 1be8 163e 35e8 f73e 01a7 b33d
00000010: 560d fa3c 398d 27bf 9e18 b13e c524 d2be
00000020: 741c b93e 272d 3b3d d288 833e 0df7 94be
00000030: 437e b7be 8bf8 c33e 8911 be3d 7fb1 6b3d
00000040: a946 6e3e a926 f33e 7c35 9cbe 076d f2be
00000050: fe65 743e b8a3 5ebe 828f b63d 2d6c 75be
00000060: 0447 803e 804d 0e3e 1934 3ebe 093c 06bf
00000070: 061c 89be 218f e5bd 1d58 4ebd 6892 0a3e
00000080: 896f 083f 3c35 a43e 0f7e 16bf 799d 923c
00000090: 4364 b53e 8fce 2cbf b77a 86be 2e6c 2a3f
000000a0: c3cf 7cbe 9bb0 7d3e 01be a5be b51c 143c
000000b0: 5b92 ad3d 0b76 39bf ad3d f4be 4cab b0be
000000c0: c824 39bf 481e 63be 6db9 003f 7222 103c
000000d0: b44f 85be 9409 643e 3754 973e 025f 0fbf
000000e0: 1d7a a33e 8767 0bbe 5017 353e a33b 67be
000000f0: c576 80be 4de1 f83e ba27 2abc c709 2abf
00000100: 8fdd ba3e 528b 5d3d 10e6 ddbe 64ec 473e
00000110: 9806 a63e 4a98 ddbd 598d 273d bddd d3bd
00000120: a60b b73d c2b9 953e 5e09 b5ba 6582 83bd
00000130: 51c0 ec3e a4ba 833e af4e 19be acbf be3e
00000140: 1f56 c63e 40f0 9f3e 5740 363f c3e0 babe
00000150: 4202 1a3e fa14 6a3f 2ed5 85bd 58f7 a43e
00000160: 4133 91bb 8b21 aa3e 27c6 df3e 6114 a53e
00000170: e00c 083e bc22 d3bc 5a40 8f3e abcd 163e
00000180: c1de 2abd efc0 1fbf bebc b7bd 27fe 7ebd
00000190: c23e 893e b26f 92bd 071a 4e3f c989 0abd
000001a0: 8b77 a33d 37e3 8dbe 9c11 5fbc 4e65 68bd
000001b0: f2a6 233e d712 303e 798b 003f 6ca6 8d3e
000001c0: acc8 913c 77ef 273e e3c7 ed3c 6483 af3d
000001d0: b53c de3d 95c3 cdbd 8a6c c5be 9af0 713d
000001e0: 38ad efbd 3f77 6fbe 9cce ad3e 6d25 8439
000001f0: e19d 0e3f cf25 b03c 73a1 c23d dbff 50be
00000200: 7c26 b33e 882f 2abe 2abb b7bd 1dae 5dbe
00000210: 8821 953e ce1f 87be d3dd c13e 3473 84bd
00000220: a5a6 a33e 12bd 1dbe 1368 1b3f ace2 c13d
00000230: 5118 78be d9ac e6bd 3339 f03d 2a78 c4bd
00000240: 9ec6 fabd 3f74 223e 8a86 803e ee00 29bf
00000250: 1d87 0f3d 9c39 0dbf 0e53 163f 8927 bc3d
00000260: cefa e73e 5e22 05be 7db3 3dbe 6bf2 5b3a
00000270: 78d0 8bbd c716 77be 5ef9 333f fee4 8dbe
00000280: 32df 793d 7624 d9be 3ff7 e8bc ab2d 8e3e
00000290: 2407 ecbe 07be a33e 0065 d53e 6413 cabb
000002a0: c2c1 913e 60dd 7cbc 7010 bf3d 3f57 8d3e
000002b0: a4fe 3e3e aaf1 8bbe 1ad4 06be 4ccd 203f
000002c0: a59b 00be 92c7 083f 4448 39bc 8541 dc3e
000002d0: f8e4 6a3b c145 993e 945f 32be f6e9 27be
000002e0: 9586 223d bffa abbd f281 33be 51ec 763e
000002f0: df28 3e3d eb67 a7be 017f f2bc 7b37 97be
00000300: 06ab a93d 0058 6b3e 6ea5 04be deae 13be
00000310: e0c3 353e 3f94 ffbd 1b9d bd3e c24f 8dbe
00000320: 6ef8 71bd a70c 473e a7e3 a6bd 6a91 08be
00000330: b41c a13e 60b8 833d 51ae fa3c f503 923d
00000340: a94b 8e3e d40a 1f3e 1cbe 02bc bf56 223e
00000350: 5b48 163e c739 e83d 1158 62bc 38d6 aa3c
00000360: 6de6 233f 193b f0bd 75af c5bb 82e1 97bd
00000370: 3e0a 863b 69a7 d5be 6adb dabe eefb c8bd
00000380: ece6 c43e 20fc b53d 8a66 b3bd 3b0e 5e3e
00000390: 1cd8 ab3d a562 67bd 1e9c 103d 548a 013f
000003a0: dcbc 13be dd60 e6bd d40d c73e f68b 9c3e
000003b0: 8eea 743e bb6e ab3c 6953 93bd 10f4 383e
000003c0: 672f ba3d 4533 5dbe a3d1 43bd 19fd 00bd
000003d0: ecf3 5f3d dd4b a4be 0a94 723e 9b0b 23bc
000003e0: c6d4 e93e 1f93 cabe 417d 7fbe c3dd 12bf
000003f0: 53b1 f8be 3817 9abd dcff 263d eea7 c63e
0.8147527 0.14736979 0.48419347 0.08772088 0.030523937 -0.65449864 0.34589094 -0.41043678
0.3615452 0.045697358 0.25690323 -0.29094735 -0.35838518 0.3827556 0.09280688 0.05754232
0.23269142 0.47490433 -0.30509555 -0.47348806 0.23867032 -0.21742141 0.08914091 -0.23967047
0.2505418 0.13896751 -0.18574561 -0.52435356 -0.26779193 -0.1120894 -0.050377 0.13532412
0.5329519 0.32071865 -0.587861 0.017897354 0.35428056 -0.67502683 -0.262655 0.6657132
-0.2468863 0.24774401 -0.32371524 0.009040047 0.08475181 -0.72445744 -0.47703305 -0.3450569
-0.7232175 -0.2217952 0.5028294 0.008797275 -0.2603737 0.22269279 0.29556438 -0.56004345
0.31929103 -0.13613711 0.17684674 -0.22581343 -0.25090614 0.4860939 -0.010385448 -0.6642117
0.3649716 0.054087944 -0.43339586 0.1952377 0.32426906 -0.108200625 0.040906284 -0.103450276
0.08937769 0.29243284 -0.0013811996 -0.06421355 0.46240476 0.25728333 -0.14971422 0.3725561
0.3873758 0.31237984 0.71191925 -0.36499605 0.15039924 0.9143826 -0.065348014 0.32219958
-0.004431159 0.33228716 0.43705866 0.3224211 0.13286161 -0.025773399 0.27978784 0.14726894
-0.04171634 -0.6240377 -0.089715466 -0.062254097 0.26805693 -0.071502104 0.80508465 -0.03382281
0.079817854 -0.27712414 -0.013615038 -0.056737237 0.15981653 0.17194687 0.5021282 0.27666032
0.017795883 0.16399942 0.029025977 0.08569983 0.10851423 -0.1004707 -0.3855937 0.059067346
-0.11702961 -0.23385333 0.33946693 0.00025204886 0.55709654 0.021502404 0.0950345 -0.20410101
0.349903 -0.16619694 -0.089712456 -0.2164845 0.29127145 -0.26391453 0.3786455 -0.06467286
0.31963077 -0.15404156 0.6070568 0.09467062 -0.24228026 -0.11263437 0.1172966 -0.09593232
-0.122449145 0.15864657 0.25102645 -0.66017044 0.035040963 -0.5516603 0.5872048 0.09187228
0.45308536 -0.13001391 -0.185255 0.000839031 -0.06826872 -0.24129783 0.7030238 -0.2771377
0.06100387 -0.4241063 -0.028438209 0.27769217 -0.46099198 0.31980917 0.4167862 -0.0061668623
0.28468138 -0.015433639 0.09329307 0.27605626 0.18651825 -0.27332813 -0.13166848 0.6281326
-0.12559374 0.5342952 -0.011308733 0.43018737 0.0035842042 0.2993603 -0.17419273 -0.16397843
0.03967913 -0.083974354 -0.17530039 0.24113585 0.046425696 -0.3269647 -0.029601576 -0.29534516
0.08284573 0.22982788 -0.12953731 -0.14422175 0.17750502 -0.124794476 0.37033924 -0.27599913
-0.05907481 0.1943842 -0.0814889 -0.13336721 0.3146721 0.06431651 0.030600699 0.07129661
0.277921 0.15531474 -0.007979896 0.15853404 0.14676039 0.11339145 -0.013814942 0.0208541
0.64023477 -0.11730022 -0.006032879 -0.07416059 0.0040905764 -0.41729286 -0.42745525 -0.09813677
0.3845743 0.0888598 -0.08759792 0.21685116 0.08390829 -0.05649056 0.035305135 0.50601697
-0.14427513 -0.11248944 0.38877738 0.30575532 0.239176 0.020926824 -0.071936436 0.18061852
0.090910725 -0.21601589 -0.047807347 -0.031491373 0.05467598 -0.3208913 0.23689285 -0.009951497
0.45670146 -0.3956537 -0.24950124 -0.5736963 -0.48572788 -0.0752396 0.04077135 0.38799995

network_body._body_endoder.seq_layers.0.bias f4 [256]
00000000: 9f91 82bb 2158 fd3c 3e82 6f3b 4f95 e13c
00000010: 6037 903a bff2 313c 0261 8bbc dcc2 3a3c
00000020: 3a26 3f3c 6d78 903c 2d2d 57bc 71f2 353d
00000030: adb9 fc3c 996d 9c3c 4a8b 5e3c 32f1 aabc
00000040: e667 103d d907 34bb 8e02 1b3c 2a51 99bb
00000050: 4392 823a 729d cf3c 22b9 c33b 8a17 b33c
00000060: 55b7 833c ad86 1b3d 2470 d93a f540 1b3c
00000070: 5627 2c3d b879 383c 664e c33b 833a 9f3b
00000080: 925b a63b 9a0c ac3c 545e 183c 8d1b 523b
00000090: d59c 79bb 84dc b03c 3c8d 193c fed2 1dbc
000000a0: 9eb6 ae3a dd95 fcbb 0215 b73c 0c7f 90b6
000000b0: 9543 923c b163 cc3b 74e0 b1bc 41c2 9fbb
000000c0: be70 e03c 8356 0fbc 6a23 c13b f82a 24bc
000000d0: 1d24 8ebb 8ab1 0abc c6c5 913b 731a 99bc
000000e0: 017d b9bc c2e4 4ebc 6547 683b 490a 093c
000000f0: cf19 6a3c a928 5d3d f05a 66bc 6966 6f3c
00000100: 579f 47ba d598 8bbc 0300 173d 285f 4a3b
00000110: eb83 83bc 7ef3 a13c 1811 5bbc 3403 393c
00000120: 9645 9dbc 3462 173a 8819 123d c5a6 663d
00000130: 569f 74bc 3694 a83b 416d 68bb c466 ca3b
00000140: 17d3 e53c 0062 613c 6e06 6a3a a144 4ebc
00000150: 7108 48bc 79a5 1b3c 3edb b8bc 5891 8f3c
00000160: ed26 0b3d 96f6 6839 92c4 323c 8ff8 06ba
00000170: 3722 fdba 0556 113c f6a1 39bb ee03 673c
00000180: dec6 a93c 2c6a d73b d651 803c fce1 3d3c
00000190: 7e3a 1ebb 9989 463c 1601 6a3c 926e a9bb
000001a0: d58c 72bb a999 9f3c 73e6 87bb c4ba 85ba
000001b0: bc7c 9dbb f86d d43b 2eda 8e3c 5d06 f9bb
000001c0: f1fc 793c 8583 423c fd88 ff3c 09ae 1c3d
000001d0: 60a0 c03c bd21 1b3c 4845 2a3c 62ae ad3c
000001e0: c005 b4bb 2751 9a3c 0303 7dbc e207 75bc
000001f0: 6079 05bc 11dc e7bb ca9a 11bc e1e1 e53c
00000200: aceb 523c a55d 58bb aa65 1f3b bfeb c53c
00000210: 92de c6b9 836f 63bc d154 b33c ec65 a3bb
00000220: 450a 8f3c 462a 02ba 5be8 7dbc e2c0 99b7
00000230: 083c 4c39 b0aa c1ba aacb babb 0b9d 003d
00000240: 9d41 3a3c ed1e 753c 0f6c 663c 5ae9 7d3c
00000250: 4699 3c3c 532b 6cbc 426f 823c da67 9139
00000260: 91d8 f4bb f592 92bc d393 d53b b43f c33b
00000270: ab75 20bc cd35 8dbb 8f00 74bb 87fa 0abb
00000280: 3263 70bb a5a5 2c3b 9c1f a03c cf3c a83c
00000290: 1577 af3c 6cf2 ff3c 5e8d 2fba 3c9b 9f3c
000002a0: 7238 da3c 9669 f33c 4744 b43c c86f d83c
000002b0: 814b 35bc 6793 ad3c cb99 5b3c 2431 213c
000002c0: a2f9 963c 9dc3 fabc f813 f23b c9b0 e5ba
000002d0: 6a98 81bc 573c 793a 514e 053b ca85 613c
000002e0: 497d 1c3d 3d4c 27bc a1d6 38bc 3611 60bc
000002f0: 2ebb 073d e1e7 bbbc fdd0 8b3c d592 8a3c
00000300: a845 74bb d3f8 eb3b bda8 72bc 1ad1 d93b
00000310: 012a 2e3c 469b 07bc 79e7 01bc e686 df3c
00000320: 5ed7 f73c cead b63a b444 823c 5faf 0d3c
00000330: cf38 2f3d 687c bd3c 7d02 b73b dfb3 293c
00000340: c466 d83c ec67 513c bf82 983c 10ae b53a
00000350: 56d9 2cbc e960 6b3c c3e6 793c 68d5 ea3c
00000360: 4ddc 093d 55f9 9f3c 36bd 993b efc4 70bc
00000370: e7c1 6f3c 000b d13c e001 00bc 3241 ed3b
00000380: 1058 853b 3a2f c4bc d06d cd3c 9c6e afbb
00000390: 5ad3 d7bc a0db b537 54b2 e33b 1029 40bc
000003a0: 7cae ee3c ea5b 153b 665e 8ebb ed5a 4a3c
000003b0: 384b 013d 8f9e 2bbc 496d 113d 66d6 1cbc
000003c0: 4cde c43c 8afe 54bb 4507 d53c 35b8 023d
000003d0: 12fb 46bc 8a3b 38ba e865 6a3c 5478 643c
000003e0: bda3 d93c 89a9 d53c c779 c53c b4a6 aebb
000003f0: 72ae 773c 87e2 313c 779c 893a d1db 2e3c
-0.0039846445 0.030925812 0.0036546136 0.027537016 0.0011002831 0.010861098 -0.01701403 0.011398997
0.011666829 0.017635548 -0.013133329 0.044420663 0.030850256 0.019095229 0.013583014 -0.020866964
0.035255335 -0.0027470498 0.009461058 -0.004678865 0.0009961802 0.02534363 0.0059729973 0.02186181
0.01607863 0.037970234 0.0016589207 0.009475936 0.0420297 0.011259489 0.0059602736 0.00485927
0.005076834 0.021002103 0.009299833 0.0032059879 -0.0038087864 0.021589525 0.009372052 -0.009632824
0.0013329571 -0.007708295 0.022348884 -4.3063246e-06 0.017854491 0.00623747 -0.021713473 -0.004875452
0.02739751 -0.008748653 0.0058941143 -0.01002001 -0.004337801 -0.00846518 0.0044486253 -0.01868937
-0.022642614 -0.012627782 0.0035442945 0.008364269 0.01428838 0.053993855 -0.014059767 0.014611819
-0.0007614991 -0.01704065 0.036865246 0.0030879471 -0.016054114 0.019769426 -0.013370775 0.011292268
-0.01919822 0.0005774826 0.03566888 0.056311388 -0.014930567 0.0051446212 -0.003546551 0.0061768014
0.028054757 0.013756275 0.00089273497 -0.012589605 -0.012209044 0.009499901 -0.02256548 0.01752536
0.03397267 0.00022217105 0.010911124 -0.00051487325 -0.0019312565 0.008870606 -0.0028325296 0.014100058
0.02072471 0.006573936 0.015664022 0.011589523 -0.002414375 0.012117767 0.0142824855 -0.0051706517
-0.0037010212 0.01948245 -0.0041473447 -0.0010202755 -0.0048061293 0.006482836 0.01743802 -0.0075996355
0.01525806 0.011872177 0.03119325 0.03825191 0.023513973 0.009468493 0.0103924945 0.021201316
-0.0054938495 0.018837525 -0.015442613 -0.014955493 -0.008146614 -0.0070757945 -0.008887002 0.028061809
0.012873571 -0.00330148 0.002432207 0.024160264 -0.0003793133 -0.013881567 0.02189103 -0.0049865153
0.017460952 -0.00049654057 -0.015497292 -1.832884e-05 0.0001947732 -0.00147756 -0.005700548 0.031399768
0.0113681825 0.014960987 0.014063849 0.01549753 0.011511153 -0.014414626 0.015922192 0.0002773393
-0.007472106 -0.01789234 0.006517866 0.0059585217 -0.009793679 -0.004309392 -0.0037231778 -0.0021206455
-0.0036680219 0.002634385 0.019546323 0.020536808 0.021419087 0.031243525 -0.00066967856 0.019483201
0.026638243 0.029713433 0.022005213 0.026420489 -0.011065365 0.021188451 0.013403366 0.009838376
0.018429581 -0.030610854 0.0073876344 -0.0017524 -0.015819747 0.00095075875 0.002034087 0.013764808
0.03820542 -0.010211048 -0.01128164 -0.013675978 0.033137493 -0.022937717 0.017067427 0.016915718
-0.0037272964 0.007201293 -0.014810738 0.0066472413 0.010630132 -0.008276766 -0.007928723 0.027286004
0.030254062 0.0013937296 0.0159019 0.008647769 0.042778786 0.02313061 0.0055850134 0.010357826
0.02641619 0.012781125 0.018617032 0.0013861079 -0.010549864 0.014366367 0.015252772 0.028666213
0.03365736 0.01952807 0.004691745 -0.01469539 0.014633632 0.02551794 -0.007812947 0.007240438
0.0040693358 -0.0239483 0.025076777 -0.005353762 -0.026345897 2.1679152e-05 0.0069487486 -0.01172854
0.029135935 0.002279038 -0.0043447493 0.01235078 0.031565875 -0.010474815 0.035504613 -0.009572601
0.02403178 -0.003250035 0.026004443 0.031913955 -0.012144821 -0.0007027915 0.014306523 0.013944704
0.026567334 0.026081817 0.02410592 -0.005329931 0.015117275 0.010857231 0.0010498901 0.0106725255

network_body._body_endoder.seq_layers.2.weight f4 [256, 256]
00000000: cc0b 13bc 391f 50be 2823 093d 1422 4a3c
00000010: 8580 0d3b 2cda a83d 4f15 16bd c20c 513d
00000020: 3ebc ad3d d1c9 59bd f05d 8abc c3a5 a9bd
00000030: 33ee ff3c bc8c 7d3d e866 853d d488 a03d
00000040: f2dc 91bc 2f8b 75bc 04f3 bfb9 6166 35bd
00000050: 4006 03be a390 153c bca4 043e eb18 6abd
00000060: 9851 823c a1af 913d d508 e1bd fc23 75bd
00000070: d2af f4bc be2d 553c d8a9 8ebc 780a 56bd
00000080: 61e2 61bc 0ab7 7dbd d238 973d 89d8 a6bd
00000090: 4a69 8fbd 6cde 933c 2308 153d 4116 1f3d
000000a0: dcf8 c03d 6f71 46bd 1567 afbb 92c4 fabd
000000b0: 5171 cfbd 772d ad3b c25e eb3d eca7 6e3d
000000c0: 4181 913d 39be 50bd 4ce9 1fbc 88f9 093c
000000d0: be24 d1bd a618 f2bc d404 62ba 4f4a c4bc
000000e0: 0ffc bbbb 6477 5e3b dce9 913d 27bd 033d
000000f0: 747a 2abd 7af6 be3b 669e 8a3d b9b0 abbd
00000100: 9d24 55bd 7f58 15bd 4bdc 7cbd 8cac 5bbd
00000110: a48f a23c 45ff 603d 743b aebd ec2d 283d
00000120: 6f4f 9c3d cdf5 4dbc 9f2b 9d3d 2587 0c3d
00000130: 67da 26bc 2a1b 24bd c9a9 afbd 62b6 b8bc
00000140: 61aa 12bd 9eb0 b739 184b ac3c 4733 323c
00000150: e0f9 e63d a369 783d d230 46bc 7aa1 d33d
00000160: ba9c 073c 5f29 503d 0360 173d adae 833c
00000170: e11c 33bc 7ec0 4b3d 28d4 60bc bfdf a53d
00000180: 5162 a6bd 042c c33b 0401 743b 0cab ac3b
00000190: c92c 403c fe02 963d a720 913d eaef c33d
000001a0: 0902 c8bb a349 c13c f151 dd3a 75ae a9bd
000001b0: 0c60 21bd 8d48 9ebd dd63 c73d 1bf1 cb3d
000001c0: a7fd 34bc a6de 873d 2771 0f3e 6af1 393d
000001d0: fcc9 a4bd a769 9cbd 3c42 20bd 3f7b ee3b
000001e0: 7e45 cfbd 49b2 91bd 4ec2 7d3d 5372 513d
000001f0: da7e cf3c e326 5dbd 6c55 a0bd f27f 9abd
00000200: eab6 d63d b4de acbc fab6 513c 20fa 84bd
00000210: 785f b0bd 3fc9 c4bd d202 45bc 97ce bdbd
00000220: bc44 a3bd c093 853d bac2 06be c57f cdbc
00000230: 082d 3d3d 3f00 763d 70ec 3bbc 5f48 a33c
00000240: f963 2ebd add9 13bc cc03 223c e773 3bba
00000250: e420 23bc 565d 5ebc 68ec 883c 800a a2bc
00000260: b6d1 48bc ec8b be3c e9db cfbc f595 8c3d
00000270: 6172 1e3d 080a c9bc cec8 ce3d ee86 6abd
00000280: ef18 483c 689f 963c 772e ac3b e11d 8b3d
00000290: 865f b23d 4afc b6bd 4eb2 b0bd 6c74 1bbd
000002a0: 5ce4 763c 2beb 863d aaac 2bbd b5b3 763d
000002b0: a07b 8f3d f7d2 4fbc 1f77 18bd 5053 16b9
000002c0: d50f 0a3e 7f77 dabb 6813 43bc 882a fe3c
000002d0: 178c 40bd 294c 373d 32ba 72bd 8954 ae3d
000002e0: 342d af3c d1e8 5b3d af8e 2abd 7ec2 1c3d
000002f0: 0453 33bd 8919 84bb bf10 8dbd a6a6 a6bd
00000300: 61e9 ab3c 685a d9b9 d397 e6bd db55 d3bd
00000310: 2ff3 c5bd d3a1 76bd f1af f2bb 7594 d1ba
00000320: c483 8dbd 4f13 bb3d e0f1 9f3c 998a 853d
00000330: 6295 503d 1ab2 183d b848 afba 0d74 043d
00000340: 70f0 8abd b453 033d a932 3b3d 2743 00bd
00000350: 6f23 6cbd 821d 003d 06c4 dfbc 1942 43bb
00000360: 1781 b1bd f439 fcbd b880 2cbd d0a0 9dbd
00000370: e48a 233b 4219 153e 91de 6a3d fa15 063d
00000380: 6d63 ba3d 376f 343c 799b 8abc ebd9 5b3e
00000390: 5949 b7bc 6fd8 f7bd 2a29 043e f205 3c3e
000003a0: 8634 a3bd f39b 343d ee13 8ebd 7da9 97bc
000003b0: a838 a93c da0d 823d ea42 e53d c31c f73c
000003c0: 185e 713b f2b9 7ebd 2e0c 673d 52c5 e83c
000003d0: 8e07 6abd eac5 cd3c 0b50 6f3a 66a4 0a3e
000003e0: 5405 aebd 09d4 4e3d 9309 6c3d 6d72 8a3d
000003f0: 6f62 3ebd 2139 2dbd ae5f bf3c a249 d1bd
-0.008974981 -0.2032441 0.033480793 0.012337226 0.0021591496 0.08244738 -0.036641415 0.051037557
0.0848317 -0.053170983 -0.016890496 -0.0828357 0.031241512 0.061901793 0.065137684 0.07838598
-0.01780555 -0.014986797 -0.0003661142 -0.04428709 -0.12795353 0.009128722 0.12953466 -0.05715267
0.015908048 0.07113577 -0.10988013 -0.05984877 -0.029868994 0.013011394 -0.017414972 -0.052256078
-0.013786883 -0.061942138 0.073838845 -0.081467696 -0.07002504 0.018050395 0.036384713 0.038839582
0.09422466 -0.048448022 -0.0053528645 -0.12244524 -0.10129035 0.005284961 0.11492683 0.05826561
0.07104731 -0.05096266 -0.009760212 0.008421309 -0.10212086 -0.029552769 -0.0008621935 -0.023961214
-0.005736835 0.0033945674 0.07124683 0.03216281 -0.041620687 0.005827722 0.06768493 -0.083833165
-0.05203687 -0.03646135 -0.061733525 -0.05363135 0.019843884 0.054930944 -0.085074335 0.04105942
0.07632338 -0.0125708105 0.07674336 0.03430857 -0.010183907 -0.04006497 -0.08577306 -0.022547904
-0.035807017 0.0003503607 0.021031901 0.010876483 0.112781286 0.060647618 -0.012096601 0.103335336
0.008277113 0.050820705 0.0369568 0.016074503 -0.010932178 0.04974412 -0.013722457 0.08099317
-0.08124221 0.005956175 0.003723205 0.005269414 0.011729428 0.073247895 0.07086306 0.09567244
-0.0061037582 0.023594683 0.0016885382 -0.08285228 -0.039398238 -0.07728682 0.09735844 0.099580966
-0.011046804 0.06634264 0.14008008 0.045396246 -0.08046338 -0.07637339 -0.039125666 0.0072778757
-0.101206765 -0.07114083 0.06195288 0.05113442 0.025329042 -0.053992163 -0.07828793 -0.07543935
0.10484107 -0.021102287 0.012799973 -0.0649302 -0.08611959 -0.09608697 -0.012024598 -0.092679195
-0.079720944 0.06522322 -0.1316022 -0.02508534 0.046185523 0.06005883 -0.011469945 0.01993197
-0.04257581 -0.009024066 0.009888601 -0.00071507547 -0.009956572 -0.013572058 0.01671429 -0.019780397
-0.01225703 0.02326008 -0.025373416 0.068645395 0.0386833 -0.024540916 0.10096894 -0.057257585
0.012212976 0.018386558 0.0052545625 0.06792808 0.08709626 -0.08934839 -0.08627759 -0.037952825
0.015069094 0.065878235 -0.041912712 0.060229976 0.070060015 -0.012684575 -0.037222978 -0.00014336151
0.13482602 -0.006667077 -0.011906482 0.03102614 -0.0470086 0.044750366 -0.0592596 0.085122176
0.02138386 0.053688828 -0.04163998 0.03827142 -0.04378034 -0.0040313643 -0.0688796 -0.081372544
0.020985307 -0.00041456823 -0.11259427 -0.1031911 -0.09665524 -0.06021292 -0.0074062278 -0.0015989678
-0.06909898 0.09134542 0.019524515 0.06520576 0.050923713 0.037279226 -0.0013373112 0.032337237
-0.06784141 0.032062247 0.04570261 -0.03131404 -0.05765098 0.03127814 -0.027315151 -0.0029794036
-0.086672 -0.12315741 -0.042114943 -0.07696688 0.0024954611 0.14560416 0.057341162 0.032735802
0.09100995 0.011012844 -0.016919838 0.21469848 -0.022373842 -0.12101828 0.12906328 0.18361643
-0.079690024 0.044094037 -0.06937395 -0.018513435 0.020656899 0.06350298 0.111944035 0.030165082
0.0036829766 -0.06218905 0.0564081 0.028414402 -0.05713611 0.025118787 0.0009129054 0.13539276
-0.0849711 0.05049518 0.05762632 0.06760106 -0.046480592 -0.04229081 0.023361053 -0.102191225

network_body._body_endoder.seq_layers.2.bias f4 [256]
00000000: 83fa c13b 1db2 90bc ec44 e03c 01bf 4c3c
00000010: e035 de3c ca47 343c de2d 0b3c 220d acbc
00000020: a2ed 8abb d6a3 bc3a 9c08 3c3c 81b5 2f3c
00000030: cd96 543c 0e9f 3d3c 194c 473d cb56 953c
00000040: 888f 48bc 6c75 debc c882 5f3c 3aa6 97bb
00000050: 0f4a 01bc 4363 a4bb b81a 253d fada af3c
00000060: 83d6 933a 6240 adbb 6335 a7bc 7b50 21bc
00000070: 729e 09bc 0661 5fbb f58b 863c 37fd 6f3b
00000080: e68d c8b9 7fa6 26bc a434 5f3c 82a2 1e3c
00000090: f69b 883a 3a66 a1bc c5e1 babc 4bcd 30bb
000000a0: 3616 c4bc 131e afbc ef35 873c ed2c 67bc
000000b0: 9a8e 963c 0cfe a539 8311 54bb 1948 9fb9
000000c0: 0b58 c13c f60f 773c e380 5abc 9b46 cb3c
000000d0: 28e0 2c3c ae2e 083c e03d ef3a 1cec e83c
000000e0: 9011 17bc 17d4 c23c cad6 6dbc 7e18 9dba
000000f0: cdd4 8f3c c96d 9f3c 3fe5 863c b629 23bc
00000100: 23e1 9e3b cdeb 8cbc 5691 a9bc aef5 ccbc
00000110: d801 033c d4e3 e1b9 78a2 3fbb e0e7 833c
00000120: 90bd 733c d64a 5ebc 2847 2fbb 4cbd 9f3c
00000130: 0e55 933c 7501 b43c 2b45 f23a 97bc c63c
00000140: 17ec 4bbc 96d9 16bc 4648 c43b 786d ac3c
00000150: 5059 3c3c cbd7 7f3c e89e 0cbb b624 4abb
00000160: 4b5f eebb 6bd8 dd3b a0f6 823c dafc be3c
00000170: 1d8e d83b 8f57 67bc d074 f8b9 ef7b 21bb
00000180: 2931 fd3b 267e 59ba 3197 333c 1e87 503c
00000190: 196e ea3c debc 58ba 49ea 8e3b 9e6a f13b
000001a0: ece4 623c fa7f d53c 52ca 023d b636 0f3d
000001b0: 2dc5 66bb 7f16 b83c 2f0f b03b e265 8e3c
000001c0: 3d82 90bc 18ad 4a3d a094 9b3c 0594 823b
000001d0: 2046 373c 4135 d03c e404 b73b 15e2 8a3c
000001e0: 0bfa 943b 0b69 b23b 3d46 07bc 439d 6ebb
000001f0: 1914 d53b e23f d73b 4a4c d43b c594 b53c
00000200: 1b21 5cbc c711 953b d073 5d3c b5e7 823c
00000210: 8d96 94bc 9072 f439 da0b cb3c 809c 76bc
00000220: f639 8f3c 86fd 173c 0e04 db3b 5634 2abc
00000230: 4ca2 343c ee56 613c fd54 7c3b c35e 18bc
00000240: 5d17 893c 9c3a 42bc 4659 07bc 1856 57bc
00000250: 8b46 b53c f89d 34ba 55ce 84bc c5d7 eb3b
00000260: 0834 8c39 b1a7 8abc 2e3f 7d3b dd03 003b
00000270: 7b7d 9f3c d665 113c aaad a6bc ad87 ed3b
00000280: bc41 07bd 3a6c cfbc f49d 793a 1ce2 f93b
00000290: fd37 65bc 5f25 873c 80b0 c7bb 25dd 7ebc
000002a0: dbe5 9bbb 5c5f dfbb e377 0bbc 9a3a 2bbb
000002b0: 7148 de3b e357 1b3c f014 1cbc 646b ca3c
000002c0: 246e 86bc 0b87 33bc e5af f9ba a9b0 70bb
000002d0: 373e 13bc 70c4 c03b 80b4 e7b8 20fa 94bb
000002e0: 592e 4c3c 5c4a 823c 40f4 c9bb c6e5 b6ba
000002f0: c4e0 803c 541c dd3c d6cd 56ba 0338 77bc
00000300: 5005 d3bb beab 67bc cdda 823c 4749 aa3c
00000310: b272 0a3c 18b6 303c 0c3d 953c 76c9 be3b
00000320: f8d7 c0bc 68d4 2d3b 7ecf 2d3d 0ace a63c
00000330: 0faf a13c fddd 97bc 43eb a63c be62 a03b
00000340: ee10 e43c fb74 d33c 18db 733c 9bff c43b
00000350: 1d58 5d3b 91fa dd3c f027 22bb 6d30 b73c
00000360: 0ccd 51bc e932 a1bc 7fa4 863c cac5 cb3a
00000370: 394f db3b 90b4 2f3c b7a5 99bb 806e 1e3c
00000380: 0222 6b3c 7ef7 363c ec7b b3bb 4957 353b
00000390: 2e2d 0bbb 1660 46bb 777b df3b 3c22 29bc
000003a0: 949a f7ba 10a9 3bbc da12 a7bc 72b0 fabb
000003b0: f5af 0f3a e174 913c ae6d 813c 8458 9a3c
000003c0: 36d9 e4bb c9fb 3bbc 2b90 5f3c 12a4 a83c
000003d0: c9d2 b6ba ef52 f1bb d29c 5abb 7b8b 21bc
000003e0: 3695 fa3b da08 f83c dd1c 963a 992d dabb
000003f0: cca7 023d 307a 8e3c bc79 cebc f5d4 e23c
0.005919756 -0.017663056 0.027376615 0.012496711 0.027125299 0.011003444 0.008494822 -0.021002356
-0.004239754 0.0014392089 0.011476662 0.010724426 0.012975407 0.011573566 0.048656557 0.018229863
-0.012241252 -0.0271556 0.0136420205 -0.00462797 -0.007891192 -0.0050167157 0.040308684 0.02146672
0.001127914 -0.005287216 -0.020411199 -0.009845848 -0.008399593 -0.003408493 0.016424159 0.0036619434
-0.00038252695 -0.010171532 0.01362339 0.0096823 0.0010422457 -0.019702066 -0.022812733 -0.0026977833
-0.023936372 -0.021376645 0.01650521 -0.014109832 0.018378545 0.00031660532 -0.003235907 -0.0003038056
0.023601552 0.015079489 -0.013336393 0.02481394 0.01055149 0.008311911 0.0018252693 0.028432898
-0.009220496 0.023782773 -0.014516542 -0.0011985449 0.017557526 0.01946153 0.016466735 -0.009958675
0.0048486157 -0.017202282 -0.020699184 -0.025019493 0.007996045 -0.0004308509 -0.0029241126 0.016101778
0.014876738 -0.013567647 -0.0026745293 0.019499443 0.017984893 0.021973351 0.0018483748 0.024259849
-0.012446425 -0.00920715 0.005990061 0.021048293 0.011495903 0.015615414 -0.002145702 -0.0030844635
-0.0072745434 0.006770184 0.01598674 0.023313928 0.006608738 -0.014119997 -0.00047389278 -0.002464052
0.0077268076 -0.00082966906 0.01096134 0.012727527 0.028616952 -0.00082678895 0.004361425 0.007367446
0.013848525 0.026062 0.03193123 0.034964286 -0.003521274 0.022471664 0.005372904 0.017382566
-0.017640227 0.04948148 0.018991768 0.0039849305 0.011186153 0.025416018 0.0055853 0.016953507
0.004546409 0.005444651 -0.008256492 -0.0036409653 0.00650264 0.0065688947 0.006478821 0.022165665
-0.013435627 0.0045492384 0.013516381 0.015979627 -0.018138194 0.00046624662 0.024785925 -0.015051961
0.017483693 0.009276753 0.006683833 -0.010388454 0.011025023 0.013753636 0.0038502805 -0.009299937
0.016734773 -0.011854794 -0.008261031 -0.013143085 0.022128364 -0.0006889994 -0.016211668 0.0071973526
0.00026741647 -0.016925665 0.0038642394 0.0019533553 0.019469013 0.008874377 -0.020346481 0.00724884
-0.033021674 -0.025320161 0.0009522133 0.0076258313 -0.013990399 0.016497312 -0.0060940385 -0.015555655
-0.0047576255 -0.0068167876 -0.00851247 -0.0026127459 0.006783538 0.009481403 -0.009526476 0.024709411
-0.016409941 -0.01095749 -0.0019049613 -0.0036726391 -0.008987001 0.005882792 -0.00011048559 -0.004546419
0.012462222 0.015904598 -0.00616315 -0.0013953976 0.015732177 0.026991047 -0.0008194124 -0.015089038
-0.0064398423 -0.014140068 0.015973473 0.020786894 0.008450197 0.010785602 0.018217586 0.005822356
-0.023540482 0.002652431 0.042434208 0.020361919 0.019736795 -0.01853847 0.020375853 0.0048945835
0.027840104 0.025812617 0.014883779 0.006011916 0.0033774443 0.027097018 -0.0024743043 0.022361958
-0.012805235 -0.019677596 0.01643586 0.0015546617 0.0066927937 0.010724202 -0.004688944 0.0096699
0.01435137 0.011167405 -0.005477419 0.0027670434 -0.0021236646 -0.0030269674 0.006820138 -0.0103231035
-0.0018890672 -0.011453882 -0.020394731 -0.0076504285 0.0005481237 0.017755928 0.01579937 0.018841036
-0.0069839014 -0.0114736045 0.013645212 0.020586047 -0.0013948317 -0.007364623 -0.0033357632 -0.009859915
0.007647182 0.030277658 0.0011452694 -0.0066582677 0.031898305 0.017392248 -0.025204532 0.027689436

action_model._discrete_distribution.branches.0.weight f4 [3, 256]
00000000: 2606 eabb 04dc f13b 4e40 20bc 7cb8 d93c
00000010: 1f69 74bc b542 583b 2392 0fbc ff56 8d3b
00000020: 0f9a 7dbb 3a85 823c a6d6 36bc 53db 303c
00000030: a965 04bb a652 3b3c 7b27 5fbc 4897 40bc
00000040: 2a03 3c3c 6647 343b ae8a a63c c98a 63bc
00000050: acf2 c8bb dc32 823c a508 343b 7941 12bc
00000060: 6484 07bc 251f 89bb a44b 73bc b742 9c3c
00000070: 356e f6b8 d722 933c 13b7 57bc 33b2 5b3c
00000080: 4779 8e3c 1af5 e739 c6c9 b6b9 c88d e93a
00000090: 6904 4ebb bd03 f63a 3b33 073c 901a 1a3c
000000a0: 4de8 0d3c 461c 4fbc 9db5 b93c dc78 373c
000000b0: eede 20bc 87fc 1d3b 5b90 49bc aa42 42bb
000000c0: ac95 f1ba 21dd a9bc 33f2 d1bb f671 863c
000000d0: df93 14bc 69da 13bb 8d26 963b 517a ccbc
000000e0: 065c 99bb c9f4 2ebc 4760 7f3c 0e6c c7bb
000000f0: bf37 623b ad41 2a3b eb7f e2bb b249 36bc
00000100: 9499 303c 3f3b af3c 8248 ae3b 3f64 893c
00000110: 4711 b03c 665a 3ebb 4349 933c c1ba 5bbb
00000120: b952 05bc 2158 4bbb 128b 393c 387d 1ebc
00000130: 84c9 6ebb a20e 74bc c33b 763c c93f 973c
00000140: 4d94 363c ab7e e53b e335 163c bab7 ecbb
00000150: 769d b8bb 9af1 e13b cf54 1e3a 11de 07bb
00000160: c00f ca3b c30c 653a 70b1 97bc feab 8bbb
00000170: 5204 bf3c f42a 153c 1655 56bc 89f5 563a
00000180: 66e4 99bb c6e0 df3a b0be 1c3c 54af 74bc
00000190: dd90 7e3b b312 b7bb 8f74 1cbb 90c7 47bb
000001a0: 24dc 82bc 79a9 93bc 2aa8 d5bb b338 cebb
000001b0: 026f 1ebb b67a 76bc 8b74 83bc f49a 0fbc
000001c0: 1f01 3ebc 18ac e7bb 9f00 b43a 0aac c7bc
000001d0: aad4 263c 3a67 1a3c 64d2 1c3c 9c1a c2ba
000001e0: ea08 f1bb 4b3a f8ba 6872 313b b800 ff3b
000001f0: 474b 393c 49c2 c9b9 3c54 60bc f8b9 b8ba
00000200: 6326 d33b d369 b8bb 41a2 3c3c f65d d1bc
00000210: 1ce5 4f3c 07be 793a ec3b 94bb 8ec3 1c3c
00000220: f5c4 403c 4df3 bcb9 3dc6 1fbc 6f0b 973c
00000230: cf3c 503b 2e29 ee3c 1791 8f3b 16fe 283b
00000240: eee3 3b3b fd3c 11bc 3ed2 023d 8206 a53a
00000250: 94fc c2bb 94fa 59bb 72b4 c43a 1e58 223c
00000260: 549d 963b 284b caba 03ae 00bc 4b47 533a
00000270: 41ac e33b b1db ebbb 5649 af39 349c 833c
00000280: e48a 54bb cf05 733b 01ea 36bb 0e5a aabb
00000290: 2523 7ebc ada3 d83b ceaa 8d3b 599a 64bc
000002a0: c6f4 3abb 12e8 2d3a 6609 5dbc 2864 d53b
000002b0: daf9 9f39 67db d4ba f704 02bc 5179 86bb
000002c0: 79d9 deba 0fc8 14ba 226e 033b 7bd0 1cbc
000002d0: b525 e33a 1099 44bb e6ae 1f3c 78ee e0b6
000002e0: d56f cc3a 2689 543b d3e6 173c 78ce 053c
000002f0: 8d3b e7bc 0daf c339 3276 363c 08e9 633c
00000300: b7fc 133c 86f2 183b 37eb 4b3a 9dcb 5bbb
00000310: 02a6 a83c 50de 8ebc 21a0 fb3a 506e d83b
00000320: 9f30 78bc 4a15 763b dcb0 3bbb f5ba e7bb
00000330: 87ed c039 4aea 1abc 27a4 6c3b 8347 873b
00000340: cac8 c03c 5c40 79bb 91ad 113b b93f 3ebb
00000350: 58b3 b4bb 897a 23bc 3400 cc3b 889d 64bb
00000360: eefd 2e38 a4a8 11bb e5e1 af3b 8eac 18bc
00000370: e842 30bc 3ddc 783c aafa abbb 6ef0 08bc
00000380: a7fb 61bc ae37 8e3a 3c57 93bc 3657 9c39
00000390: ec0e afbc 68a5 0ebc 7a39 51b9 580c 463c
000003a0: 16d4 d43b 5d57 dc3b e04b d03a 02c4 593a
000003b0: 52e0 143c 1400 1e3b 6f4c b9bb fe3e a83c
000003c0: 582f f4bb cb18 1b3c 08a2 a63a 528b cebb
000003d0: 41e3 273c 45f7 0dbc 2a16 a63a b109 2d3b
000003e0: 9677 38bc 65eb 3bbc 82c4 6dbb 8075 9f3c
000003f0: 0a47 c9bb 000c 0abc 743a f6ba 2047 fe3a
-0.007141846 0.0073809642 -0.009780956 0.026577227 -0.014917641 0.0032998745 -0.008762869 0.0043133493
-0.0038696562 0.015932668 -0.011159575 0.0107944785 -0.0020202196 0.011433279 -0.013620253 -0.011754818
0.011475364 0.0027508377 0.0203298 -0.013888069 -0.0061324444 0.015893392 0.0027470973 -0.008926743
-0.0082713105 -0.004184621 -0.014849577 0.01907478 -0.00011750722 0.017960949 -0.013166207 0.013409185
0.017391814 0.00044242368 -0.00034864078 0.0017818743 -0.0031435734 0.0018769425 0.00825196 0.009405747
0.008661342 -0.012641018 0.022669608 0.011198249 -0.009818776 0.0024106817 -0.012302483 -0.0029641786
-0.0018431447 -0.020735325 -0.006407046 0.016411763 -0.009068458 -0.0022560603 0.0045822323 -0.024960669
-0.0046801595 -0.0106784785 0.015586919 -0.006085879 0.003451809 0.0025979087 -0.0069122217 -0.011125969
0.010778803 0.021390555 0.005318702 0.016771434 0.021492613 -0.002904558 0.01797927 -0.0033528062
-0.008137398 -0.003102787 0.011324661 -0.009673409 -0.003643603 -0.014896067 0.015028897 0.018463032
0.011143756 0.0070036254 0.009168121 -0.0072240504 -0.005634005 0.006895256 0.0006039859 -0.0020731727
0.0061664283 0.00087375584 -0.018517226 -0.0042624464 0.02331749 0.009104479 -0.0130818095 0.000820004
-0.0046964167 0.0017080538 0.009566948 -0.01493438 0.003884367 -0.005586946 -0.0023873185 -0.0030483939
-0.015974112 -0.018025147 -0.006520291 -0.00629338 -0.0024175053 -0.015043905 -0.016046783 -0.008764971
-0.011596947 -0.0070700757 0.0013733095 -0.024374027 0.010182539 0.009424025 0.009571645 -0.0014808956
-0.007355799 -0.0018938271 0.0027076248 0.007782068 0.011309451 -0.0003848246 -0.013691958 -0.0014093509
0.006443785 -0.0056278496 0.011513294 -0.0255575 0.012688901 0.00095269125 -0.004523745 0.009568108
0.011765708 -0.00036039428 -0.0097518535 0.01843807 0.0031774526 0.02907237 0.0043813097 0.0025786213
0.0028669792 -0.008864638 0.031938784 0.001259044 -0.00595052 -0.0033260928 0.001500739 0.009908704
0.0045963917 -0.0015433775 -0.007853988 0.0008059635 0.0069480245 -0.00719782 0.0003343324 0.016065694
-0.0032431418 0.003708232 -0.0027910473 -0.0051987236 -0.015511309 0.0066113085 0.00432334 -0.013952815
-0.0028527244 0.00066340074 -0.01349101 0.0065121837 0.00030512997 -0.0016239703 -0.007935754 -0.0041038175
-0.0017002068 -0.0005675563 0.0020054658 -0.00957119 0.0017329963 -0.002999846 0.009746289 -6.7034816e-06
0.0015597293 0.003243038 0.009271341 0.008166902 -0.028226638 0.0003732372 0.011136578 0.013910539
0.00903242 0.0023337915 0.0007778885 -0.003353811 0.020586971 -0.017439991 0.0019197502 0.006604947
-0.015148311 0.003754931 -0.0028639352 -0.0070718476 0.00036798065 -0.009455273 0.0036108585 0.004128398
0.023533244 -0.0038032746 0.0022228698 -0.002902968 -0.0055145435 -0.009977945 0.00622561 -0.0034883935
4.1721323e-05 -0.0022225762 0.005367505 -0.009318484 -0.010758139 0.015189228 -0.0052483873 -0.008358104
-0.013792909 0.0010850334 -0.017985933 0.00029819616 -0.02136942 -0.008706428 -0.00019953205 0.012087904
0.006495009 0.0067242817 0.0015891753 0.00083071005 0.009086685 0.0024108933 -0.0056548635 0.02053785
-0.007451933 0.00946636 0.0012713084 -0.0063032294 0.010247053 -0.008664911 0.00126714 0.0026403482
-0.01125898 -0.011469697 -0.0036280458 0.019465208 -0.0061425017 -0.008425713 -0.0018785731 0.0019399859

action_model._discrete_distribution.branches.0.bias f4 [3]
00000000: 65f8 2dbc 1330 3a3c 9432 d4ba
-0.010618304 0.011364001 -0.001618939

action_model._discrete_distribution.branches.1.weight f4 [3, 256]
00000000: 59a4 13bc d14d a23c e452 cebc 0505 bdbc
00000010: 9953 c23a 520a c83c 4b59 87ba c14b 113c
00000020: fd63 9c3a 8acd 7ebc 1158 cb3b 7c39 96bc
00000030: 5978 373c 0f49 3939 44cc 95bc b27f 8bbb
00000040: cce1 e33b ae99 503b d3de bcbb cffa 233c
00000050: 1920 153a 6d47 a33c cfff 2dbd 0cb2 233c
00000060: 9794 3f3b 8a25 4d3c 4e5a 873b b9a8 d13b
00000070: 53f2 b53c 1d23 983a 279c 893c 258d 233a
00000080: 8204 063d 69c4 0a3c a79a 213c 42f3 db3b
00000090: 078f 113d e321 3fba 7560 a53c 585b 31bc
000000a0: 4245 dbba 85e6 11bc e189 15bd 1660 7d3c
000000b0: 4948 4fbc 39e9 083b 6c11 933c fad4 fe3b
000000c0: 219a 46bc 79fe 9abc 780b 153c 5f1b f5bc
000000d0: 5487 7aba 1753 e8bc 56da 5b3c 1266 09bc
000000e0: 97e2 943b 8a1c 96bb 1942 553b b857 ae3a
000000f0: 1adc bfbc 7bdb 17bc 0ab8 2f3b b3bc 94bb
00000100: 0c8b 9d3c dc52 2d3b d92c fc3b 684c dc3c
00000110: 5be3 273c 3182 4c3c f6a8 783c 3f2b a03c
00000120: 35a1 663b 67d6 783c 4ae4 dfbb e737 abbc
00000130: 0367 86bc 04f9 abbc 85ff 8ebc 9ae2 dabc
00000140: ea66 113c 3c1d 833a 32c0 e3bb c08a 8aba
00000150: c936 d5bb e944 a03b fe31 653c ae6d 533a
00000160: d5c8 80bc 7349 96bc 8b5a 02bc 7da5 703b
00000170: c9db c2b9 02c5 643c 494f 913c e318 05bc
00000180: 7075 7d3c 84dc 943b cb8c 943b 79d4 b5b9
00000190: f3a3 3fbc 0e34 91bb 5fc0 0e3c f7d1 6c3b
000001a0: bd0e 2dbc cd56 d3bc bc59 5fbd 13de 50bc
000001b0: 4a72 713b d465 ddbc a45c 8cb9 e168 37bb
000001c0: 08e5 8bbc 00ee febc 6203 14bd 285a 4f3b
000001d0: 7e24 ebbc 5c87 d2bc 083a 173c af55 0c3c
000001e0: e681 7bbb dcd8 0dbc f1a3 55bb 93db dabb
000001f0: c436 9c3a 5aa6 573c af40 903c 0507 37bc
00000200: b260 dfbb 0436 40bb 388c 4ebb cb45 793a
00000210: eeaf c13c 4041 f239 39b1 66bc 6ab3 933c
00000220: 3f5a 8d3c f2ac 233a 80cb d53b dbde 48bc
00000230: cbfd d6bb 494a c13c 2598 cd3c adee 6c3b
00000240: 4f0d afbc 2b56 ae3b 82ad 533c 9919 643b
00000250: 73d4 813a 60b1 ca3c e0c2 023a 6f8d 02bb
00000260: b364 663c 95a2 643b 4f00 003c 09f5 09bb
00000270: 72db 883b ab06 813b 5b11 8339 89b6 a33c
00000280: 41b1 023c 4e21 29bb 76d4 b33b b2a9 05bb
00000290: 0ce2 eab8 9412 e83b c26a 333c 2094 cdbb
000002a0: ac46 4b3c b507 373c 4757 3f3c ca93 a93b
000002b0: 3f71 3bbc ed30 403b b79b e33a a67d 0bbd
000002c0: d505 2a3c 57fc 55bb 8a45 883a 54d3 9f3c
000002d0: 6ea5 9f3b 5ee3 eebb 4cdc 173c f53a 88bb
000002e0: 2009 2a3a f7cf 71bc 2700 e43b 0afe 833c
000002f0: 589b d8bb 681a a1bc 8ab9 ce3c 6c26 853b
00000300: 7699 463a a87f 883c 5677 533c 7933 09bd
00000310: 3430 033c be9a d1bc 2abd fdbc 3f75 65bc
00000320: f407 0b3d 2c49 87bc 694f b7bc 57c2 5cbc
00000330: 296d e2bc ccef 953a b2e5 7c3c 6ecb ebbb
00000340: 0951 57bc 323c 743c 25aa 51bc 509a 2d3c
00000350: efdd 773c ecf8 eebc 964e 923b 6038 1fbc
00000360: 1b26 053c 0767 83bc a3ca 16bc f8df 743a
00000370: 8764 6cbc 3165 2bbc adf3 d83b 0319 d9bb
00000380: 907d 81bc fdd4 6c3b 321c ee3a eec4 c7ba
00000390: 6902 7cbc e1df fe3b 02f3 f6ba 26eb 1b3c
000003a0: 645c 4c3c 3d43 743c 2814 78bb dfe3 c2bb
000003b0: 4236 a3ba 8ef1 303c a1e6 23bb d8c3 a43b
000003c0: f1f2 823a 6e01 f93b c60c 89bc 6075 c1bb
000003d0: 74b8 103d f371 cc3b 28bc e63b 0a8f a33c
000003e0: e5c7 46bc 6a2f 03bb e9ca cfbb aa78 b43c
000003f0: 71e8 e6bc 483c a1bb 5d5e fc3b fa79 82bc
-0.0090113515 0.019812496 -0.02518601 -0.023073683 0.001482594 0.024418984 -0.0010326294 0.008868159
0.0011931654 -0.015551934 0.0062055667 -0.018337958 0.011198127 0.00017670191 -0.018285878 -0.004257166
0.0069544073 0.0031829881 -0.0057638674 0.010008528 0.0005688682 0.01993152 -0.042480286 0.00999118
0.0029232854 0.012521157 0.004130638 0.006398287 0.022210276 0.0011607144 0.016798092 0.0006238989
0.032719143 0.008469679 0.009863532 0.006712348 0.035536792 -0.00072911213 0.020187596 -0.010825001
-0.0016729014 -0.008905058 -0.036508445 0.015464803 -0.0126515115 0.0020890965 0.017952643 0.0077768536
-0.012121708 -0.01892017 0.009096973 -0.029920278 -0.00095569086 -0.028359933 0.013418755 -0.008386152
0.004543613 -0.004581039 0.0032540618 0.0013301289 -0.023420382 -0.009268637 0.0026812577 -0.0045390963
0.019231342 0.0026447093 0.007695776 0.026891902 0.010247077 0.012482212 0.015177002 0.019551871
0.0035191302 0.015187836 -0.006832634 -0.02090068 -0.016406542 -0.020992763 -0.017455826 -0.02671938
0.008874634 0.0010003219 -0.0069504017 -0.0010569915 -0.006506775 0.004891027 0.01398897 0.0008065355
-0.015720764 -0.01834557 -0.007956157 0.0036719732 -0.00037166316 0.013962986 0.017738001 -0.008123609
0.015469894 0.004542889 0.0045333854 -0.00034681315 -0.011696803 -0.004431254 0.008712857 0.003613589
-0.010562596 -0.025798226 -0.054528937 -0.012748259 0.0036841803 -0.027026094 -0.00026771904 -0.0027986097
-0.017076984 -0.031119347 -0.03613604 0.003163943 -0.028703924 -0.02569931 0.009230144 0.00856535
-0.0038376986 -0.00865766 -0.0032598937 -0.0066790073 0.0011918177 0.01316222 0.017608969 -0.011171107
-0.006816947 -0.002932907 -0.0031516682 0.0009508996 0.02364346 0.00046206452 -0.014080339 0.018029887
0.017254947 0.00062437274 0.006524503 -0.012260164 -0.006561016 0.023594992 0.025096962 0.0036153004
-0.02136865 0.0053203306 0.012919785 0.0034805296 0.0009905234 0.024742782 0.0004988145 -0.0019920727
0.0140620945 0.0034886946 0.007812574 -0.0021050593 0.0041765505 0.0039375625 0.00024999198 0.0199845
0.007976831 -0.0025807205 0.005487974 -0.0020395336 -0.00011200094 0.007082293 0.010950746 -0.0062737614
0.012406986 0.011171271 0.011678523 0.0051750885 -0.011440574 0.0029326037 0.0017365132 -0.034055375
0.010377367 -0.0032651627 0.0010396701 0.019509949 0.0048720157 -0.007290288 0.009268831 -0.004157419
0.0006486345 -0.014759055 0.006958026 0.016112346 -0.0066103153 -0.019665912 0.025234956 0.004063418
0.0007575968 0.016662434 0.01290687 -0.033496354 0.008007098 -0.025586482 -0.03097399 -0.014005004
0.03394313 -0.016514383 -0.022376733 -0.013474069 -0.027639942 0.0011439263 0.015435623 -0.0071958816
-0.013141879 0.01490693 -0.012796913 0.010595873 0.015128597 -0.02917143 0.0044649346 -0.009718031
0.008126761 -0.016040338 -0.009203586 0.0009341235 -0.014428264 -0.010461138 0.0066208453 -0.006625296
-0.015806943 0.0036137693 0.0018166362 -0.0015241185 -0.015381434 0.0077781533 -0.0018840733 0.009516513
0.0124731995 0.014908609 -0.003785381 -0.0059475745 -0.0012452083 0.010799779 -0.0025009292 0.005028229
0.0009990615 0.0075990474 -0.016729724 -0.005903885 0.03533216 0.0062391697 0.007041473 0.019965667
-0.0121326195 -0.0020017275 -0.0063413274 0.022030193 -0.028187009 -0.004920516 0.0077016787 -0.015927304

action_model._discrete_distribution.branches.1.bias f4 [3]
00000000: 3f94 b2bb a70d 213c ce08 b8bb
-0.005449801 0.009829915 -0.005616284

action_model._discrete_distribution.branches.2.weight f4 [3, 256]
00000000: a47b 00bc 478e 84bc b87b 8239 0060 a83b
00000010: 9e61 973c ad55 fcbb 2156 c7bb b506 3c3c
00000020: 12c0 6a3c 7e9f e83b b7b9 a8bc bf10 32bb
00000030: 6298 debc 8cfd c0bb 9c26 b7bc 1494 aebc
00000040: 75e7 f8bb 170e c4ba 5783 853c 6cf8 8fbc
00000050: bf6b 8ebb 7d1d 203a 3c47 44bc 3266 0d3a
00000060: a477 a13a f79c 443b 4648 c23a b11e 983b
00000070: 8c75 f2bb 4688 cd3c 66f0 8bbc 3d14 0d3c
00000080: f3d0 a5bc 9e5d 803c 991f b0bc 9df4 473b
00000090: 6793 a83b 4a83 c03b c73e 95bb 0e05 403b
000000a0: 9f69 18bb 5318 783c edb6 703c 4178 893b
000000b0: da71 17ba d740 5d3c 4a67 40bc b7d0 733c
000000c0: 1b29 0e3d c46a 4a3b c985 90bc 210b 803c
000000d0: 5c9f 8bbc 8785 df3b d36c a8bb 63e5 b6bb
000000e0: 86bb 0f3c 0e0b 513a b530 7bbc 58d9 12bc
000000f0: 66bd 99bc cc9e e63b abfe 743b 9307 4b3a
00000100: 4b60 b9bc bdf9 633c aea6 173b 6046 3bbc
00000110: 8a62 283c 20aa 1ebb d74f 743c 848b 583c
00000120: fea5 77bc 5b4c ccba 6229 bc39 b648 7dbc
00000130: 8ddb e73b 0ff6 0fbb a172 07bc 66d1 f93b
00000140: 20d3 3cbb 03e8 3d3c 8b38 66bb 99a7 8b3c
00000150: c584 d83b 039e b4bc 2c58 283c 966b db3b
00000160: a98e d93b ec01 023b ebc0 4dbc 38c9 8f3c
00000170: d909 19bc 4281 aa3a 7892 29bc e4ec 2cbb
00000180: 1cd5 023b 0f5f c93b 15ad 453c 1558 d23b
00000190: 10d9 ff3b dd8f abbb aae2 e53b 40d3 ee3c
000001a0: 352b 033b 5838 d1bb 05c3 9c3c 5801 eabb
000001b0: d2ba 10ba 9c92 2f3c f3c2 4d3b 2cb3 60ba
000001c0: 6768 f8ba 08c8 d3bb a945 b83b fa8b 003b
000001d0: 86ed c43a 1c27 693c a70b 463b 70a1 803b
000001e0: 7b6c 063b 0f83 733b 1dbe 72bb 9502 08ba
000001f0: 0588 83bc 3df8 21bc 3f9c 9fbc f401 443b
00000200: 05d2 153b a053 7d3b dde3 c03a 2618 c9bb
00000210: 93bd 14bc a972 c53a 7d69 d43b 2c2a 42bc
00000220: ad9e 7fbc 4f63 94bc 22e4 323c ca3e 653c
00000230: 6da1 44bc f717 5d3c de09 673c d02d dc3b
00000240: 80d4 8d3b 75b1 81ba 6f4f 90bb 4ee5 213c
00000250: ee3e 55bc 3419 63bb 4d18 293b 3571 6dbb
00000260: 39a3 9fbc 6995 bdbb b6b2 abbb 05c9 0f3c
00000270: a8fc 3c3c 9698 bcba caa4 a4b9 b1e7 f33a
00000280: 4e04 90ba 3e71 293c cd17 80bb 82d0 26bc
00000290: 4783 e83b 5d43 edbb 9422 1cbb dc8f af3b
000002a0: 98e8 1d3c 9113 df3b 5b09 2dbb 8795 02ba
000002b0: 5d49 803b 6739 43bb 02f9 b1ba ddf1 4aba
000002c0: bc47 ebbb a75c 4abb f203 303b 7d49 a3bb
000002d0: ab84 413c 4cee c13b 3825 e8bb 52b3 3e3b
000002e0: d02e c33b cff9 3e3b 12eb 033c 3d9e 06bc
000002f0: 1fd0 faba df1f e73c d33c 1d3b 4154 ebbc
00000300: 9806 353b d70d 0bb9 8cd4 dbbc 7fe0 70ba
00000310: 330a c83b 98cc 133c 9e64 c6bb 0ef9 83bc
00000320: 4333 c9bc 3048 a23b aaab 053c 8721 02bb
00000330: deaf 2dbc c402 813b 7b43 53bc b3bd 4dbc
00000340: e307 453c 7312 6fbc 637b a0bc f1f9 603c
00000350: 9836 82bb e8a2 2a3b 1071 5fbb 5a35 fcbb
00000360: 49e1 293c 5585 273b dcda c4bc a98d c03b
00000370: 6590 6c3b 7ec6 613b 0775 893a f95f 3e3b
00000380: e34a ab3c 027a 3a3c 634e 1ebc 025f af3b
00000390: c8ed 9f3b 7664 88bb 272d 3a3c 687f dcbb
000003a0: e6c1 7139 a18f edbb fa65 0ebc f99a 71bc
000003b0: 9386 22bc 6c82 94bc f7d6 80bc 27f3 d5bb
000003c0: 7ed3 7abb a93f 27bc b672 143c 417b 273b
000003d0: 96fa 893b f103 8dbb 0d72 833b a4b8 8ebc
000003e0: 55a9 fc3b 0d09 6a39 5597 ef3a c2df 03bc
000003f0: 29b1 1f3b 05e1 debb 408a 0f3b 09a4 5fbb
-0.007841978 -0.016181124 0.0002488771 0.005138397 0.018479165 -0.007700643 -0.0060832654 0.011476208
0.01432802 0.007099091 -0.020596368 -0.0027170626 -0.027172271 -0.0058896 -0.022357278 -0.021310844
-0.007595951 -0.0014957812 0.01629798 -0.017574511 -0.0043463404 0.000610791 -0.011979874 0.00053939514
0.0012318981 0.0030000785 0.0014822565 0.0046423306 -0.0073992666 0.025089394 -0.017082404 0.008610782
-0.020241236 0.01566964 -0.021499442 0.003051079 0.005144525 0.005875026 -0.004554603 0.0029299888
-0.0023256314 0.015142518 0.01469205 0.0041952436 -0.0005777158 0.013504229 -0.011743376 0.014881304
0.03470717 0.0030886391 -0.017641919 0.015630307 -0.017043762 0.0068213376 -0.005139926 -0.0055815442
0.008772736 0.00079743646 -0.015331437 -0.008962952 -0.01876707 0.007037973 0.003738324 0.0007744964
-0.022628924 0.013914523 0.002314012 -0.011430353 0.0102774 -0.002421029 0.014911613 0.013216857
-0.015115259 -0.001558672 0.00035888987 -0.01545923 0.007075733 -0.002196673 -0.008267076 0.007623839
-0.0028812364 0.01159096 -0.0035128917 0.01704769 0.0066076242 -0.022048002 0.010274928 0.006696175
0.006639321 0.0019837571 -0.012558202 0.017552003 -0.009340727 0.0013008493 -0.010349862 -0.0026386315
0.001996345 0.006145365 0.012065192 0.0064191916 0.0078078583 -0.0052356557 0.007015546 0.029153466
0.0020014767 -0.0063848905 0.019135961 -0.0071412735 -0.00055210025 0.010716107 0.0031396716 -0.00085716206
-0.0018952013 -0.0064630546 0.0056235385 0.0019614683 0.0015024401 0.014230516 0.0030219348 0.003925495
0.0020511437 0.0037156974 -0.0037039586 -0.0005188373 -0.01605607 -0.009885845 -0.019483684 0.002990839
0.0022860777 0.003865458 0.0014716346 -0.006136912 -0.009078401 0.0015064079 0.0064823017 -0.011850875
-0.015601796 -0.01811376 0.010918649 0.013992021 -0.0120013775 0.013494483 0.014101474 0.0067193285
0.0043283105 -0.0009894805 -0.0044040005 0.009881331 -0.013015492 -0.0034652473 0.0025801838 -0.0036230807
-0.01948701 -0.0057856333 -0.00523981 0.008775954 0.011534847 -0.0014388736 -0.00031403295 0.0018608478
-0.0010987611 0.01034194 -0.0039090873 -0.010181548 0.0070957276 -0.0072406963 -0.002382432 0.0053577255
0.009637974 0.0068077524 -0.0026403281 -0.0004981388 0.0039149956 -0.0029788853 -0.0013578238 -0.0007741729
-0.0071801823 -0.003087798 0.002685782 -0.0049831257 0.011811416 0.0059183 -0.007084515 0.0029098582
0.005956508 0.0029140597 0.008051651 -0.008216438 -0.0019135511 0.02821344 0.0023992553 -0.028726699
0.0027622338 -0.00013261229 -0.026834749 -0.0009188726 0.0061047315 0.009020947 -0.006054475 -0.01610997
-0.024560576 0.004952453 0.008158604 -0.001985641 -0.010601012 0.0039370973 -0.012894507 -0.012557435
0.012025806 -0.014591801 -0.019590085 0.013731466 -0.0039737932 0.002603704 -0.003409449 -0.0076967897
0.010368654 0.002556165 -0.024030142 0.005876262 0.0036096808 0.0034450586 0.0010487147 0.0029048903
0.020909732 0.011381628 -0.009662244 0.005351902 0.0048806407 -0.0041623665 0.011363304 -0.006729055
0.00023055784 -0.007249788 -0.008691305 -0.014746421 -0.00991978 -0.018128596 -0.015727503 -0.00652923
-0.0038273032 -0.010208049 0.009060552 0.0025555643 0.0042107804 -0.0043034484 0.0040113986 -0.017422028
0.0077106156 0.0002231935 0.0018279353 -0.0080489535 0.002436707 -0.0068017268 0.0021902472 -0.0034124872

action_model._discrete_distribution.branches.2.bias f4 [3]
00000000: d394 8e3b 3a8d 92bc ab89 703c
0.0043512373 -0.017889608 0.01468126
