results/B_1/Badminton/Badminton-38522.onnx (onnx, 298576 bytes, 12 tensors)

discrete_act_size_vector f4 [1, 4]
000000 00 00 40 40 00 00 40 40 00 00 40 40 00 00 00 40
       3.0 3.0 3.0 2.0

network_body.observation_encoder.processors.0.normalizer.running_mean f4 [11]
000000 00 00 00 00 00 00 00 00 00 00 00 00 00 00 00 00
       0.0 0.0 0.0 0.0
000010 00 00 00 00 00 00 00 00 00 00 00 00 00 00 00 00
       0.0 0.0 0.0 0.0
000020 00 00 00 00 00 00 00 00 00 00 00 00
       0.0 0.0 0.0

network_body._body_endoder.seq_layers.0.weight f4 [256, 11]
000000 59 d4 c8 3e da 41 e5 3e b0 0a 56 3e b5 40 3a bf
       0.39224508 0.44776803 0.20902514 -0.72754985
000010 e3 86 e1 be b6 b5 02 bf 79 da bb be 39 cd 5f bf
       -0.44048223 -0.5105852 -0.3669012 -0.8742252
000020 e1 7a e2 3e 52 2b bf be 5e b0 8e be ed b0 d6 3e
       0.44234374 -0.37337738 -0.27868932 0.4193186
000030 5e 87 99 3e 21 32 a1 be 1c 6c bd 3e 83 83 f1 3e
       0.2998609 -0.31483558 0.36996543 0.47170648
000040 53 f2 2f 3e 5e 87 06 bf 80 f9 34 be 0f 76 bf 3e
       0.17182283 -0.52550304 -0.17673302 0.3739476
000050 40 e1 1c 3e 44 ba e6 3d 16 6f 09 3f 13 dd 2c bf
       0.15320301 0.11265996 0.5368513 -0.6752483
000060 f9 e4 f3 3d 0b ad a9 be 20 5c d6 be bc 61 9f be
       0.119089074 -0.33139834 -0.4186716 -0.31129253
000070 3c 09 e0 3c 3a e5 34 3e 39 34 39 3c 48 f7 bf 3e
       0.027348153 0.17665568 0.011303955 0.37493348
000080 fa 30 17 3f 48 38 dc 3e 7e 40 ed be c9 b8 a9 3e
       0.5905911 0.4301169 -0.46338266 0.33148792
000090 62 44 85 bd 04 e6 24 3e c0 ce 21 bd d6 da b2 be
       -0.065071836 0.16103369 -0.039503813 -0.34932584
0000a0 8c ff 85 3d 7b a8 d5 be 76 6e 92 3c 66 bc 08 be
       0.06542882 -0.41730103 0.017874938 -0.13353118
0000b0 28 06 08 3f db 22 3b bd 64 a2 a5 be d9 fe 6c bf
       0.53134394 -0.045687538 -0.32350457 -0.92576367
0000c0 47 a9 c6 3e 45 2d 3c 3e 77 c9 77 bd b4 58 0b 3f
       0.38801023 0.18376644 -0.060494866 0.54432225
0000d0 a0 2f 60 be 6a 1e 46 bd 31 92 1c be ae 44 35 3e
       -0.21893167 -0.04836885 -0.15290143 0.1770198
0000e0 3c 9d 59 be e5 40 64 be 92 a2 8e be ff cb 11 3f
       -0.21251386 -0.2229038 -0.27858406 0.569519
0000f0 00 17 69 be ca 4c 38 3d a2 12 b3 3d d7 2b fa 3e
       -0.2276268 0.044995107 0.08743788 0.48861572
000100 2f 18 33 be 06 3a 02 be 36 79 0a 3d 07 73 91 be
       -0.17489694 -0.12717447 0.033807002 -0.2840807
000110 9c 8d 8a be f0 1c a1 3e e4 7e 6f be bb 98 23 3f
       -0.27061164 0.3146739 -0.23388249 0.63904923
000120 de f5 2f 3c 2a 16 2b 3e ab 3b 26 bc 40 de 38 3e
       0.010739772 0.16707674 -0.010146062 0.18053532
000130 0e 9e 8f be e5 2b cd bd d9 4e b0 be 38 f0 05 3c
       -0.28050274 -0.10018138 -0.34435156 0.008174948
000140 01 49 36 3f e4 af 0b be 80 06 99 3c 16 15 fe 3e
       0.71205145 -0.13641316 0.018679857 0.49625462
000150 c9 4d b0 be c3 1d 45 3e 1e 31 58 be 41 96 8e be
       -0.34434345 0.19249634 -0.21112487 -0.2784901
000160 89 a3 c3 3d ad 04 1e 3c 0a 2a 78 bd a8 fa 63 bd
       0.09552676 0.0096446695 -0.060586967 -0.055658966
000170 30 54 7c 3e c7 a3 13 3e 06 a0 c3 be 91 64 80 3c
       0.2464149 0.14417945 -0.38208026 0.015672954
000180 51 e7 2b 3e da 53 7e bc c9 28 71 be aa 48 d4 bc
       0.16787459 -0.015522921 -0.23550715 -0.025913555
000190 ed df af 3e aa 14 bc be 0a 91 24 be c5 5b 0c bf
       0.3435053 -0.36734515 -0.16070953 -0.5482753
0001a0 1b 1b 9d be e5 ae 8d 3e ac 62 76 bd ac 6f 8c bd
       -0.30684742 0.27672496 -0.060152695 -0.06857237
0001b0 7a 0e 82 3e ec c3 fd bc 29 01 a2 bd b2 a5 97 3e
       0.2540167 -0.030977212 -0.079103775 0.29618603
0001c0 2e 9b 2c 3e 5d 5a f9 bd ed 35 b8 3c f6 7d 53 3e
       0.16856071 -0.121754386 0.022486651 0.20653519
0001d0 49 6a ad 3e 14 d8 cc be 24 cc db 3e bc f9 a3 bc
       0.33870152 -0.40008605 0.42929184 -0.020016544
0001e0 41 a7 a1 3e 6e 30 ca 3e ed 03 80 be 20 8c 86 be
       0.31572917 0.39490074 -0.25002995 -0.26278782
0001f0 a7 fc ac 3e a1 ef c9 3e 01 04 bb bd 37 38 33 be
       0.33786508 0.39440635 -0.09131623 -0.17501913
000200 7a 28 51 3e 7f 91 a8 bd 57 e4 6f be 06 da 42 bd
       0.20425597 -0.08230876 -0.23426948 -0.047571205
000210 eb af 4a 3e d8 57 c3 3e bb 76 22 3e 91 58 9b be
       0.1979367 0.38152957 0.15865605 -0.30341008
000220 2f a8 bb 3d 6f a3 c5 be 86 19 84 3d 2d 60 d0 bc
       0.09162938 -0.38601252 0.06450181 -0.025436485
000230 fc 9e 12 bf d6 81 3b 3e 9d ee 63 3d d7 b2 09 3f
       -0.5727384 0.18311247 0.05564748 0.5378851
000240 f0 ee a6 3d d4 8c 29 bb 61 fc 13 be fc 5a 3e be
       0.081510425 -0.0025871294 -0.14451744 -0.18589395
000250 ae a4 b6 3e 5d 75 0b bd 16 23 8c be 2d 55 1d 3e
       0.35672516 -0.034047473 -0.27370518 0.15364523
000260 e2 70 c0 3e 64 ce 8a 3d a4 54 3c bc 20 a4 b5 3d
       0.37586123 0.06777647 -0.011494789 0.08869195
000270 5e d7 66 be cf 9f fb bb 1d 71 c8 3c 9f aa 9f 3e
       -0.22543094 -0.007678963 0.024468 0.3118486
000280 6d 5f ea 3e 67 54 5b be 66 d6 a3 bc 2a cd 29 3d
       0.4577593 -0.21418916 -0.019999694 0.041455425
000290 f9 06 01 3f c5 87 96 3e 4a cf 5d bd 9d 06 18 3f
       0.50401264 0.2940046 -0.054152764 0.5938509
0002a0 8c 4f cb 3e 6b 56 27 bf c3 0c 87 3d 15 5c a4 3e
       0.39709127 -0.6536624 0.06594231 0.32101503
0002b0 ab e8 73 3e 66 f2 0c bf ed 08 1c 3e 34 2f cb 3e
       0.23819225 -0.5505737 0.1523778 0.3968445
0002c0 08 e9 0d bd b3 72 f7 be b9 9f fa be ad 32 9e 3d
       -0.034646064 -0.48329696 -0.48949984 0.077245094
0002d0 3d a1 aa bc a0 28 76 be 72 db f4 be 34 b4 ad be
       -0.020828838 -0.24038935 -0.47823673 -0.33926547
0002e0 ba 19 36 3e ea 38 45 3e b5 01 0d bd 5f 4a fe be
       0.17783251 0.19259992 -0.034425456 -0.49666116
0002f0 ff 67 9e 3e 9d 73 fc 3d 54 22 a1 3e 56 41 08 be
       0.30938718 0.12326739 0.31471503 -0.13306174
000300 26 b1 97 3e 9a 22 d7 3d d2 da 6a bd e6 40 00 be
       0.2962734 0.105046466 -0.05733759 -0.12524757
000310 4d a0 0d be 95 08 9d be fe 00 ee be 76 09 44 3e
       -0.13830681 -0.3067061 -0.46485132 0.19144234
000320 32 29 ac 3d 62 da 21 3f 98 ff 79 3e 37 79 08 3e
       0.08406295 0.6322385 0.24413908 0.1332749
000330 17 b0 70 be 95 e5 29 be 08 10 3f bf 40 e9 92 3d
       -0.23504673 -0.16591485 -0.74633837 0.07173395
000340 ad 66 1e 3e 25 53 1c 3f 9b a2 44 3f 33 6f 0b 3f
       0.15468855 0.6106437 0.76810616 0.5446655
000350 85 36 34 3e 84 d3 db 3d cb 7e 6b 3d ec a4 06 bf
       0.17598923 0.10733703 0.057493966 -0.525954
000360 f7 b8 49 bd 8d 87 ad bd 2f 04 04 3e 53 e1 2f 3c
       -0.04924866 -0.0847312 0.12892221 0.010734874
000370 73 71 d2 3e 75 71 14 be e2 78 0b 3f 3d b8 be 3e
       0.4110218 -0.14496405 0.5448133 0.37249938
000380 3b aa 81 be 39 5b 14 3e 8d 42 88 3e fa 68 32 bd
       -0.25325188 0.14487924 0.26613274 -0.043557145
000390 3c 1b 96 3e ac b7 95 be ad 57 1e 3f 03 d8 2f 3e
       0.29317653 -0.29241693 0.6185253 0.17172246
0003a0 87 af e7 bd 54 0a c4 3d 6f b3 14 bd a4 db 1b 3e
       -0.11312776 0.095722824 -0.036303934 0.15220505
0003b0 fe d8 05 3f e1 8e 30 3e 37 8c 8b 3d e5 89 70 be
       0.5228423 0.17242004 0.06813853 -0.23490103
0003c0 6a 99 08 bf f9 74 d0 bd 18 c6 71 3e b1 84 ed be
       -0.5335909 -0.10178561 0.23610723 -0.46390298
0003d0 74 f6 b3 bd 31 17 ee be 6f b9 18 3e 1f c8 b1 bd
       -0.087872416 -0.4650207 0.14914487 -0.08680748
0003e0 9e 3e 81 be 60 e0 8a 3c 36 58 0d be 7d f1 bf 3e
       -0.25243086 0.016952693 -0.13803181 0.37488928
0003f0 c3 ce a4 3b b4 27 12 be ff a1 f7 be 74 e9 d6 3c
       0.0050295307 -0.14272958 -0.4836578 0.026234366

network_body._body_endoder.seq_layers.0.bias f4 [256]
000000 00 00 00 00 00 00 00 00 00 00 00 00 00 00 00 00
       0.0 0.0 0.0 0.0
000010 00 00 00 00 00 00 00 00 00 00 00 00 00 00 00 00
       0.0 0.0 0.0 0.0
000020 00 00 00 00 00 00 00 00 00 00 00 00 00 00 00 00
       0.0 0.0 0.0 0.0
000030 00 00 00 00 00 00 00 00 00 00 00 00 00 00 00 00
       0.0 0.0 0.0 0.0
000040 00 00 00 00 00 00 00 00 00 00 00 00 00 00 00 00
       0.0 0.0 0.0 0.0
000050 00 00 00 00 00 00 00 00 00 00 00 00 00 00 00 00
       0.0 0.0 0.0 0.0
000060 00 00 00 00 00 00 00 00 00 00 00 00 00 00 00 00
       0.0 0.0 0.0 0.0
000070 00 00 00 00 00 00 00 00 00 00 00 00 00 00 00 00
       0.0 0.0 0.0 0.0
000080 00 00 00 00 00 00 00 00 00 00 00 00 00 00 00 00
       0.0 0.0 0.0 0.0
000090 00 00 00 00 00 00 00 00 00 00 00 00 00 00 00 00
       0.0 0.0 0.0 0.0
0000a0 00 00 00 00 00 00 00 00 00 00 00 00 00 00 00 00
       0.0 0.0 0.0 0.0
0000b0 00 00 00 00 00 00 00 00 00 00 00 00 00 00 00 00
       0.0 0.0 0.0 0.0
0000c0 00 00 00 00 00 00 00 00 00 00 00 00 00 00 00 00
       0.0 0.0 0.0 0.0
0000d0 00 00 00 00 00 00 00 00 00 00 00 00 00 00 00 00
       0.0 0.0 0.0 0.0
0000e0 00 00 00 00 00 00 00 00 00 00 00 00 00 00 00 00
       0.0 0.0 0.0 0.0
0000f0 00 00 00 00 00 00 00 00 00 00 00 00 00 00 00 00
       0.0 0.0 0.0 0.0
000100 00 00 00 00 00 00 00 00 00 00 00 00 00 00 00 00
       0.0 0.0 0.0 0.0
000110 00 00 00 00 00 00 00 00 00 00 00 00 00 00 00 00
       0.0 0.0 0.0 0.0
000120 00 00 00 00 00 00 00 00 00 00 00 00 00 00 00 00
       0.0 0.0 0.0 0.0
000130 00 00 00 00 00 00 00 00 00 00 00 00 00 00 00 00
       0.0 0.0 0.0 0.0
000140 00 00 00 00 00 00 00 00 00 00 00 00 00 00 00 00
       0.0 0.0 0.0 0.0
000150 00 00 00 00 00 00 00 00 00 00 00 00 00 00 00 00
       0.0 0.0 0.0 0.0
000160 00 00 00 00 00 00 00 00 00 00 00 00 00 00 00 00
       0.0 0.0 0.0 0.0
000170 00 00 00 00 00 00 00 00 00 00 00 00 00 00 00 00
       0.0 0.0 0.0 0.0
000180 00 00 00 00 00 00 00 00 00 00 00 00 00 00 00 00
       0.0 0.0 0.0 0.0
000190 00 00 00 00 00 00 00 00 00 00 00 00 00 00 00 00
       0.0 0.0 0.0 0.0
0001a0 00 00 00 00 00 00 00 00 00 00 00 00 00 00 00 00
       0.0 0.0 0.0 0.0
0001b0 00 00 00 00 00 00 00 00 00 00 00 00 00 00 00 00
       0.0 0.0 0.0 0.0
0001c0 00 00 00 00 00 00 00 00 00 00 00 00 00 00 00 00
       0.0 0.0 0.0 0.0
0001d0 00 00 00 00 00 00 00 00 00 00 00 00 00 00 00 00
       0.0 0.0 0.0 0.0
0001e0 00 00 00 00 00 00 00 00 00 00 00 00 00 00 00 00
       0.0 0.0 0.0 0.0
0001f0 00 00 00 00 00 00 00 00 00 00 00 00 00 00 00 00
       0.0 0.0 0.0 0.0
000200 00 00 00 00 00 00 00 00 00 00 00 00 00 00 00 00
       0.0 0.0 0.0 0.0
000210 00 00 00 00 00 00 00 00 00 00 00 00 00 00 00 00
       0.0 0.0 0.0 0.0
000220 00 00 00 00 00 00 00 00 00 00 00 00 00 00 00 00
       0.0 0.0 0.0 0.0
000230 00 00 00 00 00 00 00 00 00 00 00 00 00 00 00 00
       0.0 0.0 0.0 0.0
000240 00 00 00 00 00 00 00 00 00 00 00 00 00 00 00 00
       0.0 0.0 0.0 0.0
000250 00 00 00 00 00 00 00 00 00 00 00 00 00 00 00 00
       0.0 0.0 0.0 0.0
000260 00 00 00 00 00 00 00 00 00 00 00 00 00 00 00 00
       0.0 0.0 0.0 0.0
000270 00 00 00 00 00 00 00 00 00 00 00 00 00 00 00 00
       0.0 0.0 0.0 0.0
000280 00 00 00 00 00 00 00 00 00 00 00 00 00 00 00 00
       0.0 0.0 0.0 0.0
000290 00 00 00 00 00 00 00 00 00 00 00 00 00 00 00 00
       0.0 0.0 0.0 0.0
0002a0 00 00 00 00 00 00 00 00 00 00 00 00 00 00 00 00
       0.0 0.0 0.0 0.0
0002b0 00 00 00 00 00 00 00 00 00 00 00 00 00 00 00 00
       0.0 0.0 0.0 0.0
0002c0 00 00 00 00 00 00 00 00 00 00 00 00 00 00 00 00
       0.0 0.0 0.0 0.0
0002d0 00 00 00 00 00 00 00 00 00 00 00 00 00 00 00 00
       0.0 0.0 0.0 0.0
0002e0 00 00 00 00 00 00 00 00 00 00 00 00 00 00 00 00
       0.0 0.0 0.0 0.0
0002f0 00 00 00 00 00 00 00 00 00 00 00 00 00 00 00 00
       0.0 0.0 0.0 0.0
000300 00 00 00 00 00 00 00 00 00 00 00 00 00 00 00 00
       0.0 0.0 0.0 0.0
000310 00 00 00 00 00 00 00 00 00 00 00 00 00 00 00 00
       0.0 0.0 0.0 0.0
000320 00 00 00 00 00 00 00 00 00 00 00 00 00 00 00 00
       0.0 0.0 0.0 0.0
000330 00 00 00 00 00 00 00 00 00 00 00 00 00 00 00 00
       0.0 0.0 0.0 0.0
000340 00 00 00 00 00 00 00 00 00 00 00 00 00 00 00 00
       0.0 0.0 0.0 0.0
000350 00 00 00 00 00 00 00 00 00 00 00 00 00 00 00 00
       0.0 0.0 0.0 0.0
000360 00 00 00 00 00 00 00 00 00 00 00 00 00 00 00 00
       0.0 0.0 0.0 0.0
000370 00 00 00 00 00 00 00 00 00 00 00 00 00 00 00 00
       0.0 0.0 0.0 0.0
000380 00 00 00 00 00 00 00 00 00 00 00 00 00 00 00 00
       0.0 0.0 0.0 0.0
000390 00 00 00 00 00 00 00 00 00 00 00 00 00 00 00 00
       0.0 0.0 0.0 0.0
0003a0 00 00 00 00 00 00 00 00 00 00 00 00 00 00 00 00
       0.0 0.0 0.0 0.0
0003b0 00 00 00 00 00 00 00 00 00 00 00 00 00 00 00 00
       0.0 0.0 0.0 0.0
0003c0 00 00 00 00 00 00 00 00 00 00 00 00 00 00 00 00
       0.0 0.0 0.0 0.0
0003d0 00 00 00 00 00 00 00 00 00 00 00 00 00 00 00 00
       0.0 0.0 0.0 0.0
0003e0 00 00 00 00 00 00 00 00 00 00 00 00 00 00 00 00
       0.0 0.0 0.0 0.0
0003f0 00 00 00 00 00 00 00 00 00 00 00 00 00 00 00 00
       0.0 0.0 0.0 0.0

network_body._body_endoder.seq_layers.2.weight f4 [256, 256]
000000 ae 24 16 3d d7 cf 99 3d f8 95 3b bd 28 bb 06 be
       0.036656074 0.075103454 -0.04579732 -0.13157332
000010 69 57 d1 3c 58 a9 2d bd bd f8 a0 bd 65 a5 48 bd
       0.025554376 -0.042397827 -0.07859943 -0.048985858
000020 f5 01 1e 3d e1 3b f0 bb c0 de 97 3c e7 3d da 3b
       0.038576085 -0.007331357 0.018538833 0.0066602114
000030 2a 93 63 3d 80 9d cb 3c 5e 43 e9 bc dd b6 83 3d
       0.05556027 0.024855375 -0.028474506 0.06431363
000040 2d eb 37 bd 22 c7 40 bd a4 73 9b 3c 4f d1 61 3d
       -0.044902015 -0.047064908 0.01897604 0.055131253
000050 54 c9 16 bd 83 8d 3c 3d 01 2b 15 3d 5c c7 aa ba
       -0.036813095 0.046033394 0.036417965 -0.0013029384
000060 50 a0 79 bd 1e 95 fd 3c ac 01 aa 3a f1 a7 28 3d
       -0.0609439 0.030954894 0.0012970469 0.041175786
000070 6d 95 c5 bc 5f 4f 48 3a 4d c3 09 3d 05 57 34 3d
       -0.024119103 0.0007641222 0.03363352 0.0440283
000080 8d ab 81 bd 4e ae 96 bd d5 03 97 bd 6c b4 5d bd
       -0.06331549 -0.07357465 -0.07373778 -0.05412714
000090 59 4b dd 3c 84 78 c9 bc bc 3a 94 3d 99 a5 69 3c
       0.027013468 -0.0245936 0.07237765 0.014260673
0000a0 33 ca 43 3d 12 06 b1 3c 60 bf d5 bd 94 ff 11 3c
       0.047800254 0.02160934 -0.104368925 0.008911032
0000b0 61 65 fa 3b e6 26 07 3d 6e 92 2a bd 3f a9 90 3d
       0.00764148 0.03299608 -0.041643552 0.07063531
0000c0 7a 00 5d 3d 87 89 48 3c 9a 33 60 3d 70 45 1a be
       0.053955533 0.01223982 0.05473671 -0.15065551
0000d0 1b aa 30 3d bd 29 6d 3d 91 ca a7 3d 9a ca 09 3d
       0.043130975 0.057901133 0.08192933 0.03364048
0000e0 2d 8c aa 3c 71 29 dd 3d 96 f3 21 3d ab 55 65 bd
       0.020818794 0.1079892 0.039538942 -0.055989902
0000f0 df 79 3b 3d 77 2d 15 3d 5b bd 90 bb 2d 9b 67 3d
       0.045770522 0.03642031 -0.004417104 0.05654447
000100 fe 0e c5 3d 4e 0d 52 bd da c9 06 3c 9e e1 94 bc
       0.09622 -0.05128222 0.008226836 -0.018173989
000110 fd 62 2a bd f8 23 99 bd 8f 83 0e bc 5c 2f af bd
       -0.04159831 -0.074775636 -0.008698358 -0.08553955
000120 13 4d 13 3c cb d4 13 bd 24 f7 06 3d 60 ed 32 3d
       0.008990544 -0.036091607 0.032950535 0.04368341
000130 2a 63 c2 bd d6 11 77 bc 29 be 1e 3d 8e 74 94 bd
       -0.0949157 -0.015079936 0.03875557 -0.072487935
000140 bb ff ad 3d 35 ff e1 bc 32 e9 4b bd d1 84 60 3e
       0.08496042 -0.027587513 -0.04978294 0.21925665
000150 6a 91 95 3d de 58 9f bd cb a9 d5 3d fd 4f 9d bc
       0.07303126 -0.07780622 0.10432776 -0.01920318
000160 49 6e 88 3c 1b 23 79 bd 7b b1 d3 3d 9a 6b 3c 3d
       0.01665415 -0.060824495 0.10336586 0.046001054
000170 5d 50 85 bc 83 a7 30 bd 1f 11 59 3d 54 74 aa 3d
       -0.016273672 -0.0431285 0.052994844 0.08322969
000180 52 da 30 bc 8b 50 9a 3d d2 3b 28 bc 8b 96 54 bd
       -0.010794239 0.075348936 -0.0102681685 -0.05190138
000190 b8 55 09 bb 74 81 3e bd d5 b3 da 3c 59 f1 de 3d
       -0.0020955633 -0.046510175 0.026697079 0.10885877
0001a0 5a d2 54 3c b0 5d 02 3d 15 23 35 bd 65 c9 e0 3c
       0.012989605 0.03182763 -0.04422291 0.027439782
0001b0 a0 cc 88 bd 2f 43 8f 3d a9 b4 d6 bc 47 eb 0d bd
       -0.06679654 0.06995236 -0.026209192 -0.034648206
0001c0 ba 00 e2 3d 13 51 3b ba 63 84 dc bd 63 30 ce 3c
       0.11035295 -0.0007145565 -0.10767438 0.025169557
0001d0 be ae aa bd 53 8f dc 3d 6e 6a ea 3c 03 a4 2c bd
       -0.08334111 0.107695244 0.028615203 -0.0421486
0001e0 02 f3 12 3b 2b db e4 bd d6 66 c6 3c a5 87 96 3b
       0.0022422676 -0.111746155 0.024218958 0.004593807
0001f0 0d bb 77 3c be a6 89 3c 38 30 6a bc 69 50 5e 3e
       0.01512028 0.016803142 -0.014293723 0.21710362
000200 dc 49 09 bd 89 d6 dd bd 86 84 d2 ba 83 11 e2 bc
       -0.033517703 -0.10831935 -0.0016061224 -0.02759624
000210 8b ad cc bd 21 e4 8b 3c 3c de b2 bd b7 a6 8a bd
       -0.09994038 0.017076554 -0.08733794 -0.067700796
000220 cc 54 92 3d fc d5 3e bb 51 0f 84 39 ad 09 93 3d
       0.0714508 -0.0029119244 0.00025188414 0.0717958
000230 a5 e8 98 3d ea 48 9c bd 29 6d a9 3d 5c db c8 3c
       0.074662484 -0.07631095 0.08272774 0.024518661
000240 78 fd 28 3d 99 74 ca 3c 5b 47 0d bc 50 ed 01 3d
       0.04125735 0.024713801 -0.0086229695 0.03172046
000250 b5 78 3b be dc 4f 46 bd 38 49 75 3d 1f 69 cd 3b
       -0.18307765 -0.048416004 0.05988428 0.006268635
000260 46 46 09 bd 9c de 65 3d 6e 70 70 bb 12 cc 2b 3d
       -0.033514284 0.0561205 -0.0036688107 0.041942663
000270 09 77 1f bc a8 c1 cb bc 08 ac 93 bd 00 cd d7 3d
       -0.00973297 -0.024872616 -0.07210547 0.105371475
000280 df 5f 97 3c da d4 6c bd f6 16 9f bd 1c e2 93 3d
       0.018478332 -0.05782018 -0.07768051 0.07220861
000290 51 9b c8 bd ac 7e 51 bd 15 65 5b bd 5f 83 37 3e
       -0.09795249 -0.051146194 -0.053563196 0.17921208
0002a0 98 34 e8 3d 26 95 13 bc 3e d3 58 3b 0c 1b 16 3e
       0.113381565 -0.009007728 0.0033084895 0.14658755
0002b0 6a 9b 2d 3c d7 46 ae bd f9 6b be bd c6 cf 15 3e
       0.010596136 -0.085096054 -0.09297938 0.1463004
0002c0 8e b3 82 3d 5e 4a b5 3d 5d c0 b4 bd fb 6b 20 3c
       0.063819036 0.08852075 -0.08825753 0.00979137
0002d0 9c b7 9e bd d3 4b 99 bd 25 d5 95 bc 6a 1c 79 bd
       -0.077498645 -0.074851654 -0.018290112 -0.060818113
0002e0 f6 c5 bd bd 19 ac 0c bd 18 d5 3c 3d 72 69 6c 3c
       -0.09266274 -0.034343813 0.04610166 0.014429437
0002f0 db 49 d5 3d c0 be f8 bd 71 d5 2e bc a0 eb 8c bd
       0.104144774 -0.12145758 -0.010671006 -0.068808794
000300 1b 90 92 bc 1a db 98 3c e1 b6 ca bd 49 d1 22 bd
       -0.01789098 0.018659163 -0.09898163 -0.03975037
000310 3a 49 f0 3d 2b ca eb bb b0 75 cf 3d a6 17 b7 3d
       0.11732717 -0.007195731 0.10129869 0.089400575
000320 9e 78 57 bc 37 75 42 bd 2f 51 1f bd 0a 1c e0 3d
       -0.013151316 -0.047475066 -0.038895782 0.10942848
000330 58 7d b2 3c e0 1c 1c bd 7b 11 83 3d ed 75 6d bd
       0.021788284 -0.038113475 0.063998185 -0.05797379
000340 e9 1a ce bd c7 db 23 be 6f ac c7 3c 7a 31 4d bd
       -0.100637265 -0.16001807 0.024374215 -0.050096013
000350 4f ee 25 bd 35 3b d6 3d 45 23 14 3e c1 2a 1b bc
       -0.040510472 0.104605116 0.1446658 -0.009470643
000360 cf ae aa 3d 7e 80 28 bc fe 62 c4 bc c5 3e 24 bd
       0.08334123 -0.010284541 -0.023972984 -0.040098924
000370 18 4c 0b 3a 63 c1 46 3d cd 00 9d bc 3f 00 11 bd
       0.0005313768 0.04852427 -0.01916542 -0.035400625
000380 41 36 77 3d c6 55 97 3d 98 f7 20 bb 2b ee 9e bd
       0.060354475 0.07389407 -0.002456164 -0.07760271
000390 c1 b8 9c bd 84 c0 80 3d 0f 9a 85 bd ab 10 3c 3d
       -0.076524265 0.062867194 -0.06523525 0.045914333
0003a0 69 03 27 bd dc 9b 4e bd 83 23 b0 3d ce 60 63 3d
       -0.040774737 -0.050441608 0.08600523 0.055512242
0003b0 ca 40 7d bc 4a 69 e5 3d 7d a7 f1 3d 0e bc 7d bc
       -0.015457341 0.11201723 0.11799524 -0.01548673
0003c0 e4 64 c5 bc 86 1d 28 3d 34 cc 87 bd 9f f3 40 bd
       -0.02409596 0.04104378 -0.066307455 -0.047107335
0003d0 c1 57 76 bc 36 d9 5f bc 24 55 40 bd 27 3c 09 bd
       -0.015035571 -0.013662627 -0.046956196 -0.03350463
0003e0 fa d8 15 be 23 90 23 3d c2 95 96 bb 5d 43 81 bd
       -0.14633551 0.03993238 -0.0045954892 -0.06311677
0003f0 ab 03 08 bc 53 cd be bd 30 bb a8 bd 5e 6f db bb
       -0.008301656 -0.09316506 -0.08238828 -0.0066966256

action_model._discrete_distribution.branches.0.weight f4 [3, 256]
000000 49 71 40 3c 83 a0 03 bc a6 bb 06 3b aa 08 ce bb
       0.011745759 -0.008033874 0.0020558625 -0.006287654
000010 f9 46 bd 3b ea c8 83 3b 83 39 aa 3a ef a0 09 3b
       0.005776283 0.0040217536 0.001298711 0.0021000465
000020 dd 4b ec bb 9d 27 a9 bb c6 f3 bf bb 2f 7b 17 3b
       -0.007211192 -0.005162193 -0.0058579175 0.0023114195
000030 b2 4e 96 3b 75 2f f2 39 9d 41 8e bb 7f 52 88 3b
       0.004587018 0.00046193195 -0.004341318 0.004160225
000040 fb 96 63 bb 11 6e 1a 3b 56 cc 8f 3b 77 93 49 ba
       -0.0034727443 0.002356414 0.0043883724 -0.00076895155
000050 13 46 55 bc 10 bd 55 3b b6 c9 16 3c 67 cd 0e ba
       -0.013017195 0.003261391 0.009203365 -0.00054474775
000060 a7 82 82 bb 28 e3 18 bb eb 61 cf b9 48 18 27 ba
       -0.00398286 -0.0023328755 -0.0003955507 -0.00063741626
000070 86 82 30 3b 90 03 79 bb 43 94 13 b8 91 d4 ad ba
       0.0026933267 -0.0037996508 -3.518561e-05 -0.0013262202
000080 a0 66 d3 3b 7b b5 16 3b 77 9a 82 b9 b0 03 33 3b
       0.006451443 0.0022996354 -0.00024910618 0.002731543
000090 cc f7 34 bc c5 5b 4b 3a 37 ec 51 bb 5b 5e 06 3c
       -0.0110454075 0.000775751 -0.0032031664 0.008201207
0000a0 8d bc 4d bb 3d 11 23 bc 80 89 f1 bb 6a e4 2d 3b
       -0.0031392903 -0.00995284 -0.0073711276 0.002653385
0000b0 03 91 1f 3b b7 13 a1 3b 55 57 a7 bb 15 6e a5 3a
       0.0024347908 0.0049156803 -0.0051068463 0.0012621308
0000c0 2d 63 f9 bb e5 7b 49 3b 6f db b2 ba f0 87 77 bb
       -0.0076106996 0.0030744013 -0.0013645719 -0.0037770234
0000d0 a5 b5 02 3a a0 f5 53 3b 3f 70 90 3b a8 32 9f b7
       0.00049861736 0.0032342449 0.004407912 -1.8977866e-05
0000e0 1b b1 f8 bb 65 4b 99 bb 88 35 2c 3c 75 32 57 ba
       -0.007589472 -0.004678177 0.01051081 -0.0008209118
0000f0 4a bf 52 ba 17 7a c6 ba 83 8f 20 bc ad 6a 8a 3b
       -0.00080393685 -0.0015142587 -0.009799841 0.0042241425
000100 e3 da 56 3b 78 81 4f 3b 13 1e d4 bb 96 52 03 bb
       0.0032784275 0.0031662863 -0.0064733117 -0.0020038239
000110 dc c2 9e bb 92 9c 5f bb 13 0f 3f bb 4e 07 95 bb
       -0.0048450064 -0.0034120423 -0.0029153272 -0.00454799
000120 b8 55 bb 39 22 11 16 3c 7f b7 39 3b 73 b4 b9 ba
       0.00035731285 0.009159358 0.0028338132 -0.0014168158
000130 91 6a 25 3c 73 cb 13 bc 2b 90 4d ba e1 bd 01 3c
       0.010096208 -0.009020674 -0.0007841612 0.007918806
000140 29 cb 2e bb 93 89 28 3b af 9d 76 39 82 d2 28 3c
       -0.0026671386 0.0025716766 0.0002351913 0.010304095
000150 42 0f 5c 3a 6a 5b f7 3b 2e ea 08 37 a1 63 8a 3c
       0.00083946076 0.007548739 8.160756e-06 0.01689321
000160 43 c5 18 bc fb 89 99 3b 97 ae a9 3b 6f 84 75 bb
       -0.009324375 0.004685638 0.0051782834 -0.003746297
000170 da 8c dc 3b 16 33 8e bb 54 87 b6 3b fe c2 24 3b
       0.006730658 -0.004339586 0.0055703316 0.0025140638
000180 ed 55 de 3a 73 55 6b bb c0 45 4b 3a 25 e5 d4 39
       0.0016962864 -0.0035909086 0.0007754229 0.00040606517
000190 d5 02 f0 ba e3 81 4b 3b f7 7f 5f bc 4a b3 7a 3a
       -0.0018311391 0.003105276 -0.013641349 0.00095634593
0001a0 33 f2 98 bb 4a 1e 58 bb b0 af d6 ba aa b2 f8 3a
       -0.0046675443 -0.0032977038 -0.0016379263 0.0018974144
0001b0 98 15 de 3a 9b 22 db 3b 2e 5c 1d ba 7c 7b 1e 3a
       0.0016943691 0.006687475 -0.00060028106 0.0006045622
0001c0 f3 9d c2 bb f1 f8 42 3b 77 a2 d4 bb c2 06 d0 3b
       -0.005939239 0.0029750431 -0.006489094 0.006348462
0001d0 f5 cc 9f bb 30 72 c2 3b f3 fd f1 b9 11 d5 29 3c
       -0.0048767277 0.0059340224 -0.0004615631 0.01036574
0001e0 a4 4c 17 3c 9d ea f7 ba f6 1a 13 3c 0b d8 c6 bb
       0.009234581 -0.0018914525 0.008978596 -0.006068235
0001f0 fa d8 83 bb 77 35 a7 b9 c8 34 72 3b 7f b7 10 3c
       -0.0040236684 -0.00031892557 0.003695773 0.008832811
000200 25 bb cc bb 81 7b 2b bc 7f bd 23 3b c3 3a 20 3a
       -0.0062478953 -0.010466457 0.0024984775 0.0006112272
000210 6c 01 4b bc cd 5c 79 bb 51 dc ab 3b e5 ba d1 ba
       -0.012390476 -0.0038049698 0.0052447696 -0.0016001133
000220 a7 d5 ec bb 3a e8 0e 3b 97 9b 80 3b e4 3d 90 3b
       -0.007227618 0.0021805898 0.0039247978 0.004401909
000230 bb 29 b8 3b 05 8c 28 3b 9d 57 6e 3c 98 af 81 bb
       0.005620209 0.0025718224 0.014547256 -0.0039577
000240 31 dd 1f bb 8a 97 20 bc 57 ef 8c 3a 87 36 47 bc
       -0.0024393315 -0.009801755 0.0010752481 -0.012158996
000250 c6 15 9e 3a 0d b7 ef bb 0b ea 59 bc 97 15 af 3b
       0.0012060932 -0.0073155225 -0.013300429 0.00534315
000260 fb 84 6f 3a 35 35 6a bb 72 0b d3 3b cb 78 91 3b
       0.0009136942 -0.003573728 0.0064405734 0.0044394485
000270 29 47 90 ba e7 56 66 3c 53 3a 8f bb 79 b2 32 39
       -0.0011007536 0.014058805 -0.0043709665 0.00017041889
000280 53 68 f9 3b 5f 52 65 3c d0 04 ea bb 9b d8 37 3b
       0.0076113134 0.01399669 -0.007141687 0.002805269
000290 f2 29 1d bc 3b 94 81 3c 46 e9 3b bb 8c 4b 2a ba
       -0.00959252 0.015817752 -0.0028672977 -0.0006496243
0002a0 14 45 30 ba 70 d8 30 bc 90 be 24 bb 6a e9 5d bb
       -0.00067241606 -0.01079379 -0.0025137998 -0.003386105
0002b0 09 86 1a bb c3 a6 c8 3b 29 ac 86 bb 8f 90 17 bb
       -0.0023578426 0.006123395 -0.0041098786 -0.0023126935
0002c0 14 4e 0d bb 2f 43 0b 3b a7 ea 4b bc 27 53 c1 bb
       -0.002156143 0.0021249761 -0.012446082 -0.005899805
0002d0 50 92 4f bc 0f d3 bc 3b 72 de d9 3a a3 87 52 bc
       -0.012669161 0.005762465 0.001662208 -0.012849721
0002e0 f3 f4 e5 ba 37 a0 38 bc a9 d2 3d 3c 92 30 01 3c
       -0.0017544314 -0.011268667 0.01158587 0.007885115
0002f0 bd 5b df bb 66 63 0c 3c 54 98 a3 3b 83 88 2d ba
       -0.006816356 0.00856862 0.004992524 -0.0006619768
000300 af d1 78 3b 64 a5 2d ba 23 5b 07 bc 1a cc 2b 3c
       0.0037966778 -0.00066240714 -0.008261475 0.010485673
000310 9d d5 82 3b 0a 53 bb 3b 27 51 f6 3b 47 33 df bb
       0.00399275 0.005716686 0.0075169983 -0.0068115327
000320 93 5c 71 3b ad 0c db bb 1d 8a e2 bb 4e 08 2b 3c
       0.003682886 -0.0066848607 -0.006913437 0.010438992
000330 51 49 9a 3b 13 67 4e 3b 57 d6 b3 3b dd f1 d4 ba
       0.004708447 0.0031494542 0.005488198 -0.0016246397
000340 aa 0c 2e 3b ff ef 02 3b ca 5e 78 bb 9f a8 53 3b
       0.0026557841 0.0019979475 -0.0037898296 0.003229655
000350 be a8 0b 3b db 16 6a bb 1b c5 34 bb ad b7 87 bb
       0.0021310295 -0.003571919 -0.0027583304 -0.004141769
000360 11 65 23 3b 3d 0c c0 3b e8 d0 19 3c 65 33 10 3c
       0.0024932066 0.005860834 0.009388186 0.008801316
000370 cd 18 58 39 f1 87 28 ba ab 80 01 bb 06 f7 11 3c
       0.00020608604 -0.0006428948 -0.001976053 0.008908993
000380 cd 08 93 3b 76 3a 9e 3b f0 e8 10 bc cb 67 eb 3b
       0.004487133 0.0048287464 -0.008844599 0.007184004
000390 6f 7a a5 bb ef 4e e2 3b 09 e5 31 3c 05 34 a1 3b
       -0.0050499956 0.0069063823 0.010857829 0.0049195313
0003a0 5f 31 31 3b 25 8f 72 ba 7f 8d 93 3a 1a 19 62 3b
       0.0027037484 -0.00092528976 0.0011257379 0.0034499825
0003b0 bb ab a4 3b fe 38 a2 3a ae b7 30 bc 48 94 5c bb
       0.0050253547 0.0012376604 -0.01078598 -0.0033657718
0003c0 c2 35 2d bb fb 48 7d bb da 58 54 39 7e 11 0e 3b
       -0.0026429747 -0.0038648236 0.00020250995 0.0021677907
0003d0 8b 13 5f bb 07 77 41 bb 27 76 cc bb 96 ff 12 bc
       -0.0034038748 -0.0029520409 -0.006239671 -0.008972069
0003e0 8e 9b 0f 3b eb 87 e2 3b 26 33 8c bb 69 2f 05 bc
       0.0021912786 0.0069131753 -0.0042785583 -0.008128979
0003f0 ba 12 8a 3b 98 73 a7 bb 67 70 38 bb af 73 39 3c
       0.004213658 -0.0051102154 -0.002814317 0.011319085

action_model._discrete_distribution.branches.0.bias f4 [3]
000000 00 00 00 00 00 00 00 00 00 00 00 00
       0.0 0.0 0.0

action_model._discrete_distribution.branches.1.weight f4 [3, 256]
000000 a7 14 36 3b 6f b6 d5 ba b4 d9 ad bb 0b b6 46 bb
       0.0027783306 -0.001630498 -0.0053054933 -0.0030320908
000010 2d b7 d3 39 27 5f 89 bb 5f 96 bb 3b bd 61 66 3c
       0.00040381533 -0.0041922512 0.0057247127 0.014061389
000020 58 a9 f2 3b 29 01 17 bc 5f b8 1b 3b 3c 6e 11 3b
       0.0074054413 -0.009216585 0.0023761017 0.002219095
000030 5b de 36 bc e4 d8 1b 3b f3 8e 6c 3b 84 61 c8 3b
       -0.011161412 0.00237804 0.0036095947 0.0061151404
000040 7b 13 5a 3c bc 69 ab 3b cf ad 53 3b 45 88 fc 3b
       0.013310309 0.0052311104 0.0032299643 0.0077066743
000050 33 2a 19 3c b0 e4 4d bb 45 98 d0 bb bd c1 54 bb
       0.00934844 -0.0031416826 -0.006365808 -0.003246411
000060 68 45 26 bb 7a ec 0f bb 02 86 d7 3a 4a 37 a6 bb
       -0.002537096 -0.002196102 0.0016443136 -0.005072509
000070 82 0e 72 bc c8 ba 31 bb 97 61 b6 bb 0b 72 f2 ba
       -0.014773967 -0.0027119387 -0.005565833 -0.0018497122
000080 30 86 fa 3b fa 2c d0 3b eb 3b 02 3c 0d 90 eb 3b
       0.007645391 0.006353018 0.007948856 0.007188803
000090 95 95 94 bb e4 3d a7 ba 5f 9e 6a 39 7d b2 30 bb
       -0.004534433 -0.0012759534 0.00022374977 -0.0026961856
0000a0 48 34 e9 3a 67 c1 07 bc 2a 5e 36 3c a0 f4 53 3b
       0.001779207 -0.008285857 0.011130849 0.0032341853
0000b0 05 5d 1d 3c cb 4f 6f 3b 23 42 a1 3a ef af 84 b9
       0.009604697 0.0036516066 0.0012303035 -0.00025308083
0000c0 f2 27 82 b9 93 07 b5 3b eb f1 68 bb 62 ed 84 bb
       -0.00024825294 0.0055245846 -0.0035544585 -0.0040566185
0000d0 4f 27 59 bc 68 ec 46 3b e6 3e 3e 3c 3b 3f ac bb
       -0.013254001 0.0030353311 0.011611676 -0.005256561
0000e0 6f 09 c7 ba 37 34 90 bb 92 32 e3 3a e2 39 5d ba
       -0.0015185307 -0.0044007557 0.0017333797 -0.0008439106
0000f0 0f 6b 19 3c 6f 4d f9 bb fe c4 cb 3b 0c c7 9e 3b
       0.009363904 -0.0076081078 0.0062185517 0.0048455056
000100 a8 25 f5 bb b4 85 14 3c e0 09 44 bb ae c5 25 3c
       -0.0074812956 0.00906508 -0.0029913113 0.010117931
000110 2c 11 40 3b d2 5a 45 3b f6 19 2f 3c 95 a9 e4 bb
       0.002930711 0.0030113948 0.010687342 -0.0069782236
000120 8c af 80 bb c7 3f 6f b9 20 96 f1 3b c7 09 1a bb
       -0.003927177 -0.00022816575 0.0073726326 -0.0023504363
000130 fb 4c ca bb 0d ae d9 3b 0b 6f 00 bb 73 d1 b5 3a
       -0.0061737276 0.006643063 -0.0019597437 0.0013871625
000140 e8 df f6 bb 35 a9 54 bb b6 9b 80 3a e8 37 9a 3a
       -0.007534016 -0.0032449488 0.000981203 0.0011765929
000150 8f 78 91 3a 5c d5 2b 3b 5e 20 99 3b 24 70 01 bc
       0.0011098551 0.0026219701 0.004673048 -0.007900272
000160 60 68 f9 3b 22 98 ad bb 13 64 aa bb 4f 12 5c 3b
       0.0076113194 -0.0052976767 -0.005199918 0.0033580249
000170 30 c5 39 3a 03 88 11 bc 98 de 78 bb 7d 50 13 bb
       0.0007086573 -0.008882525 -0.0037974473 -0.0022478395
000180 19 bb bc 3b 9d c2 3b 3c 2d 51 a9 3a f7 46 5b b9
       0.0057596085 0.011459974 0.0012917869 -0.00020911904
000190 63 24 0d 3b 2f be 58 3a 5c 94 0d 3b 82 9a f8 bb
       0.002153658 0.00082680857 0.0021603322 -0.007586778
0001a0 1f 49 09 3a c5 31 be bb 2c f3 3e 3c c1 d0 94 3b
       0.0005237031 -0.005804273 0.011654656 0.004541487
0001b0 c0 0f 12 ba 5f e2 8b bb af 35 e8 3a cf 4b 3c bb
       -0.0005571805 -0.004268929 0.0017716194 -0.002873171
0001c0 d3 67 f4 b9 88 dc db ba ef 39 db ba cd a9 81 bb
       -0.00046616662 -0.0016774097 -0.001672564 -0.0039570094
0001d0 33 24 23 3c 70 7c 8b 3b e2 b3 f7 3b bb d8 a1 3b
       0.009957361 0.0042567775 0.0075592855 0.0049391664
0001e0 c9 c7 86 39 30 d7 b7 3b 95 f8 fd 38 c5 45 fc 3b
       0.00025707323 0.005610369 0.00012110282 0.007698747
0001f0 80 a9 8c 3a 07 0f fb 3a b1 fa c2 bb 4a 10 24 3c
       0.0010731667 0.0019154259 -0.005950295 0.010013649
000200 fa b7 e3 b7 bd 88 91 ba 4e 1a 14 bb bb 54 9d 3b
       -2.714618e-05 -0.0011103373 -0.0022598687 0.0048013604
000210 52 bb f8 3a 03 69 40 bc 69 10 0e 3c c3 2f ef bb
       0.0018976724 -0.011743787 0.008670905 -0.007299395
000220 3d 69 eb 3a 83 16 a6 bb 6f f3 6f 3c 54 50 8b bb
       0.0017960441 -0.0050686016 0.014645441 -0.004251519
000230 13 d6 63 bc b8 1d 3c ba 1e e8 34 3c 93 6d 54 bb
       -0.01390602 -0.00071760593 0.011041669 -0.0032413944
000240 8d 26 cd 3a d3 27 06 bb 5f 02 db bb bf ca 40 3c
       0.0015651748 -0.0020470514 -0.0066836323 0.011767088
000250 36 1b 22 bc db 3c 1c 3b 47 97 7f bb 0b a2 c3 bb
       -0.009894183 0.0023839984 -0.003900008 -0.0059702448
000260 37 54 dd bb f6 39 1d 3c 1c c7 29 ba 7e 79 8d ba
       -0.006754424 0.0095963385 -0.0006476508 -0.0010793654
000270 1d e5 55 bb 7c 05 41 3b 38 e3 f8 b9 6d 6c e0 bb
       -0.0032637783 0.0029452732 -0.00047471537 -0.006848863
000280 f5 1a 19 3c fa a2 99 bb 10 6f 24 bb bc e0 c7 ba
       0.009344806 -0.004688618 -0.0025090612 -0.0015249471
000290 b5 60 14 bc 4f 13 49 3b 33 57 90 bb b7 4d 62 bb
       -0.00905626 0.0030681675 -0.004404926 -0.0034531185
0002a0 e6 16 29 ba 95 a3 b7 3b 22 5e 81 bb 0b 48 0d 3b
       -0.00064502505 0.0056042173 -0.003947989 0.0021557834
0002b0 0f e4 48 3b e5 8b c6 3a 67 bc 8c bb ba e8 66 3b
       0.0030653512 0.0015147893 -0.0042949202 0.003523393
0002c0 93 6b 02 3c 2c 20 27 bb 13 ca af bb 7e 1a 15 bc
       0.007960218 -0.0025501354 -0.0053646653 -0.0091005545
0002d0 35 c0 55 39 17 e7 df bb 68 61 35 3c 00 51 02 3c
       0.00020384866 -0.006832968 0.011070587 0.007953882
0002e0 32 0b fd bb 7e 67 09 3b 4e 95 8b bb 28 d5 ff 3a
       -0.007722282 0.0020966227 -0.004259742 0.0019518482
0002f0 b0 b3 42 3b ef af a4 bb fe f4 3d 3c da d9 63 bb
       0.0029709153 -0.0050258557 0.011594055 -0.00347673
000300 99 6a 9e ba 50 6b d3 bb 2b 7e c0 39 a2 95 be bb
       -0.0012086212 -0.0064520016 0.00036715096 -0.0058161775
000310 67 7f 12 3c bb 22 25 bb b3 50 bd 3b 3f 03 f2 bb
       0.008941508 -0.0025197703 0.0057774424 -0.007385641
000320 68 89 e3 bb fd be cb 3b 77 45 1f 3c ca 57 38 3c
       -0.0069438703 0.006217836 0.009721152 0.011251399
000330 ea ff 60 3b a1 c1 a2 3b b7 d4 cc 3b a3 bc f6 ba
       0.0034332224 0.00496693 0.0062509435 -0.0018824529
000340 74 e8 45 bc 1f bf 16 3b 7f 51 24 bb e7 53 3e 3c
       -0.012079347 0.00230021 -0.002507299 0.011616684
000350 25 c7 df 3b eb 0f 53 3c 83 81 6f 3b 5b b3 45 bc
       0.00682916 0.012882213 0.00365457 -0.012066687
000360 c0 7f da 3b eb 72 86 3b 63 88 ab 3b ff cc 70 3c
       0.006668061 0.0041030548 0.0052347644 0.014697312
000370 dc e7 1f 3b f8 cf 7b 39 00 23 8a 3b 7f 68 16 3c
       0.0024399674 0.000240147 0.004215598 0.009180187
000380 ed 2b 55 bb 16 ab 45 bc 95 af 6c 3c e8 37 9b bb
       -0.0032527403 -0.012064716 0.014446159 -0.004736889
000390 da 1a f3 39 9f 88 fd 3b 29 83 c0 3b bb 06 8d bb
       0.00046368578 0.007737234 0.0058750105 -0.004303781
0003a0 7f e9 ce 3b 92 90 aa 3b c0 83 46 3c 4a 46 16 3b
       0.006314456 0.0052052224 0.012116373 0.002293008
0003b0 e0 40 1c bb 5f f8 04 bc 65 6c 53 3c 11 b6 ba 39
       -0.002384238 -0.008115857 0.012904261 0.00035612335
0003c0 a2 44 24 bc e7 32 1f 3b bb 32 0f 3c e5 5d df ba
       -0.010026129 0.0024291815 0.008740122 -0.0017041533
0003d0 e1 d7 96 bb 84 be 30 3c c3 bc 03 3c 0a 4b 1d bb
       -0.0046033715 0.01078761 0.00804061 -0.0024001026
0003e0 bb d4 8b bb 5e 77 9b 3b ff 1f c0 bb 27 4e 4c ba
       -0.004267303 0.0047444543 -0.005863189 -0.0007793628
0003f0 6f c9 9f ba 9d ec 98 bb 8d 69 f4 3b 65 47 13 bc
       -0.0012190769 -0.0046668784 0.0074588717 -0.00898919

action_model._discrete_distribution.branches.2.weight f4 [3, 256]
000000 53 5f 9d ba 1b f8 4c 3c 20 48 9b 38 78 4c ba bb
       -0.0012006558 0.012510325 7.40441e-05 -0.0056853853
000010 b2 0c ff b8 36 37 18 bc dd 35 fe ba 18 18 d1 ba
       -0.00012161712 -0.009290507 -0.0019394715 -0.0015952615
000020 80 20 38 bb f9 48 38 3c 07 04 a7 3a 9f 65 39 bb
       -0.0028095543 0.011247867 0.0012742289 -0.002828933
000030 ab 4e c6 3b 2a 74 4d bb 70 c7 7d 3b 60 8a c2 3b
       0.0060518584 -0.0031349757 0.003872361 0.0059369057
000040 c5 75 c3 3b 16 d7 49 3a 45 0f 4e bc 13 a0 e0 bb
       0.005964967 0.0007699592 -0.012576883 -0.00685502
000050 62 2f 69 3b ed ab 42 3b e7 80 70 3b ff 0d eb 3b
       0.003558122 0.0029704527 0.0036697926 0.0071732993
000060 60 2d 13 bb 2a 20 27 bc 7b 32 f5 3b 3f e4 53 bb
       -0.0022457466 -0.01020054 0.0074828244 -0.003233209
000070 1d 98 d7 3b 7a 39 df ba 07 3a e9 bb 3a ec 8a 3b
       0.0065794126 -0.0017030679 -0.007117513 0.004239586
000080 fc 6f 1d 3b ed 77 6e bb 79 d7 a2 3b 53 e7 01 bc
       0.0024023047 -0.00363874 0.004969534 -0.007928687
000090 00 6f b4 bb 58 e8 f4 bb 95 5b d9 3b be 21 a5 3b
       -0.0055063963 -0.0074739866 0.006633232 0.005039423
0000a0 9a 8c f9 b9 b0 0c 88 bb 03 5f a0 3a 29 92 16 bb
       -0.00047597737 -0.004151903 0.0012235347 -0.0022975302
0000b0 2b 11 6b bb 9b 11 c8 39 7d 2d 76 3b aa 21 d4 bb
       -0.0035868387 0.0003816009 0.0037563734 -0.0064737396
0000c0 09 c3 18 bc 1d 33 30 bc a0 88 4b 3b cc c7 81 3b
       -0.009323844 -0.010754374 0.0031056777 0.003960585
0000d0 d3 d8 ad 3a b8 fb 3d bb a9 0f 94 bb 2b ce 9c 3b
       0.0013263471 -0.0028989147 -0.0045184684 0.0047853193
0000e0 eb eb e9 ba 47 39 f4 bb 5f 2a a9 bb 97 20 e8 3a
       -0.0017846798 -0.007453117 -0.0051625217 0.0017709908
0000f0 4d fe 2a bb 30 00 28 bc 4d b4 e4 3b 5f 5a 58 3b
       -0.0026091516 -0.010253951 0.0069795013 0.003301285
000100 4d 0f c8 3b 33 fd 4d bb a3 ea a0 3b 5c 4e a1 3c
       0.0061053396 -0.0031431436 0.0049107834 0.019690685
000110 ee 56 41 ba 47 67 b4 3b 72 3c b7 3a e7 23 a6 39
       -0.0007375319 0.0055054757 0.0013979806 0.00031688737
000120 0f 61 09 bb a0 1f e9 3b 1b 48 8b 3c 25 8e 1c 3c
       -0.0020962392 0.0071143657 0.017002156 0.009555374
000130 63 24 c9 bb df ed 91 3b 2d 6c f3 bb 8b e3 30 3b
       -0.006138371 0.0044534053 -0.007428667 0.0026991095
000140 51 d0 92 bb cf 84 d0 3a 37 e1 1b 39 3f 9b 22 3b
       -0.0044803997 0.0015908721 0.00014865851 0.0024811772
000150 4e 95 8e bb bf c0 27 bc 85 61 7a ba 03 4a 68 3a
       -0.0043512946 -0.010238825 -0.00095512747 0.0008861126
000160 48 a6 dd 3b 83 1b d8 3b 76 c1 a2 3a 0e 85 2c 3b
       0.006764207 0.0065950765 0.0012417275 0.0026324424
000170 39 03 a4 3b a7 c1 30 ba e8 2b da ba fc 89 0e ba
       0.005005267 -0.00067427236 -0.0016645165 -0.00054374314
000180 96 4c 27 bc bf a4 89 bb 92 4a 46 bc 48 1d d8 3b
       -0.010211131 -0.0042005475 -0.01210274 0.0065952875
000190 ab 04 90 b9 e6 bf 18 3a 8c f5 80 3b 37 81 e6 bb
       -0.00027469298 0.0005826935 0.0039355215 -0.0070344466
0001a0 69 d4 1e 3a f8 9b 7d bb 8a 1c 45 3c da 5f 06 3c
       0.0006058873 -0.00386977 0.01203073 0.008201564
0001b0 66 54 a2 3b 97 99 28 bc 30 30 e9 3b 8b fa 49 bb
       0.0049539087 -0.010290525 0.00711634 -0.0030819501
0001c0 75 04 5a 38 3f f8 b0 bb 70 a2 33 3b ab aa 83 bb
       5.19794e-05 -0.005400687 0.0027410053 -0.004018148
0001d0 ba cb ed 39 cb bf 8c 3b 0d 97 1b bc fb 13 aa bb
       0.0004535595 0.0042953244 -0.0094964625 -0.00519037
0001e0 0a 6d 3b bc b5 db 26 3b 3a 94 64 bb 2b b4 3a 3b
       -0.011439571 0.0025460545 -0.003487839 0.0028488736
0001f0 c3 cd 19 3c 7d 3f dd ba a5 66 e7 bb a7 26 94 3c
       0.009387436 -0.0016879883 -0.0070617967 0.018084837
000200 8b 0f b8 3b eb 95 28 3b a0 ff 9e ba c3 3c 73 bb
       0.0056170872 0.0025724124 -0.0012130626 -0.0037115074
000210 11 73 34 3b 33 2f ba 3a ab 3e ca bb c8 84 1e bc
       0.0027534405 0.001420474 -0.0061720214 -0.009675212
000220 45 7a 12 3c f0 fe c9 3a 28 67 4b 3a fa 08 2e 3c
       0.008940284 0.001541106 0.0007759207 0.010622257
000230 57 c5 b1 3b 73 64 de 3b f5 cb 4d ba a7 a6 36 bb
       0.005425136 0.006786877 -0.00078505214 -0.0027870329
000240 e3 9b 21 3c b6 87 47 bb a1 2c 82 bc f6 f8 3c bc
       0.009863826 -0.003044588 -0.015890421 -0.011533966
000250 ab 00 7c 3a 9a 60 97 bb 77 d0 77 bb 41 e7 86 b8
       0.00096131366 -0.00461967 -0.0037813464 -6.432692e-05
000260 a3 01 15 3a 08 18 52 ba 23 59 30 3c 0b 6e c3 3b
       0.0005684143 -0.0008014445 0.010763439 0.005964046
000270 71 88 8d ba 4b b6 0b 3b a8 f4 cd 3a c5 42 6c 3c
       -0.0010798109 0.0021318372 0.0015713172 0.014420216
000280 48 fb 59 3b fb 61 85 bc a2 3e 63 3a b0 f7 d2 3b
       0.0033261348 -0.016282072 0.0008668696 0.006438218
000290 e4 d9 17 3b f5 90 e3 3b 47 2b 4e bb 52 58 7e 3a
       0.0023170644 0.0069447705 -0.00314589 0.0009702492
0002a0 d5 b2 83 bb f2 1c d4 3b 95 76 3c 3b cc 75 22 ba
       -0.004019121 0.006473177 0.0028757204 -0.00061973627
0002b0 db 79 56 3b bf b3 b3 bb de 08 ad 3b f1 9e 8f 3b
       0.003272644 -0.005484074 0.005280598 0.004382961
0002c0 67 63 8e bb be 3f 16 3c 0b bb 81 3b f9 76 20 39
       -0.004345346 0.009170471 0.003959065 0.0001530311
0002d0 84 03 9c 3a a5 3f 88 3b 6e e3 44 bb 7f d6 31 3b
       0.0011902903 0.0041579776 -0.0030042785 0.0027135906
0002e0 c8 cc 57 3b 57 be 06 bb 70 61 72 3b 57 66 c6 3b
       0.0032928456 -0.0020560229 0.0036984347 0.0060546803
0002f0 79 80 49 bc 3a 85 8e 3b 2a 70 e5 ba 22 9b 43 bb
       -0.012298697 0.004349378 -0.0017504741 -0.0029847105
000300 d9 5a 2c bc 6b de 81 bb 72 a2 ba 3a b7 23 8f bb
       -0.010519707 -0.003963282 0.0014239086 -0.004368271
000310 7a 82 53 3b 1f fd e2 bb 21 8d 31 bb fc ae c7 ba
       0.0032273815 -0.006927147 -0.0027092176 -0.0015234645
000320 12 cf 1a 3c 47 7c d0 bb 72 b3 2e bb 13 06 4a 3b
       0.0094487835 -0.0063624713 -0.002665725 0.0030826374
000330 f3 96 96 bb e5 3d 2f bb 1a 71 80 3b 47 a5 30 bb
       -0.0045956313 -0.0026739773 0.0039197328 -0.0026953982
000340 73 d9 25 bc 5c 0a 21 3c d3 1e 48 3b 02 34 a9 3a
       -0.010122645 0.00982913 0.003053595 0.0012909176
000350 98 c3 84 3b 2d 08 7a 3a f2 63 4d 3b 6b 60 8f 3b
       0.004051637 0.00095379615 0.003134009 0.0043755076
000360 47 1e 09 3c db ab 6f bb d6 c5 24 3c 90 8b 3f bb
       0.008369035 -0.003657094 0.010056933 -0.0029227473
000370 9e 9b 00 bc df 3b a3 bb 61 56 a7 bb 8f 72 8a 3b
       -0.007849602 -0.0049815024 -0.0051067327 0.004225082
000380 67 35 72 3b 6a 2c a2 3b 30 74 e7 ba 85 1b f2 b9
       0.00369581 0.004949142 -0.0017658528 -0.0004617834
000390 cd d3 d8 3b 07 13 80 3c 7a 1e 14 bc 31 e3 17 3c
       0.0066170455 0.015634073 -0.009040469 0.009270475
0003a0 65 bf d4 3b 53 7f ea bb f2 aa 7c b9 1f e3 0b bc
       0.0064925426 -0.0071562915 -0.00024096275 -0.008538037
0003b0 82 30 e6 ba 47 2f 35 3c 84 71 37 bb 10 d0 6b 39
       -0.0017562064 0.011058635 -0.0027991245 0.00022488856
0003c0 78 98 6f 3b 70 07 59 3b 54 35 82 3a 51 7e cb 3b
       0.0036559384 0.0033116005 0.0009934106 0.0062101264
0003d0 50 17 f7 3b 30 8f 12 bc e3 60 46 bb c3 f8 7f bc
       0.007540621 -0.008945271 -0.0030270151 -0.015623274
0003e0 db 36 ee 39 f6 11 86 bb 07 51 07 bc 08 d9 98 3b
       0.00045435768 -0.0040914966 -0.0082590645 0.004664544
0003f0 87 ac 8f 3b 0a 7a 55 3c b3 27 29 3c 67 6b e7 b9
       0.0043845805 0.013029585 0.010324406 -0.00044139774

action_model._discrete_distribution.branches.3.weight f4 [2, 256]
000000 88 34 f7 3a 8b 3a e3 3a 07 78 e5 3a 37 bb 11 3c
       0.001886026 0.0017336173 0.0017507084 0.008894733
000010 9b 5c 1b 3b b8 1b 34 bc d0 5e 91 3b 40 d8 21 b9
       0.002370632 -0.010992937 0.0044363514 -0.00015434716
000020 d1 46 2f bc 6f 44 9f 3a 6a 3b de 38 0e 23 a4 b9
       -0.010698036 0.0012151132 0.00010596852 -0.00031306635
000030 8e c4 99 3b 3a 7f eb bb 1f b1 29 b8 a1 5e 2c bc
       0.0046926206 -0.0071867974 -4.0457697e-05 -0.010520608
000040 a5 00 e0 b9 97 a2 d1 3b b4 ab a1 bb c1 6a 13 3c
       -0.0004272509 0.006397556 -0.0049337987 0.00899762
000050 9d 86 d3 3b db 7d f2 3a 08 42 c6 ba 5f 22 54 3b
       0.006455256 0.0018500643 -0.001512588 0.003236912
000060 0a 1b 55 3c f1 e9 0f 3b 97 b0 98 3b 4d e1 b7 bb
       0.013006935 0.0021959508 0.004659723 -0.0056115747
000070 88 f1 16 bb c2 fa bd bb 14 24 04 bb bf 63 1a bb
       -0.0023032147 -0.005797715 -0.0020163106 -0.0023557988
000080 20 79 60 3b 94 ee 88 3b a8 4a 72 3b a5 60 b3 3b
       0.0034251884 0.0041788314 0.0036970768 0.0054741674
000090 9c 11 1a ba 1f 91 92 3b 94 06 42 3b 2a d0 84 ba
       -0.0005877258 0.004472866 0.0029605972 -0.0010132839
0000a0 1f 61 be 3a a2 0e 7b 3c 6f 41 82 b9 b9 3f 0f 3b
       0.0014524794 0.015323313 -0.00024844284 0.002185805
0000b0 67 2d 28 3b 20 e1 1d bb df 92 d4 ba 18 9a 35 bb
       0.0025661828 -0.0024090484 -0.0016218087 -0.0027710255
0000c0 02 a5 44 3b d2 6a e7 ba 03 55 6c bb e0 b0 1e 3c
       0.003000558 -0.0017655736 -0.0036061413 0.009685725
0000d0 bf ad 87 ba 3d a3 38 b9 0b 49 07 3b 05 15 a5 bb
       -0.0010351463 -0.00017608418 0.0020642902 -0.005037906
0000e0 18 a3 19 ba d3 b4 34 bb 22 c9 6e bb 01 1f 27 b9
       -0.00058607897 -0.00275736 -0.0036435802 -0.00015937911
0000f0 39 43 b1 ba 12 dd 91 3b e4 4a 98 39 ed 3b 2e bb
       -0.0013524062 0.0044514025 0.00029047497 -0.0026586012
000100 1f c0 62 3b 87 12 8f 3b 91 ef ba 37 2f 3a 4f 3c
       0.0034599376 0.0043662223 2.2284485e-05 0.012648149
000110 a8 92 b7 ba 78 ba 9c b9 f0 84 b3 3a 54 d6 13 3c
       -0.0014005499 -0.0002989357 0.0013696235 0.009023268
000120 92 0c 0b 3c 50 2e 07 bc 43 d7 e8 3b 63 4d a0 3b
       0.008486884 -0.008250788 0.0071057393 0.0048920377
000130 30 a8 a4 bb 2f 30 31 3c 5d a4 10 bc 8e 1a 95 bb
       -0.0050249323 0.0108147105 -0.00882825 -0.0045502847
000140 6a 4a 8d bb 62 96 c5 3a 77 ac c8 3b 89 aa 26 bc
       -0.0043118494 0.0015074725 0.006124075 -0.010172495
000150 cd a5 1d 3c 37 02 a0 bb 46 f9 86 3b 19 6a bf 3b
       0.0096220495 -0.0048830765 0.004119071 0.0058415052
000160 53 3f 70 3b 75 a3 f8 3b 46 d7 9f ba 9f 97 99 bb
       0.0036658838 0.007587845 -0.0012194894 -0.004687264
000170 41 66 98 bb d7 37 71 bc bb 7c 7f 3b f3 99 e3 bb
       -0.0046508615 -0.014722786 0.0038984257 -0.0069458424
000180 88 95 c4 3a 5b bb 5b bc 72 f3 df bb df 81 bc b7
       0.0014998177 -0.013411368 -0.006834441 -2.2471822e-05
000190 4b 99 89 bc 65 20 54 3c c4 cd ae 3a 97 b7 19 3c
       -0.016796729 0.012947177 0.001333647 0.00938215
0001a0 2d 3a 7f 3b c7 1d 60 3c ab 1f 65 3c 71 d2 27 bb
       0.0038944588 0.0136789745 0.013984601 -0.002560761
0001b0 13 f7 9e 3b 01 89 aa ba 78 ff 80 bb 92 ce 31 bb
       0.004851231 -0.0013010801 -0.0039367042 -0.0027131182
0001c0 8e 45 0f 3c 90 9c 8a ba ea b6 95 3b 7b 08 16 bb
       0.0087446105 -0.0010575224 0.004568924 -0.0022893238
0001d0 cf e8 63 3b 49 9a 80 3b aa d6 07 bb 80 a1 38 bb
       0.0034776216 0.003924642 -0.0020727315 -0.0028172433
0001e0 b4 13 2e 3b 6a 0f 06 3c 0f b5 9a 3b f5 90 fd 39
       0.0026562037 0.008182386 0.004721291 0.00048363922
0001f0 eb a2 3b 3b 6f b0 98 bb 27 c3 93 3b 03 f1 47 bb
       0.0028631042 -0.0046597044 0.004509348 -0.0030508644
000200 c7 9a 27 bc df 83 23 3c 15 c1 dc ba be a6 18 3c
       -0.010229773 0.009980171 -0.0016842211 0.009317098
000210 75 b3 e9 bb f5 4c 0c bb d7 8d 90 bb 0f 03 0d bc
       -0.0071319886 -0.0021408175 -0.00441144 -0.008606686
000220 6a dc 9c bb 5b 3d 8f 3b cd 44 e3 39 12 b9 80 3b
       -0.0047870176 0.004371328 0.00043348075 0.003928312
000230 f3 d9 1e bb 83 fd cd b9 4c b7 b8 3b 43 3e 1d 3c
       -0.0024238795 -0.00039289528 0.005637085 0.009597364
000240 53 51 be bb a7 52 c8 3b 32 64 6b 3a f4 c5 bb b8
       -0.0058080344 0.0061133686 0.0008979469 -8.9537265e-05
000250 fd 2f eb bb ab 5e 0b 3b 43 fd c3 bb 0f 5e 73 3b
       -0.0071773515 0.0021266143 -0.005981119 0.003713492
000260 39 69 82 3b b1 6b 29 bb f6 b3 bd b9 bb 5e e0 3a
       0.0039798287 -0.0025851543 -0.0003618297 0.0017118076
000270 72 a1 5e 3b 47 69 82 bb 21 f0 ca 3b 13 08 bd bb
       0.003397074 -0.003979835 0.0061931764 -0.005768785
000280 2b 6c 03 3a bf 66 91 3b 72 89 46 bc b7 f1 ed 3a
       0.00050133717 0.004437297 -0.01211773 0.0018153702
000290 74 61 a1 ba eb 7f 05 b9 7f c4 11 bb 6a a4 83 3b
       -0.0012312368 -0.00012731522 -0.0022242365 0.0040174024
0002a0 80 ab 89 ba f7 68 52 bc bf 40 e2 3b 58 e7 9f bb
       -0.0010503381 -0.012842408 0.006904691 -0.0048798732
0002b0 17 03 0a 3c e3 97 4b ba 8e 00 0c 3c 47 eb 4d 3b
       0.008423588 -0.00077664683 0.008545054 0.0031420754
0002c0 c9 fb 83 3b 9b d5 57 bb 77 17 83 bb a7 eb b5 ba
       0.004027818 -0.0032933715 -0.0040006 -0.0013879434
0002d0 73 be 92 3a e3 d0 06 bb 10 a5 ea bb d7 e7 08 bb
       0.0011195674 -0.0020571284 -0.0071607903 -0.002089014
0002e0 3d c0 ce ba 13 62 08 bb cb 2d 7b 3a 81 3d 11 bc
       -0.0015773844 -0.002081041 0.0009581714 -0.008864761
0002f0 3e 6b 3b bc 13 c8 26 bb 30 56 05 3c 6f 59 74 3b
       -0.011439143 -0.0025448843 0.0081382245 0.0037284752
000300 7b 6c 24 3c 42 3e 06 3c b3 d3 be bb 3b 3d 17 bc
       0.010035629 0.008193554 -0.0058235764 -0.009230907
000310 ef 0e e3 3b 26 e8 29 bc ed ef 2f bb c2 f8 a0 3b
       0.0069292705 -0.01037029 -0.0026845888 0.0049124667
000320 7b 8a 32 3b 0b 40 ef bb b8 b3 ec 3a 68 7b 9f 3b
       0.0027243185 -0.0073013357 0.0018058931 0.004867006
000330 28 5e 59 3a ad 62 0b ba 1f cf 53 3a b9 81 28 bb
       0.00082919234 -0.0005317133 0.00080798747 -0.0025712086
000340 9b f4 50 bc a1 2b 25 3b f7 5c 2e 3b 84 ec 04 3c
       -0.012753631 0.0025203007 0.0026605704 0.00811303
000350 49 3d 1a 3b 67 e3 04 3b 9d 00 10 bc 03 44 25 bc
       0.0023535064 0.0020277144 -0.008789209 -0.010087016
000360 42 5b 08 3c 5f a5 78 bc e6 bb 22 bc 0e cf 0c bb
       0.008322539 -0.015176146 -0.009932494 -0.002148572
000370 7c 0d 11 bc 3b 37 82 3b 9b f9 2c bc 22 f1 54 3b
       -0.008853313 0.003973869 -0.010557557 0.003249236
000380 3a 6c d5 bb f9 39 b1 3a 6f e1 8c ba 9e 57 86 3c
       -0.0065131458 0.0013521306 -0.0010748337 0.016399201
000390 e4 1d 92 3b f2 f8 fb 3a f6 96 9d bb 56 d1 ad 3b
       0.0044591296 0.0019223972 -0.0048092557 0.005304496
0003a0 d4 f2 10 bc 10 21 d9 3a a5 09 80 3b b8 1c 53 39
       -0.008846957 0.001656564 0.0039073997 0.00020133227
0003b0 02 94 ea 3b 7f ba ed b9 9d e3 73 3a 7f 63 ae 3b
       0.007158757 -0.00045343113 0.00093036314 0.0053219195
0003c0 18 34 58 3b 3a a2 56 3a 6f 8a df 3b 0b d4 8a bb
       0.0032990035 0.0008187626 0.0068219225 -0.0042367033
0003d0 78 39 cc bb 3a 16 54 bb 5d f9 52 3b bf 18 27 3b
       -0.0062324367 -0.003236188 0.003219209 0.0025496928
0003e0 ab 00 3a 3b 77 f5 1b bc 8d e5 b6 ba 2a 32 13 3c
       0.0028381746 -0.009518973 -0.001395391 0.008984128
0003f0 9b 7d b0 ba 07 6d d8 bb 8a e9 c6 bb 32 16 82 bb
       -0.0013465168 -0.006604794 -0.0060703205 -0.003969931

action_model._discrete_distribution.branches.3.bias f4 [2]
000000 00 00 00 00 00 00 00 00
       0.0 0.0

onnx::Div_100 f4 [11]
000000 00 00 80 3f 00 00 80 3f 00 00 80 3f 00 00 80 3f
       1.0 1.0 1.0 1.0
000010 00 00 80 3f 00 00 80 3f 00 00 80 3f 00 00 80 3f
       1.0 1.0 1.0 1.0
000020 00 00 80 3f 00 00 80 3f 00 00 80 3f
       1.0 1.0 1.0
