results/B_1/Badminton/Badminton-3458808.onnx (onnx, 299422 bytes, 15 tensors)

discrete_act_size_vector f4 [1, 4]
0	0x40400000	3.0
1	0x40400000	3.0
2	0x40400000	3.0
3	0x40000000	2.0

network_body.observation_encoder.processors.0.normalizer.running_mean f4 [11]
0	0x3bd2bbf4	0.006431097
1	0x3c824aae	0.01590475
2	0x3ededd01	0.43527988
3	0x3ede167d	0.43376532
4	0x40bd2ca6	5.9117002
5	0x3bb3f8f6	0.005492325
6	0xbf113ea4	-0.56736207
7	0x3b93e3bc	0.004513232
8	0xc049d54e	-3.153644
9	0x2d46fea6	1.131154e-11
10	0xacfffe44	-7.275765e-12

network_body._body_endoder.seq_layers.0.weight f4 [256, 11]
0	0xbd68d4f5	-0.056843717
1	0x3d8f917a	0.07010169
2	0xbe9eb1da	-0.30995065
3	0x3f09dc95	0.53852206
4	0x3e59843e	0.21241853
5	0x3ecaeb96	0.39632863
6	0x3eaff9c7	0.34370252
7	0x3e43f08d	0.19134732
8	0x3c816703	0.01579619
9	0x3ef35abf	0.4753017
10	0x3db96756	0.09052913
11	0xbd9c3a71	-0.07628334
12	0x3ee0828f	0.43849608
13	0xbdb84f31	-0.089994796
14	0x3eac7bfb	0.3368834
15	0xbe3c776c	-0.18404931
16	0x3eb60348	0.35549378
17	0x3f149da2	0.5805303
18	0x3e46eb03	0.19425587
19	0x3f2b3353	0.6687519
20	0xbe43589d	-0.19076772
21	0xbc9c351b	-0.019068291
22	0x3de48254	0.111576706
23	0x3ebc8886	0.3682291
24	0x3f178c01	0.59198004
25	0xbe42ba1f	-0.19016312
26	0xbf386d5f	-0.7204189
27	0x3af392ff	0.0018583237
28	0xbc3870f3	-0.011257398
29	0xbe1c35a3	-0.15254836
30	0xbe8fc148	-0.2807715
31	0xbead880a	-0.33892852
32	0x3f0c7cde	0.5487803
33	0x3df233ea	0.11826308
34	0x3e375b7b	0.17905991
35	0x3e863037	0.2620866
36	0xbe664fe8	-0.2249142
37	0xbf4d9a18	-0.80313253
38	0xbe89f182	-0.26942068
39	0x3e8e3213	0.2777258
40	0x3e1b4aee	0.15165302
41	0x3e38a73e	0.18032548
42	0x3df2c97c	0.11854836
43	0xbe2bd99e	-0.16782233
44	0xbee4357a	-0.4457205
45	0x3e0240ca	0.12720028
46	0xbeb8dda8	-0.3610661
47	0x3bd2e6fc	0.006436227
48	0xbca947e1	-0.020664157
49	0x3ecd3e52	0.4008661
50	0x3d67fa74	0.056635335
51	0xbdbe1966	-0.09282188
52	0x3e15b21e	0.14618728
53	0x3ea7e3e7	0.32791063
54	0xbea5c19d	-0.32374278
55	0xbe93c5fe	-0.28861994
56	0x3f052c29	0.5202051
57	0x3ecb1522	0.3966456
58	0x3e111e2e	0.14171669
59	0xbe2e08b6	-0.1699551
60	0xbdedfaa6	-0.11620073
61	0x3d7447a9	0.059638653
62	0xbeea0843	-0.45709428
63	0xbec9204c	-0.39282453
64	0xbe9562f9	-0.29177073
65	0xbe37340b	-0.17890947
66	0xbe958148	-0.29200196
67	0x3e462388	0.19349492
68	0xbc9ef3f1	-0.01940343
69	0x3e9ff36a	0.31240398
70	0xbf0b4b19	-0.54411465
71	0x3dc43f89	0.09582431
72	0x3d22d5b8	0.0397546
73	0xbe314473	-0.17311268
74	0x3e415588	0.18880284
75	0xbeb2187a	-0.347843
76	0x3d93c155	0.072146095
77	0xbe4f852f	-0.2026565
78	0xbcf3ad46	-0.02974571
79	0x3da1d553	0.079020165
80	0xbe92a57a	-0.28641874
81	0x3e89a1cd	0.26881257
82	0x3e0c2ab7	0.1368817
83	0xbe7dfca6	-0.24803409
84	0xbebcc37c	-0.36867893
85	0xbdd90163	-0.105959676
86	0x3f0b49f8	0.5440974
87	0xbe052e88	-0.13006032
88	0x3ea03413	0.3128973
89	0x3d60d80b	0.054893535
90	0xbee27254	-0.4422785
91	0x3d3ef92a	0.04662434
92	0x3efe3ed3	0.49657306
93	0x3d2453fc	0.040119156
94	0x3e129a83	0.14316754
95	0xbdd0a76d	-0.10188184
96	0x3e361a12	0.17783383
97	0xbe236a7d	-0.15958591
98	0xbe496961	-0.19669105
99	0x3e8c1e93	0.27367076
100	0xbe5f2925	-0.21793039
101	0xbf113565	-0.567221
102	0xbf0267cc	-0.5093963
103	0xbe40e40b	-0.18836991
104	0xbe7b0c28	-0.24516356
105	0x3da4d54b	0.08048495
106	0xbe9a8903	-0.30182657
107	0xbe4a67cf	-0.19766162
108	0xbeecd180	-0.46253586
109	0xbc2d04fe	-0.010560272
110	0xbddd6e1f	-0.108120196
111	0x3e098116	0.13428149
112	0xbec8e554	-0.39237463
113	0x3e2dc246	0.1696864
114	0xbb4e2a1e	-0.003145821
115	0x3ebc7fee	0.36816353
116	0x3d23861d	0.039922822
117	0x3ec9d685	0.39421478
118	0xbdc63207	-0.09677511
119	0xbe0afbc1	-0.13572599
120	0x3e05e61a	0.13076058
121	0xbdd1e3c5	-0.10248522
122	0xbd708c2f	-0.05872744
123	0x3f5f5ff0	0.87255764
124	0x3e1e263a	0.1544427
125	0xbe2076f8	-0.15670383
126	0x3d561c5a	0.052273132
127	0x3e36fb55	0.17869313
128	0xbbbece0c	-0.0058229025
129	0xbd8fbb01	-0.0701809
130	0xbee9baa3	-0.45650205
131	0xbe82420a	-0.2544101
132	0xbf08018b	-0.53127354
133	0xbec45d57	-0.38352463
134	0x3e9dcb8e	0.30819362
135	0xbe46e5f6	-0.1942366
136	0xbc1a155e	-0.009404508
137	0xbed5c273	-0.41749915
138	0xbbfe2ef0	-0.00775706
139	0xbf277167	-0.65407413
140	0x3ee49623	0.44645795
141	0x3e87c730	0.26519156
142	0xbf099678	-0.5374522
143	0xbc33d4d2	-0.010976033
144	0x3e0392b2	0.12848929
145	0x3eef5613	0.46745357
146	0xbe501441	-0.20320226
147	0x3f15a38e	0.5845269
148	0xbc123e7d	-0.008926031
149	0xbe26f532	-0.16304472
150	0xbdecb734	-0.11558381
151	0xbe18a5d2	-0.14907005
152	0xbd5ec046	-0.054382585
153	0x39dea284	0.00042464223
154	0x3eaa1299	0.33217314
155	0xbe02fc62	-0.12791589
156	0x3e6b0cc6	0.22954091
157	0xbed2da92	-0.4118238
158	0xbe0c6a05	-0.13712318
159	0xbd4d797a	-0.050164677
160	0xbde7f2f9	-0.1132564
161	0xbc9e38cc	-0.019314192
162	0x3f1c5594	0.6106808
163	0x3ded2183	0.115786575
164	0xbf384ca2	-0.7199193
165	0xbac70dc7	-0.0015186601
166	0x3d832275	0.064030565
167	0x3f1f9d5f	0.62349504
168	0x3c175bb4	0.009238172
169	0x3d886d4d	0.066614725
170	0x3e439e9c	0.19103473
171	0xbe54d041	-0.20782568
172	0xbf19cd8d	-0.6007927
173	0xbeae8e0b	-0.34092745
174	0xbf03fc69	-0.5155702
175	0x3e480567	0.19533311
176	0xbe62e770	-0.22158599
177	0xbdcc5e60	-0.09978938
178	0xbe0784a2	-0.13234189
179	0xbf111944	-0.5667918
180	0x3d9fa820	0.07795739
181	0xbe69c8cb	-0.22830503
182	0x3e6344e6	0.22194251
183	0xbcb45ede	-0.022017892
184	0xbe79bae2	-0.24387696
185	0x3d9cb802	0.07652284
186	0x3ebab672	0.3646732
187	0x3ee6030b	0.44924197
188	0x3e6a40cc	0.2287628
189	0xbed1485a	-0.40875512
190	0xbc442657	-0.011972032
191	0x3e53f267	0.20697938
192	0xbed3bd19	-0.41355208
193	0x3d826131	0.06366194
194	0xbe7220b6	-0.2364529
195	0x3ea8c9b4	0.32966387
196	0xbe32e3b5	-0.17469676
197	0xbe85f05b	-0.2615994
198	0x3e99c01b	0.30029377
199	0x3e6a9b7b	0.22910874
200	0xbf39fcb6	-0.7265123
201	0xbd9db94d	-0.07701359
202	0xbcd29d1f	-0.025709687
203	0xbd7dd716	-0.0619727
204	0xbecec225	-0.40382496
205	0x3f3d4d38	0.7394595
206	0xbccfd668	-0.025370792
207	0x3d947a59	0.072498985
208	0xbe05adf8	-0.13054645
209	0xbe172dfd	-0.14763637
210	0xbe9e0287	-0.30861303
211	0xbe0c3a9e	-0.13694236
212	0xbe71b1f9	-0.23603047
213	0x3e9d96cf	0.3077912
214	0x3e125bf0	0.14292884
215	0xbe1aec8f	-0.15129302
216	0xbef6ded8	-0.4821689
217	0x3e53a443	0.2066813
218	0x3f02d2ee	0.51103103
219	0xbe39fa3e	-0.18161866
220	0x3ea0d351	0.31411222
221	0xbecda818	-0.40167308
222	0xbe3701fd	-0.17871852
223	0xbe5cab22	-0.21549657
224	0xbbda3795	-0.006659458
225	0x3d67af84	0.05656387
226	0x3e4113b6	0.18855175
227	0xbba9e2a2	-0.0051844874
228	0xbd856592	-0.065135136
229	0x3e82394e	0.25434345
230	0xbef633ec	-0.48086488
231	0x3e4a53b2	0.1975849
232	0x3f91fd45	1.1405417
233	0xbdca58d4	-0.09880224
234	0x3c1c23b3	0.009529996
235	0x3f5e4f84	0.8684008
236	0xbf4a228d	-0.7895897
237	0xbea51c7c	-0.32248294
238	0xbd88569c	-0.066571444
239	0xbebe5477	-0.37173817
240	0xbe8a995c	-0.2707013
241	0xbe4a0dd8	-0.19731843
242	0xbdd6068d	-0.10450468
243	0x3ccb5adb	0.024823597
244	0x3a93fbe3	0.0011290278
245	0xbc93b927	-0.018032623
246	0xbe90e702	-0.28301245
247	0xbe334412	-0.17506436
248	0x3ec9ee75	0.3943974
249	0x3efa05dd	0.48832598
250	0xbe275c75	-0.16343863
251	0x3bf5c6b6	0.007500495
252	0x3f05b456	0.52228296
253	0x3e5a19c9	0.21298899
254	0xbe909515	-0.2823874
255	0xbcc6779f	-0.024226962

network_body._body_endoder.seq_layers.0.bias f4 [256]
0	0xbbd2e018	-0.0064354055
1	0x3b5d0bc2	0.0033728932
2	0x3c22fd2a	0.009948054
3	0xbcf871da	-0.030327726
4	0xbc1192fd	-0.008885142
5	0x3ca1cbd5	0.019750515
6	0x3cfe951c	0.03107696
7	0xbd042d9b	-0.032270055
8	0x3d5bb71c	0.053641424
9	0x3b7b8bb7	0.0038382837
10	0x3cc1acce	0.02364197
11	0xbc56888b	-0.013094078
12	0x3b9f15a5	0.004854875
13	0x3cb281f6	0.021790486
14	0x3a86a01f	0.0010271108
15	0x3ca0107a	0.019539107
16	0xbbecc3e5	-0.007225501
17	0xbb9abbef	-0.0047221105
18	0x3d016a5f	0.031595584
19	0x3cd545ef	0.026034323
20	0x3be72886	0.0070543913
21	0x3d62c71a	0.05536566
22	0xbd5313d2	-0.051532574
23	0xbc99eb09	-0.018788831
24	0xbc454eda	-0.012042725
25	0xbcd4cce9	-0.025976615
26	0xbc324c4f	-0.010882451
27	0x3bce0736	0.0062874807
28	0xbc58dd31	-0.01323633
29	0xbb9d755f	-0.0048052515
30	0xbc314134	-0.010818768
31	0xbbed7ed2	-0.007247784
32	0x3cde7c64	0.027158923
33	0xbc459b52	-0.012060957
34	0x3b1fb873	0.0024371415
35	0xbc84a6a2	-0.016192738
36	0x3cfe30ab	0.031029066
37	0x3cd7cf0d	0.026343847
38	0x3c31b03c	0.01084524
39	0xbd2c41be	-0.042054884
40	0x3c59d568	0.013295509
41	0xbbfc0b61	-0.007691786
42	0xbb8bf113	-0.0042706816
43	0xbc7610cb	-0.015018652
44	0xbca96a26	-0.020680498
45	0x3d469fc2	0.0484922
46	0xbc8de906	-0.017323028
47	0x3c5ac84e	0.01335342
48	0xbb2a4e82	-0.0025986736
49	0xbcce93d8	-0.025216982
50	0xbbcb6148	-0.006206665
51	0xbcb1a375	-0.021684388
52	0xbca83735	-0.020534137
53	0x3cdba017	0.026809735
54	0x3c2a1f2b	0.010383408
55	0x3999d319	0.00029339714
56	0x3cf99f6e	0.03047153
57	0xbaa872b7	-0.001285157
58	0x3cafd8d4	0.021465696
59	0xbbe54f14	-0.0069979522
60	0x3bfead6c	0.0077721383
61	0x3c2d8e66	0.010593032
62	0xbbe85534	-0.007090235
63	0x3b0ca965	0.0021463272
64	0xbcd88229	-0.026429253
65	0x3cce5b73	0.02519009
66	0xbc8ca898	-0.017170236
67	0xbc0b01c9	-0.008484312
68	0xbc57a210	-0.013161197
69	0xb9a3de9f	-0.00031255648
70	0x3acf2246	0.0015803061
71	0xbc3ddb6d	-0.01158796
72	0xbc476c3d	-0.012171802
73	0xbce4af9e	-0.027915772
74	0xbcc5d01e	-0.02414709
75	0x3c585cff	0.013205766
76	0xbc391967	-0.01129756
77	0xbc9c48fa	-0.019077767
78	0x3bf09488	0.007341925
79	0x3b5a7640	0.0033334643
80	0x3d7ab0e9	0.06120387
81	0xbc85b28d	-0.016320491
82	0xbc5e6f9a	-0.013576413
83	0x3cdbf795	0.026851455
84	0x3cbae530	0.022814363
85	0xbc071852	-0.0082455445
86	0x3cb1661e	0.021655139
87	0xbced7de0	-0.028990686
88	0x3d61357f	0.05498266
89	0x3c731e78	0.014838807
90	0x3d541503	0.05177785
91	0xbcd6c8ee	-0.026218858
92	0x3b0e008e	0.002166781
93	0xbb65b256	-0.0035048923
94	0x3bbaef89	0.0057048243
95	0x3d9ebc7b	0.077507935
96	0xbc210bde	-0.0098294895
97	0xbc1e9a75	-0.00968038
98	0xbbb227be	-0.0054368665
99	0xbc4fa57e	-0.012673734
100	0x3c55a1b1	0.0130390385
101	0x3d422713	0.047400545
102	0xbbfa3c7c	-0.007636605
103	0x3a8b48b8	0.001062653
104	0x3ca483b5	0.020082334
105	0xbb3bc732	-0.0028652665
106	0xbabb2021	-0.0014276543
107	0xbc9e1f04	-0.019301899
108	0xbc99f854	-0.01879517
109	0x3d339892	0.043846674
110	0x3b62f7cd	0.0034632564
111	0xbc932ece	-0.017966654
112	0x3d974631	0.07386435
113	0x3c2ed5b4	0.010671068
114	0xbd15ccd3	-0.03657229
115	0xbca56a35	-0.020192245
116	0xbb9d2773	-0.0047959625
117	0xbcbcaf0e	-0.023032691
118	0x3cce9e68	0.025222018
119	0xbcccac9b	-0.024984648
120	0x3cc0c4c1	0.02353132
121	0x3ce7a0f2	0.028274987
122	0xbc055b68	-0.008139469
123	0x3bf61bbd	0.007510631
124	0x3c49a05a	0.012306297
125	0x3bbe51e2	0.005808101
126	0xbcd8d3b6	-0.02646814
127	0xbcb8b20f	-0.022545842
128	0x3c8ddfd9	0.017318653
129	0xbc55b54a	-0.013043711
130	0xbccd2f06	-0.025046837
131	0xbc9adf1b	-0.018905213
132	0xbcafb6fe	-0.021449562
133	0x3cd59f8d	0.026077056
134	0xbcfa1eaf	-0.03053221
135	0xbbbd23f0	-0.0057721063
136	0xbc963da2	-0.018339936
137	0xbbee00db	-0.0072632856
138	0x3ba9add0	0.005178191
139	0x3c7b156a	0.01532493
140	0xbcf41727	-0.029796196
141	0x3ae12082	0.0017175826
142	0xbc2758de	-0.010214059
143	0x3c7a839a	0.015290165
144	0x3c308a36	0.01077514
145	0xbca6be3e	-0.020354386
146	0xbd555acd	-0.052088547
147	0x3d0afb7b	0.033931237
148	0x3c8b0fa0	0.016975224
149	0x3b9e6fbc	0.004835097
150	0xbc9daa11	-0.019246133
151	0xbc096117	-0.008384964
152	0x3d0b484d	0.0340045
153	0xbaa13142	-0.0012298005
154	0x3d240c22	0.040050633
155	0x3d184866	0.03717842
156	0xbb1e400f	-0.0024147069
157	0x3c556e32	0.013026761
158	0xbca1d893	-0.019756591
159	0xbcc358f1	-0.023846122
160	0xbb9cad6a	-0.0047814148
161	0x3c7279e7	0.014799572
162	0xbb602911	-0.0034204165
163	0x3c9b88db	0.018986156
164	0x3d79b19f	0.06096041
165	0x3ccf24f8	0.025286183
166	0x3cbd8a23	0.023137158
167	0xbcfce149	-0.030869143
168	0xbc9383e0	-0.018007219
169	0x3c517a6e	0.012785537
170	0xbab77933	-0.0013997912
171	0x3cf65b20	0.030072749
172	0x3a15169a	0.0005687267
173	0xbcb70acf	-0.022344021
174	0xbcc59f20	-0.024123728
175	0x3c9c4922	0.019077841
176	0xbc843165	-0.016136834
177	0xbcb12e5a	-0.021628547
178	0x3d5dfa90	0.054194033
179	0x3caf1f06	0.021377098
180	0xbc884b23	-0.01663739
181	0x3d21bd7c	0.039487347
182	0xb8ecca3a	-0.000112910246
183	0x3b3222af	0.0027181318
184	0xbc10acf0	-0.008830294
185	0xbc30f9be	-0.010801731
186	0xbd29d399	-0.04146156
187	0xbcd2b6e9	-0.025721984
188	0x3c4d8f2d	0.012546343
189	0x3b9d66c0	0.0048035085
190	0xbbea3894	-0.007147858
191	0x3c28b949	0.010298082
192	0xbcf73cd6	-0.030180376
193	0xba9f5744	-0.0012156744
194	0x39e3af68	0.00043427502
195	0x3bfea67e	0.0077713123
196	0xbc7cdb70	-0.015433177
197	0xba6bbdad	-0.00089928025
198	0xbd0af023	-0.03392042
199	0x3c767946	0.015043562
200	0x3c52ca8e	0.012865676
201	0xbd1f55d6	-0.03890022
202	0xba1c9634	-0.000597331
203	0xbca4385e	-0.02004641
204	0x3c00d828	0.007864036
205	0xbc1896c9	-0.009313294
206	0xbc30482f	-0.010759397
207	0x3ad4ebf5	0.0016244637
208	0x3d5e9e1a	0.054349996
209	0xbd66a7ff	-0.056312557
210	0xbcdc9e98	-0.026931092
211	0xbc40e246	-0.011772698
212	0x3bf179e8	0.0073692687
213	0x3c260376	0.010132661
214	0x3d41285e	0.047157638
215	0xbcc5da72	-0.024152014
216	0xbb9cb835	-0.0047827014
217	0x3bf7561e	0.0075481078
218	0xbce7723e	-0.028252717
219	0x3b6c7d1c	0.0036085313
220	0xbc8ca402	-0.017168049
221	0xbc441be0	-0.011969537
222	0x3c463343	0.012097183
223	0x3bcc6243	0.0062372996
224	0x3c29bb7a	0.010359639
225	0xbc78a2cc	-0.015175533
226	0xbc365422	-0.011128457
227	0xbcc4f752	-0.024043713
228	0x3bae871b	0.0053261644
229	0xbb8ba263	-0.0042613014
230	0x3d82d8dc	0.06389019
231	0x3d4988d9	0.049202774
232	0x3cb4af4e	0.022056248
233	0xbb8dde6c	-0.0043294933
234	0xbc088bc6	-0.008334106
235	0xbbc59da0	-0.0060307533
236	0xbbda3b28	-0.006659884
237	0xbba80f02	-0.005128742
238	0xbc7e220f	-0.01551105
239	0xbbeff8ee	-0.007323376
240	0xbc549464	-0.012974832
241	0xbbfe8aaa	-0.007767995
242	0x3c81da9a	0.015851308
243	0xb8828ea6	-6.2254534e-05
244	0x3b7566cd	0.0037445307
245	0xbc37a9d8	-0.0112099275
246	0xbc8353f9	-0.016031252
247	0x3d04f2ea	0.032458223
248	0x3c8fb5b2	0.017542694
249	0x3b7b913a	0.0038386122
250	0xbc443d78	-0.011977546
251	0xbc88f586	-0.016718637
252	0xbbbe8cf6	-0.0058151437
253	0x3c9bff2d	0.019042576
254	0xbce5b41f	-0.02803999
255	0x3c80339d	0.015649611

network_body._body_endoder.seq_layers.2.weight f4 [256, 256]
0	0xbda689e8	-0.08131772
1	0x3d40c925	0.047066826
2	0x3d93c5ee	0.072154865
3	0xba2999e5	-0.00064697705
4	0xbdc08f4d	-0.094023325
5	0x3d32ff92	0.043700762
6	0xbd0e7329	-0.034777794
7	0x3de4ea12	0.11177458
8	0xbdbc768e	-0.092023
9	0xbe140fc1	-0.14459135
10	0xbd90d8a7	-0.07072573
11	0xbcc4803a	-0.023986924
12	0xbd2209f6	-0.03956028
13	0xbd322a79	-0.043497536
14	0x3cda43ee	0.02664372
15	0xbd04cc06	-0.032421134
16	0xbd68ab9d	-0.05680429
17	0x3c4a2b6e	0.012339456
18	0xbda8924f	-0.08231031
19	0xbd8f24ff	-0.06989478
20	0xbd77ce46	-0.060499452
21	0x3ced7afc	0.028989308
22	0x3dace71c	0.08442518
23	0xbdc8e3f8	-0.098091066
24	0xbd70b7a1	-0.058768872
25	0x3c58bd99	0.013228797
26	0xbe1eb0af	-0.15497087
27	0x3d0fc7e6	0.035102747
28	0x3d35323c	0.04423736
29	0xbc5d76b2	-0.013517069
30	0x3c27f55c	0.010251369
31	0x3d43791a	0.047722913
32	0xbbf1b340	-0.0073761046
33	0x3d89a69e	0.06721233
34	0x3de7e468	0.11322862
35	0x3de475bb	0.11155268
36	0xbbe7a4d3	-0.007069209
37	0xbd2efeef	-0.042723592
38	0x3da58d3b	0.08083578
39	0x3d8ada48	0.06779915
40	0x3d206c90	0.039166033
41	0xbdb8b623	-0.09019115
42	0x3d964eb4	0.0733923
43	0xbddde7c1	-0.10835219
44	0x3d392396	0.045199953
45	0x3d86fa1f	0.065906756
46	0x3c525268	0.01283703
47	0xbc957d9a	-0.018248368
48	0xbd5c0da5	-0.05372395
49	0xbc50d1c0	-0.012745321
50	0xbd8a4b16	-0.06752603
51	0x3dc10bdd	0.09426091
52	0xbd4973a7	-0.04918256
53	0xbd26345e	-0.040577285
54	0xbcbe9312	-0.023263488
55	0x3c058f12	0.008151786
56	0xba36b229	-0.0006969297
57	0x3b8c7785	0.004286709
58	0xbd76c433	-0.060245704
59	0x3d23a074	0.039947942
60	0x3c0955fb	0.008382316
61	0x3da3167e	0.079632744
62	0x3d2cf110	0.042222083
63	0xbcb55074	-0.02213309
64	0x3cdc3ec0	0.02688539
65	0xbddc8cb7	-0.10769027
66	0xbdb61c45	-0.08892111
67	0xbd2ac6d9	-0.041693542
68	0xbd4b642f	-0.04965609
69	0xbccc308d	-0.024925495
70	0x3cc1d48c	0.02366092
71	0xbda75e33	-0.08172264
72	0xbc93a320	-0.01802212
73	0xbbd3838f	-0.006454892
74	0x3cb53cd8	0.02212374
75	0x3d73fa36	0.05956479
76	0x3d1e3167	0.038621332
77	0xbcd750ca	-0.02628364
78	0x3e04d947	0.1297351
79	0x3d08908b	0.033340972
80	0x3c908834	0.017643072
81	0x3cb5b6e9	0.022181945
82	0xb94099cb	-0.00018367839
83	0x3d54432d	0.051821876
84	0x3d9e0a27	0.0771678
85	0xbd06452a	-0.032780804
86	0x3d59822c	0.053102657
87	0x3dafe1ef	0.08588015
88	0x3da47e9d	0.08031962
89	0x3bdf8503	0.006821276
90	0xbd006da8	-0.031354576
91	0x3b66a853	0.0035195544
92	0x3dbde7f2	0.09272756
93	0xbd91ecab	-0.07125219
94	0x3c044cd2	0.008074956
95	0x3c9d0e91	0.019171985
96	0xbd192be9	-0.03739539
97	0x3d94f40b	0.0727311
98	0xbd0bbc31	-0.03411502
99	0xbdd73414	-0.1050798
100	0xbc8e3b01	-0.01736212
101	0xbddf8a8d	-0.10915098
102	0xbca4165e	-0.020030197
103	0x3d20c569	0.039250765
104	0xbd05b2bf	-0.03264117
105	0xbc9560f9	-0.018234717
106	0xbd4100b7	-0.047119822
107	0x3ddd8c6e	0.108178005
108	0xbd08de8d	-0.033415366
109	0x3d8aad01	0.06771279
110	0xbd02d9f8	-0.031946152
111	0xbcafdbd8	-0.021467134
112	0xbde15f42	-0.11004497
113	0x3d94fd0e	0.07274829
114	0xbd91c001	-0.071167
115	0xbd8a2fc7	-0.06747394
116	0xbb8055ef	-0.003916494
117	0x3d011e6f	0.031523164
118	0x3cd622bb	0.026139608
119	0xbda85952	-0.082201615
120	0x3d119169	0.035539065
121	0xbe2acc01	-0.16679384
122	0xbd84ef0d	-0.06490908
123	0xbd39389e	-0.04522001
124	0xbd137832	-0.0360033
125	0x3db84db2	0.08999194
126	0x3c4bdb0a	0.01244236
127	0xbd29e8d6	-0.041481815
128	0xbd44320c	-0.04789929
129	0xbdb08618	-0.08619326
130	0xbd09f899	-0.033684347
131	0x3c512d5f	0.012767165
132	0x3d0086e8	0.031378657
133	0x3d60bb0f	0.054865893
134	0xbd3bdc8c	-0.045864627
135	0xbda38bcf	-0.07985651
136	0xbd196649	-0.037451062
137	0x3d271c7f	0.04079866
138	0xbcbee1ac	-0.023300968
139	0xbd4183f4	-0.04724498
140	0xbd946c91	-0.0724727
141	0xbe006c2a	-0.12541261
142	0x3dae5229	0.085117646
143	0xbde17c88	-0.110100806
144	0x3d5a0abe	0.0532329
145	0xbda1b822	-0.07896449
146	0xbd0bba59	-0.03411326
147	0xbd5c865f	-0.053839084
148	0x3d8d74d5	0.069070496
149	0x3db05426	0.086098
150	0xbd365df7	-0.044523206
151	0x3d0c29b4	0.03421946
152	0xbcd00803	-0.025394445
153	0xbd187deb	-0.03722946
154	0xbc5c4a3e	-0.013445435
155	0xbd9dd7cc	-0.077071756
156	0x3daa53e9	0.08316786
157	0x3d657d51	0.056027714
158	0x3d1e75df	0.03868663
159	0x3c5003a8	0.012696184
160	0x3c38f635	0.011289169
161	0xbe1114bf	-0.1416807
162	0x3d4e0f73	0.050307702
163	0x3cd3fb44	0.025876649
164	0xbe15b120	-0.14618349
165	0xbd086975	-0.033303697
166	0x3d0e2548	0.034703523
167	0x3cd5f33f	0.026116965
168	0x3cad5f62	0.021163646
169	0xbc817725	-0.015803883
170	0xbd93b0a3	-0.07211425
171	0xbdbcbeb2	-0.0921606
172	0x3c915290	0.017739564
173	0xbcd08ff6	-0.02545927
174	0xbe24c292	-0.16089848
175	0x3d61f93c	0.05516933
176	0xbe060612	-0.13088253
177	0xbd8d843a	-0.06909986
178	0x3c8a9efc	0.016921513
179	0xbc32251f	-0.010873108
180	0xbd0b4aa8	-0.034006745
181	0xbd661b89	-0.056178603
182	0xbcc33c29	-0.023832398
183	0xbda992a8	-0.082799256
184	0xbd40c5a8	-0.0470635
185	0xb9dddd9a	-0.0004231751
186	0x3d9e9ded	0.07744966
187	0xbcba95ce	-0.02277651
188	0xbcdf8e68	-0.027289584
189	0x3cd05415	0.025430718
190	0x3c872b8e	0.01650026
191	0x3bdc0d22	0.0067154327
192	0x3da070d2	0.07834019
193	0x3d923394	0.07138744
194	0xbd2dbd38	-0.04241678
195	0xbccec4ff	-0.02524042
196	0xbd30fd62	-0.043210395
197	0x3aad7cce	0.0013236047
198	0x3e38e743	0.1805697
199	0x3dca0ef6	0.09866135
200	0xbde35d1a	-0.11101742
201	0xbca54ce4	-0.020178266
202	0xbca30829	-0.019901352
203	0xbdbcb423	-0.09214046
204	0xbd4c32ee	-0.049853258
205	0x3e32dc1d	0.17466779
206	0x3d2c5f09	0.04208282
207	0xbd12a7a3	-0.035804402
208	0x3cbc2515	0.0229669
209	0xbd65d0ef	-0.056107458
210	0x3d4bd3fb	0.049762707
211	0xbcc2b89f	-0.023769675
212	0x3d1de90a	0.03855232
213	0xbda236f4	-0.07920638
214	0xbd8ed002	-0.06973268
215	0x3deefc0a	0.116691664
216	0xbd75a44f	-0.05997115
217	0xbdb28095	-0.08715931
218	0x3d028da0	0.031873345
219	0xbdfe138c	-0.12406072
220	0xbc7e6b37	-0.015528492
221	0xbd8c1ac8	-0.068410456
222	0x3c923772	0.017848704
223	0x3ca98c1e	0.020696696
224	0xbd387a5c	-0.045038566
225	0xbd72855e	-0.05920922
226	0xbca87d58	-0.020567581
227	0x3c06b569	0.0082219625
228	0x3d39cd4c	0.045361802
229	0xbd6d2fee	-0.057907037
230	0xbd119cde	-0.03554999
231	0x3d6e32e3	0.058153998
232	0x3d0a5234	0.0337698
233	0xbc49b37c	-0.012310859
234	0x3d28621a	0.041109182
235	0x3d03a9cf	0.032144364
236	0xbdd1cd5c	-0.10244247
237	0xbd49e26f	-0.04928821
238	0x3c4030e2	0.011730405
239	0xbceec34e	-0.029145863
240	0x3e211dff	0.15734099
241	0xbdbcecae	-0.092248306
242	0x3da944df	0.08265089
243	0xbceb6fbe	-0.028739806
244	0xbcc34f0a	-0.0238414
245	0x3d0dcc1b	0.03461848
246	0x3d487383	0.048938286
247	0x3e1cb339	0.15302743
248	0xbc8b86c1	-0.01703203
249	0x3c6a54ae	0.014302416
250	0xbd5dc837	-0.054146018
251	0x3dc6ace9	0.09700949
252	0xbd0ba5fb	-0.03409384
253	0x3c4120c2	0.011787595
254	0x3d54a5ce	0.051915936
255	0x3ccdbb27	0.025113655

network_body._body_endoder.seq_layers.2.bias f4 [256]
0	0x3c056d12	0.00814368
1	0x3bc90186	0.006134215
2	0xbd0804d7	-0.03320774
3	0xb94f92e4	-0.0001979578
4	0xbcaa2daf	-0.020773737
5	0xbc3b32ff	-0.011425733
6	0xbd0726b6	-0.032995902
7	0xbcafb90e	-0.021450546
8	0xba93bc13	-0.001127126
9	0x3bc6daf3	0.0060685812
10	0xbc54afed	-0.012981397
11	0x3c273175	0.010204663
12	0x3c56fdcd	0.013122034
13	0xbc887b9d	-0.016660506
14	0x3a51f2de	0.00080089073
15	0x3a426b50	0.00074165035
16	0xbce25dd2	-0.027632628
17	0x3c4498e0	0.011999339
18	0xbb591e89	-0.0033129773
19	0xbcb910cf	-0.022591023
20	0x3ae1e008	0.0017232904
21	0x3b226034	0.002477658
22	0x3ce7cd44	0.02829612
23	0xbcd12377	-0.025529606
24	0xbb81bba0	-0.003959134
25	0xbc14a784	-0.009073142
26	0xbd037304	-0.03209211
27	0xbbf63bde	-0.007514461
28	0xbc54f38d	-0.01299752
29	0xbc499433	-0.0123034
30	0xbc2e171e	-0.010625629
31	0xbc30d90b	-0.010793935
32	0xbc99a09c	-0.018753342
33	0x3b4c05c6	0.003113137
34	0x3c951556	0.01819865
35	0x3b111e97	0.0022143477
36	0xbababbc7	-0.0014246636
37	0xbcbabf23	-0.02279622
38	0xbd261402	-0.040546425
39	0xbca4f8c2	-0.020138148
40	0xbc4fe6ee	-0.012689335
41	0xbcc9d89a	-0.024639416
42	0xbbe06ee4	-0.0068491567
43	0x3c8bf9a3	0.01708681
44	0xbcf958a9	-0.030437784
45	0xbd0432c7	-0.032274988
46	0xbd018ada	-0.03162656
47	0xbc26274a	-0.010141203
48	0xbc81f1ea	-0.015862424
49	0xbc6c200c	-0.014411937
50	0xbc429ec4	-0.011878673
51	0xbcc0167d	-0.023448223
52	0x3b36c1ce	0.0027886513
53	0xbd05121b	-0.03248797
54	0xbd1c97a9	-0.038230572
55	0xbce2d57d	-0.02768969
56	0xbc32b074	-0.0109063275
57	0xbc911469	-0.017709928
58	0xbc62e332	-0.013848113
59	0xbccc7fd6	-0.0249633
60	0x3b292976	0.0025812066
61	0xbba0a481	-0.004902423
62	0x3ccb530c	0.024819873
63	0xbc376431	-0.011193321
64	0x3c47c3e4	0.0121927
65	0xbc72858d	-0.014802349
66	0x3bc8f30d	0.0061324895
67	0xbc2e6027	-0.010643042
68	0xbc7441c8	-0.014908262
69	0xbcb9ae70	-0.022666186
70	0xbcef4da2	-0.029211823
71	0xbc034548	-0.008012123
72	0xbc60efca	-0.013729045
73	0xbb17130c	-0.0023052124
74	0xbbeb3851	-0.0071783443
75	0xbc2e1c8d	-0.010626924
76	0xbc30eb7b	-0.01079833
77	0xbc9df80a	-0.019283313
78	0xbc7178da	-0.014738286
79	0xbb5d3998	-0.0033756252
80	0xbbae289d	-0.0053149
81	0xbcc436ff	-0.023952005
82	0xbbee1a8d	-0.0072663487
83	0xbcf61198	-0.030037686
84	0x3c9e593f	0.019329665
85	0xbd11b2ab	-0.03557078
86	0x3aed4970	0.0018103551
87	0xbd475981	-0.048669342
88	0xbc952f9c	-0.018211178
89	0xbb76852c	-0.0037615998
90	0x3a20ebc4	0.00061386474
91	0xbc15002e	-0.009094281
92	0xbc604da9	-0.013690391
93	0xbc9f48b2	-0.019443844
94	0x3bf54864	0.0074854363
95	0xbc8dfac8	-0.017331496
96	0xbcb76f9d	-0.022392089
97	0x3cb6352c	0.022242151
98	0x3c96e21d	0.018418366
99	0xbc36bf08	-0.011153944
100	0xbcbed03c	-0.023292653
101	0x3c96b8df	0.0183987
102	0xbb0f6f6d	-0.0021886483
103	0xba784755	-0.00094710785
104	0xbccf214e	-0.025284436
105	0x3c30d9f2	0.01079415
106	0xbc5443e3	-0.012955639
107	0x3d0141e0	0.031556964
108	0x3d002388	0.031283885
109	0x3c1247b4	0.008928228
110	0xbcdad396	-0.02671222
111	0xbc623cb8	-0.013808422
112	0x3c7ff7b1	0.015623019
113	0xbc5f573b	-0.013631637
114	0xbb94bc4d	-0.0045390488
115	0x3b6040f5	0.0034218405
116	0xbc6f3d54	-0.014602024
117	0xbcaaabba	-0.020833839
118	0xbb950080	-0.0045471787
119	0x3b7da826	0.003870496
120	0xbc173d05	-0.009230857
121	0xbae70d8f	-0.0017627942
122	0xbcf9dc86	-0.030500662
123	0xbd33136c	-0.043719694
124	0xb8a5eec0	-7.912284e-05
125	0x3d2076fd	0.039175976
126	0xbaad1d58	-0.0013207598
127	0xbcb370d1	-0.021904381
128	0xbbb45df7	-0.0055043655
129	0xbb2a7d92	-0.0026014787
130	0xbce9b7ff	-0.028530119
131	0x3ac538b5	0.0015046807
132	0xbc5ba534	-0.013406087
133	0xbd0dccfc	-0.034619316
134	0xbd0ca9f2	-0.03434176
135	0xbcc3c1ee	-0.023896184
136	0x3ce47705	0.027888784
137	0xbb2381f8	-0.0024949294
138	0xbc8bf9e8	-0.017086938
139	0xbc0162bc	-0.007897075
140	0xbcd3849a	-0.025820065
141	0xbb82483b	-0.0039758957
142	0x3b4f7673	0.0031656295
143	0xbc203875	-0.009779085
144	0xbcce6d68	-0.025198653
145	0x3d1077a2	0.03527034
146	0x3c435d9b	0.011924173
147	0x3bf31f5d	0.0074195103
148	0x3c80a66d	0.015704358
149	0xbc27f9ec	-0.010252457
150	0x3c99e2f4	0.018784977
151	0xbb754508	-0.003742518
152	0x3ce534e5	0.027979324
153	0x3ae6b18d	0.0017600522
154	0xbcdeb108	-0.027184024
155	0xbc13d656	-0.00902327
156	0x3c4581e6	0.012054896
157	0xbba7ded9	-0.005123001
158	0xbcd35201	-0.025795938
159	0xb840e205	-4.5986864e-05
160	0xbc638484	-0.013886575
161	0xbbd292d9	-0.006426197
162	0xbbd2f97d	-0.0064384327
163	0x3c9949db	0.018711975
164	0xbce8e752	-0.028430615
165	0xbc48d476	-0.012257686
166	0xbcde7bcc	-0.02715864
167	0x3cdb5184	0.026772268
168	0xbc80ba5b	-0.015713861
169	0xbce3b820	-0.027797759
170	0xbbc78e56	-0.006089966
171	0x3c1d1e40	0.009589732
172	0xbc4bfeea	-0.012450913
173	0xbc6a50fd	-0.014301536
174	0x3c867413	0.01641277
175	0x3c91589e	0.017742451
176	0xbc393ee8	-0.011306502
177	0xbcac5184	-0.021034963
178	0x3b8cb249	0.004293714
179	0xbce8ca8d	-0.028416896
180	0xbca86ed3	-0.020560658
181	0x3bc445b9	0.005989757
182	0xbc6a15cb	-0.014287422
183	0xbc9d9217	-0.0192347
184	0x3cb11dc7	0.021620644
185	0xbc0a32ac	-0.008434933
186	0x3cfe3790	0.031032354
187	0xbc5373b6	-0.012906006
188	0xbc6378eb	-0.01388381
189	0xbba89e12	-0.0051457966
190	0x3cede4dc	0.029039793
191	0xbca7d0e4	-0.020485349
192	0xbba7fa40	-0.0051262677
193	0x3afcf7ba	0.0019299902
194	0x3c0b9675	0.0085197585
195	0xbc95bb47	-0.018277777
196	0xbc9800ce	-0.018555071
197	0xbbbc5d01	-0.0057483916
198	0x3bec544c	0.0072121974
199	0xbc32efb1	-0.010921405
200	0x3a432245	0.0007443766
201	0x3cc49468	0.023996547
202	0xbd22a80c	-0.039711043
203	0xbd0abd4a	-0.033871926
204	0xbae20934	-0.0017245174
205	0xbc07b803	-0.008283618
206	0xbbbe4bde	-0.005807384
207	0xbb47eb26	-0.003050515
208	0x3b06aac5	0.0020548564
209	0xbc6f8dbc	-0.014621194
210	0xbd0ed95a	-0.03487525
211	0xbd101aa4	-0.035181656
212	0xbcf5c588	-0.030001417
213	0x3b51badd	0.0032002248
214	0xbc284070	-0.010269269
215	0x3bd748af	0.006569944
216	0x3acbb318	0.0015541045
217	0xba36bb05	-0.0006970617
218	0xbcd7bf9b	-0.026336482
219	0xbd38f379	-0.04515407
220	0xbd0840ca	-0.033264913
221	0xbc1c5929	-0.009542742
222	0xbbafdac8	-0.005366657
223	0xbd4df201	-0.05027962
224	0xbbc67b68	-0.0060571916
225	0x3b55216c	0.0032521142
226	0xbc69de4e	-0.014274193
227	0xbc899d69	-0.016798692
228	0xbcd879c6	-0.026425254
229	0xbc2fb10b	-0.010723363
230	0xbced3db5	-0.028960088
231	0xbbf16093	-0.007366249
232	0xbcb5080a	-0.02209856
233	0xbc04e5b4	-0.008111406
234	0xbc911fe1	-0.017715396
235	0xbcb90693	-0.022586143
236	0xbc624fe7	-0.0138129955
237	0x3c0e113d	0.008671102
238	0xbc09280c	-0.008371364
239	0xbc37114b	-0.011173557
240	0x36ea0710	6.9745656e-06
241	0xbb3fb991	-0.0029254893
242	0xbc4998fc	-0.012304541
243	0xbcc35f39	-0.023849117
244	0x3c5cd7e3	0.013479206
245	0xbcd4983a	-0.025951494
246	0xbbf7cb1f	-0.0075620557
247	0xbcbd3229	-0.023095207
248	0x3c802efa	0.0156474
249	0x3c7f8eca	0.015598008
250	0x3c5334d6	0.012891015
251	0x3bcd4591	0.0062643965
252	0x3ccc694b	0.024952551
253	0x3b082ff4	0.0020780535
254	0xbd056c5b	-0.03257404
255	0xbb5cbd68	-0.003368223

action_model._discrete_distribution.branches.0.weight f4 [3, 256]
0	0x3c756f0c	0.014980089
1	0xbca6c24b	-0.020356318
2	0x3b7d1b84	0.0038621137
3	0xbc671d50	-0.01410611
4	0xbd3a0370	-0.045413435
5	0x3c20f5fd	0.009824273
6	0xbccacb0c	-0.024755023
7	0x3c5c91f3	0.013462531
8	0xbca7413c	-0.020416848
9	0xbce39d30	-0.027784914
10	0x3b754c02	0.0037429337
11	0x3b02a723	0.0019936047
12	0x3d4ce6f7	0.050024953
13	0xbaae481f	-0.001329664
14	0x3c705425	0.014668499
15	0x3d2bdf98	0.041961282
16	0x3b978f87	0.004625264
17	0xbc82b125	-0.01595361
18	0xbcc26128	-0.023727968
19	0xbbf47083	-0.0074597015
20	0xbcb27dc4	-0.021788485
21	0xbc7160f4	-0.014732588
22	0xbcbef3d0	-0.023309618
23	0xbca2afa4	-0.019859143
24	0xbd0bf36d	-0.034167696
25	0x3c8b91a4	0.01703722
26	0xbb814436	-0.003944899
27	0x3b97a993	0.004628369
28	0x3b03bec0	0.002010271
29	0xbb2ccf4a	-0.002636867
30	0x3b9a9b61	0.0047182296
31	0x3bad2731	0.005284213
32	0x3c10f674	0.0088478215
33	0xbcc55b4e	-0.024091389
34	0xbd5453a8	-0.051837593
35	0xbc761faa	-0.015022198
36	0xbcd205c8	-0.025637522
37	0x3cd2d2d8	0.025735304
38	0xbc113e13	-0.008864897
39	0xbca4d577	-0.02012132
40	0xbc15c131	-0.009140299
41	0xbb807303	-0.0039199605
42	0xbc2d94c3	-0.01059455
43	0xbce1532a	-0.027505476
44	0xbae56e94	-0.0017504268
45	0x3c375fb7	0.011192254
46	0xbc6fca69	-0.014635661
47	0x3c6c883d	0.014436779
48	0xbc8f6d1d	-0.017508084
49	0x3c11f13d	0.008907613
50	0xbcb0275f	-0.021503149
51	0x3b54bd51	0.0032461474
52	0xbc8f3a5d	-0.017483884
53	0xbbc0f273	-0.005888277
54	0x3c353516	0.01106002
55	0xbcbc985b	-0.023021867
56	0x3c0ec2f9	0.008713477
57	0xbd6b4658	-0.057440132
58	0xbc0cdc62	-0.008597465
59	0x3c0b5683	0.008504513
60	0x3c6685cd	0.0140699865
61	0xbc323dce	-0.010878993
62	0x3a4cb9f7	0.00078096933
63	0xbcac7719	-0.021052884
64	0x3d218f54	0.03944333
65	0x3c483b9f	0.012221246
66	0x3d0f61ff	0.035005566
67	0x3b5429ce	0.003237355
68	0xbd26104c	-0.040542886
69	0xbbb187d1	-0.005417802
70	0xba888741	-0.0010416285
71	0xbcd4798d	-0.025936866
72	0x3ccd41cb	0.025055787
73	0xbc8a2c0a	-0.016866703
74	0xbc500523	-0.012696537
75	0xbbc55029	-0.0060215187
76	0xbca4ee84	-0.020133264
77	0x3c986018	0.018600509
78	0xbb86c031	-0.0041122665
79	0xbcd85250	-0.026406437
80	0xbb561b10	-0.003266994
81	0xbc01998c	-0.007910144
82	0x3c14c521	0.009080202
83	0x3c40685c	0.011743631
84	0xbc48218d	-0.01221503
85	0x3c0ccd7e	0.008593915
86	0xbc8080d7	-0.015686436
87	0x3b75bb97	0.0037495845
88	0xbc7cc0bb	-0.01542681
89	0xbb04167f	-0.002015501
90	0xbc808b8c	-0.015691541
91	0xbcbf780d	-0.023372674
92	0xbc6b605a	-0.014366234
93	0xbbaead60	-0.0053307265
94	0xbb3e9cb9	-0.0029085113
95	0x3a0c7115	0.00053574267
96	0xbce55a17	-0.02799706
97	0x3c2a0e9c	0.01037946
98	0xbc3574dc	-0.011075225
99	0xbbcb1b9b	-0.006198359
100	0xbc10d4b5	-0.008839776
101	0x3bb0961c	0.005388988
102	0x3c112696	0.008859297
103	0xbcfc55e2	-0.03080267
104	0x3a9f77dc	0.0012166458
105	0x3c23c193	0.009994882
106	0xba3fffa1	-0.00073241635
107	0xbd01a9a3	-0.03165592
108	0xbc5271cb	-0.012844513
109	0x3d0eb9e6	0.034845255
110	0xbbb91dd0	-0.005649306
111	0x3c19e7d1	0.009393648
112	0x3d05ad36	0.03263589
113	0xbb49fa3e	-0.0030819322
114	0x3cd5ca0c	0.02609732
115	0xbc512258	-0.012764536
116	0x3ae794e6	0.0017668277
117	0x3c870a68	0.016484454
118	0xbbbaa316	-0.005695711
119	0x3c511ebf	0.012763678
120	0xbd19f1cb	-0.037584107
121	0xbb842553	-0.0040327697
122	0x3c325791	0.010885135
123	0xbc6953d9	-0.014241182
124	0x3cb56444	0.022142537
125	0x3c3350c7	0.010944552
126	0xbd642272	-0.055696912
127	0x3cfa7b90	0.030576497
128	0x3c79fe3f	0.015258371
129	0x3cef3eff	0.029204844
130	0x3cd445ff	0.025912283
131	0xbaaae71d	-0.0013038848
132	0xbba8d564	-0.0051523913
133	0xbc75a4d3	-0.01499291
134	0x3b19fd71	0.002349701
135	0xbcefa8a5	-0.02925522
136	0xbcac3f2e	-0.02102622
137	0x3b1a63fa	0.0023558126
138	0xbc4c093b	-0.012453373
139	0x3c1ce8b7	0.009576968
140	0x3ba1ab17	0.0049337256
141	0x3be86f7d	0.0070933686
142	0xbb9fb9bf	-0.0048744376
143	0x3bad1931	0.005282544
144	0xbc4cdbb9	-0.012503558
145	0x3c9837dc	0.018581323
146	0xbc5c44e4	-0.013444159
147	0xbd02a9a0	-0.03190005
148	0x3c23770b	0.0099771125
149	0xbc1c3bd6	-0.00953575
150	0x3d598a25	0.05311026
151	0xbc3f22d5	-0.011666019
152	0xbc9068db	-0.017628124
153	0x3caaa1a8	0.020829037
154	0xbc9615c0	-0.018320918
155	0xbd13e242	-0.03610445
156	0x3d426483	0.047459137
157	0xbbca7bee	-0.0061793244
158	0x3c83b086	0.016075384
159	0xbc084753	-0.008317786
160	0xbaf0246a	-0.0018321399
161	0x3d881298	0.066441715
162	0x3d228b2d	0.03968351
163	0x3c7b408a	0.0153352115
164	0xbb03b66d	-0.0020097748
165	0x3cd2b84e	0.025722649
166	0xbc7a031a	-0.0152595285
167	0x3a048b13	0.0005056124
168	0xbc8be8b2	-0.017078731
169	0xbca19f2f	-0.019729225
170	0x3c8d9ce4	0.017286725
171	0xbcaa490d	-0.020786786
172	0xbcb22945	-0.021748194
173	0xbc575218	-0.013142131
174	0x37fd52c1	3.0198486e-05
175	0xbb6a0aeb	-0.0035712074
176	0x3a0dfeb1	0.0005416675
177	0xbd091b5e	-0.033473365
178	0x3cf1b61c	0.029505782
179	0xbb47894d	-0.0030446828
180	0xbce6c826	-0.02817161
181	0xbbd3f47c	-0.006468354
182	0x3ba733ff	0.005102634
183	0xbcb05330	-0.021524042
184	0xbadd9560	-0.0016905479
185	0xbc89b1ea	-0.016808469
186	0x3d7c5bd8	0.061611027
187	0xbc34b53a	-0.011029536
188	0x3cb6024d	0.022217894
189	0x3ca0e4bb	0.019640317
190	0x3cec7bf0	0.028867692
191	0xbd1f5824	-0.038902417
192	0xbca81f6f	-0.020522801
193	0xbd3189ac	-0.043344185
194	0x3be874fd	0.007094024
195	0x3c8aee4c	0.016959332
196	0x3bc0bf2e	0.0058821654
197	0x3d400a79	0.046884988
198	0xbcd614dd	-0.026132995
199	0x3ca140bd	0.01968419
200	0x3c08d380	0.008351207
201	0x3d80059d	0.06251071
202	0xbcc45dcc	-0.023970507
203	0xbb917218	-0.00443865
204	0xbc76e20f	-0.015068545
205	0xbc1105ba	-0.008851463
206	0x3c72ac10	0.014811531
207	0x3ccb1445	0.024789939
208	0x3c3e0d75	0.011599888
209	0xbbb803af	-0.0056156735
210	0x3bcb6701	0.0062073474
211	0x3c6460fe	0.01393914
212	0x3b52bd30	0.0032156222
213	0xbca633bc	-0.02028834
214	0xbba51384	-0.005037727
215	0x3c9015a7	0.01758845
216	0x3c5477c6	0.012968009
217	0x3c05dca1	0.008170278
218	0x3b95de81	0.0045736437
219	0xbd2c1a7f	-0.042017456
220	0x3cb4d021	0.0220719
221	0x3c888a9c	0.016667657
222	0xbc711f8e	-0.014716996
223	0xbbfaef7c	-0.0076579433
224	0xbc5f9261	-0.013645739
225	0x3c09c399	0.0084084505
226	0x3c2ff53d	0.010739622
227	0xbc3d813d	-0.011566457
228	0xbb886a44	-0.0041630585
229	0x3cab438c	0.020906232
230	0x3c35c5d8	0.011094533
231	0x3ba39189	0.0049917144
232	0xbc056127	-0.008140839
233	0xbb904661	-0.004402921
234	0xbb965bdf	-0.0045885886
235	0xbcc2ef5b	-0.023795774
236	0x3c1862a1	0.009300859
237	0x3c634957	0.013872466
238	0x3d01a0a7	0.03164735
239	0xbc0d9307	-0.008641011
240	0x3b3d52c8	0.0028888453
241	0xbc3193b1	-0.010838435
242	0xbbe9e2df	-0.007137641
243	0x3ae196e7	0.001721111
244	0x3c4e7a29	0.012602367
245	0xbb2ab6a1	-0.0026048797
246	0x3d3e3559	0.046437595
247	0x3c60c8d6	0.013719758
248	0x3d20fa8c	0.03930144
249	0xbbe6ebe2	-0.0070471624
250	0x3cf5abe1	0.029989185
251	0xbcdbea5a	-0.026845146
252	0xbc4b1eae	-0.012397451
253	0x3cf2e814	0.02965168
254	0x3c924bcc	0.017858408
255	0x3a9ac30c	0.0011807396

action_model._discrete_distribution.branches.0.bias f4 [3]
0	0xbbd00349	-0.006348048
1	0x3c15bef2	0.009139763
2	0xbb3cefb8	-0.0028829407

action_model._discrete_distribution.branches.1.weight f4 [3, 256]
0	0x3c3028b6	0.010751894
1	0xbb52bed1	-0.0032157192
2	0xbc246b64	-0.01003537
3	0xbc8d09a4	-0.017216511
4	0xbc8a3e1c	-0.01687532
5	0xbc3de297	-0.011589668
6	0xbbcf24a9	-0.006321509
7	0xbb09c8de	-0.0021024267
8	0x3c82398e	0.015896585
9	0xbc8b68f7	-0.017017825
10	0xbc21943a	-0.009862
11	0xbccd6308	-0.025071636
12	0x3c0f96bf	0.008763968
13	0xbcd65e47	-0.026168002
14	0x3c9c30c1	0.019066216
15	0xba0a3db1	-0.0005273475
16	0x3ad583f8	0.001628994
17	0xbc08a2f0	-0.008339629
18	0xbb086ecf	-0.0020818
19	0xbc076a70	-0.008265123
20	0xbc4008cf	-0.01172085
21	0xbba22c87	-0.0049491557
22	0xbcb0d3a3	-0.021585291
23	0xbb8e1bbd	-0.0043368028
24	0xbc94a128	-0.018143252
25	0x3a548251	0.0008106577
26	0x3c99a379	0.018754708
27	0xbcf69811	-0.030101808
28	0x3ae8c241	0.0017758087
29	0xbc5d4282	-0.013504626
30	0xbb2bdec8	-0.0026225317
31	0x3cc8b95e	0.024502452
32	0xbbf05b3c	-0.0073350947
33	0xbba7d383	-0.0051216497
34	0xbc07d5a3	-0.008290681
35	0xbc04d9e0	-0.008108586
36	0x3d14c00e	0.03631597
37	0x39f7164c	0.00047128124
38	0x3b22d261	0.0024844634
39	0xbc4c04e8	-0.012452342
40	0x3bc167e8	0.005902279
41	0xbc9d90b2	-0.019234035
42	0x3b42b9a0	0.0029712692
43	0xbd237a84	-0.039911762
44	0x3c61430b	0.013748894
45	0x3cd983c4	0.026552089
46	0xbc76d4e5	-0.015065406
47	0xbc0987d1	-0.008394198
48	0x3a995b99	0.0011700272
49	0xba8708c1	-0.0010302291
50	0xbbc93a3a	-0.0061409744
51	0xbc52c0d0	-0.012863353
52	0xbc44c05c	-0.012008753
53	0xbcfe1d80	-0.031019926
54	0xbbed7a71	-0.007247262
55	0x3aa92a6f	0.0012906323
56	0xbb8a84b0	-0.0042272434
57	0xbc313703	-0.0108163385
58	0xbcca46cb	-0.02469196
59	0xbc628dd9	-0.013827764
60	0x3c8a9b7e	0.016919848
61	0x3c8b9729	0.017039852
62	0xbd11dc13	-0.03561027
63	0x3b0dfd7c	0.002166598
64	0xbc61edcd	-0.013789606
65	0x3cc28fc5	0.023750195
66	0x3c909160	0.017647445
67	0xbcd408a3	-0.025883025
68	0x3cc7071a	0.024295378
69	0x3bc0b91f	0.005881443
70	0x3c052174	0.008125652
71	0xbbc678e0	-0.00605689
72	0x3bed25e6	0.007237184
73	0x3b8d840d	0.00431872
74	0xbd0dec26	-0.034649037
75	0x3b8bdd6d	0.0042683394
76	0x3b92a3ef	0.004475109
77	0xbb0ee602	-0.0021804576
78	0xbc62b66d	-0.013837439
79	0xbc9c8f44	-0.019111283
80	0x3c2c2cdc	0.010508742
81	0xbd3c15d1	-0.045919243
82	0x3caa556a	0.020792682
83	0xbb459e51	-0.0030154178
84	0x3ca0eb26	0.019643378
85	0xbc1834b8	-0.009289913
86	0xba04243e	-0.0005040801
87	0xbb732fbb	-0.0037107307
88	0xbc29fdf5	-0.0103754895
89	0xb8630728	-5.4127682e-05
90	0x3ca96ba8	0.020681217
91	0xbc871196	-0.016487878
92	0xbbbe180f	-0.005801208
93	0xbd1f1f49	-0.038848195
94	0x3a20f0db	0.0006139406
95	0x3a3c6bf6	0.00071877183
96	0x3c11decb	0.008903216
97	0x3cba5542	0.022745732
98	0xba0af992	-0.0005301471
99	0xbcdd8928	-0.02704294
100	0xbcabb932	-0.020962331
101	0x3cb1e828	0.021717146
102	0x3a86756e	0.0010258385
103	0xbbdb768b	-0.006697481
104	0x3a30a9b4	0.0006739155
105	0xbc68d10f	-0.01421
106	0xbafd44cd	-0.0019322872
107	0x3c8b384a	0.016994614
108	0xbbc3f039	-0.0059795645
109	0x3cb59d04	0.022169597
110	0x3bc2463e	0.0059287837
111	0xbd46d452	-0.04854233
112	0x3d079239	0.033098433
113	0x3bdf9114	0.0068227146
114	0x3b9038f9	0.004401323
115	0xbcb506d4	-0.022097982
116	0x3c5c19f0	0.013433918
117	0x3c620251	0.013794498
118	0xbc167c96	-0.009184977
119	0xbc3cbbe6	-0.011519408
120	0xbb52d0c3	-0.0032167889
121	0xbc2c9752	-0.010534124
122	0xbc99e729	-0.018786984
123	0xbb0abd24	-0.0021169866
124	0x3bd92872	0.006627136
125	0x3bb4a8c2	0.0055132816
126	0xbbe652fe	-0.0070289364
127	0xba98a43c	-0.0011645625
128	0x3a3e7693	0.0007265594
129	0xbc8d812e	-0.017273512
130	0xbc6e89f1	-0.014559255
131	0xbb91af4f	-0.0044459472
132	0xbb91f9be	-0.0044548204
133	0xbcf1a79b	-0.029498866
134	0x3c3318cb	0.010931204
135	0x3a981455	0.0011602739
136	0x3c89210a	0.016739387
137	0x3c6302bf	0.013855635
138	0x39baf96f	0.00035662527
139	0xba58ec86	-0.0008274991
140	0xbbd6ee1f	-0.006559148
141	0x3c2fa565	0.0107205855
142	0xbc9171cd	-0.01775446
143	0x3b03981e	0.0020079683
144	0xb9386829	-0.0001758641
145	0x3c5912c5	0.013249104
146	0xbcdd1bc9	-0.026990788
147	0x3c2a18ad	0.01038186
148	0xbc42515c	-0.011860218
149	0x3bcb059e	0.006195738
150	0x3cb41d88	0.021986738
151	0x3bfe3f7c	0.007759033
152	0x3cc0cf4e	0.02353635
153	0xbd2429c3	-0.04007889
154	0xbc227ab0	-0.009916946
155	0x3acf64a1	0.0015822836
156	0x3c26845c	0.010163393
157	0x3cd86ade	0.026418146
158	0xbd33ccb7	-0.043896403
159	0xbc8b760e	-0.017024066
160	0xbbcbaa98	-0.0062154047
161	0x3b96e624	0.0046050716
162	0x3c3ee0c3	0.011650267
163	0x3cceb6c3	0.025233632
164	0xbb92b093	-0.0044766157
165	0xbce40fa8	-0.027839497
166	0xbc036978	-0.008020751
167	0xbca84cb4	-0.020544387
168	0xbac8770f	-0.0015294271
169	0xbc7ad332	-0.015309142
170	0xbc3eb7c9	-0.0116404975
171	0x3cafd043	0.021461612
172	0x3cbe0ffa	0.023200978
173	0xbc676a0a	-0.014124403
174	0xbbbbe9ef	-0.005734674
175	0x3bdb9f1d	0.0067023174
176	0x3c26a214	0.010170478
177	0xb9c3e0f3	-0.000373609
178	0x3d6b0e3b	0.057386618
179	0xbc8dcb11	-0.017308744
180	0xbc84af43	-0.016196853
181	0x3ceb8255	0.02874867
182	0x3a4f3281	0.0007903949
183	0x3a51e480	0.00080067664
184	0x3b9e3f15	0.0048292973
185	0xbcc60541	-0.024172427
186	0x3c4274f8	0.011868708
187	0xbd08be46	-0.033384584
188	0x3c180f74	0.009281028
189	0x3a80d32b	0.0009828558
190	0x3c46ba94	0.012129445
191	0xbba46299	-0.0050166366
192	0xbc297765	-0.010343407
193	0x3d2712ab	0.040789288
194	0x3c1dee67	0.009639359
195	0xbcc9912f	-0.024605362
196	0x3cb45993	0.022015369
197	0x3ab6b17e	0.0013938395
198	0xb9852dbc	-0.00025401812
199	0xbc87d7a2	-0.016582314
200	0x3c82f7eb	0.015987357
201	0x3c842462	0.01613063
202	0xbcde809a	-0.027160931
203	0x3c2573a9	0.010098376
204	0xbc97d971	-0.018536301
205	0xbc50139a	-0.012699986
206	0x3c637de9	0.013885
207	0xbcf6d6da	-0.030131746
208	0xbcc778eb	-0.02434965
209	0xbbc63daa	-0.0060498314
210	0x3b23f9d1	0.0025020728
211	0xbbaea6c8	-0.0053299405
212	0xbcc789b7	-0.02435766
213	0xbcb17fdf	-0.021667419
214	0xbc294e8c	-0.010333668
215	0x3c40184f	0.011724546
216	0xbc7f9d8b	-0.015601526
217	0x3b894ef3	0.0041903197
218	0xbabf410c	-0.0014591529
219	0x3c390424	0.011292491
220	0xbc320611	-0.010865704
221	0x3d05bc96	0.032650553
222	0xbbfe3a13	-0.007758388
223	0xbb314c13	-0.00270534
224	0xbc3405d9	-0.010987722
225	0x3c13f107	0.009029633
226	0xbc12c6b7	-0.00895851
227	0xbce43645	-0.027857909
228	0xbc6db959	-0.014509522
229	0xbcb6028d	-0.022218013
230	0xbd08bab8	-0.033381194
231	0xbbe1de5b	-0.006892962
232	0xbb36e5bc	-0.0027907928
233	0xbd25336c	-0.040332243
234	0xbc901252	-0.01758686
235	0xbc88cba9	-0.016698675
236	0xbc8cfde5	-0.01721091
237	0xbc08e1d4	-0.008354623
238	0x3cc639e7	0.024197532
239	0xbc5c191c	-0.013433721
240	0x36430db8	2.906525e-06
241	0x3a484914	0.0007640284
242	0xbc03d197	-0.008045576
243	0xbca4f8fa	-0.020138253
244	0x3c959746	0.01826061
245	0x3bbbd4a3	0.0057321354
246	0xbb8a75ee	-0.004225484
247	0xbc23a2f7	-0.009987584
248	0x3d40c0e3	0.04705895
249	0x3caeba24	0.021328993
250	0x3c3a5a02	0.011373999
251	0xbc6d69ad	-0.014490527
252	0x3c0ebf1c	0.008712556
253	0x3cdd18c3	0.026989346
254	0x3b996df3	0.0046822964
255	0x3bf6ebfe	0.0075354567

action_model._discrete_distribution.branches.1.bias f4 [3]
0	0x3c07eaec	0.008295756
1	0x3bbf6b3c	0.0058416408
2	0xbc646ef2	-0.013942467

action_model._discrete_distribution.branches.2.weight f4 [3, 256]
0	0x3c8228e4	0.015888639
1	0xbc07e974	-0.008295406
2	0xbb7d1718	-0.0038618501
3	0x38f3629f	0.000116055126
4	0x3d00d9bb	0.031457644
5	0x3c52b177	0.012859694
6	0xbbd830b4	-0.0065976027
7	0xbc2af2f9	-0.010433906
8	0xbcc80f1c	-0.024421267
9	0x3d0965d6	0.033544384
10	0x3caa9de8	0.020827249
11	0xbcd5aba6	-0.026082825
12	0x3bcbcc90	0.006219454
13	0x3c5f0f0a	0.013614425
14	0x39a0ed33	0.00030694305
15	0xbbdb4eef	-0.006692759
16	0xbc862bca	-0.016378302
17	0x3b860d7f	0.0040909643
18	0xbcbc8437	-0.023012264
19	0xbbc47aa6	-0.005996066
20	0xbc828f37	-0.01593743
21	0x3c10af7e	0.008830903
22	0xbcca4b01	-0.024693968
23	0x3c844169	0.016144471
24	0xbc2e2a92	-0.010630267
25	0x3d0d989b	0.034569364
26	0x3c6e8ad6	0.014559468
27	0x3c28d3c7	0.010304398
28	0x3bde43dc	0.006782992
29	0xbc7c982f	-0.015417143
30	0x3c80a989	0.01570584
31	0x3c44b501	0.012006045
32	0x3c688d36	0.014193824
33	0x3c0745b7	0.008256367
34	0xb943b3a1	-0.00018663566
35	0xbd2dde66	-0.042448424
36	0xbd068d32	-0.032849498
37	0x3d15e822	0.036598332
38	0x3c8dc44f	0.017305521
39	0xbc8e4e98	-0.01737146
40	0xbb3dd260	-0.0028964505
41	0xbc601d7d	-0.013678906
42	0xbc93ee46	-0.018057954
43	0xbb798610	-0.0038074292
44	0x3d138da9	0.03602377
45	0x3c8ec5af	0.017428247
46	0xbc26c1ba	-0.010178024
47	0x3b16700b	0.0022954966
48	0xbc4e73c6	-0.012600845
49	0x3c9efeb4	0.019408561
50	0xbcd04f68	-0.025428489
51	0x3ce09dc1	0.027418973
52	0xbd51b5b0	-0.05119866
53	0x3c9b8f19	0.018989133
54	0x3d0a5ae9	0.033778105
55	0x3884e33d	6.336577e-05
56	0xbd039e4e	-0.032133393
57	0x3c03228b	0.008003841
58	0x3cad3233	0.0211421
59	0x3ce8779b	0.028377345
60	0xbc354b28	-0.011065282
61	0xbbe2d518	-0.0069223754
62	0x3c062e93	0.008189815
63	0x3cb620a9	0.02223237
64	0xbb81d7e0	-0.003962502
65	0x3c7afbc3	0.015318814
66	0x3c5fe326	0.013664996
67	0x3c8fa401	0.017534258
68	0x3cc2dc0d	0.023786569
69	0x3c0bd3c2	0.008534374
70	0x3c18be46	0.0093227085
71	0x3c963a42	0.018338326
72	0x3ab26e80	0.0013613254
73	0xbcf3b051	-0.02974716
74	0x3a0ffcef	0.0005492707
75	0x3ceba57f	0.028765438
76	0xbc4cb6a7	-0.01249472
77	0xbc293603	-0.010327819
78	0x3c8bc117	0.017059846
79	0xbc2f7600	-0.010709286
80	0x3d00a1d6	0.03140434
81	0xbb708965	-0.0036702987
82	0x3c8f62d5	0.017503181
83	0x3cc772c2	0.024346713
84	0xbd27d542	-0.040974863
85	0x3b1655ec	0.0022939397
86	0x3b891d3e	0.004184394
87	0x3c91e7b6	0.017810684
88	0x3b04e67a	0.0020278976
89	0x3b71cbbb	0.0036895114
90	0xbd0f1bd0	-0.034938633
91	0x3baaef6c	0.0052165296
92	0xbc3b3412	-0.011425989
93	0x3be4979e	0.006976082
94	0xbc93622a	-0.017991144
95	0x3d6438c5	0.055718202
96	0x3c3c540f	0.0114946505
97	0xbc82ff8d	-0.015990997
98	0x3b79ed9b	0.0038136009
99	0xbd03182b	-0.03200547
100	0x3ce90a12	0.028447185
101	0xbc8c3b6d	-0.01711818
102	0xbca7cda1	-0.020483794
103	0x3abea0ac	0.0014543734
104	0x3b7ec707	0.0038875954
105	0x3bb50844	0.005524667
106	0x3c54e2dd	0.012993542
107	0xbd1d90df	-0.038468238
108	0xbc5cb949	-0.01347191
109	0x3d8e0ed5	0.06936423
110	0x3c8245b2	0.015902374
111	0x3c467f28	0.012115277
112	0x3a46a7fa	0.0007578131
113	0xbc8d12c8	-0.01722087
114	0x3bc46ec3	0.005994649
115	0x3c4d96c1	0.01254815
116	0x3d195e44	0.037443414
117	0x3cb202e5	0.021729896
118	0x3cd1d711	0.025615247
119	0xbc76aaa5	-0.015055333
120	0xbd2ed118	-0.042679876
121	0x3ba0e967	0.004910636
122	0x3c8958a3	0.016765898
123	0x3d5825db	0.052770477
124	0xbbf301e5	-0.0074159973
125	0xbd0c98de	-0.034325473
126	0xbc8a06ac	-0.016848885
127	0x3c366c05	0.011134152
128	0xbbd58279	-0.0065157977
129	0xbc849a53	-0.016186869
130	0x3c3ef545	0.0116551565
131	0xbc952dac	-0.018210255
132	0x3d55af86	0.052169345
133	0x3c9a8961	0.018864335
134	0xbc2a88c7	-0.010408587
135	0x3cf6a5ce	0.030108359
136	0xbcd1b73f	-0.025600074
137	0xbd05157a	-0.032491185
138	0x3ce7bf60	0.028289497
139	0xbce3cbb2	-0.02780709
140	0xba61189b	-0.00085867353
141	0x3bb08d04	0.005387904
142	0xbc7f351b	-0.015576626
143	0x3d16db52	0.036830254
144	0x3c9f67e0	0.019458711
145	0xbb8b8d41	-0.004258782
146	0x3a52d80d	0.00080430583
147	0x3c1cde38	0.009574465
148	0xbc49992f	-0.012304588
149	0xbcdc3e02	-0.026885036
150	0xbc2fc95a	-0.010729158
151	0x3cdd38ff	0.027004717
152	0xbd157b2f	-0.03649443
153	0xbb81c69c	-0.0039604437
154	0xbc01468c	-0.007890355
155	0x3933ee2a	0.00017159493
156	0x3acb862c	0.0015527657
157	0x3c81235f	0.015763937
158	0x3cb96318	0.02263026
159	0xbc88e62e	-0.01671132
160	0xbc76762a	-0.015042821
161	0x3d2cff4b	0.042235654
162	0x3ca5ab5e	0.020223316
163	0x3c48760a	0.012235174
164	0x3c0b7e09	0.008513936
165	0x3be07449	0.0068498
166	0xbc661576	-0.014043203
167	0xbc0523ff	-0.008126258
168	0xbb255516	-0.0025227717
169	0x3c3d1866	0.011541462
170	0xbc892d14	-0.016745128
171	0xbca400ce	-0.020019915
172	0x3cb28799	0.021793174
173	0xbca32b33	-0.01991806
174	0xbcb2f6d6	-0.021846216
175	0xbc93ac91	-0.018026622
176	0xbb8acbc8	-0.0042357184
177	0xbcb3b586	-0.021937143
178	0xbb4cd32f	-0.0031253805
179	0x3d0d79f0	0.034540117
180	0x3c8d848a	0.017275114
181	0x3c27d4e2	0.010243626
182	0x3ccf29f6	0.025288563
183	0xbc148fdd	-0.009067503
184	0xbd09ff15	-0.03369053
185	0x3cef59aa	0.02921756
186	0xbd017b87	-0.031611945
187	0x3c77c7fa	0.015123362
188	0xbc4e3cef	-0.01258777
189	0x3cf4afdb	0.02986901
190	0xbcb069ec	-0.021534882
191	0x3c9af894	0.01891736
192	0xbc59c750	-0.013292149
193	0x3c9664b7	0.018358571
194	0x3c8a52d1	0.016885193
195	0xbc4f7392	-0.012661831
196	0x3bebc5d2	0.007195213
197	0xbc6ab32a	-0.014324943
198	0xbc3bfc65	-0.01147375
199	0x3c921b8b	0.0178354
200	0x3b8cc1b9	0.0042955545
201	0xbc8bedd6	-0.017081182
202	0x3c31a071	0.010841475
203	0xbb91fc67	-0.0044551375
204	0xbd18ea04	-0.03733255
205	0xbbd4463a	-0.006478098
206	0xbcd32c7a	-0.025778044
207	0xbc618d4a	-0.013766596
208	0x3ca89970	0.020580977
209	0x3c68b4bb	0.014203246
210	0x3b0f2b17	0.0021845752
211	0x3bb3020a	0.0054628896
212	0x3d1e768f	0.038687285
213	0x3bbe3603	0.0058047785
214	0xbb5c1456	-0.0033581457
215	0xbb3a9ab0	-0.0028473549
216	0xbc03a1bc	-0.008034166
217	0xbb7abaee	-0.0038258391
218	0x3cd378ee	0.0258145
219	0x3c0f8058	0.008758627
220	0x3cb2c07c	0.0218203
221	0xbcdb248e	-0.02675083
222	0x3c1aec0f	0.009455695
223	0x3b0e8e62	0.0021752347
224	0x3c095348	0.008381672
225	0xbc4188b6	-0.01181238
226	0x3d1a155e	0.037618034
227	0x3c5cbe13	0.013473052
228	0xbc862a4a	-0.016377587
229	0xbc6ff23a	-0.014645154
230	0xbb3e00c4	-0.0028992156
231	0xbc36f1f3	-0.011166084
232	0xbb14f50b	-0.0022729065
233	0xbc12970b	-0.008947144
234	0xbcb7e704	-0.022449024
235	0xbc4dc8f7	-0.012560121
236	0x3cf97848	0.030452862
237	0xbcfef7e2	-0.03112406
238	0x3cae0e63	0.021247094
239	0xbca02e57	-0.019553347
240	0xbcb1b25d	-0.021691496
241	0x3c8bfe71	0.0170891
242	0x3c9d74cc	0.019220732
243	0x3cef3ea1	0.029204668
244	0xbbffd61a	-0.0078075053
245	0xbc007cb8	-0.007842235
246	0x3d4bf97d	0.049798477
247	0x3ccd08d8	0.025028631
248	0xbc0a23bc	-0.008431371
249	0xbcf7c857	-0.030246897
250	0xbd06f29c	-0.032946214
251	0xbcbbdd21	-0.02293259
252	0xbd2b1eed	-0.04177754
253	0xbc2c271d	-0.010507372
254	0x3cda8b84	0.026677854
255	0xbca105d6	-0.019656103

action_model._discrete_distribution.branches.2.bias f4 [3]
0	0xbc85cef6	-0.016334038
1	0x3c6f53e9	0.014607408
2	0x3b72f573	0.0037072569
